#loc = loc("/data/conda/envs/or_llm/lib/python3.12/site-packages/vllm/model_executor/layers/fla/ops/chunk_scaled_dot_kkt.py":35:0)
#loc58 = loc("k"(#loc))
#loc59 = loc("beta"(#loc))
#loc60 = loc("g"(#loc))
#loc61 = loc("A"(#loc))
#loc62 = loc("cu_seqlens"(#loc))
#loc63 = loc("chunk_indices"(#loc))
#loc64 = loc("T"(#loc))
module {
  tt.func public @chunk_scaled_dot_kkt_fwd_kernel(%k: !tt.ptr<bf16> {tt.divisibility = 16 : i32} loc("k"(#loc)), %beta: !tt.ptr<bf16> {tt.divisibility = 16 : i32} loc("beta"(#loc)), %g: !tt.ptr<f32> {tt.divisibility = 16 : i32} loc("g"(#loc)), %A: !tt.ptr<f32> {tt.divisibility = 16 : i32} loc("A"(#loc)), %cu_seqlens: !tt.ptr<i32> {tt.divisibility = 16 : i32} loc("cu_seqlens"(#loc)), %chunk_indices: !tt.ptr<i32> {tt.divisibility = 16 : i32} loc("chunk_indices"(#loc)), %T: i32 loc("T"(#loc))) attributes {noinline = false} {
    %cst = arith.constant dense<64> : tensor<1x64xi64> loc(#loc1)
    %cst_0 = arith.constant dense<128> : tensor<1x64xi64> loc(#loc2)
    %cst_1 = arith.constant dense<0> : tensor<1x64xi64> loc(#loc2)
    %cst_2 = arith.constant dense<0> : tensor<64x1xi64> loc(#loc2)
    %cst_3 = arith.constant dense<2048> : tensor<64x1xi64> loc(#loc2)
    %cst_4 = arith.constant dense<0> : tensor<64xi64> loc(#loc2)
    %cst_5 = arith.constant dense<32> : tensor<64xi64> loc(#loc2)
    %cst_6 = arith.constant dense<0.000000e+00> : tensor<64x64xf32> loc(#loc2)
    %c128_i32 = arith.constant 128 : i32 loc(#loc2)
    %c16_i32 = arith.constant 16 : i32 loc(#loc2)
    %c0_i32 = arith.constant 0 : i32 loc(#loc2)
    %c64_i32 = arith.constant 64 : i32 loc(#loc2)
    %c1_i32 = arith.constant 1 : i32 loc(#loc2)
    %c2_i32 = arith.constant 2 : i32 loc(#loc2)
    %c32_i32 = arith.constant 32 : i32 loc(#loc2)
    %0 = tt.get_program_id x : i32 loc(#loc3)
    %1 = tt.get_program_id y : i32 loc(#loc4)
    %2 = arith.remsi %1, %c32_i32 : i32 loc(#loc5)
    %3 = arith.muli %0, %c2_i32 : i32 loc(#loc6)
    %4 = tt.addptr %chunk_indices, %3 : !tt.ptr<i32>, i32 loc(#loc7)
    %5 = tt.load %4 : !tt.ptr<i32> loc(#loc8)
    %6 = tt.addptr %4, %c1_i32 : !tt.ptr<i32>, i32 loc(#loc9)
    %7 = tt.load %6 : !tt.ptr<i32> loc(#loc10)
    %8 = tt.addptr %cu_seqlens, %5 : !tt.ptr<i32>, i32 loc(#loc11)
    %9 = tt.load %8 : !tt.ptr<i32> loc(#loc12)
    %10 = tt.addptr %8, %c1_i32 : !tt.ptr<i32>, i32 loc(#loc13)
    %11 = tt.load %10 : !tt.ptr<i32> loc(#loc14)
    %T_7 = arith.subi %11, %9 : i32 loc(#loc65)
    %o_t = arith.muli %7, %c64_i32 : i32 loc(#loc66)
    %o_t_8 = tt.make_range {end = 64 : i32, start = 0 : i32} : tensor<64xi32> loc(#loc67)
    %o_t_9 = tt.splat %o_t : i32 -> tensor<64xi32> loc(#loc68)
    %o_t_10 = arith.addi %o_t_9, %o_t_8 : tensor<64xi32> loc(#loc68)
    %m_t = tt.splat %T_7 : i32 -> tensor<64xi32> loc(#loc69)
    %m_t_11 = arith.cmpi slt, %o_t_10, %m_t : tensor<64xi32> loc(#loc69)
    %p_beta = arith.muli %9, %c32_i32 : i32 loc(#loc70)
    %p_beta_12 = tt.addptr %beta, %p_beta : !tt.ptr<bf16>, i32 loc(#loc71)
    %p_beta_13 = tt.addptr %p_beta_12, %2 : !tt.ptr<bf16>, i32 loc(#loc72)
    %p_beta_14 = arith.extsi %T_7 : i32 to i64 loc(#loc73)
    %p_beta_15 = arith.extsi %o_t : i32 to i64 loc(#loc73)
    %b_beta = tt.splat %p_beta_13 : !tt.ptr<bf16> -> tensor<64x!tt.ptr<bf16>> loc(#loc74)
    %b_beta_16 = tt.splat %p_beta_15 : i64 -> tensor<64xi64> loc(#loc74)
    %b_beta_17 = arith.extsi %o_t_8 : tensor<64xi32> to tensor<64xi64> loc(#loc74)
    %b_beta_18 = arith.addi %b_beta_16, %b_beta_17 : tensor<64xi64> loc(#loc74)
    %b_beta_19 = arith.muli %b_beta_18, %cst_5 : tensor<64xi64> loc(#loc74)
    %b_beta_20 = tt.addptr %b_beta, %b_beta_19 : tensor<64x!tt.ptr<bf16>>, tensor<64xi64> loc(#loc74)
    %b_beta_21 = arith.cmpi sge, %b_beta_18, %cst_4 : tensor<64xi64> loc(#loc74)
    %b_beta_22 = tt.splat %p_beta_14 : i64 -> tensor<64xi64> loc(#loc74)
    %b_beta_23 = arith.cmpi slt, %b_beta_18, %b_beta_22 : tensor<64xi64> loc(#loc74)
    %b_beta_24 = arith.andi %b_beta_21, %b_beta_23 : tensor<64xi1> loc(#loc74)
    %b_beta_25 = tt.load %b_beta_20, %b_beta_24 : tensor<64x!tt.ptr<bf16>> loc(#loc74)
    %b_A = scf.for %i_k = %c0_i32 to %c2_i32 step %c1_i32 iter_args(%b_A_48 = %cst_6) -> (tensor<64x64xf32>)  : i32 {
      %p_k = arith.muli %9, %c16_i32 : i32 loc(#loc76)
      %p_k_49 = arith.divsi %2, %c2_i32 : i32 loc(#loc77)
      %p_k_50 = arith.addi %p_k, %p_k_49 : i32 loc(#loc78)
      %p_k_51 = arith.muli %p_k_50, %c128_i32 : i32 loc(#loc79)
      %p_k_52 = tt.addptr %k, %p_k_51 : !tt.ptr<bf16>, i32 loc(#loc80)
      %p_k_53 = arith.muli %i_k, %c64_i32 : i32 loc(#loc81)
      %p_k_54 = arith.extsi %p_k_53 : i32 to i64 loc(#loc82)
      %b_k = tt.splat %p_k_52 : !tt.ptr<bf16> -> tensor<64x64x!tt.ptr<bf16>> loc(#loc83)
      %b_k_55 = tt.expand_dims %b_beta_18 {axis = 1 : i32} : tensor<64xi64> -> tensor<64x1xi64> loc(#loc83)
      %b_k_56 = arith.muli %b_k_55, %cst_3 : tensor<64x1xi64> loc(#loc83)
      %b_k_57 = tt.broadcast %b_k_56 : tensor<64x1xi64> -> tensor<64x64xi64> loc(#loc83)
      %b_k_58 = tt.splat %p_k_54 : i64 -> tensor<64xi64> loc(#loc83)
      %b_k_59 = arith.addi %b_k_58, %b_beta_17 : tensor<64xi64> loc(#loc83)
      %b_k_60 = tt.expand_dims %b_k_59 {axis = 0 : i32} : tensor<64xi64> -> tensor<1x64xi64> loc(#loc83)
      %b_k_61 = tt.broadcast %b_k_60 : tensor<1x64xi64> -> tensor<64x64xi64> loc(#loc83)
      %b_k_62 = arith.addi %b_k_57, %b_k_61 : tensor<64x64xi64> loc(#loc83)
      %b_k_63 = tt.addptr %b_k, %b_k_62 : tensor<64x64x!tt.ptr<bf16>>, tensor<64x64xi64> loc(#loc83)
      %b_k_64 = arith.cmpi sge, %b_k_55, %cst_2 : tensor<64x1xi64> loc(#loc83)
      %b_k_65 = tt.splat %p_beta_14 : i64 -> tensor<64x1xi64> loc(#loc83)
      %b_k_66 = arith.cmpi slt, %b_k_55, %b_k_65 : tensor<64x1xi64> loc(#loc83)
      %b_k_67 = arith.andi %b_k_64, %b_k_66 : tensor<64x1xi1> loc(#loc83)
      %b_k_68 = tt.broadcast %b_k_67 : tensor<64x1xi1> -> tensor<64x64xi1> loc(#loc83)
      %b_k_69 = arith.cmpi sge, %b_k_60, %cst_1 : tensor<1x64xi64> loc(#loc83)
      %b_k_70 = arith.cmpi slt, %b_k_60, %cst_0 : tensor<1x64xi64> loc(#loc83)
      %b_k_71 = arith.andi %b_k_69, %b_k_70 : tensor<1x64xi1> loc(#loc83)
      %b_k_72 = tt.broadcast %b_k_71 : tensor<1x64xi1> -> tensor<64x64xi1> loc(#loc83)
      %b_k_73 = arith.andi %b_k_68, %b_k_72 : tensor<64x64xi1> loc(#loc83)
      %b_k_74 = tt.load %b_k_63, %b_k_73 : tensor<64x64x!tt.ptr<bf16>> loc(#loc83)
      %b_kb = tt.expand_dims %b_beta_25 {axis = 1 : i32} : tensor<64xbf16> -> tensor<64x1xbf16> loc(#loc84)
      %b_kb_75 = tt.broadcast %b_kb : tensor<64x1xbf16> -> tensor<64x64xbf16> loc(#loc85)
      %b_kb_76 = arith.mulf %b_k_74, %b_kb_75 : tensor<64x64xbf16> loc(#loc85)
      %b_A_77 = tt.trans %b_k_74 {order = array<i32: 1, 0>} : tensor<64x64xbf16> -> tensor<64x64xbf16> loc(#loc86)
      %b_A_78 = tt.dot %b_kb_76, %b_A_77, %b_A_48, inputPrecision = tf32 : tensor<64x64xbf16> * tensor<64x64xbf16> -> tensor<64x64xf32> loc(#loc87)
      scf.yield %b_A_78 : tensor<64x64xf32> loc(#loc38)
    } loc(#loc75)
    %p_g = tt.addptr %g, %p_beta : !tt.ptr<f32>, i32 loc(#loc88)
    %p_g_26 = tt.addptr %p_g, %2 : !tt.ptr<f32>, i32 loc(#loc89)
    %b_g = tt.splat %p_g_26 : !tt.ptr<f32> -> tensor<64x!tt.ptr<f32>> loc(#loc90)
    %b_g_27 = tt.addptr %b_g, %b_beta_19 : tensor<64x!tt.ptr<f32>>, tensor<64xi64> loc(#loc90)
    %b_g_28 = tt.load %b_g_27, %b_beta_24 : tensor<64x!tt.ptr<f32>> loc(#loc90)
    %b_g_diff = tt.expand_dims %b_g_28 {axis = 1 : i32} : tensor<64xf32> -> tensor<64x1xf32> loc(#loc91)
    %b_g_diff_29 = tt.expand_dims %b_g_28 {axis = 0 : i32} : tensor<64xf32> -> tensor<1x64xf32> loc(#loc92)
    %b_g_diff_30 = tt.broadcast %b_g_diff : tensor<64x1xf32> -> tensor<64x64xf32> loc(#loc93)
    %b_g_diff_31 = tt.broadcast %b_g_diff_29 : tensor<1x64xf32> -> tensor<64x64xf32> loc(#loc93)
    %b_g_diff_32 = arith.subf %b_g_diff_30, %b_g_diff_31 : tensor<64x64xf32> loc(#loc93)
    %b_A_33 = math.exp %b_g_diff_32 : tensor<64x64xf32> loc(#loc94)
    %b_A_34 = arith.mulf %b_A, %b_A_33 : tensor<64x64xf32> loc(#loc95)
    %m_A = tt.expand_dims %o_t_10 {axis = 1 : i32} : tensor<64xi32> -> tensor<64x1xi32> loc(#loc96)
    %m_A_35 = tt.expand_dims %o_t_10 {axis = 0 : i32} : tensor<64xi32> -> tensor<1x64xi32> loc(#loc97)
    %m_A_36 = tt.broadcast %m_A : tensor<64x1xi32> -> tensor<64x64xi32> loc(#loc98)
    %m_A_37 = tt.broadcast %m_A_35 : tensor<1x64xi32> -> tensor<64x64xi32> loc(#loc98)
    %m_A_38 = arith.cmpi sgt, %m_A_36, %m_A_37 : tensor<64x64xi32> loc(#loc98)
    %m_A_39 = tt.expand_dims %m_t_11 {axis = 1 : i32} : tensor<64xi1> -> tensor<64x1xi1> loc(#loc99)
    %m_A_40 = tt.expand_dims %m_t_11 {axis = 0 : i32} : tensor<64xi1> -> tensor<1x64xi1> loc(#loc100)
    %m_A_41 = tt.broadcast %m_A_39 : tensor<64x1xi1> -> tensor<64x64xi1> loc(#loc100)
    %m_A_42 = tt.broadcast %m_A_40 : tensor<1x64xi1> -> tensor<64x64xi1> loc(#loc100)
    %m_A_43 = arith.andi %m_A_41, %m_A_42 : tensor<64x64xi1> loc(#loc100)
    %m_A_44 = arith.andi %m_A_38, %m_A_43 : tensor<64x64xi1> loc(#loc101)
    %b_A_45 = arith.select %m_A_44, %b_A_34, %cst_6 : tensor<64x64xi1>, tensor<64x64xf32> loc(#loc102)
    %p_A = arith.addi %p_beta, %2 : i32 loc(#loc103)
    %p_A_46 = arith.muli %p_A, %c64_i32 : i32 loc(#loc104)
    %p_A_47 = tt.addptr %A, %p_A_46 : !tt.ptr<f32>, i32 loc(#loc105)
    %12 = tt.splat %p_A_47 : !tt.ptr<f32> -> tensor<64x64x!tt.ptr<f32>> loc(#loc1)
    %13 = tt.expand_dims %b_beta_18 {axis = 1 : i32} : tensor<64xi64> -> tensor<64x1xi64> loc(#loc1)
    %14 = arith.muli %13, %cst_3 : tensor<64x1xi64> loc(#loc1)
    %15 = tt.broadcast %14 : tensor<64x1xi64> -> tensor<64x64xi64> loc(#loc1)
    %16 = tt.expand_dims %b_beta_17 {axis = 0 : i32} : tensor<64xi64> -> tensor<1x64xi64> loc(#loc1)
    %17 = tt.broadcast %16 : tensor<1x64xi64> -> tensor<64x64xi64> loc(#loc1)
    %18 = arith.addi %15, %17 : tensor<64x64xi64> loc(#loc1)
    %19 = tt.addptr %12, %18 : tensor<64x64x!tt.ptr<f32>>, tensor<64x64xi64> loc(#loc1)
    %20 = arith.cmpi sge, %13, %cst_2 : tensor<64x1xi64> loc(#loc1)
    %21 = tt.splat %p_beta_14 : i64 -> tensor<64x1xi64> loc(#loc1)
    %22 = arith.cmpi slt, %13, %21 : tensor<64x1xi64> loc(#loc1)
    %23 = arith.andi %20, %22 : tensor<64x1xi1> loc(#loc1)
    %24 = tt.broadcast %23 : tensor<64x1xi1> -> tensor<64x64xi1> loc(#loc1)
    %25 = arith.cmpi sge, %16, %cst_1 : tensor<1x64xi64> loc(#loc1)
    %26 = arith.cmpi slt, %16, %cst : tensor<1x64xi64> loc(#loc1)
    %27 = arith.andi %25, %26 : tensor<1x64xi1> loc(#loc1)
    %28 = tt.broadcast %27 : tensor<1x64xi1> -> tensor<64x64xi1> loc(#loc1)
    %29 = arith.andi %24, %28 : tensor<64x64xi1> loc(#loc1)
    tt.store %19, %b_A_45, %29 : tensor<64x64x!tt.ptr<f32>> loc(#loc1)
    tt.return loc(#loc57)
  } loc(#loc)
} loc(#loc)
#loc1 = loc("/data/conda/envs/or_llm/lib/python3.12/site-packages/vllm/model_executor/layers/fla/ops/chunk_scaled_dot_kkt.py":98:18)
#loc2 = loc(unknown)
#loc3 = loc("/data/conda/envs/or_llm/lib/python3.12/site-packages/vllm/model_executor/layers/fla/ops/chunk_scaled_dot_kkt.py":51:30)
#loc4 = loc("/data/conda/envs/or_llm/lib/python3.12/site-packages/vllm/model_executor/layers/fla/ops/chunk_scaled_dot_kkt.py":51:48)
#loc5 = loc("/data/conda/envs/or_llm/lib/python3.12/site-packages/vllm/model_executor/layers/fla/ops/chunk_scaled_dot_kkt.py":52:33)
#loc6 = loc("/data/conda/envs/or_llm/lib/python3.12/site-packages/vllm/model_executor/layers/fla/ops/chunk_scaled_dot_kkt.py":55:42)
#loc7 = loc("/data/conda/envs/or_llm/lib/python3.12/site-packages/vllm/model_executor/layers/fla/ops/chunk_scaled_dot_kkt.py":55:36)
#loc8 = loc("/data/conda/envs/or_llm/lib/python3.12/site-packages/vllm/model_executor/layers/fla/ops/chunk_scaled_dot_kkt.py":55:20)
#loc9 = loc("/data/conda/envs/or_llm/lib/python3.12/site-packages/vllm/model_executor/layers/fla/ops/chunk_scaled_dot_kkt.py":56:46)
#loc10 = loc("/data/conda/envs/or_llm/lib/python3.12/site-packages/vllm/model_executor/layers/fla/ops/chunk_scaled_dot_kkt.py":56:20)
#loc11 = loc("/data/conda/envs/or_llm/lib/python3.12/site-packages/vllm/model_executor/layers/fla/ops/chunk_scaled_dot_kkt.py":59:33)
#loc12 = loc("/data/conda/envs/or_llm/lib/python3.12/site-packages/vllm/model_executor/layers/fla/ops/chunk_scaled_dot_kkt.py":59:20)
#loc13 = loc("/data/conda/envs/or_llm/lib/python3.12/site-packages/vllm/model_executor/layers/fla/ops/chunk_scaled_dot_kkt.py":60:39)
#loc14 = loc("/data/conda/envs/or_llm/lib/python3.12/site-packages/vllm/model_executor/layers/fla/ops/chunk_scaled_dot_kkt.py":60:20)
#loc15 = loc("/data/conda/envs/or_llm/lib/python3.12/site-packages/vllm/model_executor/layers/fla/ops/chunk_scaled_dot_kkt.py":62:18)
#loc16 = loc("/data/conda/envs/or_llm/lib/python3.12/site-packages/vllm/model_executor/layers/fla/ops/chunk_scaled_dot_kkt.py":65:16)
#loc17 = loc("/data/conda/envs/or_llm/lib/python3.12/site-packages/vllm/model_executor/layers/fla/ops/chunk_scaled_dot_kkt.py":65:34)
#loc18 = loc("/data/conda/envs/or_llm/lib/python3.12/site-packages/vllm/model_executor/layers/fla/ops/chunk_scaled_dot_kkt.py":65:21)
#loc19 = loc("/data/conda/envs/or_llm/lib/python3.12/site-packages/vllm/model_executor/layers/fla/ops/chunk_scaled_dot_kkt.py":66:16)
#loc20 = loc("/data/conda/envs/or_llm/lib/python3.12/site-packages/vllm/model_executor/layers/fla/ops/chunk_scaled_dot_kkt.py":69:21)
#loc21 = loc("/data/conda/envs/or_llm/lib/python3.12/site-packages/vllm/model_executor/layers/fla/ops/chunk_scaled_dot_kkt.py":69:15)
#loc22 = loc("/data/conda/envs/or_llm/lib/python3.12/site-packages/vllm/model_executor/layers/fla/ops/chunk_scaled_dot_kkt.py":69:25)
#loc23 = loc("/data/conda/envs/or_llm/lib/python3.12/site-packages/vllm/model_executor/layers/fla/ops/chunk_scaled_dot_kkt.py":69:62)
#loc24 = loc("/data/conda/envs/or_llm/lib/python3.12/site-packages/vllm/model_executor/layers/fla/ops/chunk_scaled_dot_kkt.py":71:21)
#loc25 = loc("/data/conda/envs/or_llm/lib/python3.12/site-packages/vllm/model_executor/layers/fla/ops/chunk_scaled_dot_kkt.py":74:21)
#loc26 = loc("/data/conda/envs/or_llm/lib/python3.12/site-packages/vllm/model_executor/layers/fla/ops/chunk_scaled_dot_kkt.py":76:23)
#loc27 = loc("/data/conda/envs/or_llm/lib/python3.12/site-packages/vllm/model_executor/layers/fla/ops/chunk_scaled_dot_kkt.py":76:36)
#loc28 = loc("/data/conda/envs/or_llm/lib/python3.12/site-packages/vllm/model_executor/layers/fla/ops/chunk_scaled_dot_kkt.py":76:28)
#loc29 = loc("/data/conda/envs/or_llm/lib/python3.12/site-packages/vllm/model_executor/layers/fla/ops/chunk_scaled_dot_kkt.py":76:48)
#loc30 = loc("/data/conda/envs/or_llm/lib/python3.12/site-packages/vllm/model_executor/layers/fla/ops/chunk_scaled_dot_kkt.py":76:16)
#loc31 = loc("/data/conda/envs/or_llm/lib/python3.12/site-packages/vllm/model_executor/layers/fla/ops/chunk_scaled_dot_kkt.py":79:29)
#loc32 = loc("/data/conda/envs/or_llm/lib/python3.12/site-packages/vllm/model_executor/layers/fla/ops/chunk_scaled_dot_kkt.py":81:12)
#loc33 = loc("/data/conda/envs/or_llm/lib/python3.12/site-packages/vllm/model_executor/layers/fla/ops/chunk_scaled_dot_kkt.py":83:22)
#loc34 = loc("/data/conda/envs/or_llm/lib/python3.12/site-packages/vllm/model_executor/layers/fla/ops/chunk_scaled_dot_kkt.py":84:28)
#loc35 = loc("/data/conda/envs/or_llm/lib/python3.12/site-packages/vllm/model_executor/layers/fla/ops/chunk_scaled_dot_kkt.py":84:21)
#loc36 = loc("/data/conda/envs/or_llm/lib/python3.12/site-packages/vllm/model_executor/layers/fla/ops/chunk_scaled_dot_kkt.py":85:51)
#loc37 = loc("/data/conda/envs/or_llm/lib/python3.12/site-packages/vllm/model_executor/layers/fla/ops/chunk_scaled_dot_kkt.py":85:42)
#loc38 = loc("/data/conda/envs/or_llm/lib/python3.12/site-packages/vllm/model_executor/layers/fla/ops/chunk_scaled_dot_kkt.py":85:8)
#loc39 = loc("/data/conda/envs/or_llm/lib/python3.12/site-packages/vllm/model_executor/layers/fla/ops/chunk_scaled_dot_kkt.py":88:36)
#loc40 = loc("/data/conda/envs/or_llm/lib/python3.12/site-packages/vllm/model_executor/layers/fla/ops/chunk_scaled_dot_kkt.py":88:46)
#loc41 = loc("/data/conda/envs/or_llm/lib/python3.12/site-packages/vllm/model_executor/layers/fla/ops/chunk_scaled_dot_kkt.py":89:22)
#loc42 = loc("/data/conda/envs/or_llm/lib/python3.12/site-packages/vllm/model_executor/layers/fla/ops/chunk_scaled_dot_kkt.py":90:23)
#loc43 = loc("/data/conda/envs/or_llm/lib/python3.12/site-packages/vllm/model_executor/layers/fla/ops/chunk_scaled_dot_kkt.py":90:38)
#loc44 = loc("/data/conda/envs/or_llm/lib/python3.12/site-packages/vllm/model_executor/layers/fla/ops/chunk_scaled_dot_kkt.py":90:34)
#loc45 = loc("/data/conda/envs/or_llm/lib/python3.12/site-packages/vllm/model_executor/layers/fla/ops/chunk_scaled_dot_kkt.py":91:24)
#loc46 = loc("/data/conda/envs/or_llm/lib/python3.12/site-packages/vllm/model_executor/layers/fla/ops/chunk_scaled_dot_kkt.py":91:20)
#loc47 = loc("/data/conda/envs/or_llm/lib/python3.12/site-packages/vllm/model_executor/layers/fla/ops/chunk_scaled_dot_kkt.py":93:15)
#loc48 = loc("/data/conda/envs/or_llm/lib/python3.12/site-packages/vllm/model_executor/layers/fla/ops/chunk_scaled_dot_kkt.py":93:30)
#loc49 = loc("/data/conda/envs/or_llm/lib/python3.12/site-packages/vllm/model_executor/layers/fla/ops/chunk_scaled_dot_kkt.py":93:26)
#loc50 = loc("/data/conda/envs/or_llm/lib/python3.12/site-packages/vllm/model_executor/layers/fla/ops/chunk_scaled_dot_kkt.py":93:47)
#loc51 = loc("/data/conda/envs/or_llm/lib/python3.12/site-packages/vllm/model_executor/layers/fla/ops/chunk_scaled_dot_kkt.py":93:58)
#loc52 = loc("/data/conda/envs/or_llm/lib/python3.12/site-packages/vllm/model_executor/layers/fla/ops/chunk_scaled_dot_kkt.py":93:43)
#loc53 = loc("/data/conda/envs/or_llm/lib/python3.12/site-packages/vllm/model_executor/layers/fla/ops/chunk_scaled_dot_kkt.py":94:29)
#loc54 = loc("/data/conda/envs/or_llm/lib/python3.12/site-packages/vllm/model_executor/layers/fla/ops/chunk_scaled_dot_kkt.py":96:23)
#loc55 = loc("/data/conda/envs/or_llm/lib/python3.12/site-packages/vllm/model_executor/layers/fla/ops/chunk_scaled_dot_kkt.py":96:30)
#loc56 = loc("/data/conda/envs/or_llm/lib/python3.12/site-packages/vllm/model_executor/layers/fla/ops/chunk_scaled_dot_kkt.py":96:12)
#loc57 = loc("/data/conda/envs/or_llm/lib/python3.12/site-packages/vllm/model_executor/layers/fla/ops/chunk_scaled_dot_kkt.py":98:4)
#loc65 = loc("T"(#loc15))
#loc66 = loc("o_t"(#loc16))
#loc67 = loc("o_t"(#loc17))
#loc68 = loc("o_t"(#loc18))
#loc69 = loc("m_t"(#loc19))
#loc70 = loc("p_beta"(#loc20))
#loc71 = loc("p_beta"(#loc21))
#loc72 = loc("p_beta"(#loc22))
#loc73 = loc("p_beta"(#loc23))
#loc74 = loc("b_beta"(#loc24))
#loc75 = loc("b_A"(#loc25))
#loc76 = loc("p_k"(#loc26))
#loc77 = loc("p_k"(#loc27))
#loc78 = loc("p_k"(#loc28))
#loc79 = loc("p_k"(#loc29))
#loc80 = loc("p_k"(#loc30))
#loc81 = loc("p_k"(#loc31))
#loc82 = loc("p_k"(#loc32))
#loc83 = loc("b_k"(#loc33))
#loc84 = loc("b_kb"(#loc34))
#loc85 = loc("b_kb"(#loc35))
#loc86 = loc("b_A"(#loc36))
#loc87 = loc("b_A"(#loc37))
#loc88 = loc("p_g"(#loc39))
#loc89 = loc("p_g"(#loc40))
#loc90 = loc("b_g"(#loc41))
#loc91 = loc("b_g_diff"(#loc42))
#loc92 = loc("b_g_diff"(#loc43))
#loc93 = loc("b_g_diff"(#loc44))
#loc94 = loc("b_A"(#loc45))
#loc95 = loc("b_A"(#loc46))
#loc96 = loc("m_A"(#loc47))
#loc97 = loc("m_A"(#loc48))
#loc98 = loc("m_A"(#loc49))
#loc99 = loc("m_A"(#loc50))
#loc100 = loc("m_A"(#loc51))
#loc101 = loc("m_A"(#loc52))
#loc102 = loc("b_A"(#loc53))
#loc103 = loc("p_A"(#loc54))
#loc104 = loc("p_A"(#loc55))
#loc105 = loc("p_A"(#loc56))
