#loc = loc("/data/jcy/zzs/zijinhua/.vllm_cache_reflection/torch_compile/sp/cspe7kxsojkvwnis2ucqvxxbq5xkhzoco2xux4mxp57wj2uwifcd.py":18:0)
#loc1 = loc(unknown)
#loc15 = loc("/data/jcy/zzs/zijinhua/.vllm_cache_reflection/torch_compile/sp/cspe7kxsojkvwnis2ucqvxxbq5xkhzoco2xux4mxp57wj2uwifcd.py":40:25)
#loc37 = loc("in_ptr0"(#loc))
#loc38 = loc("in_ptr1"(#loc))
#loc39 = loc("out_ptr1"(#loc))
#loc40 = loc("ks0"(#loc))
#loc41 = loc("r0_numel"(#loc))
#loc53 = loc("tmp4"(#loc15))
#loc71 = loc(callsite(#loc1 at #loc53))
module {
  tt.func public @triton_red_fused__to_copy_add_mean_mul_pow_rsqrt_0(%in_ptr0: !tt.ptr<bf16> {tt.divisibility = 16 : i32} loc("in_ptr0"(#loc)), %in_ptr1: !tt.ptr<bf16> {tt.divisibility = 16 : i32} loc("in_ptr1"(#loc)), %out_ptr1: !tt.ptr<bf16> {tt.divisibility = 16 : i32} loc("out_ptr1"(#loc)), %ks0: i64 loc("ks0"(#loc)), %r0_numel: i32 loc("r0_numel"(#loc))) attributes {noinline = false} {
    %cst = arith.constant dense<0.000000e+00> : tensor<1x2048xbf16> loc(#loc1)
    %c2048_i32 = arith.constant 2048 : i32 loc(#loc1)
    %c0_i32 = arith.constant 0 : i32 loc(#loc1)
    %cst_0 = arith.constant dense<1.000000e+00> : tensor<1x2048xf32> loc(#loc1)
    %cst_1 = arith.constant dense<9.99999997E-7> : tensor<1x1xf32> loc(#loc1)
    %cst_2 = arith.constant dense<0.000000e+00> : tensor<1x2048xf32> loc(#loc1)
    %r0_base = tt.make_range {end = 2048 : i32, start = 0 : i32} : tensor<2048xi32> loc(#loc42)
    %r0_base_3 = tt.expand_dims %r0_base {axis = 0 : i32} : tensor<2048xi32> -> tensor<1x2048xi32> loc(#loc43)
    %_tmp4 = scf.for %r0_offset = %c0_i32 to %r0_numel step %c2048_i32 iter_args(%_tmp4_5 = %cst_2) -> (tensor<1x2048xf32>)  : i32 {
      %r0_index = tt.splat %r0_offset : i32 -> tensor<1x2048xi32> loc(#loc45)
      %r0_index_6 = arith.addi %r0_index, %r0_base_3 : tensor<1x2048xi32> loc(#loc45)
      %r0_mask = tt.splat %r0_numel : i32 -> tensor<1x2048xi32> loc(#loc46)
      %r0_mask_7 = arith.cmpi slt, %r0_index_6, %r0_mask : tensor<1x2048xi32> loc(#loc46)
      %tmp0 = tt.splat %in_ptr0 : !tt.ptr<bf16> -> tensor<1x2048x!tt.ptr<bf16>> loc(#loc47)
      %tmp0_8 = tt.addptr %tmp0, %r0_index_6 : tensor<1x2048x!tt.ptr<bf16>>, tensor<1x2048xi32> loc(#loc47)
      %tmp0_9 = tt.load %tmp0_8, %r0_mask_7, %cst evictionPolicy = evict_last : tensor<1x2048x!tt.ptr<bf16>> loc(#loc48)
      %tmp0_10 = arith.extf %tmp0_9 : tensor<1x2048xbf16> to tensor<1x2048xf32> loc(#loc49)
      %tmp2 = arith.mulf %tmp0_10, %tmp0_10 : tensor<1x2048xf32> loc(#loc50)
      %tmp5 = arith.addf %_tmp4_5, %tmp2 : tensor<1x2048xf32> loc(#loc51)
      %_tmp4_11 = arith.select %r0_mask_7, %tmp5, %_tmp4_5 : tensor<1x2048xi1>, tensor<1x2048xf32> loc(#loc52)
      scf.yield %_tmp4_11 : tensor<1x2048xf32> loc(#loc13)
    } loc(#loc44)
    %tmp4 = "tt.reduce"(%_tmp4) <{axis = 1 : i32}> ({
    ^bb0(%tmp4_5: f32 loc(callsite(#loc1 at #loc53)), %tmp4_6: f32 loc(callsite(#loc1 at #loc53))):
      %tmp4_7 = arith.addf %tmp4_5, %tmp4_6 : f32 loc(#loc72)
      tt.reduce.return %tmp4_7 : f32 loc(#loc70)
    }) : (tensor<1x2048xf32>) -> tensor<1xf32> loc(#loc70)
    %tmp4_4 = tt.expand_dims %tmp4 {axis = 1 : i32} : tensor<1xf32> -> tensor<1x1xf32> loc(#loc54)
    scf.for %r0_offset = %c0_i32 to %r0_numel step %c2048_i32  : i32 {
      %r0_index = tt.splat %r0_offset : i32 -> tensor<1x2048xi32> loc(#loc55)
      %r0_index_5 = arith.addi %r0_index, %r0_base_3 : tensor<1x2048xi32> loc(#loc55)
      %r0_mask = tt.splat %r0_numel : i32 -> tensor<1x2048xi32> loc(#loc56)
      %r0_mask_6 = arith.cmpi slt, %r0_index_5, %r0_mask : tensor<1x2048xi32> loc(#loc56)
      %tmp6 = tt.splat %in_ptr0 : !tt.ptr<bf16> -> tensor<1x2048x!tt.ptr<bf16>> loc(#loc57)
      %tmp6_7 = tt.addptr %tmp6, %r0_index_5 : tensor<1x2048x!tt.ptr<bf16>>, tensor<1x2048xi32> loc(#loc57)
      %tmp6_8 = tt.load %tmp6_7, %r0_mask_6, %cst evictionPolicy = evict_first : tensor<1x2048x!tt.ptr<bf16>> loc(#loc58)
      %tmp6_9 = arith.extf %tmp6_8 : tensor<1x2048xbf16> to tensor<1x2048xf32> loc(#loc59)
      %tmp15 = tt.splat %in_ptr1 : !tt.ptr<bf16> -> tensor<1x2048x!tt.ptr<bf16>> loc(#loc60)
      %tmp15_10 = tt.addptr %tmp15, %r0_index_5 : tensor<1x2048x!tt.ptr<bf16>>, tensor<1x2048xi32> loc(#loc60)
      %tmp15_11 = tt.load %tmp15_10, %r0_mask_6, %cst evictionPolicy = evict_first : tensor<1x2048x!tt.ptr<bf16>> loc(#loc61)
      %tmp15_12 = arith.extf %tmp15_11 : tensor<1x2048xbf16> to tensor<1x2048xf32> loc(#loc62)
      %tmp9 = arith.sitofp %ks0 : i64 to f32 loc(#loc63)
      %tmp10 = tt.splat %tmp9 : f32 -> tensor<1x1xf32> loc(#loc64)
      %tmp10_13 = arith.divf %tmp4_4, %tmp10 : tensor<1x1xf32> loc(#loc64)
      %tmp12 = arith.addf %tmp10_13, %cst_1 : tensor<1x1xf32> loc(#loc65)
      %tmp13 = tt.extern_elementwise %tmp12 {libname = "", libpath = "", pure = true, symbol = "__nv_rsqrtf"} : (tensor<1x1xf32>) -> tensor<1x1xf32> loc(#loc66)
      %tmp14 = tt.broadcast %tmp13 : tensor<1x1xf32> -> tensor<1x2048xf32> loc(#loc67)
      %tmp14_14 = arith.mulf %tmp6_9, %tmp14 : tensor<1x2048xf32> loc(#loc67)
      %tmp18 = arith.addf %tmp15_12, %cst_0 : tensor<1x2048xf32> loc(#loc68)
      %tmp19 = arith.mulf %tmp14_14, %tmp18 : tensor<1x2048xf32> loc(#loc69)
      %0 = tt.splat %out_ptr1 : !tt.ptr<bf16> -> tensor<1x2048x!tt.ptr<bf16>> loc(#loc34)
      %1 = tt.addptr %0, %r0_index_5 : tensor<1x2048x!tt.ptr<bf16>>, tensor<1x2048xi32> loc(#loc34)
      %2 = arith.truncf %tmp19 : tensor<1x2048xf32> to tensor<1x2048xbf16> loc(#loc35)
      tt.store %1, %2, %r0_mask_6 : tensor<1x2048x!tt.ptr<bf16>> loc(#loc35)
    } loc(#loc18)
    tt.return loc(#loc36)
  } loc(#loc)
} loc(#loc)
#loc2 = loc("/data/jcy/zzs/zijinhua/.vllm_cache_reflection/torch_compile/sp/cspe7kxsojkvwnis2ucqvxxbq5xkhzoco2xux4mxp57wj2uwifcd.py":25:27)
#loc3 = loc("/data/jcy/zzs/zijinhua/.vllm_cache_reflection/torch_compile/sp/cspe7kxsojkvwnis2ucqvxxbq5xkhzoco2xux4mxp57wj2uwifcd.py":25:37)
#loc4 = loc("/data/jcy/zzs/zijinhua/.vllm_cache_reflection/torch_compile/sp/cspe7kxsojkvwnis2ucqvxxbq5xkhzoco2xux4mxp57wj2uwifcd.py":28:40)
#loc5 = loc("/data/jcy/zzs/zijinhua/.vllm_cache_reflection/torch_compile/sp/cspe7kxsojkvwnis2ucqvxxbq5xkhzoco2xux4mxp57wj2uwifcd.py":29:31)
#loc6 = loc("/data/jcy/zzs/zijinhua/.vllm_cache_reflection/torch_compile/sp/cspe7kxsojkvwnis2ucqvxxbq5xkhzoco2xux4mxp57wj2uwifcd.py":30:29)
#loc7 = loc("/data/jcy/zzs/zijinhua/.vllm_cache_reflection/torch_compile/sp/cspe7kxsojkvwnis2ucqvxxbq5xkhzoco2xux4mxp57wj2uwifcd.py":34:34)
#loc8 = loc("/data/jcy/zzs/zijinhua/.vllm_cache_reflection/torch_compile/sp/cspe7kxsojkvwnis2ucqvxxbq5xkhzoco2xux4mxp57wj2uwifcd.py":34:41)
#loc9 = loc("/data/jcy/zzs/zijinhua/.vllm_cache_reflection/torch_compile/sp/cspe7kxsojkvwnis2ucqvxxbq5xkhzoco2xux4mxp57wj2uwifcd.py":34:94)
#loc10 = loc("/data/jcy/zzs/zijinhua/.vllm_cache_reflection/torch_compile/sp/cspe7kxsojkvwnis2ucqvxxbq5xkhzoco2xux4mxp57wj2uwifcd.py":36:22)
#loc11 = loc("/data/jcy/zzs/zijinhua/.vllm_cache_reflection/torch_compile/sp/cspe7kxsojkvwnis2ucqvxxbq5xkhzoco2xux4mxp57wj2uwifcd.py":38:23)
#loc12 = loc("/data/jcy/zzs/zijinhua/.vllm_cache_reflection/torch_compile/sp/cspe7kxsojkvwnis2ucqvxxbq5xkhzoco2xux4mxp57wj2uwifcd.py":39:40)
#loc13 = loc("/data/jcy/zzs/zijinhua/.vllm_cache_reflection/torch_compile/sp/cspe7kxsojkvwnis2ucqvxxbq5xkhzoco2xux4mxp57wj2uwifcd.py":39:8)
#loc14 = loc("/data/conda/envs/or_llm/lib/python3.12/site-packages/triton/language/standard.py":293:36)
#loc16 = loc("/data/conda/envs/or_llm/lib/python3.12/site-packages/triton/language/standard.py":263:15)
#loc17 = loc("/data/jcy/zzs/zijinhua/.vllm_cache_reflection/torch_compile/sp/cspe7kxsojkvwnis2ucqvxxbq5xkhzoco2xux4mxp57wj2uwifcd.py":40:28)
#loc18 = loc("/data/jcy/zzs/zijinhua/.vllm_cache_reflection/torch_compile/sp/cspe7kxsojkvwnis2ucqvxxbq5xkhzoco2xux4mxp57wj2uwifcd.py":41:40)
#loc19 = loc("/data/jcy/zzs/zijinhua/.vllm_cache_reflection/torch_compile/sp/cspe7kxsojkvwnis2ucqvxxbq5xkhzoco2xux4mxp57wj2uwifcd.py":42:31)
#loc20 = loc("/data/jcy/zzs/zijinhua/.vllm_cache_reflection/torch_compile/sp/cspe7kxsojkvwnis2ucqvxxbq5xkhzoco2xux4mxp57wj2uwifcd.py":43:29)
#loc21 = loc("/data/jcy/zzs/zijinhua/.vllm_cache_reflection/torch_compile/sp/cspe7kxsojkvwnis2ucqvxxbq5xkhzoco2xux4mxp57wj2uwifcd.py":47:34)
#loc22 = loc("/data/jcy/zzs/zijinhua/.vllm_cache_reflection/torch_compile/sp/cspe7kxsojkvwnis2ucqvxxbq5xkhzoco2xux4mxp57wj2uwifcd.py":47:41)
#loc23 = loc("/data/jcy/zzs/zijinhua/.vllm_cache_reflection/torch_compile/sp/cspe7kxsojkvwnis2ucqvxxbq5xkhzoco2xux4mxp57wj2uwifcd.py":47:95)
#loc24 = loc("/data/jcy/zzs/zijinhua/.vllm_cache_reflection/torch_compile/sp/cspe7kxsojkvwnis2ucqvxxbq5xkhzoco2xux4mxp57wj2uwifcd.py":48:35)
#loc25 = loc("/data/jcy/zzs/zijinhua/.vllm_cache_reflection/torch_compile/sp/cspe7kxsojkvwnis2ucqvxxbq5xkhzoco2xux4mxp57wj2uwifcd.py":48:42)
#loc26 = loc("/data/jcy/zzs/zijinhua/.vllm_cache_reflection/torch_compile/sp/cspe7kxsojkvwnis2ucqvxxbq5xkhzoco2xux4mxp57wj2uwifcd.py":48:96)
#loc27 = loc("/data/jcy/zzs/zijinhua/.vllm_cache_reflection/torch_compile/sp/cspe7kxsojkvwnis2ucqvxxbq5xkhzoco2xux4mxp57wj2uwifcd.py":51:23)
#loc28 = loc("/data/jcy/zzs/zijinhua/.vllm_cache_reflection/torch_compile/sp/cspe7kxsojkvwnis2ucqvxxbq5xkhzoco2xux4mxp57wj2uwifcd.py":52:24)
#loc29 = loc("/data/jcy/zzs/zijinhua/.vllm_cache_reflection/torch_compile/sp/cspe7kxsojkvwnis2ucqvxxbq5xkhzoco2xux4mxp57wj2uwifcd.py":54:24)
#loc30 = loc("/data/jcy/zzs/zijinhua/.vllm_cache_reflection/torch_compile/sp/cspe7kxsojkvwnis2ucqvxxbq5xkhzoco2xux4mxp57wj2uwifcd.py":55:32)
#loc31 = loc("/data/jcy/zzs/zijinhua/.vllm_cache_reflection/torch_compile/sp/cspe7kxsojkvwnis2ucqvxxbq5xkhzoco2xux4mxp57wj2uwifcd.py":56:23)
#loc32 = loc("/data/jcy/zzs/zijinhua/.vllm_cache_reflection/torch_compile/sp/cspe7kxsojkvwnis2ucqvxxbq5xkhzoco2xux4mxp57wj2uwifcd.py":59:24)
#loc33 = loc("/data/jcy/zzs/zijinhua/.vllm_cache_reflection/torch_compile/sp/cspe7kxsojkvwnis2ucqvxxbq5xkhzoco2xux4mxp57wj2uwifcd.py":60:24)
#loc34 = loc("/data/jcy/zzs/zijinhua/.vllm_cache_reflection/torch_compile/sp/cspe7kxsojkvwnis2ucqvxxbq5xkhzoco2xux4mxp57wj2uwifcd.py":62:29)
#loc35 = loc("/data/jcy/zzs/zijinhua/.vllm_cache_reflection/torch_compile/sp/cspe7kxsojkvwnis2ucqvxxbq5xkhzoco2xux4mxp57wj2uwifcd.py":62:80)
#loc36 = loc("/data/jcy/zzs/zijinhua/.vllm_cache_reflection/torch_compile/sp/cspe7kxsojkvwnis2ucqvxxbq5xkhzoco2xux4mxp57wj2uwifcd.py":41:4)
#loc42 = loc("r0_base"(#loc2))
#loc43 = loc("r0_base"(#loc3))
#loc44 = loc("_tmp4"(#loc4))
#loc45 = loc("r0_index"(#loc5))
#loc46 = loc("r0_mask"(#loc6))
#loc47 = loc("tmp0"(#loc7))
#loc48 = loc("tmp0"(#loc8))
#loc49 = loc("tmp0"(#loc9))
#loc50 = loc("tmp2"(#loc10))
#loc51 = loc("tmp5"(#loc11))
#loc52 = loc("_tmp4"(#loc12))
#loc54 = loc("tmp4"(#loc17))
#loc55 = loc("r0_index"(#loc19))
#loc56 = loc("r0_mask"(#loc20))
#loc57 = loc("tmp6"(#loc21))
#loc58 = loc("tmp6"(#loc22))
#loc59 = loc("tmp6"(#loc23))
#loc60 = loc("tmp15"(#loc24))
#loc61 = loc("tmp15"(#loc25))
#loc62 = loc("tmp15"(#loc26))
#loc63 = loc("tmp9"(#loc27))
#loc64 = loc("tmp10"(#loc28))
#loc65 = loc("tmp12"(#loc29))
#loc66 = loc("tmp13"(#loc30))
#loc67 = loc("tmp14"(#loc31))
#loc68 = loc("tmp18"(#loc32))
#loc69 = loc("tmp19"(#loc33))
#loc70 = loc(callsite(#loc14 at #loc53))
#loc72 = loc(callsite(#loc16 at #loc70))
