#loc = loc("/data/conda/envs/or_llm/lib/python3.12/site-packages/vllm/model_executor/layers/fla/ops/fused_recurrent.py":256:0)
#loc1 = loc(unknown)
#loc57 = loc("/data/conda/envs/or_llm/lib/python3.12/site-packages/vllm/model_executor/layers/fla/ops/fused_recurrent.py":313:35)
#loc63 = loc("/data/conda/envs/or_llm/lib/python3.12/site-packages/vllm/model_executor/layers/fla/ops/fused_recurrent.py":314:35)
#loc102 = loc("/data/conda/envs/or_llm/lib/python3.12/site-packages/vllm/model_executor/layers/fla/ops/fused_recurrent.py":327:38)
#loc110 = loc("/data/conda/envs/or_llm/lib/python3.12/site-packages/vllm/model_executor/layers/fla/ops/fused_recurrent.py":330:37)
#loc119 = loc("mixed_qkv"(#loc))
#loc120 = loc("a"(#loc))
#loc121 = loc("b"(#loc))
#loc122 = loc("A_log"(#loc))
#loc123 = loc("dt_bias"(#loc))
#loc124 = loc("o"(#loc))
#loc125 = loc("h0"(#loc))
#loc126 = loc("ht"(#loc))
#loc127 = loc("ssm_state_indices"(#loc))
#loc128 = loc("scale"(#loc))
#loc176 = loc("b_q"(#loc57))
#loc181 = loc("b_k"(#loc63))
#loc216 = loc("b_v"(#loc102))
#loc224 = loc("b_o"(#loc110))
#loc230 = loc(callsite(#loc1 at #loc176))
#loc232 = loc(callsite(#loc1 at #loc181))
#loc238 = loc(callsite(#loc1 at #loc216))
#loc240 = loc(callsite(#loc1 at #loc224))
module {
  tt.func public @fused_recurrent_gated_delta_rule_packed_decode_kernel(%mixed_qkv: !tt.ptr<bf16> {tt.divisibility = 16 : i32} loc("mixed_qkv"(#loc)), %a: !tt.ptr<bf16> {tt.divisibility = 16 : i32} loc("a"(#loc)), %b: !tt.ptr<bf16> {tt.divisibility = 16 : i32} loc("b"(#loc)), %A_log: !tt.ptr<f32> {tt.divisibility = 16 : i32} loc("A_log"(#loc)), %dt_bias: !tt.ptr<bf16> {tt.divisibility = 16 : i32} loc("dt_bias"(#loc)), %o: !tt.ptr<bf16> {tt.divisibility = 16 : i32} loc("o"(#loc)), %h0: !tt.ptr<f32> {tt.divisibility = 16 : i32} loc("h0"(#loc)), %ht: !tt.ptr<f32> {tt.divisibility = 16 : i32} loc("ht"(#loc)), %ssm_state_indices: !tt.ptr<i32> {tt.divisibility = 16 : i32} loc("ssm_state_indices"(#loc)), %scale: f32 loc("scale"(#loc))) attributes {noinline = false} {
    %cst = arith.constant dense<0.000000e+00> : tensor<32xbf16> loc(#loc1)
    %cst_0 = arith.constant dense<0.000000e+00> : tensor<128xbf16> loc(#loc1)
    %cst_1 = arith.constant dense<0.000000e+00> : tensor<32x128xf32> loc(#loc1)
    %c16384_i32 = arith.constant 16384 : i32 loc(#loc1)
    %c0_i64 = arith.constant 0 : i64 loc(#loc2)
    %cst_2 = arith.constant 0.000000e+00 : f32 loc(#loc1)
    %cst_3 = arith.constant 1.000000e+00 : f32 loc(#loc1)
    %cst_4 = arith.constant 2.000000e+01 : f32 loc(#loc1)
    %c64_i32 = arith.constant 64 : i32 loc(#loc1)
    %cst_5 = arith.constant 9.99999997E-7 : f32 loc(#loc1)
    %c4096_i32 = arith.constant 4096 : i32 loc(#loc1)
    %c2048_i32 = arith.constant 2048 : i32 loc(#loc1)
    %c12288_i32 = arith.constant 12288 : i32 loc(#loc1)
    %cst_6 = arith.constant dense<128> : tensor<32x1xi32> loc(#loc1)
    %c540672_i64 = arith.constant 540672 : i64 loc(#loc1)
    %mask_v = arith.constant dense<128> : tensor<32xi32> loc(#loc129)
    %mask_k = arith.constant dense<128> : tensor<128xi32> loc(#loc130)
    %c128_i32 = arith.constant 128 : i32 loc(#loc1)
    %c2_i32 = arith.constant 2 : i32 loc(#loc1)
    %c32_i32 = arith.constant 32 : i32 loc(#loc1)
    %0 = tt.get_program_id x : i32 loc(#loc5)
    %1 = tt.get_program_id y : i32 loc(#loc6)
    %2 = arith.divsi %1, %c32_i32 : i32 loc(#loc7)
    %3 = arith.remsi %1, %c32_i32 : i32 loc(#loc8)
    %i_h = arith.divsi %3, %c2_i32 : i32 loc(#loc131)
    %o_k = tt.make_range {end = 128 : i32, start = 0 : i32} : tensor<128xi32> loc(#loc132)
    %o_v = arith.muli %0, %c32_i32 : i32 loc(#loc133)
    %o_v_7 = tt.make_range {end = 32 : i32, start = 0 : i32} : tensor<32xi32> loc(#loc134)
    %o_v_8 = tt.splat %o_v : i32 -> tensor<32xi32> loc(#loc135)
    %o_v_9 = arith.addi %o_v_8, %o_v_7 : tensor<32xi32> loc(#loc135)
    %mask_k_10 = arith.cmpi slt, %o_k, %mask_k : tensor<128xi32> loc(#loc130)
    %mask_v_11 = arith.cmpi slt, %o_v_9, %mask_v : tensor<32xi32> loc(#loc129)
    %mask_h = tt.expand_dims %mask_v_11 {axis = 1 : i32} : tensor<32xi1> -> tensor<32x1xi1> loc(#loc136)
    %mask_h_12 = tt.expand_dims %mask_k_10 {axis = 0 : i32} : tensor<128xi1> -> tensor<1x128xi1> loc(#loc137)
    %mask_h_13 = tt.broadcast %mask_h : tensor<32x1xi1> -> tensor<32x128xi1> loc(#loc138)
    %mask_h_14 = tt.broadcast %mask_h_12 : tensor<1x128xi1> -> tensor<32x128xi1> loc(#loc138)
    %mask_h_15 = arith.andi %mask_h_13, %mask_h_14 : tensor<32x128xi1> loc(#loc138)
    %state_idx = tt.addptr %ssm_state_indices, %2 : !tt.ptr<i32>, i32 loc(#loc139)
    %state_idx_16 = tt.load %state_idx : !tt.ptr<i32> loc(#loc140)
    %state_idx_17 = arith.extsi %state_idx_16 : i32 to i64 loc(#loc141)
    %p_o = arith.muli %2, %c32_i32 : i32 loc(#loc142)
    %p_o_18 = arith.addi %p_o, %3 : i32 loc(#loc143)
    %p_o_19 = arith.muli %p_o_18, %c128_i32 : i32 loc(#loc144)
    %p_o_20 = tt.addptr %o, %p_o_19 : !tt.ptr<bf16>, i32 loc(#loc145)
    %p_o_21 = tt.splat %p_o_20 : !tt.ptr<bf16> -> tensor<32x!tt.ptr<bf16>> loc(#loc146)
    %p_o_22 = tt.addptr %p_o_21, %o_v_9 : tensor<32x!tt.ptr<bf16>>, tensor<32xi32> loc(#loc146)
    %4 = arith.cmpi slt, %state_idx_17, %c0_i64 : i64 loc(#loc2)
    cf.cond_br %4, ^bb1, ^bb2 loc(#loc2)
  ^bb1:  // pred: ^bb0
    tt.store %p_o_22, %cst, %mask_v_11 : tensor<32x!tt.ptr<bf16>> loc(#loc25)
    tt.return loc(#loc26)
  ^bb2:  // pred: ^bb0
    %p_h0 = arith.muli %state_idx_17, %c540672_i64 : i64 loc(#loc147)
    %p_h0_23 = tt.addptr %h0, %p_h0 : !tt.ptr<f32>, i64 loc(#loc148)
    %p_h0_24 = arith.muli %3, %c16384_i32 : i32 loc(#loc149)
    %p_h0_25 = tt.addptr %p_h0_23, %p_h0_24 : !tt.ptr<f32>, i32 loc(#loc150)
    %p_h0_26 = tt.expand_dims %o_v_9 {axis = 1 : i32} : tensor<32xi32> -> tensor<32x1xi32> loc(#loc151)
    %p_h0_27 = arith.muli %p_h0_26, %cst_6 : tensor<32x1xi32> loc(#loc152)
    %p_h0_28 = tt.splat %p_h0_25 : !tt.ptr<f32> -> tensor<32x1x!tt.ptr<f32>> loc(#loc153)
    %p_h0_29 = tt.addptr %p_h0_28, %p_h0_27 : tensor<32x1x!tt.ptr<f32>>, tensor<32x1xi32> loc(#loc153)
    %p_h0_30 = tt.expand_dims %o_k {axis = 0 : i32} : tensor<128xi32> -> tensor<1x128xi32> loc(#loc154)
    %p_h0_31 = tt.broadcast %p_h0_29 : tensor<32x1x!tt.ptr<f32>> -> tensor<32x128x!tt.ptr<f32>> loc(#loc155)
    %p_h0_32 = tt.broadcast %p_h0_30 : tensor<1x128xi32> -> tensor<32x128xi32> loc(#loc155)
    %p_h0_33 = tt.addptr %p_h0_31, %p_h0_32 : tensor<32x128x!tt.ptr<f32>>, tensor<32x128xi32> loc(#loc155)
    %b_h = tt.load %p_h0_33, %mask_h_15, %cst_1 : tensor<32x128x!tt.ptr<f32>> loc(#loc156)
    %p_mixed = arith.muli %2, %c12288_i32 : i32 loc(#loc157)
    %p_mixed_34 = tt.addptr %mixed_qkv, %p_mixed : !tt.ptr<bf16>, i32 loc(#loc158)
    %q_off = arith.muli %i_h, %c128_i32 : i32 loc(#loc159)
    %q_off_35 = tt.splat %q_off : i32 -> tensor<128xi32> loc(#loc160)
    %q_off_36 = arith.addi %q_off_35, %o_k : tensor<128xi32> loc(#loc160)
    %k_off = arith.addi %q_off, %c2048_i32 : i32 loc(#loc161)
    %k_off_37 = tt.splat %k_off : i32 -> tensor<128xi32> loc(#loc162)
    %k_off_38 = arith.addi %k_off_37, %o_k : tensor<128xi32> loc(#loc162)
    %v_off = arith.muli %3, %c128_i32 : i32 loc(#loc163)
    %v_off_39 = arith.addi %v_off, %c4096_i32 : i32 loc(#loc164)
    %v_off_40 = tt.splat %v_off_39 : i32 -> tensor<32xi32> loc(#loc165)
    %v_off_41 = arith.addi %v_off_40, %o_v_9 : tensor<32xi32> loc(#loc165)
    %b_q = tt.splat %p_mixed_34 : !tt.ptr<bf16> -> tensor<128x!tt.ptr<bf16>> loc(#loc166)
    %b_q_42 = tt.addptr %b_q, %q_off_36 : tensor<128x!tt.ptr<bf16>>, tensor<128xi32> loc(#loc166)
    %b_q_43 = tt.load %b_q_42, %mask_k_10, %cst_0 : tensor<128x!tt.ptr<bf16>> loc(#loc167)
    %b_q_44 = arith.extf %b_q_43 : tensor<128xbf16> to tensor<128xf32> loc(#loc168)
    %b_k = tt.addptr %b_q, %k_off_38 : tensor<128x!tt.ptr<bf16>>, tensor<128xi32> loc(#loc169)
    %b_k_45 = tt.load %b_k, %mask_k_10, %cst_0 : tensor<128x!tt.ptr<bf16>> loc(#loc170)
    %b_k_46 = arith.extf %b_k_45 : tensor<128xbf16> to tensor<128xf32> loc(#loc171)
    %b_v = tt.splat %p_mixed_34 : !tt.ptr<bf16> -> tensor<32x!tt.ptr<bf16>> loc(#loc172)
    %b_v_47 = tt.addptr %b_v, %v_off_41 : tensor<32x!tt.ptr<bf16>>, tensor<32xi32> loc(#loc172)
    %b_v_48 = tt.load %b_v_47, %mask_v_11, %cst : tensor<32x!tt.ptr<bf16>> loc(#loc173)
    %b_v_49 = arith.extf %b_v_48 : tensor<32xbf16> to tensor<32xf32> loc(#loc174)
    %b_q_50 = arith.mulf %b_q_44, %b_q_44 : tensor<128xf32> loc(#loc175)
    %b_q_51 = tt.reshape %b_q_50 allow_reorder : tensor<128xf32> -> tensor<128xf32> loc(#loc229)
    %b_q_52 = "tt.reduce"(%b_q_51) <{axis = 0 : i32}> ({
    ^bb0(%b_q_109: f32 loc(callsite(#loc1 at #loc176)), %b_q_110: f32 loc(callsite(#loc1 at #loc176))):
      %b_q_111 = arith.addf %b_q_109, %b_q_110 : f32 loc(#loc241)
      tt.reduce.return %b_q_111 : f32 loc(#loc229)
    }) : (tensor<128xf32>) -> f32 loc(#loc229)
    %b_q_53 = arith.addf %b_q_52, %cst_5 : f32 loc(#loc177)
    %b_q_54 = math.sqrt %b_q_53 : f32 loc(#loc178)
    %b_q_55 = tt.splat %b_q_54 : f32 -> tensor<128xf32> loc(#loc179)
    %b_q_56 = arith.divf %b_q_44, %b_q_55 : tensor<128xf32> loc(#loc179)
    %b_k_57 = arith.mulf %b_k_46, %b_k_46 : tensor<128xf32> loc(#loc180)
    %b_k_58 = tt.reshape %b_k_57 allow_reorder : tensor<128xf32> -> tensor<128xf32> loc(#loc231)
    %b_k_59 = "tt.reduce"(%b_k_58) <{axis = 0 : i32}> ({
    ^bb0(%b_k_109: f32 loc(callsite(#loc1 at #loc181)), %b_k_110: f32 loc(callsite(#loc1 at #loc181))):
      %b_k_111 = arith.addf %b_k_109, %b_k_110 : f32 loc(#loc242)
      tt.reduce.return %b_k_111 : f32 loc(#loc231)
    }) : (tensor<128xf32>) -> f32 loc(#loc231)
    %b_k_60 = arith.addf %b_k_59, %cst_5 : f32 loc(#loc182)
    %b_k_61 = math.sqrt %b_k_60 : f32 loc(#loc183)
    %b_k_62 = tt.splat %b_k_61 : f32 -> tensor<128xf32> loc(#loc184)
    %b_k_63 = arith.divf %b_k_46, %b_k_62 : tensor<128xf32> loc(#loc184)
    %b_q_64 = tt.splat %scale : f32 -> tensor<128xf32> loc(#loc185)
    %b_q_65 = arith.mulf %b_q_56, %b_q_64 : tensor<128xf32> loc(#loc185)
    %a_val = arith.muli %2, %c64_i32 : i32 loc(#loc186)
    %a_val_66 = tt.addptr %a, %a_val : !tt.ptr<bf16>, i32 loc(#loc187)
    %a_val_67 = tt.addptr %a_val_66, %3 : !tt.ptr<bf16>, i32 loc(#loc188)
    %a_val_68 = tt.load %a_val_67 : !tt.ptr<bf16> loc(#loc189)
    %a_val_69 = arith.extf %a_val_68 : bf16 to f32 loc(#loc190)
    %b_val = tt.addptr %b, %a_val : !tt.ptr<bf16>, i32 loc(#loc191)
    %b_val_70 = tt.addptr %b_val, %3 : !tt.ptr<bf16>, i32 loc(#loc192)
    %b_val_71 = tt.load %b_val_70 : !tt.ptr<bf16> loc(#loc193)
    %b_val_72 = arith.extf %b_val_71 : bf16 to f32 loc(#loc194)
    %A_log_val = tt.addptr %A_log, %3 : !tt.ptr<f32>, i32 loc(#loc195)
    %A_log_val_73 = tt.load %A_log_val : !tt.ptr<f32> loc(#loc196)
    %dt_bias_val = tt.addptr %dt_bias, %3 : !tt.ptr<bf16>, i32 loc(#loc197)
    %dt_bias_val_74 = tt.load %dt_bias_val : !tt.ptr<bf16> loc(#loc198)
    %dt_bias_val_75 = arith.extf %dt_bias_val_74 : bf16 to f32 loc(#loc199)
    %x = arith.addf %a_val_69, %dt_bias_val_75 : f32 loc(#loc200)
    %softplus_x = arith.cmpf ole, %x, %cst_4 : f32 loc(#loc201)
    %softplus_x_76 = math.exp %x : f32 loc(#loc202)
    %softplus_x_77 = arith.addf %softplus_x_76, %cst_3 : f32 loc(#loc203)
    %softplus_x_78 = math.log %softplus_x_77 : f32 loc(#loc204)
    %softplus_x_79 = arith.select %softplus_x, %softplus_x_78, %x : f32 loc(#loc205)
    %g_val = math.exp %A_log_val_73 : f32 loc(#loc206)
    %g_val_80 = arith.subf %cst_2, %g_val : f32 loc(#loc207)
    %g_val_81 = arith.mulf %g_val_80, %softplus_x_79 : f32 loc(#loc208)
    %beta_val = arith.subf %cst_2, %b_val_72 : f32 loc(#loc233)
    %beta_val_82 = math.exp %beta_val : f32 loc(#loc234)
    %beta_val_83 = arith.addf %beta_val_82, %cst_3 : f32 loc(#loc235)
    %beta_val_84 = arith.divf %cst_3, %beta_val_83 : f32 loc(#loc236)
    %beta_val_85 = arith.truncf %beta_val_84 : f32 to bf16 loc(#loc210)
    %beta_val_86 = arith.extf %beta_val_85 : bf16 to f32 loc(#loc211)
    %b_h_87 = math.exp %g_val_81 : f32 loc(#loc212)
    %b_h_88 = tt.splat %b_h_87 : f32 -> tensor<32x128xf32> loc(#loc213)
    %b_h_89 = arith.mulf %b_h, %b_h_88 : tensor<32x128xf32> loc(#loc213)
    %b_v_90 = tt.expand_dims %b_k_63 {axis = 0 : i32} : tensor<128xf32> -> tensor<1x128xf32> loc(#loc214)
    %b_v_91 = tt.broadcast %b_v_90 : tensor<1x128xf32> -> tensor<32x128xf32> loc(#loc215)
    %b_v_92 = arith.mulf %b_h_89, %b_v_91 : tensor<32x128xf32> loc(#loc215)
    %b_v_93 = "tt.reduce"(%b_v_92) <{axis = 1 : i32}> ({
    ^bb0(%b_v_109: f32 loc(callsite(#loc1 at #loc216)), %b_v_110: f32 loc(callsite(#loc1 at #loc216))):
      %b_v_111 = arith.addf %b_v_109, %b_v_110 : f32 loc(#loc243)
      tt.reduce.return %b_v_111 : f32 loc(#loc237)
    }) : (tensor<32x128xf32>) -> tensor<32xf32> loc(#loc237)
    %b_v_94 = arith.subf %b_v_49, %b_v_93 : tensor<32xf32> loc(#loc217)
    %b_v_95 = tt.splat %beta_val_86 : f32 -> tensor<32xf32> loc(#loc218)
    %b_v_96 = arith.mulf %b_v_94, %b_v_95 : tensor<32xf32> loc(#loc218)
    %b_h_97 = tt.expand_dims %b_v_96 {axis = 1 : i32} : tensor<32xf32> -> tensor<32x1xf32> loc(#loc219)
    %b_h_98 = tt.broadcast %b_h_97 : tensor<32x1xf32> -> tensor<32x128xf32> loc(#loc220)
    %b_h_99 = arith.mulf %b_h_98, %b_v_91 : tensor<32x128xf32> loc(#loc220)
    %b_h_100 = arith.addf %b_h_89, %b_h_99 : tensor<32x128xf32> loc(#loc221)
    %b_o = tt.expand_dims %b_q_65 {axis = 0 : i32} : tensor<128xf32> -> tensor<1x128xf32> loc(#loc222)
    %b_o_101 = tt.broadcast %b_o : tensor<1x128xf32> -> tensor<32x128xf32> loc(#loc223)
    %b_o_102 = arith.mulf %b_h_100, %b_o_101 : tensor<32x128xf32> loc(#loc223)
    %b_o_103 = "tt.reduce"(%b_o_102) <{axis = 1 : i32}> ({
    ^bb0(%b_o_109: f32 loc(callsite(#loc1 at #loc224)), %b_o_110: f32 loc(callsite(#loc1 at #loc224))):
      %b_o_111 = arith.addf %b_o_109, %b_o_110 : f32 loc(#loc244)
      tt.reduce.return %b_o_111 : f32 loc(#loc239)
    }) : (tensor<32x128xf32>) -> tensor<32xf32> loc(#loc239)
    %5 = arith.truncf %b_o_103 : tensor<32xf32> to tensor<32xbf16> loc(#loc111)
    tt.store %p_o_22, %5, %mask_v_11 : tensor<32x!tt.ptr<bf16>> loc(#loc112)
    %p_ht = tt.addptr %ht, %p_h0 : !tt.ptr<f32>, i64 loc(#loc225)
    %p_ht_104 = tt.addptr %p_ht, %p_h0_24 : !tt.ptr<f32>, i32 loc(#loc226)
    %p_ht_105 = tt.splat %p_ht_104 : !tt.ptr<f32> -> tensor<32x1x!tt.ptr<f32>> loc(#loc227)
    %p_ht_106 = tt.addptr %p_ht_105, %p_h0_27 : tensor<32x1x!tt.ptr<f32>>, tensor<32x1xi32> loc(#loc227)
    %p_ht_107 = tt.broadcast %p_ht_106 : tensor<32x1x!tt.ptr<f32>> -> tensor<32x128x!tt.ptr<f32>> loc(#loc228)
    %p_ht_108 = tt.addptr %p_ht_107, %p_h0_32 : tensor<32x128x!tt.ptr<f32>>, tensor<32x128xi32> loc(#loc228)
    tt.store %p_ht_108, %b_h_100, %mask_h_15 : tensor<32x128x!tt.ptr<f32>> loc(#loc117)
    tt.return loc(#loc118)
  } loc(#loc)
} loc(#loc)
#loc2 = loc("/data/conda/envs/or_llm/lib/python3.12/site-packages/vllm/model_executor/layers/fla/ops/fused_recurrent.py":295:19)
#loc3 = loc("/data/conda/envs/or_llm/lib/python3.12/site-packages/vllm/model_executor/layers/fla/ops/fused_recurrent.py":289:19)
#loc4 = loc("/data/conda/envs/or_llm/lib/python3.12/site-packages/vllm/model_executor/layers/fla/ops/fused_recurrent.py":288:19)
#loc5 = loc("/data/conda/envs/or_llm/lib/python3.12/site-packages/vllm/model_executor/layers/fla/ops/fused_recurrent.py":282:30)
#loc6 = loc("/data/conda/envs/or_llm/lib/python3.12/site-packages/vllm/model_executor/layers/fla/ops/fused_recurrent.py":282:48)
#loc7 = loc("/data/conda/envs/or_llm/lib/python3.12/site-packages/vllm/model_executor/layers/fla/ops/fused_recurrent.py":283:24)
#loc8 = loc("/data/conda/envs/or_llm/lib/python3.12/site-packages/vllm/model_executor/layers/fla/ops/fused_recurrent.py":283:35)
#loc9 = loc("/data/conda/envs/or_llm/lib/python3.12/site-packages/vllm/model_executor/layers/fla/ops/fused_recurrent.py":284:19)
#loc10 = loc("/data/conda/envs/or_llm/lib/python3.12/site-packages/vllm/model_executor/layers/fla/ops/fused_recurrent.py":286:23)
#loc11 = loc("/data/conda/envs/or_llm/lib/python3.12/site-packages/vllm/model_executor/layers/fla/ops/fused_recurrent.py":287:16)
#loc12 = loc("/data/conda/envs/or_llm/lib/python3.12/site-packages/vllm/model_executor/layers/fla/ops/fused_recurrent.py":287:34)
#loc13 = loc("/data/conda/envs/or_llm/lib/python3.12/site-packages/vllm/model_executor/layers/fla/ops/fused_recurrent.py":287:21)
#loc14 = loc("/data/conda/envs/or_llm/lib/python3.12/site-packages/vllm/model_executor/layers/fla/ops/fused_recurrent.py":290:20)
#loc15 = loc("/data/conda/envs/or_llm/lib/python3.12/site-packages/vllm/model_executor/layers/fla/ops/fused_recurrent.py":290:38)
#loc16 = loc("/data/conda/envs/or_llm/lib/python3.12/site-packages/vllm/model_executor/layers/fla/ops/fused_recurrent.py":290:31)
#loc17 = loc("/data/conda/envs/or_llm/lib/python3.12/site-packages/vllm/model_executor/layers/fla/ops/fused_recurrent.py":292:44)
#loc18 = loc("/data/conda/envs/or_llm/lib/python3.12/site-packages/vllm/model_executor/layers/fla/ops/fused_recurrent.py":292:24)
#loc19 = loc("/data/conda/envs/or_llm/lib/python3.12/site-packages/vllm/model_executor/layers/fla/ops/fused_recurrent.py":292:73)
#loc20 = loc("/data/conda/envs/or_llm/lib/python3.12/site-packages/vllm/model_executor/layers/fla/ops/fused_recurrent.py":293:21)
#loc21 = loc("/data/conda/envs/or_llm/lib/python3.12/site-packages/vllm/model_executor/layers/fla/ops/fused_recurrent.py":293:26)
#loc22 = loc("/data/conda/envs/or_llm/lib/python3.12/site-packages/vllm/model_executor/layers/fla/ops/fused_recurrent.py":293:34)
#loc23 = loc("/data/conda/envs/or_llm/lib/python3.12/site-packages/vllm/model_executor/layers/fla/ops/fused_recurrent.py":293:14)
#loc24 = loc("/data/conda/envs/or_llm/lib/python3.12/site-packages/vllm/model_executor/layers/fla/ops/fused_recurrent.py":293:38)
#loc25 = loc("/data/conda/envs/or_llm/lib/python3.12/site-packages/vllm/model_executor/layers/fla/ops/fused_recurrent.py":297:22)
#loc26 = loc("/data/conda/envs/or_llm/lib/python3.12/site-packages/vllm/model_executor/layers/fla/ops/fused_recurrent.py":298:8)
#loc27 = loc("/data/conda/envs/or_llm/lib/python3.12/site-packages/vllm/model_executor/layers/fla/ops/fused_recurrent.py":300:28)
#loc28 = loc("/data/conda/envs/or_llm/lib/python3.12/site-packages/vllm/model_executor/layers/fla/ops/fused_recurrent.py":300:16)
#loc29 = loc("/data/conda/envs/or_llm/lib/python3.12/site-packages/vllm/model_executor/layers/fla/ops/fused_recurrent.py":301:29)
#loc30 = loc("/data/conda/envs/or_llm/lib/python3.12/site-packages/vllm/model_executor/layers/fla/ops/fused_recurrent.py":301:18)
#loc31 = loc("/data/conda/envs/or_llm/lib/python3.12/site-packages/vllm/model_executor/layers/fla/ops/fused_recurrent.py":301:37)
#loc32 = loc("/data/conda/envs/or_llm/lib/python3.12/site-packages/vllm/model_executor/layers/fla/ops/fused_recurrent.py":301:48)
#loc33 = loc("/data/conda/envs/or_llm/lib/python3.12/site-packages/vllm/model_executor/layers/fla/ops/fused_recurrent.py":301:33)
#loc34 = loc("/data/conda/envs/or_llm/lib/python3.12/site-packages/vllm/model_executor/layers/fla/ops/fused_recurrent.py":301:56)
#loc35 = loc("/data/conda/envs/or_llm/lib/python3.12/site-packages/vllm/model_executor/layers/fla/ops/fused_recurrent.py":301:52)
#loc36 = loc("/data/conda/envs/or_llm/lib/python3.12/site-packages/vllm/model_executor/layers/fla/ops/fused_recurrent.py":302:18)
#loc37 = loc("/data/conda/envs/or_llm/lib/python3.12/site-packages/vllm/model_executor/layers/fla/ops/fused_recurrent.py":304:32)
#loc38 = loc("/data/conda/envs/or_llm/lib/python3.12/site-packages/vllm/model_executor/layers/fla/ops/fused_recurrent.py":304:26)
#loc39 = loc("/data/conda/envs/or_llm/lib/python3.12/site-packages/vllm/model_executor/layers/fla/ops/fused_recurrent.py":305:18)
#loc40 = loc("/data/conda/envs/or_llm/lib/python3.12/site-packages/vllm/model_executor/layers/fla/ops/fused_recurrent.py":305:22)
#loc41 = loc("/data/conda/envs/or_llm/lib/python3.12/site-packages/vllm/model_executor/layers/fla/ops/fused_recurrent.py":306:22)
#loc42 = loc("/data/conda/envs/or_llm/lib/python3.12/site-packages/vllm/model_executor/layers/fla/ops/fused_recurrent.py":306:32)
#loc43 = loc("/data/conda/envs/or_llm/lib/python3.12/site-packages/vllm/model_executor/layers/fla/ops/fused_recurrent.py":307:33)
#loc44 = loc("/data/conda/envs/or_llm/lib/python3.12/site-packages/vllm/model_executor/layers/fla/ops/fused_recurrent.py":307:26)
#loc45 = loc("/data/conda/envs/or_llm/lib/python3.12/site-packages/vllm/model_executor/layers/fla/ops/fused_recurrent.py":307:37)
#loc46 = loc("/data/conda/envs/or_llm/lib/python3.12/site-packages/vllm/model_executor/layers/fla/ops/fused_recurrent.py":308:28)
#loc47 = loc("/data/conda/envs/or_llm/lib/python3.12/site-packages/vllm/model_executor/layers/fla/ops/fused_recurrent.py":308:18)
#loc48 = loc("/data/conda/envs/or_llm/lib/python3.12/site-packages/vllm/model_executor/layers/fla/ops/fused_recurrent.py":308:60)
#loc49 = loc("/data/conda/envs/or_llm/lib/python3.12/site-packages/vllm/model_executor/layers/fla/ops/fused_recurrent.py":309:28)
#loc50 = loc("/data/conda/envs/or_llm/lib/python3.12/site-packages/vllm/model_executor/layers/fla/ops/fused_recurrent.py":309:18)
#loc51 = loc("/data/conda/envs/or_llm/lib/python3.12/site-packages/vllm/model_executor/layers/fla/ops/fused_recurrent.py":309:60)
#loc52 = loc("/data/conda/envs/or_llm/lib/python3.12/site-packages/vllm/model_executor/layers/fla/ops/fused_recurrent.py":310:28)
#loc53 = loc("/data/conda/envs/or_llm/lib/python3.12/site-packages/vllm/model_executor/layers/fla/ops/fused_recurrent.py":310:18)
#loc54 = loc("/data/conda/envs/or_llm/lib/python3.12/site-packages/vllm/model_executor/layers/fla/ops/fused_recurrent.py":310:60)
#loc55 = loc("/data/conda/envs/or_llm/lib/python3.12/site-packages/vllm/model_executor/layers/fla/ops/fused_recurrent.py":313:41)
#loc56 = loc("/data/conda/envs/or_llm/lib/python3.12/site-packages/triton/language/standard.py":293:36)
#loc58 = loc("/data/conda/envs/or_llm/lib/python3.12/site-packages/triton/language/standard.py":263:15)
#loc59 = loc("/data/conda/envs/or_llm/lib/python3.12/site-packages/vllm/model_executor/layers/fla/ops/fused_recurrent.py":313:48)
#loc60 = loc("/data/conda/envs/or_llm/lib/python3.12/site-packages/vllm/model_executor/layers/fla/ops/fused_recurrent.py":313:28)
#loc61 = loc("/data/conda/envs/or_llm/lib/python3.12/site-packages/vllm/model_executor/layers/fla/ops/fused_recurrent.py":313:20)
#loc62 = loc("/data/conda/envs/or_llm/lib/python3.12/site-packages/vllm/model_executor/layers/fla/ops/fused_recurrent.py":314:41)
#loc64 = loc("/data/conda/envs/or_llm/lib/python3.12/site-packages/vllm/model_executor/layers/fla/ops/fused_recurrent.py":314:48)
#loc65 = loc("/data/conda/envs/or_llm/lib/python3.12/site-packages/vllm/model_executor/layers/fla/ops/fused_recurrent.py":314:28)
#loc66 = loc("/data/conda/envs/or_llm/lib/python3.12/site-packages/vllm/model_executor/layers/fla/ops/fused_recurrent.py":314:20)
#loc67 = loc("/data/conda/envs/or_llm/lib/python3.12/site-packages/vllm/model_executor/layers/fla/ops/fused_recurrent.py":315:16)
#loc68 = loc("/data/conda/envs/or_llm/lib/python3.12/site-packages/vllm/model_executor/layers/fla/ops/fused_recurrent.py":317:30)
#loc69 = loc("/data/conda/envs/or_llm/lib/python3.12/site-packages/vllm/model_executor/layers/fla/ops/fused_recurrent.py":317:24)
#loc70 = loc("/data/conda/envs/or_llm/lib/python3.12/site-packages/vllm/model_executor/layers/fla/ops/fused_recurrent.py":317:45)
#loc71 = loc("/data/conda/envs/or_llm/lib/python3.12/site-packages/vllm/model_executor/layers/fla/ops/fused_recurrent.py":317:20)
#loc72 = loc("/data/conda/envs/or_llm/lib/python3.12/site-packages/vllm/model_executor/layers/fla/ops/fused_recurrent.py":317:54)
#loc73 = loc("/data/conda/envs/or_llm/lib/python3.12/site-packages/vllm/model_executor/layers/fla/ops/fused_recurrent.py":318:24)
#loc74 = loc("/data/conda/envs/or_llm/lib/python3.12/site-packages/vllm/model_executor/layers/fla/ops/fused_recurrent.py":318:45)
#loc75 = loc("/data/conda/envs/or_llm/lib/python3.12/site-packages/vllm/model_executor/layers/fla/ops/fused_recurrent.py":318:20)
#loc76 = loc("/data/conda/envs/or_llm/lib/python3.12/site-packages/vllm/model_executor/layers/fla/ops/fused_recurrent.py":318:54)
#loc77 = loc("/data/conda/envs/or_llm/lib/python3.12/site-packages/vllm/model_executor/layers/fla/ops/fused_recurrent.py":319:32)
#loc78 = loc("/data/conda/envs/or_llm/lib/python3.12/site-packages/vllm/model_executor/layers/fla/ops/fused_recurrent.py":319:24)
#loc79 = loc("/data/conda/envs/or_llm/lib/python3.12/site-packages/vllm/model_executor/layers/fla/ops/fused_recurrent.py":320:36)
#loc80 = loc("/data/conda/envs/or_llm/lib/python3.12/site-packages/vllm/model_executor/layers/fla/ops/fused_recurrent.py":320:26)
#loc81 = loc("/data/conda/envs/or_llm/lib/python3.12/site-packages/vllm/model_executor/layers/fla/ops/fused_recurrent.py":320:45)
#loc82 = loc("/data/conda/envs/or_llm/lib/python3.12/site-packages/vllm/model_executor/layers/fla/ops/fused_recurrent.py":321:16)
#loc83 = loc("/data/conda/envs/or_llm/lib/python3.12/site-packages/vllm/model_executor/layers/fla/ops/fused_recurrent.py":322:31)
#loc84 = loc("/data/conda/envs/or_llm/lib/python3.12/site-packages/vllm/model_executor/layers/fla/ops/fused_recurrent.py":322:71)
#loc85 = loc("/data/conda/envs/or_llm/lib/python3.12/site-packages/vllm/model_executor/layers/fla/ops/fused_recurrent.py":322:64)
#loc86 = loc("/data/conda/envs/or_llm/lib/python3.12/site-packages/vllm/model_executor/layers/fla/ops/fused_recurrent.py":322:58)
#loc87 = loc("/data/conda/envs/or_llm/lib/python3.12/site-packages/vllm/model_executor/layers/fla/ops/fused_recurrent.py":322:76)
#loc88 = loc("/data/conda/envs/or_llm/lib/python3.12/site-packages/vllm/model_executor/layers/fla/ops/fused_recurrent.py":323:20)
#loc89 = loc("/data/conda/envs/or_llm/lib/python3.12/site-packages/vllm/model_executor/layers/fla/ops/fused_recurrent.py":323:13)
#loc90 = loc("/data/conda/envs/or_llm/lib/python3.12/site-packages/vllm/model_executor/layers/fla/ops/fused_recurrent.py":323:33)
#loc91 = loc("/data/conda/envs/or_llm/lib/python3.12/site-packages/triton/language/standard.py":50:30)
#loc92 = loc("/data/conda/envs/or_llm/lib/python3.12/site-packages/vllm/model_executor/layers/fla/ops/fused_recurrent.py":324:26)
#loc93 = loc("/data/conda/envs/or_llm/lib/python3.12/site-packages/triton/language/standard.py":50:29)
#loc94 = loc("/data/conda/envs/or_llm/lib/python3.12/site-packages/triton/language/standard.py":50:20)
#loc95 = loc("/data/conda/envs/or_llm/lib/python3.12/site-packages/triton/language/standard.py":50:16)
#loc96 = loc("/data/conda/envs/or_llm/lib/python3.12/site-packages/vllm/model_executor/layers/fla/ops/fused_recurrent.py":324:36)
#loc97 = loc("/data/conda/envs/or_llm/lib/python3.12/site-packages/vllm/model_executor/layers/fla/ops/fused_recurrent.py":324:59)
#loc98 = loc("/data/conda/envs/or_llm/lib/python3.12/site-packages/vllm/model_executor/layers/fla/ops/fused_recurrent.py":326:15)
#loc99 = loc("/data/conda/envs/or_llm/lib/python3.12/site-packages/vllm/model_executor/layers/fla/ops/fused_recurrent.py":326:11)
#loc100 = loc("/data/conda/envs/or_llm/lib/python3.12/site-packages/vllm/model_executor/layers/fla/ops/fused_recurrent.py":327:28)
#loc101 = loc("/data/conda/envs/or_llm/lib/python3.12/site-packages/vllm/model_executor/layers/fla/ops/fused_recurrent.py":327:24)
#loc103 = loc("/data/conda/envs/or_llm/lib/python3.12/site-packages/vllm/model_executor/layers/fla/ops/fused_recurrent.py":327:11)
#loc104 = loc("/data/conda/envs/or_llm/lib/python3.12/site-packages/vllm/model_executor/layers/fla/ops/fused_recurrent.py":328:11)
#loc105 = loc("/data/conda/envs/or_llm/lib/python3.12/site-packages/vllm/model_executor/layers/fla/ops/fused_recurrent.py":329:15)
#loc106 = loc("/data/conda/envs/or_llm/lib/python3.12/site-packages/vllm/model_executor/layers/fla/ops/fused_recurrent.py":329:26)
#loc107 = loc("/data/conda/envs/or_llm/lib/python3.12/site-packages/vllm/model_executor/layers/fla/ops/fused_recurrent.py":329:11)
#loc108 = loc("/data/conda/envs/or_llm/lib/python3.12/site-packages/vllm/model_executor/layers/fla/ops/fused_recurrent.py":330:27)
#loc109 = loc("/data/conda/envs/or_llm/lib/python3.12/site-packages/vllm/model_executor/layers/fla/ops/fused_recurrent.py":330:23)
#loc111 = loc("/data/conda/envs/or_llm/lib/python3.12/site-packages/vllm/model_executor/layers/fla/ops/fused_recurrent.py":331:25)
#loc112 = loc("/data/conda/envs/or_llm/lib/python3.12/site-packages/vllm/model_executor/layers/fla/ops/fused_recurrent.py":331:18)
#loc113 = loc("/data/conda/envs/or_llm/lib/python3.12/site-packages/vllm/model_executor/layers/fla/ops/fused_recurrent.py":333:16)
#loc114 = loc("/data/conda/envs/or_llm/lib/python3.12/site-packages/vllm/model_executor/layers/fla/ops/fused_recurrent.py":334:18)
#loc115 = loc("/data/conda/envs/or_llm/lib/python3.12/site-packages/vllm/model_executor/layers/fla/ops/fused_recurrent.py":334:33)
#loc116 = loc("/data/conda/envs/or_llm/lib/python3.12/site-packages/vllm/model_executor/layers/fla/ops/fused_recurrent.py":334:52)
#loc117 = loc("/data/conda/envs/or_llm/lib/python3.12/site-packages/vllm/model_executor/layers/fla/ops/fused_recurrent.py":335:19)
#loc118 = loc("/data/conda/envs/or_llm/lib/python3.12/site-packages/vllm/model_executor/layers/fla/ops/fused_recurrent.py":335:4)
#loc129 = loc("mask_v"(#loc3))
#loc130 = loc("mask_k"(#loc4))
#loc131 = loc("i_h"(#loc9))
#loc132 = loc("o_k"(#loc10))
#loc133 = loc("o_v"(#loc11))
#loc134 = loc("o_v"(#loc12))
#loc135 = loc("o_v"(#loc13))
#loc136 = loc("mask_h"(#loc14))
#loc137 = loc("mask_h"(#loc15))
#loc138 = loc("mask_h"(#loc16))
#loc139 = loc("state_idx"(#loc17))
#loc140 = loc("state_idx"(#loc18))
#loc141 = loc("state_idx"(#loc19))
#loc142 = loc("p_o"(#loc20))
#loc143 = loc("p_o"(#loc21))
#loc144 = loc("p_o"(#loc22))
#loc145 = loc("p_o"(#loc23))
#loc146 = loc("p_o"(#loc24))
#loc147 = loc("p_h0"(#loc27))
#loc148 = loc("p_h0"(#loc28))
#loc149 = loc("p_h0"(#loc29))
#loc150 = loc("p_h0"(#loc30))
#loc151 = loc("p_h0"(#loc31))
#loc152 = loc("p_h0"(#loc32))
#loc153 = loc("p_h0"(#loc33))
#loc154 = loc("p_h0"(#loc34))
#loc155 = loc("p_h0"(#loc35))
#loc156 = loc("b_h"(#loc36))
#loc157 = loc("p_mixed"(#loc37))
#loc158 = loc("p_mixed"(#loc38))
#loc159 = loc("q_off"(#loc39))
#loc160 = loc("q_off"(#loc40))
#loc161 = loc("k_off"(#loc41))
#loc162 = loc("k_off"(#loc42))
#loc163 = loc("v_off"(#loc43))
#loc164 = loc("v_off"(#loc44))
#loc165 = loc("v_off"(#loc45))
#loc166 = loc("b_q"(#loc46))
#loc167 = loc("b_q"(#loc47))
#loc168 = loc("b_q"(#loc48))
#loc169 = loc("b_k"(#loc49))
#loc170 = loc("b_k"(#loc50))
#loc171 = loc("b_k"(#loc51))
#loc172 = loc("b_v"(#loc52))
#loc173 = loc("b_v"(#loc53))
#loc174 = loc("b_v"(#loc54))
#loc175 = loc("b_q"(#loc55))
#loc177 = loc("b_q"(#loc59))
#loc178 = loc("b_q"(#loc60))
#loc179 = loc("b_q"(#loc61))
#loc180 = loc("b_k"(#loc62))
#loc182 = loc("b_k"(#loc64))
#loc183 = loc("b_k"(#loc65))
#loc184 = loc("b_k"(#loc66))
#loc185 = loc("b_q"(#loc67))
#loc186 = loc("a_val"(#loc68))
#loc187 = loc("a_val"(#loc69))
#loc188 = loc("a_val"(#loc70))
#loc189 = loc("a_val"(#loc71))
#loc190 = loc("a_val"(#loc72))
#loc191 = loc("b_val"(#loc73))
#loc192 = loc("b_val"(#loc74))
#loc193 = loc("b_val"(#loc75))
#loc194 = loc("b_val"(#loc76))
#loc195 = loc("A_log_val"(#loc77))
#loc196 = loc("A_log_val"(#loc78))
#loc197 = loc("dt_bias_val"(#loc79))
#loc198 = loc("dt_bias_val"(#loc80))
#loc199 = loc("dt_bias_val"(#loc81))
#loc200 = loc("x"(#loc82))
#loc201 = loc("softplus_x"(#loc83))
#loc202 = loc("softplus_x"(#loc84))
#loc203 = loc("softplus_x"(#loc85))
#loc204 = loc("softplus_x"(#loc86))
#loc205 = loc("softplus_x"(#loc87))
#loc206 = loc("g_val"(#loc88))
#loc207 = loc("g_val"(#loc89))
#loc208 = loc("g_val"(#loc90))
#loc209 = loc("beta_val"(#loc92))
#loc210 = loc("beta_val"(#loc96))
#loc211 = loc("beta_val"(#loc97))
#loc212 = loc("b_h"(#loc98))
#loc213 = loc("b_h"(#loc99))
#loc214 = loc("b_v"(#loc100))
#loc215 = loc("b_v"(#loc101))
#loc217 = loc("b_v"(#loc103))
#loc218 = loc("b_v"(#loc104))
#loc219 = loc("b_h"(#loc105))
#loc220 = loc("b_h"(#loc106))
#loc221 = loc("b_h"(#loc107))
#loc222 = loc("b_o"(#loc108))
#loc223 = loc("b_o"(#loc109))
#loc225 = loc("p_ht"(#loc113))
#loc226 = loc("p_ht"(#loc114))
#loc227 = loc("p_ht"(#loc115))
#loc228 = loc("p_ht"(#loc116))
#loc229 = loc(callsite(#loc56 at #loc176))
#loc231 = loc(callsite(#loc56 at #loc181))
#loc233 = loc(callsite(#loc91 at #loc209))
#loc234 = loc(callsite(#loc93 at #loc209))
#loc235 = loc(callsite(#loc94 at #loc209))
#loc236 = loc(callsite(#loc95 at #loc209))
#loc237 = loc(callsite(#loc56 at #loc216))
#loc239 = loc(callsite(#loc56 at #loc224))
#loc241 = loc(callsite(#loc58 at #loc229))
#loc242 = loc(callsite(#loc58 at #loc231))
#loc243 = loc(callsite(#loc58 at #loc237))
#loc244 = loc(callsite(#loc58 at #loc239))
