#loc = loc("/data/jcy/zzs/zijinhua/.vllm_cache_simplevqa/torch_compile/c2/cc2k5s7dcvxe5o7nmm4pdhpbwtx6n6klwgewmbgrftkampouqrjy.py":18:0)
#loc1 = loc(unknown)
#loc27 = loc("/data/jcy/zzs/zijinhua/.vllm_cache_simplevqa/torch_compile/c2/cc2k5s7dcvxe5o7nmm4pdhpbwtx6n6klwgewmbgrftkampouqrjy.py":42:25)
#loc56 = loc("in_ptr0"(#loc))
#loc57 = loc("in_ptr1"(#loc))
#loc58 = loc("out_ptr1"(#loc))
#loc59 = loc("ks0"(#loc))
#loc60 = loc("ks1"(#loc))
#loc61 = loc("ks2"(#loc))
#loc62 = loc("xnumel"(#loc))
#loc63 = loc("r0_numel"(#loc))
#loc87 = loc("tmp4"(#loc27))
#loc110 = loc(callsite(#loc1 at #loc87))
module {
  tt.func public @triton_red_fused__to_copy_add_mean_mul_pow_rsqrt_0(%in_ptr0: !tt.ptr<bf16> loc("in_ptr0"(#loc)), %in_ptr1: !tt.ptr<bf16> {tt.divisibility = 16 : i32} loc("in_ptr1"(#loc)), %out_ptr1: !tt.ptr<bf16> {tt.divisibility = 16 : i32} loc("out_ptr1"(#loc)), %ks0: i64 loc("ks0"(#loc)), %ks1: i64 loc("ks1"(#loc)), %ks2: i64 loc("ks2"(#loc)), %xnumel: i32 loc("xnumel"(#loc)), %r0_numel: i32 loc("r0_numel"(#loc))) attributes {noinline = false} {
    %cst = arith.constant dense<0.000000e+00> : tensor<1x64xbf16> loc(#loc1)
    %cst_0 = arith.constant dense<0.000000e+00> : tensor<64x64xbf16> loc(#loc1)
    %c0_i32 = arith.constant 0 : i32 loc(#loc1)
    %cst_1 = arith.constant dense<1.000000e+00> : tensor<1x64xf32> loc(#loc1)
    %cst_2 = arith.constant dense<9.99999997E-7> : tensor<64x1xf32> loc(#loc1)
    %cst_3 = arith.constant dense<0.000000e+00> : tensor<64x64xf32> loc(#loc1)
    %c64_i32 = arith.constant 64 : i32 loc(#loc1)
    %xoffset = tt.get_program_id x : i32 loc(#loc64)
    %xoffset_4 = arith.muli %xoffset, %c64_i32 : i32 loc(#loc65)
    %xindex = tt.make_range {end = 64 : i32, start = 0 : i32} : tensor<64xi32> loc(#loc66)
    %xindex_5 = tt.expand_dims %xindex {axis = 1 : i32} : tensor<64xi32> -> tensor<64x1xi32> loc(#loc67)
    %xindex_6 = tt.splat %xoffset_4 : i32 -> tensor<64x1xi32> loc(#loc68)
    %xindex_7 = arith.addi %xindex_6, %xindex_5 : tensor<64x1xi32> loc(#loc68)
    %xmask = tt.splat %xnumel : i32 -> tensor<64x1xi32> loc(#loc69)
    %xmask_8 = arith.cmpi slt, %xindex_7, %xmask : tensor<64x1xi32> loc(#loc69)
    %r0_base = tt.expand_dims %xindex {axis = 0 : i32} : tensor<64xi32> -> tensor<1x64xi32> loc(#loc70)
    %x0 = arith.extsi %xindex_7 : tensor<64x1xi32> to tensor<64x1xi64> loc(#loc71)
    %x0_9 = tt.splat %ks0 : i64 -> tensor<64x1xi64> loc(#loc71)
    %x0_10 = arith.remsi %x0, %x0_9 : tensor<64x1xi64> loc(#loc71)
    %x1 = arith.divsi %x0, %x0_9 : tensor<64x1xi64> loc(#loc72)
    %_tmp4 = scf.for %r0_offset = %c0_i32 to %r0_numel step %c64_i32 iter_args(%_tmp4_12 = %cst_3) -> (tensor<64x64xf32>)  : i32 {
      %r0_index = tt.splat %r0_offset : i32 -> tensor<1x64xi32> loc(#loc74)
      %r0_index_13 = arith.addi %r0_index, %r0_base : tensor<1x64xi32> loc(#loc74)
      %r0_mask = tt.splat %r0_numel : i32 -> tensor<1x64xi32> loc(#loc75)
      %r0_mask_14 = arith.cmpi slt, %r0_index_13, %r0_mask : tensor<1x64xi32> loc(#loc75)
      %tmp0 = tt.splat %ks1 : i64 -> tensor<64x1xi64> loc(#loc76)
      %tmp0_15 = arith.muli %tmp0, %x0_10 : tensor<64x1xi64> loc(#loc76)
      %tmp0_16 = arith.extsi %r0_index_13 : tensor<1x64xi32> to tensor<1x64xi64> loc(#loc77)
      %tmp0_17 = tt.broadcast %tmp0_16 : tensor<1x64xi64> -> tensor<64x64xi64> loc(#loc77)
      %tmp0_18 = tt.broadcast %tmp0_15 : tensor<64x1xi64> -> tensor<64x64xi64> loc(#loc77)
      %tmp0_19 = arith.addi %tmp0_17, %tmp0_18 : tensor<64x64xi64> loc(#loc77)
      %tmp0_20 = tt.splat %ks2 : i64 -> tensor<64x1xi64> loc(#loc78)
      %tmp0_21 = arith.muli %tmp0_20, %x1 : tensor<64x1xi64> loc(#loc78)
      %tmp0_22 = tt.broadcast %tmp0_21 : tensor<64x1xi64> -> tensor<64x64xi64> loc(#loc79)
      %tmp0_23 = arith.addi %tmp0_19, %tmp0_22 : tensor<64x64xi64> loc(#loc79)
      %tmp0_24 = tt.splat %in_ptr0 : !tt.ptr<bf16> -> tensor<64x64x!tt.ptr<bf16>> loc(#loc80)
      %tmp0_25 = tt.addptr %tmp0_24, %tmp0_23 : tensor<64x64x!tt.ptr<bf16>>, tensor<64x64xi64> loc(#loc80)
      %tmp0_26 = tt.broadcast %r0_mask_14 : tensor<1x64xi1> -> tensor<64x64xi1> loc(#loc81)
      %tmp0_27 = tt.broadcast %xmask_8 : tensor<64x1xi1> -> tensor<64x64xi1> loc(#loc81)
      %tmp0_28 = arith.andi %tmp0_26, %tmp0_27 : tensor<64x64xi1> loc(#loc81)
      %tmp0_29 = tt.load %tmp0_25, %tmp0_28, %cst_0 evictionPolicy = evict_last : tensor<64x64x!tt.ptr<bf16>> loc(#loc82)
      %tmp0_30 = arith.extf %tmp0_29 : tensor<64x64xbf16> to tensor<64x64xf32> loc(#loc83)
      %tmp2 = arith.mulf %tmp0_30, %tmp0_30 : tensor<64x64xf32> loc(#loc84)
      %tmp5 = arith.addf %_tmp4_12, %tmp2 : tensor<64x64xf32> loc(#loc85)
      %_tmp4_31 = arith.select %tmp0_28, %tmp5, %_tmp4_12 : tensor<64x64xi1>, tensor<64x64xf32> loc(#loc86)
      scf.yield %_tmp4_31 : tensor<64x64xf32> loc(#loc25)
    } loc(#loc73)
    %tmp4 = "tt.reduce"(%_tmp4) <{axis = 1 : i32}> ({
    ^bb0(%tmp4_12: f32 loc(callsite(#loc1 at #loc87)), %tmp4_13: f32 loc(callsite(#loc1 at #loc87))):
      %tmp4_14 = arith.addf %tmp4_12, %tmp4_13 : f32 loc(#loc111)
      tt.reduce.return %tmp4_14 : f32 loc(#loc109)
    }) : (tensor<64x64xf32>) -> tensor<64xf32> loc(#loc109)
    %tmp4_11 = tt.expand_dims %tmp4 {axis = 1 : i32} : tensor<64xf32> -> tensor<64x1xf32> loc(#loc88)
    scf.for %r0_offset = %c0_i32 to %r0_numel step %c64_i32  : i32 {
      %r0_index = tt.splat %r0_offset : i32 -> tensor<1x64xi32> loc(#loc89)
      %r0_index_12 = arith.addi %r0_index, %r0_base : tensor<1x64xi32> loc(#loc89)
      %r0_mask = tt.splat %r0_numel : i32 -> tensor<1x64xi32> loc(#loc90)
      %r0_mask_13 = arith.cmpi slt, %r0_index_12, %r0_mask : tensor<1x64xi32> loc(#loc90)
      %tmp6 = tt.splat %ks1 : i64 -> tensor<64x1xi64> loc(#loc91)
      %tmp6_14 = arith.muli %tmp6, %x0_10 : tensor<64x1xi64> loc(#loc91)
      %tmp6_15 = arith.extsi %r0_index_12 : tensor<1x64xi32> to tensor<1x64xi64> loc(#loc92)
      %tmp6_16 = tt.broadcast %tmp6_15 : tensor<1x64xi64> -> tensor<64x64xi64> loc(#loc92)
      %tmp6_17 = tt.broadcast %tmp6_14 : tensor<64x1xi64> -> tensor<64x64xi64> loc(#loc92)
      %tmp6_18 = arith.addi %tmp6_16, %tmp6_17 : tensor<64x64xi64> loc(#loc92)
      %tmp6_19 = tt.splat %ks2 : i64 -> tensor<64x1xi64> loc(#loc93)
      %tmp6_20 = arith.muli %tmp6_19, %x1 : tensor<64x1xi64> loc(#loc93)
      %tmp6_21 = tt.broadcast %tmp6_20 : tensor<64x1xi64> -> tensor<64x64xi64> loc(#loc94)
      %tmp6_22 = arith.addi %tmp6_18, %tmp6_21 : tensor<64x64xi64> loc(#loc94)
      %tmp6_23 = tt.splat %in_ptr0 : !tt.ptr<bf16> -> tensor<64x64x!tt.ptr<bf16>> loc(#loc95)
      %tmp6_24 = tt.addptr %tmp6_23, %tmp6_22 : tensor<64x64x!tt.ptr<bf16>>, tensor<64x64xi64> loc(#loc95)
      %tmp6_25 = tt.broadcast %r0_mask_13 : tensor<1x64xi1> -> tensor<64x64xi1> loc(#loc96)
      %tmp6_26 = tt.broadcast %xmask_8 : tensor<64x1xi1> -> tensor<64x64xi1> loc(#loc96)
      %tmp6_27 = arith.andi %tmp6_25, %tmp6_26 : tensor<64x64xi1> loc(#loc96)
      %tmp6_28 = tt.load %tmp6_24, %tmp6_27, %cst_0 evictionPolicy = evict_first : tensor<64x64x!tt.ptr<bf16>> loc(#loc97)
      %tmp6_29 = arith.extf %tmp6_28 : tensor<64x64xbf16> to tensor<64x64xf32> loc(#loc98)
      %tmp15 = tt.splat %in_ptr1 : !tt.ptr<bf16> -> tensor<1x64x!tt.ptr<bf16>> loc(#loc99)
      %tmp15_30 = tt.addptr %tmp15, %r0_index_12 : tensor<1x64x!tt.ptr<bf16>>, tensor<1x64xi32> loc(#loc99)
      %tmp15_31 = tt.load %tmp15_30, %r0_mask_13, %cst evictionPolicy = evict_last : tensor<1x64x!tt.ptr<bf16>> loc(#loc100)
      %tmp15_32 = arith.extf %tmp15_31 : tensor<1x64xbf16> to tensor<1x64xf32> loc(#loc101)
      %tmp9 = arith.sitofp %ks1 : i64 to f32 loc(#loc102)
      %tmp10 = tt.splat %tmp9 : f32 -> tensor<64x1xf32> loc(#loc103)
      %tmp10_33 = arith.divf %tmp4_11, %tmp10 : tensor<64x1xf32> loc(#loc103)
      %tmp12 = arith.addf %tmp10_33, %cst_2 : tensor<64x1xf32> loc(#loc104)
      %tmp13 = tt.extern_elementwise %tmp12 {libname = "", libpath = "", pure = true, symbol = "__nv_rsqrtf"} : (tensor<64x1xf32>) -> tensor<64x1xf32> loc(#loc105)
      %tmp14 = tt.broadcast %tmp13 : tensor<64x1xf32> -> tensor<64x64xf32> loc(#loc106)
      %tmp14_34 = arith.mulf %tmp6_29, %tmp14 : tensor<64x64xf32> loc(#loc106)
      %tmp18 = arith.addf %tmp15_32, %cst_1 : tensor<1x64xf32> loc(#loc107)
      %tmp19 = tt.broadcast %tmp18 : tensor<1x64xf32> -> tensor<64x64xf32> loc(#loc108)
      %tmp19_35 = arith.mulf %tmp14_34, %tmp19 : tensor<64x64xf32> loc(#loc108)
      %0 = arith.muli %tmp6, %x0 : tensor<64x1xi64> loc(#loc51)
      %1 = tt.broadcast %0 : tensor<64x1xi64> -> tensor<64x64xi64> loc(#loc52)
      %2 = arith.addi %tmp6_16, %1 : tensor<64x64xi64> loc(#loc52)
      %3 = tt.splat %out_ptr1 : !tt.ptr<bf16> -> tensor<64x64x!tt.ptr<bf16>> loc(#loc53)
      %4 = tt.addptr %3, %2 : tensor<64x64x!tt.ptr<bf16>>, tensor<64x64xi64> loc(#loc53)
      %5 = arith.truncf %tmp19_35 : tensor<64x64xf32> to tensor<64x64xbf16> loc(#loc54)
      tt.store %4, %5, %tmp6_27 : tensor<64x64x!tt.ptr<bf16>> loc(#loc54)
    } loc(#loc30)
    tt.return loc(#loc55)
  } loc(#loc)
} loc(#loc)
#loc2 = loc("/data/jcy/zzs/zijinhua/.vllm_cache_simplevqa/torch_compile/c2/cc2k5s7dcvxe5o7nmm4pdhpbwtx6n6klwgewmbgrftkampouqrjy.py":21:28)
#loc3 = loc("/data/jcy/zzs/zijinhua/.vllm_cache_simplevqa/torch_compile/c2/cc2k5s7dcvxe5o7nmm4pdhpbwtx6n6klwgewmbgrftkampouqrjy.py":21:33)
#loc4 = loc("/data/jcy/zzs/zijinhua/.vllm_cache_simplevqa/torch_compile/c2/cc2k5s7dcvxe5o7nmm4pdhpbwtx6n6klwgewmbgrftkampouqrjy.py":22:36)
#loc5 = loc("/data/jcy/zzs/zijinhua/.vllm_cache_simplevqa/torch_compile/c2/cc2k5s7dcvxe5o7nmm4pdhpbwtx6n6klwgewmbgrftkampouqrjy.py":22:44)
#loc6 = loc("/data/jcy/zzs/zijinhua/.vllm_cache_simplevqa/torch_compile/c2/cc2k5s7dcvxe5o7nmm4pdhpbwtx6n6klwgewmbgrftkampouqrjy.py":22:23)
#loc7 = loc("/data/jcy/zzs/zijinhua/.vllm_cache_simplevqa/torch_compile/c2/cc2k5s7dcvxe5o7nmm4pdhpbwtx6n6klwgewmbgrftkampouqrjy.py":23:21)
#loc8 = loc("/data/jcy/zzs/zijinhua/.vllm_cache_simplevqa/torch_compile/c2/cc2k5s7dcvxe5o7nmm4pdhpbwtx6n6klwgewmbgrftkampouqrjy.py":24:37)
#loc9 = loc("/data/jcy/zzs/zijinhua/.vllm_cache_simplevqa/torch_compile/c2/cc2k5s7dcvxe5o7nmm4pdhpbwtx6n6klwgewmbgrftkampouqrjy.py":26:19)
#loc10 = loc("/data/jcy/zzs/zijinhua/.vllm_cache_simplevqa/torch_compile/c2/cc2k5s7dcvxe5o7nmm4pdhpbwtx6n6klwgewmbgrftkampouqrjy.py":27:19)
#loc11 = loc("/data/jcy/zzs/zijinhua/.vllm_cache_simplevqa/torch_compile/c2/cc2k5s7dcvxe5o7nmm4pdhpbwtx6n6klwgewmbgrftkampouqrjy.py":30:40)
#loc12 = loc("/data/jcy/zzs/zijinhua/.vllm_cache_simplevqa/torch_compile/c2/cc2k5s7dcvxe5o7nmm4pdhpbwtx6n6klwgewmbgrftkampouqrjy.py":31:31)
#loc13 = loc("/data/jcy/zzs/zijinhua/.vllm_cache_simplevqa/torch_compile/c2/cc2k5s7dcvxe5o7nmm4pdhpbwtx6n6klwgewmbgrftkampouqrjy.py":32:29)
#loc14 = loc("/data/jcy/zzs/zijinhua/.vllm_cache_simplevqa/torch_compile/c2/cc2k5s7dcvxe5o7nmm4pdhpbwtx6n6klwgewmbgrftkampouqrjy.py":36:45)
#loc15 = loc("/data/jcy/zzs/zijinhua/.vllm_cache_simplevqa/torch_compile/c2/cc2k5s7dcvxe5o7nmm4pdhpbwtx6n6klwgewmbgrftkampouqrjy.py":36:41)
#loc16 = loc("/data/jcy/zzs/zijinhua/.vllm_cache_simplevqa/torch_compile/c2/cc2k5s7dcvxe5o7nmm4pdhpbwtx6n6klwgewmbgrftkampouqrjy.py":36:54)
#loc17 = loc("/data/jcy/zzs/zijinhua/.vllm_cache_simplevqa/torch_compile/c2/cc2k5s7dcvxe5o7nmm4pdhpbwtx6n6klwgewmbgrftkampouqrjy.py":36:50)
#loc18 = loc("/data/jcy/zzs/zijinhua/.vllm_cache_simplevqa/torch_compile/c2/cc2k5s7dcvxe5o7nmm4pdhpbwtx6n6klwgewmbgrftkampouqrjy.py":36:34)
#loc19 = loc("/data/jcy/zzs/zijinhua/.vllm_cache_simplevqa/torch_compile/c2/cc2k5s7dcvxe5o7nmm4pdhpbwtx6n6klwgewmbgrftkampouqrjy.py":36:69)
#loc20 = loc("/data/jcy/zzs/zijinhua/.vllm_cache_simplevqa/torch_compile/c2/cc2k5s7dcvxe5o7nmm4pdhpbwtx6n6klwgewmbgrftkampouqrjy.py":36:59)
#loc21 = loc("/data/jcy/zzs/zijinhua/.vllm_cache_simplevqa/torch_compile/c2/cc2k5s7dcvxe5o7nmm4pdhpbwtx6n6klwgewmbgrftkampouqrjy.py":36:120)
#loc22 = loc("/data/jcy/zzs/zijinhua/.vllm_cache_simplevqa/torch_compile/c2/cc2k5s7dcvxe5o7nmm4pdhpbwtx6n6klwgewmbgrftkampouqrjy.py":38:22)
#loc23 = loc("/data/jcy/zzs/zijinhua/.vllm_cache_simplevqa/torch_compile/c2/cc2k5s7dcvxe5o7nmm4pdhpbwtx6n6klwgewmbgrftkampouqrjy.py":40:23)
#loc24 = loc("/data/jcy/zzs/zijinhua/.vllm_cache_simplevqa/torch_compile/c2/cc2k5s7dcvxe5o7nmm4pdhpbwtx6n6klwgewmbgrftkampouqrjy.py":41:48)
#loc25 = loc("/data/jcy/zzs/zijinhua/.vllm_cache_simplevqa/torch_compile/c2/cc2k5s7dcvxe5o7nmm4pdhpbwtx6n6klwgewmbgrftkampouqrjy.py":41:8)
#loc26 = loc("/data/conda/envs/or_llm/lib/python3.12/site-packages/triton/language/standard.py":293:36)
#loc28 = loc("/data/conda/envs/or_llm/lib/python3.12/site-packages/triton/language/standard.py":263:15)
#loc29 = loc("/data/jcy/zzs/zijinhua/.vllm_cache_simplevqa/torch_compile/c2/cc2k5s7dcvxe5o7nmm4pdhpbwtx6n6klwgewmbgrftkampouqrjy.py":42:28)
#loc30 = loc("/data/jcy/zzs/zijinhua/.vllm_cache_simplevqa/torch_compile/c2/cc2k5s7dcvxe5o7nmm4pdhpbwtx6n6klwgewmbgrftkampouqrjy.py":43:40)
#loc31 = loc("/data/jcy/zzs/zijinhua/.vllm_cache_simplevqa/torch_compile/c2/cc2k5s7dcvxe5o7nmm4pdhpbwtx6n6klwgewmbgrftkampouqrjy.py":44:31)
#loc32 = loc("/data/jcy/zzs/zijinhua/.vllm_cache_simplevqa/torch_compile/c2/cc2k5s7dcvxe5o7nmm4pdhpbwtx6n6klwgewmbgrftkampouqrjy.py":45:29)
#loc33 = loc("/data/jcy/zzs/zijinhua/.vllm_cache_simplevqa/torch_compile/c2/cc2k5s7dcvxe5o7nmm4pdhpbwtx6n6klwgewmbgrftkampouqrjy.py":49:45)
#loc34 = loc("/data/jcy/zzs/zijinhua/.vllm_cache_simplevqa/torch_compile/c2/cc2k5s7dcvxe5o7nmm4pdhpbwtx6n6klwgewmbgrftkampouqrjy.py":49:41)
#loc35 = loc("/data/jcy/zzs/zijinhua/.vllm_cache_simplevqa/torch_compile/c2/cc2k5s7dcvxe5o7nmm4pdhpbwtx6n6klwgewmbgrftkampouqrjy.py":49:54)
#loc36 = loc("/data/jcy/zzs/zijinhua/.vllm_cache_simplevqa/torch_compile/c2/cc2k5s7dcvxe5o7nmm4pdhpbwtx6n6klwgewmbgrftkampouqrjy.py":49:50)
#loc37 = loc("/data/jcy/zzs/zijinhua/.vllm_cache_simplevqa/torch_compile/c2/cc2k5s7dcvxe5o7nmm4pdhpbwtx6n6klwgewmbgrftkampouqrjy.py":49:34)
#loc38 = loc("/data/jcy/zzs/zijinhua/.vllm_cache_simplevqa/torch_compile/c2/cc2k5s7dcvxe5o7nmm4pdhpbwtx6n6klwgewmbgrftkampouqrjy.py":49:69)
#loc39 = loc("/data/jcy/zzs/zijinhua/.vllm_cache_simplevqa/torch_compile/c2/cc2k5s7dcvxe5o7nmm4pdhpbwtx6n6klwgewmbgrftkampouqrjy.py":49:59)
#loc40 = loc("/data/jcy/zzs/zijinhua/.vllm_cache_simplevqa/torch_compile/c2/cc2k5s7dcvxe5o7nmm4pdhpbwtx6n6klwgewmbgrftkampouqrjy.py":49:121)
#loc41 = loc("/data/jcy/zzs/zijinhua/.vllm_cache_simplevqa/torch_compile/c2/cc2k5s7dcvxe5o7nmm4pdhpbwtx6n6klwgewmbgrftkampouqrjy.py":50:35)
#loc42 = loc("/data/jcy/zzs/zijinhua/.vllm_cache_simplevqa/torch_compile/c2/cc2k5s7dcvxe5o7nmm4pdhpbwtx6n6klwgewmbgrftkampouqrjy.py":50:42)
#loc43 = loc("/data/jcy/zzs/zijinhua/.vllm_cache_simplevqa/torch_compile/c2/cc2k5s7dcvxe5o7nmm4pdhpbwtx6n6klwgewmbgrftkampouqrjy.py":50:95)
#loc44 = loc("/data/jcy/zzs/zijinhua/.vllm_cache_simplevqa/torch_compile/c2/cc2k5s7dcvxe5o7nmm4pdhpbwtx6n6klwgewmbgrftkampouqrjy.py":53:23)
#loc45 = loc("/data/jcy/zzs/zijinhua/.vllm_cache_simplevqa/torch_compile/c2/cc2k5s7dcvxe5o7nmm4pdhpbwtx6n6klwgewmbgrftkampouqrjy.py":54:24)
#loc46 = loc("/data/jcy/zzs/zijinhua/.vllm_cache_simplevqa/torch_compile/c2/cc2k5s7dcvxe5o7nmm4pdhpbwtx6n6klwgewmbgrftkampouqrjy.py":56:24)
#loc47 = loc("/data/jcy/zzs/zijinhua/.vllm_cache_simplevqa/torch_compile/c2/cc2k5s7dcvxe5o7nmm4pdhpbwtx6n6klwgewmbgrftkampouqrjy.py":57:32)
#loc48 = loc("/data/jcy/zzs/zijinhua/.vllm_cache_simplevqa/torch_compile/c2/cc2k5s7dcvxe5o7nmm4pdhpbwtx6n6klwgewmbgrftkampouqrjy.py":58:23)
#loc49 = loc("/data/jcy/zzs/zijinhua/.vllm_cache_simplevqa/torch_compile/c2/cc2k5s7dcvxe5o7nmm4pdhpbwtx6n6klwgewmbgrftkampouqrjy.py":61:24)
#loc50 = loc("/data/jcy/zzs/zijinhua/.vllm_cache_simplevqa/torch_compile/c2/cc2k5s7dcvxe5o7nmm4pdhpbwtx6n6klwgewmbgrftkampouqrjy.py":62:24)
#loc51 = loc("/data/jcy/zzs/zijinhua/.vllm_cache_simplevqa/torch_compile/c2/cc2k5s7dcvxe5o7nmm4pdhpbwtx6n6klwgewmbgrftkampouqrjy.py":64:40)
#loc52 = loc("/data/jcy/zzs/zijinhua/.vllm_cache_simplevqa/torch_compile/c2/cc2k5s7dcvxe5o7nmm4pdhpbwtx6n6klwgewmbgrftkampouqrjy.py":64:36)
#loc53 = loc("/data/jcy/zzs/zijinhua/.vllm_cache_simplevqa/torch_compile/c2/cc2k5s7dcvxe5o7nmm4pdhpbwtx6n6klwgewmbgrftkampouqrjy.py":64:29)
#loc54 = loc("/data/jcy/zzs/zijinhua/.vllm_cache_simplevqa/torch_compile/c2/cc2k5s7dcvxe5o7nmm4pdhpbwtx6n6klwgewmbgrftkampouqrjy.py":64:52)
#loc55 = loc("/data/jcy/zzs/zijinhua/.vllm_cache_simplevqa/torch_compile/c2/cc2k5s7dcvxe5o7nmm4pdhpbwtx6n6klwgewmbgrftkampouqrjy.py":43:4)
#loc64 = loc("xoffset"(#loc2))
#loc65 = loc("xoffset"(#loc3))
#loc66 = loc("xindex"(#loc4))
#loc67 = loc("xindex"(#loc5))
#loc68 = loc("xindex"(#loc6))
#loc69 = loc("xmask"(#loc7))
#loc70 = loc("r0_base"(#loc8))
#loc71 = loc("x0"(#loc9))
#loc72 = loc("x1"(#loc10))
#loc73 = loc("_tmp4"(#loc11))
#loc74 = loc("r0_index"(#loc12))
#loc75 = loc("r0_mask"(#loc13))
#loc76 = loc("tmp0"(#loc14))
#loc77 = loc("tmp0"(#loc15))
#loc78 = loc("tmp0"(#loc16))
#loc79 = loc("tmp0"(#loc17))
#loc80 = loc("tmp0"(#loc18))
#loc81 = loc("tmp0"(#loc19))
#loc82 = loc("tmp0"(#loc20))
#loc83 = loc("tmp0"(#loc21))
#loc84 = loc("tmp2"(#loc22))
#loc85 = loc("tmp5"(#loc23))
#loc86 = loc("_tmp4"(#loc24))
#loc88 = loc("tmp4"(#loc29))
#loc89 = loc("r0_index"(#loc31))
#loc90 = loc("r0_mask"(#loc32))
#loc91 = loc("tmp6"(#loc33))
#loc92 = loc("tmp6"(#loc34))
#loc93 = loc("tmp6"(#loc35))
#loc94 = loc("tmp6"(#loc36))
#loc95 = loc("tmp6"(#loc37))
#loc96 = loc("tmp6"(#loc38))
#loc97 = loc("tmp6"(#loc39))
#loc98 = loc("tmp6"(#loc40))
#loc99 = loc("tmp15"(#loc41))
#loc100 = loc("tmp15"(#loc42))
#loc101 = loc("tmp15"(#loc43))
#loc102 = loc("tmp9"(#loc44))
#loc103 = loc("tmp10"(#loc45))
#loc104 = loc("tmp12"(#loc46))
#loc105 = loc("tmp13"(#loc47))
#loc106 = loc("tmp14"(#loc48))
#loc107 = loc("tmp18"(#loc49))
#loc108 = loc("tmp19"(#loc50))
#loc109 = loc(callsite(#loc26 at #loc87))
#loc111 = loc(callsite(#loc28 at #loc109))
