#loc = loc("/data/conda/envs/or_llm/lib/python3.12/site-packages/vllm/model_executor/layers/fla/ops/l2norm.py":79:0)
#loc28 = loc("/data/conda/envs/or_llm/lib/python3.12/site-packages/triton/language/standard.py":287:0)
#loc30 = loc(unknown)
#loc33 = loc("/data/conda/envs/or_llm/lib/python3.12/site-packages/triton/language/standard.py":262:0)
#loc37 = loc("X"(#loc))
#loc38 = loc("Y"(#loc))
#loc39 = loc("eps"(#loc))
#loc40 = loc("M"(#loc))
#loc62 = loc("input"(#loc28))
#loc63 = loc("a"(#loc33))
#loc64 = loc("b"(#loc33))
module {
  tt.func public @l2norm_fwd_kernel2(%X: !tt.ptr<bf16> {tt.divisibility = 16 : i32} loc("X"(#loc)), %Y: !tt.ptr<bf16> {tt.divisibility = 16 : i32} loc("Y"(#loc)), %eps: f32 loc("eps"(#loc)), %M: i32 {tt.divisibility = 16 : i32} loc("M"(#loc))) attributes {noinline = false} {
    %xoffset = tt.get_program_id x : i32 loc(#loc41)
    %xoffset_0 = arith.constant 32 : i32 loc(#loc42)
    %xoffset_1 = arith.constant 32 : i32 loc(#loc42)
    %xoffset_2 = arith.extsi %xoffset : i32 to i64 loc(#loc42)
    %xoffset_3 = arith.extsi %xoffset_1 : i32 to i64 loc(#loc42)
    %xoffset_4 = arith.muli %xoffset_2, %xoffset_3 : i64 loc(#loc42)
    %xoffset_5 = arith.constant 2147483647 : i64 loc(#loc42)
    %xoffset_6 = arith.constant -2147483648 : i64 loc(#loc42)
    %xoffset_7 = arith.cmpi sle, %xoffset_4, %xoffset_5 : i64 loc(#loc42)
    %xoffset_8 = arith.cmpi sge, %xoffset_4, %xoffset_6 : i64 loc(#loc42)
    %xoffset_9 = arith.andi %xoffset_7, %xoffset_8 : i1 loc(#loc42)
    %xoffset_10 = arith.muli %xoffset, %xoffset_1 : i32 loc(#loc42)
    %row_idx = tt.make_range {end = 32 : i32, start = 0 : i32} : tensor<32xi32> loc(#loc43)
    %row_idx_11 = tt.expand_dims %row_idx {axis = 1 : i32} : tensor<32xi32> -> tensor<32x1xi32> loc(#loc44)
    %row_idx_12 = tt.splat %xoffset_10 : i32 -> tensor<32x1xi32> loc(#loc45)
    %row_idx_13 = arith.extsi %row_idx_12 : tensor<32x1xi32> to tensor<32x1xi64> loc(#loc45)
    %row_idx_14 = arith.extsi %row_idx_11 : tensor<32x1xi32> to tensor<32x1xi64> loc(#loc45)
    %row_idx_15 = arith.addi %row_idx_13, %row_idx_14 : tensor<32x1xi64> loc(#loc45)
    %row_idx_16 = arith.constant 2147483647 : i64 loc(#loc45)
    %row_idx_17 = arith.constant -2147483648 : i64 loc(#loc45)
    %row_idx_18 = arith.constant dense<2147483647> : tensor<32x1xi64> loc(#loc45)
    %row_idx_19 = arith.cmpi sle, %row_idx_15, %row_idx_18 : tensor<32x1xi64> loc(#loc45)
    %row_idx_20 = arith.constant dense<-2147483648> : tensor<32x1xi64> loc(#loc45)
    %row_idx_21 = arith.cmpi sge, %row_idx_15, %row_idx_20 : tensor<32x1xi64> loc(#loc45)
    %row_idx_22 = arith.andi %row_idx_19, %row_idx_21 : tensor<32x1xi1> loc(#loc45)
    %row_idx_23 = arith.addi %row_idx_12, %row_idx_11 : tensor<32x1xi32> loc(#loc45)
    %xmask = tt.splat %M : i32 -> tensor<32x1xi32> loc(#loc46)
    %xmask_24 = arith.cmpi slt, %row_idx_23, %xmask : tensor<32x1xi32> loc(#loc46)
    %rindex = tt.make_range {end = 128 : i32, start = 0 : i32} : tensor<128xi32> loc(#loc47)
    %rindex_25 = tt.expand_dims %rindex {axis = 0 : i32} : tensor<128xi32> -> tensor<1x128xi32> loc(#loc48)
    %cmask = arith.constant 128 : i32 loc(#loc49)
    %cmask_26 = arith.constant dense<128> : tensor<1x128xi32> loc(#loc49)
    %cmask_27 = arith.cmpi slt, %rindex_25, %cmask_26 : tensor<1x128xi32> loc(#loc49)
    %mask = tt.broadcast %xmask_24 : tensor<32x1xi1> -> tensor<32x128xi1> loc(#loc50)
    %mask_28 = tt.broadcast %cmask_27 : tensor<1x128xi1> -> tensor<32x128xi1> loc(#loc50)
    %mask_29 = arith.andi %mask, %mask_28 : tensor<32x128xi1> loc(#loc50)
    %xs = arith.constant 128 : i32 loc(#loc51)
    %xs_30 = arith.constant 128 : i32 loc(#loc51)
    %xs_31 = arith.constant dense<128> : tensor<32x1xi32> loc(#loc51)
    %xs_32 = arith.extsi %xs_31 : tensor<32x1xi32> to tensor<32x1xi64> loc(#loc51)
    %xs_33 = arith.extsi %row_idx_23 : tensor<32x1xi32> to tensor<32x1xi64> loc(#loc51)
    %xs_34 = arith.muli %xs_32, %xs_33 : tensor<32x1xi64> loc(#loc51)
    %xs_35 = arith.constant 2147483647 : i64 loc(#loc51)
    %xs_36 = arith.constant -2147483648 : i64 loc(#loc51)
    %xs_37 = arith.constant dense<2147483647> : tensor<32x1xi64> loc(#loc51)
    %xs_38 = arith.cmpi sle, %xs_34, %xs_37 : tensor<32x1xi64> loc(#loc51)
    %xs_39 = arith.constant dense<-2147483648> : tensor<32x1xi64> loc(#loc51)
    %xs_40 = arith.cmpi sge, %xs_34, %xs_39 : tensor<32x1xi64> loc(#loc51)
    %xs_41 = arith.andi %xs_38, %xs_40 : tensor<32x1xi1> loc(#loc51)
    %xs_42 = arith.muli %xs_31, %row_idx_23 : tensor<32x1xi32> loc(#loc51)
    %xs_43 = tt.broadcast %rindex_25 : tensor<1x128xi32> -> tensor<32x128xi32> loc(#loc52)
    %xs_44 = tt.broadcast %xs_42 : tensor<32x1xi32> -> tensor<32x128xi32> loc(#loc52)
    %xs_45 = arith.extsi %xs_43 : tensor<32x128xi32> to tensor<32x128xi64> loc(#loc52)
    %xs_46 = arith.extsi %xs_44 : tensor<32x128xi32> to tensor<32x128xi64> loc(#loc52)
    %xs_47 = arith.addi %xs_45, %xs_46 : tensor<32x128xi64> loc(#loc52)
    %xs_48 = arith.constant 2147483647 : i64 loc(#loc52)
    %xs_49 = arith.constant -2147483648 : i64 loc(#loc52)
    %xs_50 = arith.constant dense<2147483647> : tensor<32x128xi64> loc(#loc52)
    %xs_51 = arith.cmpi sle, %xs_47, %xs_50 : tensor<32x128xi64> loc(#loc52)
    %xs_52 = arith.constant dense<-2147483648> : tensor<32x128xi64> loc(#loc52)
    %xs_53 = arith.cmpi sge, %xs_47, %xs_52 : tensor<32x128xi64> loc(#loc52)
    %xs_54 = arith.andi %xs_51, %xs_53 : tensor<32x128xi1> loc(#loc52)
    %xs_55 = arith.addi %xs_43, %xs_44 : tensor<32x128xi32> loc(#loc52)
    %xs_56 = tt.splat %X : !tt.ptr<bf16> -> tensor<32x128x!tt.ptr<bf16>> loc(#loc53)
    %xs_57 = tt.addptr %xs_56, %xs_55 : tensor<32x128x!tt.ptr<bf16>>, tensor<32x128xi32> loc(#loc53)
    %xs_58 = arith.constant 0.000000e+00 : f32 loc(#loc54)
    %xs_59 = arith.constant dense<0.000000e+00> : tensor<32x128xf32> loc(#loc54)
    %xs_60 = arith.truncf %xs_59 : tensor<32x128xf32> to tensor<32x128xbf16> loc(#loc54)
    %xs_61 = tt.load %xs_57, %mask_29, %xs_60 : tensor<32x128x!tt.ptr<bf16>> loc(#loc54)
    %xs_62 = arith.extf %xs_61 : tensor<32x128xbf16> to tensor<32x128xf32> loc(#loc55)
    %square = arith.mulf %xs_62, %xs_62 : tensor<32x128xf32> loc(#loc56)
    %square_sum = arith.constant 0 : i32 loc(#loc57)
    %square_sum_63 = arith.constant 0.000000e+00 : f32 loc(#loc57)
    %square_sum_64 = arith.constant dense<0.000000e+00> : tensor<32x128xf32> loc(#loc57)
    %square_sum_65 = tt.broadcast %xmask_24 : tensor<32x1xi1> -> tensor<32x128xi1> loc(#loc57)
    %square_sum_66 = arith.select %square_sum_65, %square, %square_sum_64 : tensor<32x128xi1>, tensor<32x128xf32> loc(#loc57)
    %square_sum_67 = tt.call @"triton.language.standard.sum__fp32S32_128S__(1,)cconstexpr_1__(2,)cconstexpr_False__(3,)cNone"(%square_sum_66) : (tensor<32x128xf32>) -> tensor<32xf32> loc(#loc58)
    %square_sum_68 = tt.expand_dims %square_sum_67 {axis = 1 : i32} : tensor<32xf32> -> tensor<32x1xf32> loc(#loc59)
    %rsqrt = tt.splat %eps : f32 -> tensor<32x1xf32> loc(#loc60)
    %rsqrt_69 = arith.addf %square_sum_68, %rsqrt : tensor<32x1xf32> loc(#loc60)
    %rsqrt_70 = math.rsqrt %rsqrt_69 : tensor<32x1xf32> loc(#loc61)
    %c128_i32 = arith.constant 128 : i32 loc(#loc22)
    %c128_i32_71 = arith.constant 128 : i32 loc(#loc22)
    %cst = arith.constant dense<128> : tensor<32x1xi32> loc(#loc22)
    %0 = arith.extsi %cst : tensor<32x1xi32> to tensor<32x1xi64> loc(#loc22)
    %1 = arith.extsi %row_idx_23 : tensor<32x1xi32> to tensor<32x1xi64> loc(#loc22)
    %2 = arith.muli %0, %1 : tensor<32x1xi64> loc(#loc22)
    %c2147483647_i64 = arith.constant 2147483647 : i64 loc(#loc22)
    %c-2147483648_i64 = arith.constant -2147483648 : i64 loc(#loc22)
    %cst_72 = arith.constant dense<2147483647> : tensor<32x1xi64> loc(#loc22)
    %3 = arith.cmpi sle, %2, %cst_72 : tensor<32x1xi64> loc(#loc22)
    %cst_73 = arith.constant dense<-2147483648> : tensor<32x1xi64> loc(#loc22)
    %4 = arith.cmpi sge, %2, %cst_73 : tensor<32x1xi64> loc(#loc22)
    %5 = arith.andi %3, %4 : tensor<32x1xi1> loc(#loc22)
    %6 = arith.muli %cst, %row_idx_23 : tensor<32x1xi32> loc(#loc22)
    %7 = tt.broadcast %rindex_25 : tensor<1x128xi32> -> tensor<32x128xi32> loc(#loc23)
    %8 = tt.broadcast %6 : tensor<32x1xi32> -> tensor<32x128xi32> loc(#loc23)
    %9 = arith.extsi %7 : tensor<32x128xi32> to tensor<32x128xi64> loc(#loc23)
    %10 = arith.extsi %8 : tensor<32x128xi32> to tensor<32x128xi64> loc(#loc23)
    %11 = arith.addi %9, %10 : tensor<32x128xi64> loc(#loc23)
    %c2147483647_i64_74 = arith.constant 2147483647 : i64 loc(#loc23)
    %c-2147483648_i64_75 = arith.constant -2147483648 : i64 loc(#loc23)
    %cst_76 = arith.constant dense<2147483647> : tensor<32x128xi64> loc(#loc23)
    %12 = arith.cmpi sle, %11, %cst_76 : tensor<32x128xi64> loc(#loc23)
    %cst_77 = arith.constant dense<-2147483648> : tensor<32x128xi64> loc(#loc23)
    %13 = arith.cmpi sge, %11, %cst_77 : tensor<32x128xi64> loc(#loc23)
    %14 = arith.andi %12, %13 : tensor<32x128xi1> loc(#loc23)
    %15 = arith.addi %7, %8 : tensor<32x128xi32> loc(#loc23)
    %16 = tt.splat %Y : !tt.ptr<bf16> -> tensor<32x128x!tt.ptr<bf16>> loc(#loc24)
    %17 = tt.addptr %16, %15 : tensor<32x128x!tt.ptr<bf16>>, tensor<32x128xi32> loc(#loc24)
    %18 = tt.broadcast %rsqrt_70 : tensor<32x1xf32> -> tensor<32x128xf32> loc(#loc25)
    %19 = arith.mulf %xs_62, %18 : tensor<32x128xf32> loc(#loc25)
    %20 = arith.truncf %19 : tensor<32x128xf32> to tensor<32x128xbf16> loc(#loc26)
    tt.store %17, %20, %mask_29 : tensor<32x128x!tt.ptr<bf16>> loc(#loc26)
    tt.return loc(#loc27)
  } loc(#loc)
  tt.func private @"triton.language.standard.sum__fp32S32_128S__(1,)cconstexpr_1__(2,)cconstexpr_False__(3,)cNone"(%input: tensor<32x128xf32> loc("input"(#loc28))) -> tensor<32xf32> attributes {noinline = false} {
    %0 = "tt.reduce"(%input) <{axis = 1 : i32}> ({
    ^bb0(%arg1: f32 loc(unknown), %arg2: f32 loc(unknown)):
      %2 = tt.call @triton.language.standard._sum_combine__fp32_fp32__(%arg1, %arg2) : (f32, f32) -> f32 loc(#loc29)
      tt.reduce.return %2 : f32 loc(#loc29)
    }) : (tensor<32x128xf32>) -> tensor<32xf32> loc(#loc29)
    tt.return %0 : tensor<32xf32> loc(#loc31)
  ^bb1:  // no predecessors
    %1 = ub.poison : tensor<32xf32> loc(#loc32)
    tt.return %1 : tensor<32xf32> loc(#loc32)
  } loc(#loc28)
  tt.func private @triton.language.standard._sum_combine__fp32_fp32__(%a: f32 loc("a"(#loc33)), %b: f32 loc("b"(#loc33))) -> f32 attributes {noinline = false} {
    %0 = arith.addf %a, %b : f32 loc(#loc34)
    tt.return %0 : f32 loc(#loc35)
  ^bb1:  // no predecessors
    %1 = ub.poison : f32 loc(#loc36)
    tt.return %1 : f32 loc(#loc36)
  } loc(#loc33)
} loc(#loc)
#loc1 = loc("/data/conda/envs/or_llm/lib/python3.12/site-packages/vllm/model_executor/layers/fla/ops/l2norm.py":82:28)
#loc2 = loc("/data/conda/envs/or_llm/lib/python3.12/site-packages/vllm/model_executor/layers/fla/ops/l2norm.py":82:33)
#loc3 = loc("/data/conda/envs/or_llm/lib/python3.12/site-packages/vllm/model_executor/layers/fla/ops/l2norm.py":83:37)
#loc4 = loc("/data/conda/envs/or_llm/lib/python3.12/site-packages/vllm/model_executor/layers/fla/ops/l2norm.py":83:45)
#loc5 = loc("/data/conda/envs/or_llm/lib/python3.12/site-packages/vllm/model_executor/layers/fla/ops/l2norm.py":83:24)
#loc6 = loc("/data/conda/envs/or_llm/lib/python3.12/site-packages/vllm/model_executor/layers/fla/ops/l2norm.py":84:22)
#loc7 = loc("/data/conda/envs/or_llm/lib/python3.12/site-packages/vllm/model_executor/layers/fla/ops/l2norm.py":85:26)
#loc8 = loc("/data/conda/envs/or_llm/lib/python3.12/site-packages/vllm/model_executor/layers/fla/ops/l2norm.py":85:30)
#loc9 = loc("/data/conda/envs/or_llm/lib/python3.12/site-packages/vllm/model_executor/layers/fla/ops/l2norm.py":86:21)
#loc10 = loc("/data/conda/envs/or_llm/lib/python3.12/site-packages/vllm/model_executor/layers/fla/ops/l2norm.py":87:19)
#loc11 = loc("/data/conda/envs/or_llm/lib/python3.12/site-packages/vllm/model_executor/layers/fla/ops/l2norm.py":88:35)
#loc12 = loc("/data/conda/envs/or_llm/lib/python3.12/site-packages/vllm/model_executor/layers/fla/ops/l2norm.py":88:31)
#loc13 = loc("/data/conda/envs/or_llm/lib/python3.12/site-packages/vllm/model_executor/layers/fla/ops/l2norm.py":88:22)
#loc14 = loc("/data/conda/envs/or_llm/lib/python3.12/site-packages/vllm/model_executor/layers/fla/ops/l2norm.py":88:45)
#loc15 = loc("/data/conda/envs/or_llm/lib/python3.12/site-packages/vllm/model_executor/layers/fla/ops/l2norm.py":88:65)
#loc16 = loc("/data/conda/envs/or_llm/lib/python3.12/site-packages/vllm/model_executor/layers/fla/ops/l2norm.py":89:34)
#loc17 = loc("/data/conda/envs/or_llm/lib/python3.12/site-packages/vllm/model_executor/layers/fla/ops/l2norm.py":90:48)
#loc18 = loc("/data/conda/envs/or_llm/lib/python3.12/site-packages/vllm/model_executor/layers/fla/ops/l2norm.py":90:52)
#loc19 = loc("/data/conda/envs/or_llm/lib/python3.12/site-packages/vllm/model_executor/layers/fla/ops/l2norm.py":90:55)
#loc20 = loc("/data/conda/envs/or_llm/lib/python3.12/site-packages/vllm/model_executor/layers/fla/ops/l2norm.py":91:34)
#loc21 = loc("/data/conda/envs/or_llm/lib/python3.12/site-packages/vllm/model_executor/layers/fla/ops/l2norm.py":91:21)
#loc22 = loc("/data/conda/envs/or_llm/lib/python3.12/site-packages/vllm/model_executor/layers/fla/ops/l2norm.py":92:31)
#loc23 = loc("/data/conda/envs/or_llm/lib/python3.12/site-packages/vllm/model_executor/layers/fla/ops/l2norm.py":92:27)
#loc24 = loc("/data/conda/envs/or_llm/lib/python3.12/site-packages/vllm/model_executor/layers/fla/ops/l2norm.py":92:18)
#loc25 = loc("/data/conda/envs/or_llm/lib/python3.12/site-packages/vllm/model_executor/layers/fla/ops/l2norm.py":92:46)
#loc26 = loc("/data/conda/envs/or_llm/lib/python3.12/site-packages/vllm/model_executor/layers/fla/ops/l2norm.py":92:53)
#loc27 = loc("/data/conda/envs/or_llm/lib/python3.12/site-packages/vllm/model_executor/layers/fla/ops/l2norm.py":92:4)
#loc29 = loc("/data/conda/envs/or_llm/lib/python3.12/site-packages/triton/language/standard.py":293:36)
#loc31 = loc("/data/conda/envs/or_llm/lib/python3.12/site-packages/triton/language/standard.py":293:11)
#loc32 = loc("/data/conda/envs/or_llm/lib/python3.12/site-packages/triton/language/standard.py":293:4)
#loc34 = loc("/data/conda/envs/or_llm/lib/python3.12/site-packages/triton/language/standard.py":263:15)
#loc35 = loc("/data/conda/envs/or_llm/lib/python3.12/site-packages/triton/language/standard.py":263:11)
#loc36 = loc("/data/conda/envs/or_llm/lib/python3.12/site-packages/triton/language/standard.py":263:4)
#loc41 = loc("xoffset"(#loc1))
#loc42 = loc("xoffset"(#loc2))
#loc43 = loc("row_idx"(#loc3))
#loc44 = loc("row_idx"(#loc4))
#loc45 = loc("row_idx"(#loc5))
#loc46 = loc("xmask"(#loc6))
#loc47 = loc("rindex"(#loc7))
#loc48 = loc("rindex"(#loc8))
#loc49 = loc("cmask"(#loc9))
#loc50 = loc("mask"(#loc10))
#loc51 = loc("xs"(#loc11))
#loc52 = loc("xs"(#loc12))
#loc53 = loc("xs"(#loc13))
#loc54 = loc("xs"(#loc14))
#loc55 = loc("xs"(#loc15))
#loc56 = loc("square"(#loc16))
#loc57 = loc("square_sum"(#loc17))
#loc58 = loc("square_sum"(#loc18))
#loc59 = loc("square_sum"(#loc19))
#loc60 = loc("rsqrt"(#loc20))
#loc61 = loc("rsqrt"(#loc21))
