#loc = loc("/data/jcy/zzs/zijinhua/.vllm_cache_reflection/torch_compile/mt/cmtc5iwtjwwwwtytuqnlamk7qv3naiqerwnx5nbavqyn7zsnsrn5.py":18:0)
#loc1 = loc(unknown)
#loc21 = loc("/data/jcy/zzs/zijinhua/.vllm_cache_reflection/torch_compile/mt/cmtc5iwtjwwwwtytuqnlamk7qv3naiqerwnx5nbavqyn7zsnsrn5.py":44:25)
#loc42 = loc("in_ptr0"(#loc))
#loc43 = loc("in_ptr1"(#loc))
#loc44 = loc("in_ptr2"(#loc))
#loc45 = loc("out_ptr0"(#loc))
#loc46 = loc("out_ptr2"(#loc))
#loc47 = loc("r0_numel"(#loc))
#loc63 = loc("tmp6"(#loc21))
#loc80 = loc(callsite(#loc1 at #loc63))
module {
  tt.func public @triton_red_fused__to_copy_add_mean_mul_pow_rsqrt_0(%in_ptr0: !tt.ptr<bf16> {tt.divisibility = 16 : i32} loc("in_ptr0"(#loc)), %in_ptr1: !tt.ptr<bf16> {tt.divisibility = 16 : i32} loc("in_ptr1"(#loc)), %in_ptr2: !tt.ptr<bf16> {tt.divisibility = 16 : i32} loc("in_ptr2"(#loc)), %out_ptr0: !tt.ptr<bf16> {tt.divisibility = 16 : i32} loc("out_ptr0"(#loc)), %out_ptr2: !tt.ptr<bf16> {tt.divisibility = 16 : i32} loc("out_ptr2"(#loc)), %r0_numel: i32 {tt.divisibility = 16 : i32} loc("r0_numel"(#loc))) attributes {noinline = false} {
    %cst = arith.constant dense<0.000000e+00> : tensor<1x2048xbf16> loc(#loc1)
    %c2048_i32 = arith.constant 2048 : i32 loc(#loc1)
    %c4096_i32 = arith.constant 4096 : i32 loc(#loc1)
    %c0_i32 = arith.constant 0 : i32 loc(#loc1)
    %cst_0 = arith.constant dense<1.000000e+00> : tensor<1x2048xf32> loc(#loc1)
    %cst_1 = arith.constant dense<9.99999997E-7> : tensor<1x1xf32> loc(#loc1)
    %cst_2 = arith.constant dense<4.096000e+03> : tensor<1x1xf32> loc(#loc1)
    %cst_3 = arith.constant dense<4096> : tensor<1x2048xi32> loc(#loc1)
    %cst_4 = arith.constant dense<0.000000e+00> : tensor<1x2048xf32> loc(#loc1)
    %r0_base = tt.make_range {end = 2048 : i32, start = 0 : i32} : tensor<2048xi32> loc(#loc48)
    %r0_base_5 = tt.expand_dims %r0_base {axis = 0 : i32} : tensor<2048xi32> -> tensor<1x2048xi32> loc(#loc49)
    %_tmp6 = scf.for %r0_offset = %c0_i32 to %c4096_i32 step %c2048_i32 iter_args(%_tmp6_7 = %cst_4) -> (tensor<1x2048xf32>)  : i32 {
      %r0_index = tt.splat %r0_offset : i32 -> tensor<1x2048xi32> loc(#loc51)
      %r0_index_8 = arith.addi %r0_index, %r0_base_5 : tensor<1x2048xi32> loc(#loc51)
      %r0_mask = arith.cmpi slt, %r0_index_8, %cst_3 : tensor<1x2048xi32> loc(#loc52)
      %tmp0 = tt.splat %in_ptr0 : !tt.ptr<bf16> -> tensor<1x2048x!tt.ptr<bf16>> loc(#loc53)
      %tmp0_9 = tt.addptr %tmp0, %r0_index_8 : tensor<1x2048x!tt.ptr<bf16>>, tensor<1x2048xi32> loc(#loc53)
      %tmp0_10 = tt.load %tmp0_9, %r0_mask, %cst evictionPolicy = evict_first : tensor<1x2048x!tt.ptr<bf16>> loc(#loc54)
      %tmp0_11 = arith.extf %tmp0_10 : tensor<1x2048xbf16> to tensor<1x2048xf32> loc(#loc55)
      %tmp1 = tt.splat %in_ptr1 : !tt.ptr<bf16> -> tensor<1x2048x!tt.ptr<bf16>> loc(#loc56)
      %tmp1_12 = tt.addptr %tmp1, %r0_index_8 : tensor<1x2048x!tt.ptr<bf16>>, tensor<1x2048xi32> loc(#loc56)
      %tmp1_13 = tt.load %tmp1_12, %r0_mask, %cst evictionPolicy = evict_first : tensor<1x2048x!tt.ptr<bf16>> loc(#loc57)
      %tmp1_14 = arith.extf %tmp1_13 : tensor<1x2048xbf16> to tensor<1x2048xf32> loc(#loc58)
      %tmp2 = arith.addf %tmp0_11, %tmp1_14 : tensor<1x2048xf32> loc(#loc59)
      %tmp4 = arith.mulf %tmp2, %tmp2 : tensor<1x2048xf32> loc(#loc60)
      %tmp7 = arith.addf %_tmp6_7, %tmp4 : tensor<1x2048xf32> loc(#loc61)
      %_tmp6_15 = arith.select %r0_mask, %tmp7, %_tmp6_7 : tensor<1x2048xi1>, tensor<1x2048xf32> loc(#loc62)
      %0 = tt.splat %out_ptr0 : !tt.ptr<bf16> -> tensor<1x2048x!tt.ptr<bf16>> loc(#loc17)
      %1 = tt.addptr %0, %r0_index_8 : tensor<1x2048x!tt.ptr<bf16>>, tensor<1x2048xi32> loc(#loc17)
      %2 = arith.truncf %tmp2 : tensor<1x2048xf32> to tensor<1x2048xbf16> loc(#loc18)
      tt.store %1, %2, %r0_mask : tensor<1x2048x!tt.ptr<bf16>> loc(#loc18)
      scf.yield %_tmp6_15 : tensor<1x2048xf32> loc(#loc19)
    } loc(#loc50)
    %tmp6 = "tt.reduce"(%_tmp6) <{axis = 1 : i32}> ({
    ^bb0(%tmp6_7: f32 loc(callsite(#loc1 at #loc63)), %tmp6_8: f32 loc(callsite(#loc1 at #loc63))):
      %tmp6_9 = arith.addf %tmp6_7, %tmp6_8 : f32 loc(#loc81)
      tt.reduce.return %tmp6_9 : f32 loc(#loc79)
    }) : (tensor<1x2048xf32>) -> tensor<1xf32> loc(#loc79)
    %tmp6_6 = tt.expand_dims %tmp6 {axis = 1 : i32} : tensor<1xf32> -> tensor<1x1xf32> loc(#loc64)
    scf.for %r0_offset = %c0_i32 to %c4096_i32 step %c2048_i32  : i32 {
      %r0_index = tt.splat %r0_offset : i32 -> tensor<1x2048xi32> loc(#loc65)
      %r0_index_7 = arith.addi %r0_index, %r0_base_5 : tensor<1x2048xi32> loc(#loc65)
      %r0_mask = arith.cmpi slt, %r0_index_7, %cst_3 : tensor<1x2048xi32> loc(#loc66)
      %tmp8 = tt.splat %out_ptr0 : !tt.ptr<bf16> -> tensor<1x2048x!tt.ptr<bf16>> loc(#loc67)
      %tmp8_8 = tt.addptr %tmp8, %r0_index_7 : tensor<1x2048x!tt.ptr<bf16>>, tensor<1x2048xi32> loc(#loc67)
      %tmp8_9 = tt.load %tmp8_8, %r0_mask, %cst evictionPolicy = evict_first : tensor<1x2048x!tt.ptr<bf16>> loc(#loc68)
      %tmp8_10 = arith.extf %tmp8_9 : tensor<1x2048xbf16> to tensor<1x2048xf32> loc(#loc69)
      %tmp16 = tt.splat %in_ptr2 : !tt.ptr<bf16> -> tensor<1x2048x!tt.ptr<bf16>> loc(#loc70)
      %tmp16_11 = tt.addptr %tmp16, %r0_index_7 : tensor<1x2048x!tt.ptr<bf16>>, tensor<1x2048xi32> loc(#loc70)
      %tmp16_12 = tt.load %tmp16_11, %r0_mask, %cst evictionPolicy = evict_first : tensor<1x2048x!tt.ptr<bf16>> loc(#loc71)
      %tmp16_13 = arith.extf %tmp16_12 : tensor<1x2048xbf16> to tensor<1x2048xf32> loc(#loc72)
      %tmp11 = arith.divf %tmp6_6, %cst_2 : tensor<1x1xf32> loc(#loc73)
      %tmp13 = arith.addf %tmp11, %cst_1 : tensor<1x1xf32> loc(#loc74)
      %tmp14 = tt.extern_elementwise %tmp13 {libname = "", libpath = "", pure = true, symbol = "__nv_rsqrtf"} : (tensor<1x1xf32>) -> tensor<1x1xf32> loc(#loc75)
      %tmp15 = tt.broadcast %tmp14 : tensor<1x1xf32> -> tensor<1x2048xf32> loc(#loc76)
      %tmp15_14 = arith.mulf %tmp8_10, %tmp15 : tensor<1x2048xf32> loc(#loc76)
      %tmp19 = arith.addf %tmp16_13, %cst_0 : tensor<1x2048xf32> loc(#loc77)
      %tmp20 = arith.mulf %tmp15_14, %tmp19 : tensor<1x2048xf32> loc(#loc78)
      %0 = tt.splat %out_ptr2 : !tt.ptr<bf16> -> tensor<1x2048x!tt.ptr<bf16>> loc(#loc39)
      %1 = tt.addptr %0, %r0_index_7 : tensor<1x2048x!tt.ptr<bf16>>, tensor<1x2048xi32> loc(#loc39)
      %2 = arith.truncf %tmp20 : tensor<1x2048xf32> to tensor<1x2048xbf16> loc(#loc40)
      tt.store %1, %2, %r0_mask : tensor<1x2048x!tt.ptr<bf16>> loc(#loc40)
    } loc(#loc24)
    tt.return loc(#loc41)
  } loc(#loc)
} loc(#loc)
#loc2 = loc("/data/jcy/zzs/zijinhua/.vllm_cache_reflection/torch_compile/mt/cmtc5iwtjwwwwtytuqnlamk7qv3naiqerwnx5nbavqyn7zsnsrn5.py":26:27)
#loc3 = loc("/data/jcy/zzs/zijinhua/.vllm_cache_reflection/torch_compile/mt/cmtc5iwtjwwwwtytuqnlamk7qv3naiqerwnx5nbavqyn7zsnsrn5.py":26:37)
#loc4 = loc("/data/jcy/zzs/zijinhua/.vllm_cache_reflection/torch_compile/mt/cmtc5iwtjwwwwtytuqnlamk7qv3naiqerwnx5nbavqyn7zsnsrn5.py":29:40)
#loc5 = loc("/data/jcy/zzs/zijinhua/.vllm_cache_reflection/torch_compile/mt/cmtc5iwtjwwwwtytuqnlamk7qv3naiqerwnx5nbavqyn7zsnsrn5.py":30:31)
#loc6 = loc("/data/jcy/zzs/zijinhua/.vllm_cache_reflection/torch_compile/mt/cmtc5iwtjwwwwtytuqnlamk7qv3naiqerwnx5nbavqyn7zsnsrn5.py":31:29)
#loc7 = loc("/data/jcy/zzs/zijinhua/.vllm_cache_reflection/torch_compile/mt/cmtc5iwtjwwwwtytuqnlamk7qv3naiqerwnx5nbavqyn7zsnsrn5.py":35:34)
#loc8 = loc("/data/jcy/zzs/zijinhua/.vllm_cache_reflection/torch_compile/mt/cmtc5iwtjwwwwtytuqnlamk7qv3naiqerwnx5nbavqyn7zsnsrn5.py":35:41)
#loc9 = loc("/data/jcy/zzs/zijinhua/.vllm_cache_reflection/torch_compile/mt/cmtc5iwtjwwwwtytuqnlamk7qv3naiqerwnx5nbavqyn7zsnsrn5.py":35:95)
#loc10 = loc("/data/jcy/zzs/zijinhua/.vllm_cache_reflection/torch_compile/mt/cmtc5iwtjwwwwtytuqnlamk7qv3naiqerwnx5nbavqyn7zsnsrn5.py":36:34)
#loc11 = loc("/data/jcy/zzs/zijinhua/.vllm_cache_reflection/torch_compile/mt/cmtc5iwtjwwwwtytuqnlamk7qv3naiqerwnx5nbavqyn7zsnsrn5.py":36:41)
#loc12 = loc("/data/jcy/zzs/zijinhua/.vllm_cache_reflection/torch_compile/mt/cmtc5iwtjwwwwtytuqnlamk7qv3naiqerwnx5nbavqyn7zsnsrn5.py":36:95)
#loc13 = loc("/data/jcy/zzs/zijinhua/.vllm_cache_reflection/torch_compile/mt/cmtc5iwtjwwwwtytuqnlamk7qv3naiqerwnx5nbavqyn7zsnsrn5.py":37:22)
#loc14 = loc("/data/jcy/zzs/zijinhua/.vllm_cache_reflection/torch_compile/mt/cmtc5iwtjwwwwtytuqnlamk7qv3naiqerwnx5nbavqyn7zsnsrn5.py":39:22)
#loc15 = loc("/data/jcy/zzs/zijinhua/.vllm_cache_reflection/torch_compile/mt/cmtc5iwtjwwwwtytuqnlamk7qv3naiqerwnx5nbavqyn7zsnsrn5.py":41:23)
#loc16 = loc("/data/jcy/zzs/zijinhua/.vllm_cache_reflection/torch_compile/mt/cmtc5iwtjwwwwtytuqnlamk7qv3naiqerwnx5nbavqyn7zsnsrn5.py":42:40)
#loc17 = loc("/data/jcy/zzs/zijinhua/.vllm_cache_reflection/torch_compile/mt/cmtc5iwtjwwwwtytuqnlamk7qv3naiqerwnx5nbavqyn7zsnsrn5.py":43:29)
#loc18 = loc("/data/jcy/zzs/zijinhua/.vllm_cache_reflection/torch_compile/mt/cmtc5iwtjwwwwtytuqnlamk7qv3naiqerwnx5nbavqyn7zsnsrn5.py":43:79)
#loc19 = loc("/data/jcy/zzs/zijinhua/.vllm_cache_reflection/torch_compile/mt/cmtc5iwtjwwwwtytuqnlamk7qv3naiqerwnx5nbavqyn7zsnsrn5.py":43:8)
#loc20 = loc("/data/conda/envs/or_llm/lib/python3.12/site-packages/triton/language/standard.py":293:36)
#loc22 = loc("/data/conda/envs/or_llm/lib/python3.12/site-packages/triton/language/standard.py":263:15)
#loc23 = loc("/data/jcy/zzs/zijinhua/.vllm_cache_reflection/torch_compile/mt/cmtc5iwtjwwwwtytuqnlamk7qv3naiqerwnx5nbavqyn7zsnsrn5.py":44:28)
#loc24 = loc("/data/jcy/zzs/zijinhua/.vllm_cache_reflection/torch_compile/mt/cmtc5iwtjwwwwtytuqnlamk7qv3naiqerwnx5nbavqyn7zsnsrn5.py":45:40)
#loc25 = loc("/data/jcy/zzs/zijinhua/.vllm_cache_reflection/torch_compile/mt/cmtc5iwtjwwwwtytuqnlamk7qv3naiqerwnx5nbavqyn7zsnsrn5.py":46:31)
#loc26 = loc("/data/jcy/zzs/zijinhua/.vllm_cache_reflection/torch_compile/mt/cmtc5iwtjwwwwtytuqnlamk7qv3naiqerwnx5nbavqyn7zsnsrn5.py":47:29)
#loc27 = loc("/data/jcy/zzs/zijinhua/.vllm_cache_reflection/torch_compile/mt/cmtc5iwtjwwwwtytuqnlamk7qv3naiqerwnx5nbavqyn7zsnsrn5.py":51:35)
#loc28 = loc("/data/jcy/zzs/zijinhua/.vllm_cache_reflection/torch_compile/mt/cmtc5iwtjwwwwtytuqnlamk7qv3naiqerwnx5nbavqyn7zsnsrn5.py":51:42)
#loc29 = loc("/data/jcy/zzs/zijinhua/.vllm_cache_reflection/torch_compile/mt/cmtc5iwtjwwwwtytuqnlamk7qv3naiqerwnx5nbavqyn7zsnsrn5.py":51:96)
#loc30 = loc("/data/jcy/zzs/zijinhua/.vllm_cache_reflection/torch_compile/mt/cmtc5iwtjwwwwtytuqnlamk7qv3naiqerwnx5nbavqyn7zsnsrn5.py":52:35)
#loc31 = loc("/data/jcy/zzs/zijinhua/.vllm_cache_reflection/torch_compile/mt/cmtc5iwtjwwwwtytuqnlamk7qv3naiqerwnx5nbavqyn7zsnsrn5.py":52:42)
#loc32 = loc("/data/jcy/zzs/zijinhua/.vllm_cache_reflection/torch_compile/mt/cmtc5iwtjwwwwtytuqnlamk7qv3naiqerwnx5nbavqyn7zsnsrn5.py":52:96)
#loc33 = loc("/data/jcy/zzs/zijinhua/.vllm_cache_reflection/torch_compile/mt/cmtc5iwtjwwwwtytuqnlamk7qv3naiqerwnx5nbavqyn7zsnsrn5.py":55:24)
#loc34 = loc("/data/jcy/zzs/zijinhua/.vllm_cache_reflection/torch_compile/mt/cmtc5iwtjwwwwtytuqnlamk7qv3naiqerwnx5nbavqyn7zsnsrn5.py":57:24)
#loc35 = loc("/data/jcy/zzs/zijinhua/.vllm_cache_reflection/torch_compile/mt/cmtc5iwtjwwwwtytuqnlamk7qv3naiqerwnx5nbavqyn7zsnsrn5.py":58:32)
#loc36 = loc("/data/jcy/zzs/zijinhua/.vllm_cache_reflection/torch_compile/mt/cmtc5iwtjwwwwtytuqnlamk7qv3naiqerwnx5nbavqyn7zsnsrn5.py":59:23)
#loc37 = loc("/data/jcy/zzs/zijinhua/.vllm_cache_reflection/torch_compile/mt/cmtc5iwtjwwwwtytuqnlamk7qv3naiqerwnx5nbavqyn7zsnsrn5.py":62:24)
#loc38 = loc("/data/jcy/zzs/zijinhua/.vllm_cache_reflection/torch_compile/mt/cmtc5iwtjwwwwtytuqnlamk7qv3naiqerwnx5nbavqyn7zsnsrn5.py":63:24)
#loc39 = loc("/data/jcy/zzs/zijinhua/.vllm_cache_reflection/torch_compile/mt/cmtc5iwtjwwwwtytuqnlamk7qv3naiqerwnx5nbavqyn7zsnsrn5.py":65:29)
#loc40 = loc("/data/jcy/zzs/zijinhua/.vllm_cache_reflection/torch_compile/mt/cmtc5iwtjwwwwtytuqnlamk7qv3naiqerwnx5nbavqyn7zsnsrn5.py":65:80)
#loc41 = loc("/data/jcy/zzs/zijinhua/.vllm_cache_reflection/torch_compile/mt/cmtc5iwtjwwwwtytuqnlamk7qv3naiqerwnx5nbavqyn7zsnsrn5.py":45:4)
#loc48 = loc("r0_base"(#loc2))
#loc49 = loc("r0_base"(#loc3))
#loc50 = loc("_tmp6"(#loc4))
#loc51 = loc("r0_index"(#loc5))
#loc52 = loc("r0_mask"(#loc6))
#loc53 = loc("tmp0"(#loc7))
#loc54 = loc("tmp0"(#loc8))
#loc55 = loc("tmp0"(#loc9))
#loc56 = loc("tmp1"(#loc10))
#loc57 = loc("tmp1"(#loc11))
#loc58 = loc("tmp1"(#loc12))
#loc59 = loc("tmp2"(#loc13))
#loc60 = loc("tmp4"(#loc14))
#loc61 = loc("tmp7"(#loc15))
#loc62 = loc("_tmp6"(#loc16))
#loc64 = loc("tmp6"(#loc23))
#loc65 = loc("r0_index"(#loc25))
#loc66 = loc("r0_mask"(#loc26))
#loc67 = loc("tmp8"(#loc27))
#loc68 = loc("tmp8"(#loc28))
#loc69 = loc("tmp8"(#loc29))
#loc70 = loc("tmp16"(#loc30))
#loc71 = loc("tmp16"(#loc31))
#loc72 = loc("tmp16"(#loc32))
#loc73 = loc("tmp11"(#loc33))
#loc74 = loc("tmp13"(#loc34))
#loc75 = loc("tmp14"(#loc35))
#loc76 = loc("tmp15"(#loc36))
#loc77 = loc("tmp19"(#loc37))
#loc78 = loc("tmp20"(#loc38))
#loc79 = loc(callsite(#loc20 at #loc63))
#loc81 = loc(callsite(#loc22 at #loc79))
