#loc = loc("/data/jcy/zzs/zijinhua/.vllm_cache_reflection/torch_compile/vg/cvg2zvnqd45uwg752xbxuftng4ghicceg4evf33axi6eieqgewk2.py":18:0)
#loc52 = loc("/data/conda/envs/or_llm/lib/python3.12/site-packages/triton/language/standard.py":287:0)
#loc54 = loc(unknown)
#loc57 = loc("/data/conda/envs/or_llm/lib/python3.12/site-packages/triton/language/standard.py":262:0)
#loc61 = loc("in_ptr0"(#loc))
#loc62 = loc("in_ptr1"(#loc))
#loc63 = loc("out_ptr1"(#loc))
#loc64 = loc("xnumel"(#loc))
#loc65 = loc("r0_numel"(#loc))
#loc110 = loc("input"(#loc52))
#loc111 = loc("a"(#loc57))
#loc112 = loc("b"(#loc57))
module {
  tt.func public @triton_red_fused__to_copy_add_mean_mul_pow_rsqrt_0(%in_ptr0: !tt.ptr<bf16> {tt.divisibility = 16 : i32} loc("in_ptr0"(#loc)), %in_ptr1: !tt.ptr<bf16> {tt.divisibility = 16 : i32} loc("in_ptr1"(#loc)), %out_ptr1: !tt.ptr<bf16> {tt.divisibility = 16 : i32} loc("out_ptr1"(#loc)), %xnumel: i32 {tt.divisibility = 16 : i32} loc("xnumel"(#loc)), %r0_numel: i32 {tt.divisibility = 16 : i32} loc("r0_numel"(#loc))) attributes {noinline = false} {
    %xnumel_0 = arith.constant 8192 : i32 loc(#loc66)
    %r0_numel_1 = arith.constant 4096 : i32 loc(#loc67)
    %xoffset = tt.get_program_id x : i32 loc(#loc68)
    %xoffset_2 = arith.constant 1 : i32 loc(#loc69)
    %xoffset_3 = arith.constant 1 : i32 loc(#loc69)
    %xoffset_4 = arith.muli %xoffset, %xoffset_3 : i32 loc(#loc69)
    %xindex = tt.make_range {end = 1 : i32, start = 0 : i32} : tensor<1xi32> loc(#loc70)
    %xindex_5 = tt.expand_dims %xindex {axis = 1 : i32} : tensor<1xi32> -> tensor<1x1xi32> loc(#loc71)
    %xindex_6 = tt.splat %xoffset_4 : i32 -> tensor<1x1xi32> loc(#loc72)
    %xindex_7 = arith.addi %xindex_6, %xindex_5 : tensor<1x1xi32> loc(#loc72)
    %xmask = arith.constant true loc(#loc73)
    %xmask_8 = arith.constant dense<true> : tensor<1xi1> loc(#loc73)
    %xmask_9 = tt.expand_dims %xmask_8 {axis = 1 : i32} : tensor<1xi1> -> tensor<1x1xi1> loc(#loc74)
    %r0_base = tt.make_range {end = 4096 : i32, start = 0 : i32} : tensor<4096xi32> loc(#loc75)
    %r0_base_10 = tt.expand_dims %r0_base {axis = 0 : i32} : tensor<4096xi32> -> tensor<1x4096xi32> loc(#loc76)
    %_tmp4 = arith.constant 0.000000e+00 : f32 loc(#loc77)
    %_tmp4_11 = arith.constant dense<0.000000e+00> : tensor<1x4096xf32> loc(#loc77)
    %c0_i32 = arith.constant 0 : i32 loc(#loc13)
    %c4096_i32 = arith.constant 4096 : i32 loc(#loc13)
    %0 = arith.bitcast %c0_i32 : i32 to i32 loc(#loc13)
    %1 = arith.bitcast %r0_numel_1 : i32 to i32 loc(#loc13)
    %2 = arith.bitcast %c4096_i32 : i32 to i32 loc(#loc13)
    %3 = ub.poison : i32 loc(#loc13)
    %_tmp4_12 = scf.for %r0_offset = %0 to %1 step %2 iter_args(%_tmp4_16 = %_tmp4_11) -> (tensor<1x4096xf32>)  : i32 {
      %r0_index = tt.splat %r0_offset : i32 -> tensor<1x4096xi32> loc(#loc79)
      %r0_index_17 = arith.addi %r0_index, %r0_base_10 : tensor<1x4096xi32> loc(#loc79)
      %r0_mask = arith.constant dense<4096> : tensor<1x4096xi32> loc(#loc80)
      %r0_mask_18 = arith.cmpi slt, %r0_index_17, %r0_mask : tensor<1x4096xi32> loc(#loc80)
      %tmp0 = arith.constant 4096 : i32 loc(#loc81)
      %tmp0_19 = arith.constant 4096 : i32 loc(#loc81)
      %tmp0_20 = arith.constant dense<4096> : tensor<1x1xi32> loc(#loc81)
      %tmp0_21 = arith.muli %tmp0_20, %xindex_7 : tensor<1x1xi32> loc(#loc81)
      %tmp0_22 = tt.broadcast %tmp0_21 : tensor<1x1xi32> -> tensor<1x4096xi32> loc(#loc82)
      %tmp0_23 = arith.addi %r0_index_17, %tmp0_22 : tensor<1x4096xi32> loc(#loc82)
      %tmp0_24 = tt.splat %in_ptr0 : !tt.ptr<bf16> -> tensor<1x4096x!tt.ptr<bf16>> loc(#loc83)
      %tmp0_25 = tt.addptr %tmp0_24, %tmp0_23 : tensor<1x4096x!tt.ptr<bf16>>, tensor<1x4096xi32> loc(#loc83)
      %tmp0_26 = arith.constant 0.000000e+00 : f32 loc(#loc84)
      %tmp0_27 = arith.constant dense<0.000000e+00> : tensor<1x4096xf32> loc(#loc84)
      %tmp0_28 = arith.truncf %tmp0_27 : tensor<1x4096xf32> to tensor<1x4096xbf16> loc(#loc84)
      %tmp0_29 = tt.load %tmp0_25, %r0_mask_18, %tmp0_28 evictionPolicy = evict_last : tensor<1x4096x!tt.ptr<bf16>> loc(#loc84)
      %tmp0_30 = arith.extf %tmp0_29 : tensor<1x4096xbf16> to tensor<1x4096xf32> loc(#loc85)
      %tmp2 = arith.mulf %tmp0_30, %tmp0_30 : tensor<1x4096xf32> loc(#loc86)
      %tmp5 = arith.addf %_tmp4_16, %tmp2 : tensor<1x4096xf32> loc(#loc87)
      %_tmp4_31 = arith.select %r0_mask_18, %tmp5, %_tmp4_16 : tensor<1x4096xi1>, tensor<1x4096xf32> loc(#loc88)
      scf.yield %_tmp4_31 : tensor<1x4096xf32> loc(#loc24)
    } loc(#loc78)
    %tmp4 = tt.call @"triton.language.standard.sum__fp32S1_4096S__(1,)cconstexpr_1__(2,)cconstexpr_False__(3,)cNone"(%_tmp4_12) : (tensor<1x4096xf32>) -> tensor<1xf32> loc(#loc89)
    %tmp4_13 = tt.expand_dims %tmp4 {axis = 1 : i32} : tensor<1xf32> -> tensor<1x1xf32> loc(#loc90)
    %c0_i32_14 = arith.constant 0 : i32 loc(#loc27)
    %c4096_i32_15 = arith.constant 4096 : i32 loc(#loc27)
    %4 = arith.bitcast %c0_i32_14 : i32 to i32 loc(#loc27)
    %5 = arith.bitcast %r0_numel_1 : i32 to i32 loc(#loc27)
    %6 = arith.bitcast %c4096_i32_15 : i32 to i32 loc(#loc27)
    %7 = ub.poison : i32 loc(#loc27)
    scf.for %r0_offset = %4 to %5 step %6  : i32 {
      %r0_index = tt.splat %r0_offset : i32 -> tensor<1x4096xi32> loc(#loc91)
      %r0_index_16 = arith.addi %r0_index, %r0_base_10 : tensor<1x4096xi32> loc(#loc91)
      %r0_mask = arith.constant dense<4096> : tensor<1x4096xi32> loc(#loc92)
      %r0_mask_17 = arith.cmpi slt, %r0_index_16, %r0_mask : tensor<1x4096xi32> loc(#loc92)
      %tmp6 = arith.constant 4096 : i32 loc(#loc93)
      %tmp6_18 = arith.constant 4096 : i32 loc(#loc93)
      %tmp6_19 = arith.constant dense<4096> : tensor<1x1xi32> loc(#loc93)
      %tmp6_20 = arith.muli %tmp6_19, %xindex_7 : tensor<1x1xi32> loc(#loc93)
      %tmp6_21 = tt.broadcast %tmp6_20 : tensor<1x1xi32> -> tensor<1x4096xi32> loc(#loc94)
      %tmp6_22 = arith.addi %r0_index_16, %tmp6_21 : tensor<1x4096xi32> loc(#loc94)
      %tmp6_23 = tt.splat %in_ptr0 : !tt.ptr<bf16> -> tensor<1x4096x!tt.ptr<bf16>> loc(#loc95)
      %tmp6_24 = tt.addptr %tmp6_23, %tmp6_22 : tensor<1x4096x!tt.ptr<bf16>>, tensor<1x4096xi32> loc(#loc95)
      %tmp6_25 = arith.constant 0.000000e+00 : f32 loc(#loc96)
      %tmp6_26 = arith.constant dense<0.000000e+00> : tensor<1x4096xf32> loc(#loc96)
      %tmp6_27 = arith.truncf %tmp6_26 : tensor<1x4096xf32> to tensor<1x4096xbf16> loc(#loc96)
      %tmp6_28 = tt.load %tmp6_24, %r0_mask_17, %tmp6_27 evictionPolicy = evict_first : tensor<1x4096x!tt.ptr<bf16>> loc(#loc96)
      %tmp6_29 = arith.extf %tmp6_28 : tensor<1x4096xbf16> to tensor<1x4096xf32> loc(#loc97)
      %tmp14 = tt.splat %in_ptr1 : !tt.ptr<bf16> -> tensor<1x4096x!tt.ptr<bf16>> loc(#loc98)
      %tmp14_30 = tt.addptr %tmp14, %r0_index_16 : tensor<1x4096x!tt.ptr<bf16>>, tensor<1x4096xi32> loc(#loc98)
      %tmp14_31 = arith.constant 0.000000e+00 : f32 loc(#loc99)
      %tmp14_32 = arith.constant dense<0.000000e+00> : tensor<1x4096xf32> loc(#loc99)
      %tmp14_33 = arith.truncf %tmp14_32 : tensor<1x4096xf32> to tensor<1x4096xbf16> loc(#loc99)
      %tmp14_34 = tt.load %tmp14_30, %r0_mask_17, %tmp14_33 evictionPolicy = evict_last : tensor<1x4096x!tt.ptr<bf16>> loc(#loc99)
      %tmp14_35 = arith.extf %tmp14_34 : tensor<1x4096xbf16> to tensor<1x4096xf32> loc(#loc100)
      %tmp8 = arith.constant 4.096000e+03 : f32 loc(#loc101)
      %tmp9 = arith.constant dense<4.096000e+03> : tensor<1x1xf32> loc(#loc102)
      %tmp9_36 = arith.divf %tmp4_13, %tmp9 : tensor<1x1xf32> loc(#loc102)
      %tmp10 = arith.constant 9.99999997E-7 : f32 loc(#loc103)
      %tmp11 = arith.constant dense<9.99999997E-7> : tensor<1x1xf32> loc(#loc104)
      %tmp11_37 = arith.addf %tmp9_36, %tmp11 : tensor<1x1xf32> loc(#loc104)
      %tmp12 = tt.extern_elementwise %tmp11_37 {libname = "", libpath = "", pure = true, symbol = "__nv_rsqrtf"} : (tensor<1x1xf32>) -> tensor<1x1xf32> loc(#loc105)
      %tmp13 = tt.broadcast %tmp12 : tensor<1x1xf32> -> tensor<1x4096xf32> loc(#loc106)
      %tmp13_38 = arith.mulf %tmp6_29, %tmp13 : tensor<1x4096xf32> loc(#loc106)
      %tmp16 = arith.constant 1.000000e+00 : f32 loc(#loc107)
      %tmp17 = arith.constant dense<1.000000e+00> : tensor<1x4096xf32> loc(#loc108)
      %tmp17_39 = arith.addf %tmp14_35, %tmp17 : tensor<1x4096xf32> loc(#loc108)
      %tmp18 = arith.mulf %tmp13_38, %tmp17_39 : tensor<1x4096xf32> loc(#loc109)
      %c4096_i32_40 = arith.constant 4096 : i32 loc(#loc47)
      %c4096_i32_41 = arith.constant 4096 : i32 loc(#loc47)
      %cst = arith.constant dense<4096> : tensor<1x1xi32> loc(#loc47)
      %8 = arith.muli %cst, %xindex_7 : tensor<1x1xi32> loc(#loc47)
      %9 = tt.broadcast %8 : tensor<1x1xi32> -> tensor<1x4096xi32> loc(#loc48)
      %10 = arith.addi %r0_index_16, %9 : tensor<1x4096xi32> loc(#loc48)
      %11 = tt.splat %out_ptr1 : !tt.ptr<bf16> -> tensor<1x4096x!tt.ptr<bf16>> loc(#loc49)
      %12 = tt.addptr %11, %10 : tensor<1x4096x!tt.ptr<bf16>>, tensor<1x4096xi32> loc(#loc49)
      %13 = arith.truncf %tmp18 : tensor<1x4096xf32> to tensor<1x4096xbf16> loc(#loc50)
      tt.store %12, %13, %r0_mask_17 : tensor<1x4096x!tt.ptr<bf16>> loc(#loc50)
    } loc(#loc27)
    tt.return loc(#loc51)
  } loc(#loc)
  tt.func private @"triton.language.standard.sum__fp32S1_4096S__(1,)cconstexpr_1__(2,)cconstexpr_False__(3,)cNone"(%input: tensor<1x4096xf32> loc("input"(#loc52))) -> tensor<1xf32> attributes {noinline = false} {
    %0 = "tt.reduce"(%input) <{axis = 1 : i32}> ({
    ^bb0(%arg1: f32 loc(unknown), %arg2: f32 loc(unknown)):
      %2 = tt.call @triton.language.standard._sum_combine__fp32_fp32__(%arg1, %arg2) : (f32, f32) -> f32 loc(#loc53)
      tt.reduce.return %2 : f32 loc(#loc53)
    }) : (tensor<1x4096xf32>) -> tensor<1xf32> loc(#loc53)
    tt.return %0 : tensor<1xf32> loc(#loc55)
  ^bb1:  // no predecessors
    %1 = ub.poison : tensor<1xf32> loc(#loc56)
    tt.return %1 : tensor<1xf32> loc(#loc56)
  } loc(#loc52)
  tt.func private @triton.language.standard._sum_combine__fp32_fp32__(%a: f32 loc("a"(#loc57)), %b: f32 loc("b"(#loc57))) -> f32 attributes {noinline = false} {
    %0 = arith.addf %a, %b : f32 loc(#loc58)
    tt.return %0 : f32 loc(#loc59)
  ^bb1:  // no predecessors
    %1 = ub.poison : f32 loc(#loc60)
    tt.return %1 : f32 loc(#loc60)
  } loc(#loc57)
} loc(#loc)
#loc1 = loc("/data/jcy/zzs/zijinhua/.vllm_cache_reflection/torch_compile/vg/cvg2zvnqd45uwg752xbxuftng4ghicceg4evf33axi6eieqgewk2.py":19:13)
#loc2 = loc("/data/jcy/zzs/zijinhua/.vllm_cache_reflection/torch_compile/vg/cvg2zvnqd45uwg752xbxuftng4ghicceg4evf33axi6eieqgewk2.py":20:15)
#loc3 = loc("/data/jcy/zzs/zijinhua/.vllm_cache_reflection/torch_compile/vg/cvg2zvnqd45uwg752xbxuftng4ghicceg4evf33axi6eieqgewk2.py":23:28)
#loc4 = loc("/data/jcy/zzs/zijinhua/.vllm_cache_reflection/torch_compile/vg/cvg2zvnqd45uwg752xbxuftng4ghicceg4evf33axi6eieqgewk2.py":23:33)
#loc5 = loc("/data/jcy/zzs/zijinhua/.vllm_cache_reflection/torch_compile/vg/cvg2zvnqd45uwg752xbxuftng4ghicceg4evf33axi6eieqgewk2.py":24:36)
#loc6 = loc("/data/jcy/zzs/zijinhua/.vllm_cache_reflection/torch_compile/vg/cvg2zvnqd45uwg752xbxuftng4ghicceg4evf33axi6eieqgewk2.py":24:44)
#loc7 = loc("/data/jcy/zzs/zijinhua/.vllm_cache_reflection/torch_compile/vg/cvg2zvnqd45uwg752xbxuftng4ghicceg4evf33axi6eieqgewk2.py":24:23)
#loc8 = loc("/data/jcy/zzs/zijinhua/.vllm_cache_reflection/torch_compile/vg/cvg2zvnqd45uwg752xbxuftng4ghicceg4evf33axi6eieqgewk2.py":25:36)
#loc9 = loc("/data/jcy/zzs/zijinhua/.vllm_cache_reflection/torch_compile/vg/cvg2zvnqd45uwg752xbxuftng4ghicceg4evf33axi6eieqgewk2.py":25:45)
#loc10 = loc("/data/jcy/zzs/zijinhua/.vllm_cache_reflection/torch_compile/vg/cvg2zvnqd45uwg752xbxuftng4ghicceg4evf33axi6eieqgewk2.py":26:27)
#loc11 = loc("/data/jcy/zzs/zijinhua/.vllm_cache_reflection/torch_compile/vg/cvg2zvnqd45uwg752xbxuftng4ghicceg4evf33axi6eieqgewk2.py":26:37)
#loc12 = loc("/data/jcy/zzs/zijinhua/.vllm_cache_reflection/torch_compile/vg/cvg2zvnqd45uwg752xbxuftng4ghicceg4evf33axi6eieqgewk2.py":29:43)
#loc13 = loc("/data/jcy/zzs/zijinhua/.vllm_cache_reflection/torch_compile/vg/cvg2zvnqd45uwg752xbxuftng4ghicceg4evf33axi6eieqgewk2.py":30:40)
#loc14 = loc("/data/jcy/zzs/zijinhua/.vllm_cache_reflection/torch_compile/vg/cvg2zvnqd45uwg752xbxuftng4ghicceg4evf33axi6eieqgewk2.py":31:31)
#loc15 = loc("/data/jcy/zzs/zijinhua/.vllm_cache_reflection/torch_compile/vg/cvg2zvnqd45uwg752xbxuftng4ghicceg4evf33axi6eieqgewk2.py":32:29)
#loc16 = loc("/data/jcy/zzs/zijinhua/.vllm_cache_reflection/torch_compile/vg/cvg2zvnqd45uwg752xbxuftng4ghicceg4evf33axi6eieqgewk2.py":36:46)
#loc17 = loc("/data/jcy/zzs/zijinhua/.vllm_cache_reflection/torch_compile/vg/cvg2zvnqd45uwg752xbxuftng4ghicceg4evf33axi6eieqgewk2.py":36:41)
#loc18 = loc("/data/jcy/zzs/zijinhua/.vllm_cache_reflection/torch_compile/vg/cvg2zvnqd45uwg752xbxuftng4ghicceg4evf33axi6eieqgewk2.py":36:34)
#loc19 = loc("/data/jcy/zzs/zijinhua/.vllm_cache_reflection/torch_compile/vg/cvg2zvnqd45uwg752xbxuftng4ghicceg4evf33axi6eieqgewk2.py":36:51)
#loc20 = loc("/data/jcy/zzs/zijinhua/.vllm_cache_reflection/torch_compile/vg/cvg2zvnqd45uwg752xbxuftng4ghicceg4evf33axi6eieqgewk2.py":36:104)
#loc21 = loc("/data/jcy/zzs/zijinhua/.vllm_cache_reflection/torch_compile/vg/cvg2zvnqd45uwg752xbxuftng4ghicceg4evf33axi6eieqgewk2.py":38:22)
#loc22 = loc("/data/jcy/zzs/zijinhua/.vllm_cache_reflection/torch_compile/vg/cvg2zvnqd45uwg752xbxuftng4ghicceg4evf33axi6eieqgewk2.py":40:23)
#loc23 = loc("/data/jcy/zzs/zijinhua/.vllm_cache_reflection/torch_compile/vg/cvg2zvnqd45uwg752xbxuftng4ghicceg4evf33axi6eieqgewk2.py":41:40)
#loc24 = loc("/data/jcy/zzs/zijinhua/.vllm_cache_reflection/torch_compile/vg/cvg2zvnqd45uwg752xbxuftng4ghicceg4evf33axi6eieqgewk2.py":41:8)
#loc25 = loc("/data/jcy/zzs/zijinhua/.vllm_cache_reflection/torch_compile/vg/cvg2zvnqd45uwg752xbxuftng4ghicceg4evf33axi6eieqgewk2.py":42:25)
#loc26 = loc("/data/jcy/zzs/zijinhua/.vllm_cache_reflection/torch_compile/vg/cvg2zvnqd45uwg752xbxuftng4ghicceg4evf33axi6eieqgewk2.py":42:28)
#loc27 = loc("/data/jcy/zzs/zijinhua/.vllm_cache_reflection/torch_compile/vg/cvg2zvnqd45uwg752xbxuftng4ghicceg4evf33axi6eieqgewk2.py":43:40)
#loc28 = loc("/data/jcy/zzs/zijinhua/.vllm_cache_reflection/torch_compile/vg/cvg2zvnqd45uwg752xbxuftng4ghicceg4evf33axi6eieqgewk2.py":44:31)
#loc29 = loc("/data/jcy/zzs/zijinhua/.vllm_cache_reflection/torch_compile/vg/cvg2zvnqd45uwg752xbxuftng4ghicceg4evf33axi6eieqgewk2.py":45:29)
#loc30 = loc("/data/jcy/zzs/zijinhua/.vllm_cache_reflection/torch_compile/vg/cvg2zvnqd45uwg752xbxuftng4ghicceg4evf33axi6eieqgewk2.py":49:46)
#loc31 = loc("/data/jcy/zzs/zijinhua/.vllm_cache_reflection/torch_compile/vg/cvg2zvnqd45uwg752xbxuftng4ghicceg4evf33axi6eieqgewk2.py":49:41)
#loc32 = loc("/data/jcy/zzs/zijinhua/.vllm_cache_reflection/torch_compile/vg/cvg2zvnqd45uwg752xbxuftng4ghicceg4evf33axi6eieqgewk2.py":49:34)
#loc33 = loc("/data/jcy/zzs/zijinhua/.vllm_cache_reflection/torch_compile/vg/cvg2zvnqd45uwg752xbxuftng4ghicceg4evf33axi6eieqgewk2.py":49:51)
#loc34 = loc("/data/jcy/zzs/zijinhua/.vllm_cache_reflection/torch_compile/vg/cvg2zvnqd45uwg752xbxuftng4ghicceg4evf33axi6eieqgewk2.py":49:105)
#loc35 = loc("/data/jcy/zzs/zijinhua/.vllm_cache_reflection/torch_compile/vg/cvg2zvnqd45uwg752xbxuftng4ghicceg4evf33axi6eieqgewk2.py":50:35)
#loc36 = loc("/data/jcy/zzs/zijinhua/.vllm_cache_reflection/torch_compile/vg/cvg2zvnqd45uwg752xbxuftng4ghicceg4evf33axi6eieqgewk2.py":50:42)
#loc37 = loc("/data/jcy/zzs/zijinhua/.vllm_cache_reflection/torch_compile/vg/cvg2zvnqd45uwg752xbxuftng4ghicceg4evf33axi6eieqgewk2.py":50:95)
#loc38 = loc("/data/jcy/zzs/zijinhua/.vllm_cache_reflection/torch_compile/vg/cvg2zvnqd45uwg752xbxuftng4ghicceg4evf33axi6eieqgewk2.py":52:15)
#loc39 = loc("/data/jcy/zzs/zijinhua/.vllm_cache_reflection/torch_compile/vg/cvg2zvnqd45uwg752xbxuftng4ghicceg4evf33axi6eieqgewk2.py":53:23)
#loc40 = loc("/data/jcy/zzs/zijinhua/.vllm_cache_reflection/torch_compile/vg/cvg2zvnqd45uwg752xbxuftng4ghicceg4evf33axi6eieqgewk2.py":54:16)
#loc41 = loc("/data/jcy/zzs/zijinhua/.vllm_cache_reflection/torch_compile/vg/cvg2zvnqd45uwg752xbxuftng4ghicceg4evf33axi6eieqgewk2.py":55:23)
#loc42 = loc("/data/jcy/zzs/zijinhua/.vllm_cache_reflection/torch_compile/vg/cvg2zvnqd45uwg752xbxuftng4ghicceg4evf33axi6eieqgewk2.py":56:32)
#loc43 = loc("/data/jcy/zzs/zijinhua/.vllm_cache_reflection/torch_compile/vg/cvg2zvnqd45uwg752xbxuftng4ghicceg4evf33axi6eieqgewk2.py":57:23)
#loc44 = loc("/data/jcy/zzs/zijinhua/.vllm_cache_reflection/torch_compile/vg/cvg2zvnqd45uwg752xbxuftng4ghicceg4evf33axi6eieqgewk2.py":59:16)
#loc45 = loc("/data/jcy/zzs/zijinhua/.vllm_cache_reflection/torch_compile/vg/cvg2zvnqd45uwg752xbxuftng4ghicceg4evf33axi6eieqgewk2.py":60:24)
#loc46 = loc("/data/jcy/zzs/zijinhua/.vllm_cache_reflection/torch_compile/vg/cvg2zvnqd45uwg752xbxuftng4ghicceg4evf33axi6eieqgewk2.py":61:24)
#loc47 = loc("/data/jcy/zzs/zijinhua/.vllm_cache_reflection/torch_compile/vg/cvg2zvnqd45uwg752xbxuftng4ghicceg4evf33axi6eieqgewk2.py":63:41)
#loc48 = loc("/data/jcy/zzs/zijinhua/.vllm_cache_reflection/torch_compile/vg/cvg2zvnqd45uwg752xbxuftng4ghicceg4evf33axi6eieqgewk2.py":63:36)
#loc49 = loc("/data/jcy/zzs/zijinhua/.vllm_cache_reflection/torch_compile/vg/cvg2zvnqd45uwg752xbxuftng4ghicceg4evf33axi6eieqgewk2.py":63:29)
#loc50 = loc("/data/jcy/zzs/zijinhua/.vllm_cache_reflection/torch_compile/vg/cvg2zvnqd45uwg752xbxuftng4ghicceg4evf33axi6eieqgewk2.py":63:53)
#loc51 = loc("/data/jcy/zzs/zijinhua/.vllm_cache_reflection/torch_compile/vg/cvg2zvnqd45uwg752xbxuftng4ghicceg4evf33axi6eieqgewk2.py":43:4)
#loc53 = loc("/data/conda/envs/or_llm/lib/python3.12/site-packages/triton/language/standard.py":293:36)
#loc55 = loc("/data/conda/envs/or_llm/lib/python3.12/site-packages/triton/language/standard.py":293:11)
#loc56 = loc("/data/conda/envs/or_llm/lib/python3.12/site-packages/triton/language/standard.py":293:4)
#loc58 = loc("/data/conda/envs/or_llm/lib/python3.12/site-packages/triton/language/standard.py":263:15)
#loc59 = loc("/data/conda/envs/or_llm/lib/python3.12/site-packages/triton/language/standard.py":263:11)
#loc60 = loc("/data/conda/envs/or_llm/lib/python3.12/site-packages/triton/language/standard.py":263:4)
#loc66 = loc("xnumel"(#loc1))
#loc67 = loc("r0_numel"(#loc2))
#loc68 = loc("xoffset"(#loc3))
#loc69 = loc("xoffset"(#loc4))
#loc70 = loc("xindex"(#loc5))
#loc71 = loc("xindex"(#loc6))
#loc72 = loc("xindex"(#loc7))
#loc73 = loc("xmask"(#loc8))
#loc74 = loc("xmask"(#loc9))
#loc75 = loc("r0_base"(#loc10))
#loc76 = loc("r0_base"(#loc11))
#loc77 = loc("_tmp4"(#loc12))
#loc78 = loc("_tmp4"(#loc13))
#loc79 = loc("r0_index"(#loc14))
#loc80 = loc("r0_mask"(#loc15))
#loc81 = loc("tmp0"(#loc16))
#loc82 = loc("tmp0"(#loc17))
#loc83 = loc("tmp0"(#loc18))
#loc84 = loc("tmp0"(#loc19))
#loc85 = loc("tmp0"(#loc20))
#loc86 = loc("tmp2"(#loc21))
#loc87 = loc("tmp5"(#loc22))
#loc88 = loc("_tmp4"(#loc23))
#loc89 = loc("tmp4"(#loc25))
#loc90 = loc("tmp4"(#loc26))
#loc91 = loc("r0_index"(#loc28))
#loc92 = loc("r0_mask"(#loc29))
#loc93 = loc("tmp6"(#loc30))
#loc94 = loc("tmp6"(#loc31))
#loc95 = loc("tmp6"(#loc32))
#loc96 = loc("tmp6"(#loc33))
#loc97 = loc("tmp6"(#loc34))
#loc98 = loc("tmp14"(#loc35))
#loc99 = loc("tmp14"(#loc36))
#loc100 = loc("tmp14"(#loc37))
#loc101 = loc("tmp8"(#loc38))
#loc102 = loc("tmp9"(#loc39))
#loc103 = loc("tmp10"(#loc40))
#loc104 = loc("tmp11"(#loc41))
#loc105 = loc("tmp12"(#loc42))
#loc106 = loc("tmp13"(#loc43))
#loc107 = loc("tmp16"(#loc44))
#loc108 = loc("tmp17"(#loc45))
#loc109 = loc("tmp18"(#loc46))
