#loc = loc("/data/conda/envs/or_llm/lib/python3.12/site-packages/vllm/model_executor/layers/fla/ops/l2norm.py":79:0)
#loc2 = loc(unknown)
#loc20 = loc("/data/conda/envs/or_llm/lib/python3.12/site-packages/vllm/model_executor/layers/fla/ops/l2norm.py":90:52)
#loc29 = loc("X"(#loc))
#loc30 = loc("Y"(#loc))
#loc31 = loc("eps"(#loc))
#loc32 = loc("M"(#loc))
#loc50 = loc("square_sum"(#loc20))
#loc55 = loc(callsite(#loc2 at #loc50))
module {
  tt.func public @l2norm_fwd_kernel2(%X: !tt.ptr<bf16> {tt.divisibility = 16 : i32} loc("X"(#loc)), %Y: !tt.ptr<bf16> {tt.divisibility = 16 : i32} loc("Y"(#loc)), %eps: f32 loc("eps"(#loc)), %M: i32 {tt.divisibility = 16 : i32} loc("M"(#loc))) attributes {noinline = false} {
    %xs = arith.constant dense<0.000000e+00> : tensor<32x128xbf16> loc(#loc33)
    %cst = arith.constant dense<0.000000e+00> : tensor<32x128xf32> loc(#loc2)
    %cst_0 = arith.constant dense<128> : tensor<32x1xi32> loc(#loc2)
    %cmask = arith.constant dense<128> : tensor<1x128xi32> loc(#loc34)
    %c32_i32 = arith.constant 32 : i32 loc(#loc2)
    %xoffset = tt.get_program_id x : i32 loc(#loc35)
    %xoffset_1 = arith.muli %xoffset, %c32_i32 : i32 loc(#loc36)
    %row_idx = tt.make_range {end = 32 : i32, start = 0 : i32} : tensor<32xi32> loc(#loc37)
    %row_idx_2 = tt.expand_dims %row_idx {axis = 1 : i32} : tensor<32xi32> -> tensor<32x1xi32> loc(#loc38)
    %row_idx_3 = tt.splat %xoffset_1 : i32 -> tensor<32x1xi32> loc(#loc39)
    %row_idx_4 = arith.addi %row_idx_3, %row_idx_2 : tensor<32x1xi32> loc(#loc39)
    %xmask = tt.splat %M : i32 -> tensor<32x1xi32> loc(#loc40)
    %xmask_5 = arith.cmpi slt, %row_idx_4, %xmask : tensor<32x1xi32> loc(#loc40)
    %rindex = tt.make_range {end = 128 : i32, start = 0 : i32} : tensor<128xi32> loc(#loc41)
    %rindex_6 = tt.expand_dims %rindex {axis = 0 : i32} : tensor<128xi32> -> tensor<1x128xi32> loc(#loc42)
    %cmask_7 = arith.cmpi slt, %rindex_6, %cmask : tensor<1x128xi32> loc(#loc34)
    %mask = tt.broadcast %xmask_5 : tensor<32x1xi1> -> tensor<32x128xi1> loc(#loc43)
    %mask_8 = tt.broadcast %cmask_7 : tensor<1x128xi1> -> tensor<32x128xi1> loc(#loc43)
    %mask_9 = arith.andi %mask, %mask_8 : tensor<32x128xi1> loc(#loc43)
    %xs_10 = arith.muli %row_idx_4, %cst_0 : tensor<32x1xi32> loc(#loc44)
    %xs_11 = tt.broadcast %rindex_6 : tensor<1x128xi32> -> tensor<32x128xi32> loc(#loc45)
    %xs_12 = tt.broadcast %xs_10 : tensor<32x1xi32> -> tensor<32x128xi32> loc(#loc45)
    %xs_13 = arith.addi %xs_11, %xs_12 : tensor<32x128xi32> loc(#loc45)
    %xs_14 = tt.splat %X : !tt.ptr<bf16> -> tensor<32x128x!tt.ptr<bf16>> loc(#loc46)
    %xs_15 = tt.addptr %xs_14, %xs_13 : tensor<32x128x!tt.ptr<bf16>>, tensor<32x128xi32> loc(#loc46)
    %xs_16 = tt.load %xs_15, %mask_9, %xs : tensor<32x128x!tt.ptr<bf16>> loc(#loc33)
    %xs_17 = arith.extf %xs_16 : tensor<32x128xbf16> to tensor<32x128xf32> loc(#loc47)
    %square = arith.mulf %xs_17, %xs_17 : tensor<32x128xf32> loc(#loc48)
    %square_sum = arith.select %mask, %square, %cst : tensor<32x128xi1>, tensor<32x128xf32> loc(#loc49)
    %square_sum_18 = "tt.reduce"(%square_sum) <{axis = 1 : i32}> ({
    ^bb0(%square_sum_22: f32 loc(callsite(#loc2 at #loc50)), %square_sum_23: f32 loc(callsite(#loc2 at #loc50))):
      %square_sum_24 = arith.addf %square_sum_22, %square_sum_23 : f32 loc(#loc56)
      tt.reduce.return %square_sum_24 : f32 loc(#loc54)
    }) : (tensor<32x128xf32>) -> tensor<32xf32> loc(#loc54)
    %square_sum_19 = tt.expand_dims %square_sum_18 {axis = 1 : i32} : tensor<32xf32> -> tensor<32x1xf32> loc(#loc51)
    %rsqrt = tt.splat %eps : f32 -> tensor<32x1xf32> loc(#loc52)
    %rsqrt_20 = arith.addf %square_sum_19, %rsqrt : tensor<32x1xf32> loc(#loc52)
    %rsqrt_21 = math.rsqrt %rsqrt_20 : tensor<32x1xf32> loc(#loc53)
    %0 = tt.splat %Y : !tt.ptr<bf16> -> tensor<32x128x!tt.ptr<bf16>> loc(#loc25)
    %1 = tt.addptr %0, %xs_13 : tensor<32x128x!tt.ptr<bf16>>, tensor<32x128xi32> loc(#loc25)
    %2 = tt.broadcast %rsqrt_21 : tensor<32x1xf32> -> tensor<32x128xf32> loc(#loc26)
    %3 = arith.mulf %xs_17, %2 : tensor<32x128xf32> loc(#loc26)
    %4 = arith.truncf %3 : tensor<32x128xf32> to tensor<32x128xbf16> loc(#loc27)
    tt.store %1, %4, %mask_9 : tensor<32x128x!tt.ptr<bf16>> loc(#loc27)
    tt.return loc(#loc28)
  } loc(#loc)
} loc(#loc)
#loc1 = loc("/data/conda/envs/or_llm/lib/python3.12/site-packages/vllm/model_executor/layers/fla/ops/l2norm.py":88:45)
#loc3 = loc("/data/conda/envs/or_llm/lib/python3.12/site-packages/vllm/model_executor/layers/fla/ops/l2norm.py":86:21)
#loc4 = loc("/data/conda/envs/or_llm/lib/python3.12/site-packages/vllm/model_executor/layers/fla/ops/l2norm.py":82:28)
#loc5 = loc("/data/conda/envs/or_llm/lib/python3.12/site-packages/vllm/model_executor/layers/fla/ops/l2norm.py":82:33)
#loc6 = loc("/data/conda/envs/or_llm/lib/python3.12/site-packages/vllm/model_executor/layers/fla/ops/l2norm.py":83:37)
#loc7 = loc("/data/conda/envs/or_llm/lib/python3.12/site-packages/vllm/model_executor/layers/fla/ops/l2norm.py":83:45)
#loc8 = loc("/data/conda/envs/or_llm/lib/python3.12/site-packages/vllm/model_executor/layers/fla/ops/l2norm.py":83:24)
#loc9 = loc("/data/conda/envs/or_llm/lib/python3.12/site-packages/vllm/model_executor/layers/fla/ops/l2norm.py":84:22)
#loc10 = loc("/data/conda/envs/or_llm/lib/python3.12/site-packages/vllm/model_executor/layers/fla/ops/l2norm.py":85:26)
#loc11 = loc("/data/conda/envs/or_llm/lib/python3.12/site-packages/vllm/model_executor/layers/fla/ops/l2norm.py":85:30)
#loc12 = loc("/data/conda/envs/or_llm/lib/python3.12/site-packages/vllm/model_executor/layers/fla/ops/l2norm.py":87:19)
#loc13 = loc("/data/conda/envs/or_llm/lib/python3.12/site-packages/vllm/model_executor/layers/fla/ops/l2norm.py":88:35)
#loc14 = loc("/data/conda/envs/or_llm/lib/python3.12/site-packages/vllm/model_executor/layers/fla/ops/l2norm.py":88:31)
#loc15 = loc("/data/conda/envs/or_llm/lib/python3.12/site-packages/vllm/model_executor/layers/fla/ops/l2norm.py":88:22)
#loc16 = loc("/data/conda/envs/or_llm/lib/python3.12/site-packages/vllm/model_executor/layers/fla/ops/l2norm.py":88:65)
#loc17 = loc("/data/conda/envs/or_llm/lib/python3.12/site-packages/vllm/model_executor/layers/fla/ops/l2norm.py":89:34)
#loc18 = loc("/data/conda/envs/or_llm/lib/python3.12/site-packages/vllm/model_executor/layers/fla/ops/l2norm.py":90:48)
#loc19 = loc("/data/conda/envs/or_llm/lib/python3.12/site-packages/triton/language/standard.py":293:36)
#loc21 = loc("/data/conda/envs/or_llm/lib/python3.12/site-packages/triton/language/standard.py":263:15)
#loc22 = loc("/data/conda/envs/or_llm/lib/python3.12/site-packages/vllm/model_executor/layers/fla/ops/l2norm.py":90:55)
#loc23 = loc("/data/conda/envs/or_llm/lib/python3.12/site-packages/vllm/model_executor/layers/fla/ops/l2norm.py":91:34)
#loc24 = loc("/data/conda/envs/or_llm/lib/python3.12/site-packages/vllm/model_executor/layers/fla/ops/l2norm.py":91:21)
#loc25 = loc("/data/conda/envs/or_llm/lib/python3.12/site-packages/vllm/model_executor/layers/fla/ops/l2norm.py":92:18)
#loc26 = loc("/data/conda/envs/or_llm/lib/python3.12/site-packages/vllm/model_executor/layers/fla/ops/l2norm.py":92:46)
#loc27 = loc("/data/conda/envs/or_llm/lib/python3.12/site-packages/vllm/model_executor/layers/fla/ops/l2norm.py":92:53)
#loc28 = loc("/data/conda/envs/or_llm/lib/python3.12/site-packages/vllm/model_executor/layers/fla/ops/l2norm.py":92:4)
#loc33 = loc("xs"(#loc1))
#loc34 = loc("cmask"(#loc3))
#loc35 = loc("xoffset"(#loc4))
#loc36 = loc("xoffset"(#loc5))
#loc37 = loc("row_idx"(#loc6))
#loc38 = loc("row_idx"(#loc7))
#loc39 = loc("row_idx"(#loc8))
#loc40 = loc("xmask"(#loc9))
#loc41 = loc("rindex"(#loc10))
#loc42 = loc("rindex"(#loc11))
#loc43 = loc("mask"(#loc12))
#loc44 = loc("xs"(#loc13))
#loc45 = loc("xs"(#loc14))
#loc46 = loc("xs"(#loc15))
#loc47 = loc("xs"(#loc16))
#loc48 = loc("square"(#loc17))
#loc49 = loc("square_sum"(#loc18))
#loc51 = loc("square_sum"(#loc22))
#loc52 = loc("rsqrt"(#loc23))
#loc53 = loc("rsqrt"(#loc24))
#loc54 = loc(callsite(#loc19 at #loc50))
#loc56 = loc(callsite(#loc21 at #loc54))
