#loc = loc("/data/jcy/zzs/zijinhua/.vllm_cache_reflection/torch_compile/mt/cmtc5iwtjwwwwtytuqnlamk7qv3naiqerwnx5nbavqyn7zsnsrn5.py":18:0)
#loc52 = loc("/data/conda/envs/or_llm/lib/python3.12/site-packages/triton/language/standard.py":287:0)
#loc54 = loc(unknown)
#loc57 = loc("/data/conda/envs/or_llm/lib/python3.12/site-packages/triton/language/standard.py":262:0)
#loc61 = loc("in_ptr0"(#loc))
#loc62 = loc("in_ptr1"(#loc))
#loc63 = loc("in_ptr2"(#loc))
#loc64 = loc("out_ptr0"(#loc))
#loc65 = loc("out_ptr2"(#loc))
#loc66 = loc("r0_numel"(#loc))
#loc111 = loc("input"(#loc52))
#loc112 = loc("a"(#loc57))
#loc113 = loc("b"(#loc57))
module {
  tt.func public @triton_red_fused__to_copy_add_mean_mul_pow_rsqrt_0(%in_ptr0: !tt.ptr<bf16> {tt.divisibility = 16 : i32} loc("in_ptr0"(#loc)), %in_ptr1: !tt.ptr<bf16> {tt.divisibility = 16 : i32} loc("in_ptr1"(#loc)), %in_ptr2: !tt.ptr<bf16> {tt.divisibility = 16 : i32} loc("in_ptr2"(#loc)), %out_ptr0: !tt.ptr<bf16> {tt.divisibility = 16 : i32} loc("out_ptr0"(#loc)), %out_ptr2: !tt.ptr<bf16> {tt.divisibility = 16 : i32} loc("out_ptr2"(#loc)), %r0_numel: i32 {tt.divisibility = 16 : i32} loc("r0_numel"(#loc))) attributes {noinline = false} {
    %xnumel = arith.constant 1 : i32 loc(#loc67)
    %r0_numel_0 = arith.constant 4096 : i32 loc(#loc68)
    %xoffset = tt.get_program_id x : i32 loc(#loc69)
    %xoffset_1 = arith.constant 1 : i32 loc(#loc70)
    %xoffset_2 = arith.constant 1 : i32 loc(#loc70)
    %xoffset_3 = arith.muli %xoffset, %xoffset_2 : i32 loc(#loc70)
    %xindex = tt.make_range {end = 1 : i32, start = 0 : i32} : tensor<1xi32> loc(#loc71)
    %xindex_4 = tt.expand_dims %xindex {axis = 1 : i32} : tensor<1xi32> -> tensor<1x1xi32> loc(#loc72)
    %xindex_5 = tt.splat %xoffset_3 : i32 -> tensor<1x1xi32> loc(#loc73)
    %xindex_6 = arith.addi %xindex_5, %xindex_4 : tensor<1x1xi32> loc(#loc73)
    %xmask = arith.constant true loc(#loc74)
    %xmask_7 = arith.constant dense<true> : tensor<1xi1> loc(#loc74)
    %xmask_8 = tt.expand_dims %xmask_7 {axis = 1 : i32} : tensor<1xi1> -> tensor<1x1xi1> loc(#loc75)
    %r0_base = tt.make_range {end = 4096 : i32, start = 0 : i32} : tensor<4096xi32> loc(#loc76)
    %r0_base_9 = tt.expand_dims %r0_base {axis = 0 : i32} : tensor<4096xi32> -> tensor<1x4096xi32> loc(#loc77)
    %_tmp6 = arith.constant 0.000000e+00 : f32 loc(#loc78)
    %_tmp6_10 = arith.constant dense<0.000000e+00> : tensor<1x4096xf32> loc(#loc78)
    %c0_i32 = arith.constant 0 : i32 loc(#loc13)
    %c4096_i32 = arith.constant 4096 : i32 loc(#loc13)
    %0 = arith.bitcast %c0_i32 : i32 to i32 loc(#loc13)
    %1 = arith.bitcast %r0_numel_0 : i32 to i32 loc(#loc13)
    %2 = arith.bitcast %c4096_i32 : i32 to i32 loc(#loc13)
    %3 = ub.poison : i32 loc(#loc13)
    %_tmp6_11 = scf.for %r0_offset = %0 to %1 step %2 iter_args(%_tmp6_15 = %_tmp6_10) -> (tensor<1x4096xf32>)  : i32 {
      %r0_index = tt.splat %r0_offset : i32 -> tensor<1x4096xi32> loc(#loc80)
      %r0_index_16 = arith.addi %r0_index, %r0_base_9 : tensor<1x4096xi32> loc(#loc80)
      %r0_mask = arith.constant dense<4096> : tensor<1x4096xi32> loc(#loc81)
      %r0_mask_17 = arith.cmpi slt, %r0_index_16, %r0_mask : tensor<1x4096xi32> loc(#loc81)
      %tmp0 = tt.splat %in_ptr0 : !tt.ptr<bf16> -> tensor<1x4096x!tt.ptr<bf16>> loc(#loc82)
      %tmp0_18 = tt.addptr %tmp0, %r0_index_16 : tensor<1x4096x!tt.ptr<bf16>>, tensor<1x4096xi32> loc(#loc82)
      %tmp0_19 = arith.constant 0.000000e+00 : f32 loc(#loc83)
      %tmp0_20 = arith.constant dense<0.000000e+00> : tensor<1x4096xf32> loc(#loc83)
      %tmp0_21 = arith.truncf %tmp0_20 : tensor<1x4096xf32> to tensor<1x4096xbf16> loc(#loc83)
      %tmp0_22 = tt.load %tmp0_18, %r0_mask_17, %tmp0_21 evictionPolicy = evict_first : tensor<1x4096x!tt.ptr<bf16>> loc(#loc83)
      %tmp0_23 = arith.extf %tmp0_22 : tensor<1x4096xbf16> to tensor<1x4096xf32> loc(#loc84)
      %tmp1 = tt.splat %in_ptr1 : !tt.ptr<bf16> -> tensor<1x4096x!tt.ptr<bf16>> loc(#loc85)
      %tmp1_24 = tt.addptr %tmp1, %r0_index_16 : tensor<1x4096x!tt.ptr<bf16>>, tensor<1x4096xi32> loc(#loc85)
      %tmp1_25 = arith.constant 0.000000e+00 : f32 loc(#loc86)
      %tmp1_26 = arith.constant dense<0.000000e+00> : tensor<1x4096xf32> loc(#loc86)
      %tmp1_27 = arith.truncf %tmp1_26 : tensor<1x4096xf32> to tensor<1x4096xbf16> loc(#loc86)
      %tmp1_28 = tt.load %tmp1_24, %r0_mask_17, %tmp1_27 evictionPolicy = evict_first : tensor<1x4096x!tt.ptr<bf16>> loc(#loc86)
      %tmp1_29 = arith.extf %tmp1_28 : tensor<1x4096xbf16> to tensor<1x4096xf32> loc(#loc87)
      %tmp2 = arith.addf %tmp0_23, %tmp1_29 : tensor<1x4096xf32> loc(#loc88)
      %tmp4 = arith.mulf %tmp2, %tmp2 : tensor<1x4096xf32> loc(#loc89)
      %tmp7 = arith.addf %_tmp6_15, %tmp4 : tensor<1x4096xf32> loc(#loc90)
      %_tmp6_30 = arith.select %r0_mask_17, %tmp7, %_tmp6_15 : tensor<1x4096xi1>, tensor<1x4096xf32> loc(#loc91)
      %8 = tt.splat %out_ptr0 : !tt.ptr<bf16> -> tensor<1x4096x!tt.ptr<bf16>> loc(#loc26)
      %9 = tt.addptr %8, %r0_index_16 : tensor<1x4096x!tt.ptr<bf16>>, tensor<1x4096xi32> loc(#loc26)
      %10 = arith.truncf %tmp2 : tensor<1x4096xf32> to tensor<1x4096xbf16> loc(#loc27)
      tt.store %9, %10, %r0_mask_17 : tensor<1x4096x!tt.ptr<bf16>> loc(#loc27)
      scf.yield %_tmp6_30 : tensor<1x4096xf32> loc(#loc28)
    } loc(#loc79)
    %tmp6 = tt.call @"triton.language.standard.sum__fp32S1_4096S__(1,)cconstexpr_1__(2,)cconstexpr_False__(3,)cNone"(%_tmp6_11) : (tensor<1x4096xf32>) -> tensor<1xf32> loc(#loc92)
    %tmp6_12 = tt.expand_dims %tmp6 {axis = 1 : i32} : tensor<1xf32> -> tensor<1x1xf32> loc(#loc93)
    %c0_i32_13 = arith.constant 0 : i32 loc(#loc31)
    %c4096_i32_14 = arith.constant 4096 : i32 loc(#loc31)
    %4 = arith.bitcast %c0_i32_13 : i32 to i32 loc(#loc31)
    %5 = arith.bitcast %r0_numel_0 : i32 to i32 loc(#loc31)
    %6 = arith.bitcast %c4096_i32_14 : i32 to i32 loc(#loc31)
    %7 = ub.poison : i32 loc(#loc31)
    scf.for %r0_offset = %4 to %5 step %6  : i32 {
      %r0_index = tt.splat %r0_offset : i32 -> tensor<1x4096xi32> loc(#loc94)
      %r0_index_15 = arith.addi %r0_index, %r0_base_9 : tensor<1x4096xi32> loc(#loc94)
      %r0_mask = arith.constant dense<4096> : tensor<1x4096xi32> loc(#loc95)
      %r0_mask_16 = arith.cmpi slt, %r0_index_15, %r0_mask : tensor<1x4096xi32> loc(#loc95)
      %tmp8 = tt.splat %out_ptr0 : !tt.ptr<bf16> -> tensor<1x4096x!tt.ptr<bf16>> loc(#loc96)
      %tmp8_17 = tt.addptr %tmp8, %r0_index_15 : tensor<1x4096x!tt.ptr<bf16>>, tensor<1x4096xi32> loc(#loc96)
      %tmp8_18 = arith.constant 0.000000e+00 : f32 loc(#loc97)
      %tmp8_19 = arith.constant dense<0.000000e+00> : tensor<1x4096xf32> loc(#loc97)
      %tmp8_20 = arith.truncf %tmp8_19 : tensor<1x4096xf32> to tensor<1x4096xbf16> loc(#loc97)
      %tmp8_21 = tt.load %tmp8_17, %r0_mask_16, %tmp8_20 evictionPolicy = evict_first : tensor<1x4096x!tt.ptr<bf16>> loc(#loc97)
      %tmp8_22 = arith.extf %tmp8_21 : tensor<1x4096xbf16> to tensor<1x4096xf32> loc(#loc98)
      %tmp16 = tt.splat %in_ptr2 : !tt.ptr<bf16> -> tensor<1x4096x!tt.ptr<bf16>> loc(#loc99)
      %tmp16_23 = tt.addptr %tmp16, %r0_index_15 : tensor<1x4096x!tt.ptr<bf16>>, tensor<1x4096xi32> loc(#loc99)
      %tmp16_24 = arith.constant 0.000000e+00 : f32 loc(#loc100)
      %tmp16_25 = arith.constant dense<0.000000e+00> : tensor<1x4096xf32> loc(#loc100)
      %tmp16_26 = arith.truncf %tmp16_25 : tensor<1x4096xf32> to tensor<1x4096xbf16> loc(#loc100)
      %tmp16_27 = tt.load %tmp16_23, %r0_mask_16, %tmp16_26 evictionPolicy = evict_first : tensor<1x4096x!tt.ptr<bf16>> loc(#loc100)
      %tmp16_28 = arith.extf %tmp16_27 : tensor<1x4096xbf16> to tensor<1x4096xf32> loc(#loc101)
      %tmp10 = arith.constant 4.096000e+03 : f32 loc(#loc102)
      %tmp11 = arith.constant dense<4.096000e+03> : tensor<1x1xf32> loc(#loc103)
      %tmp11_29 = arith.divf %tmp6_12, %tmp11 : tensor<1x1xf32> loc(#loc103)
      %tmp12 = arith.constant 9.99999997E-7 : f32 loc(#loc104)
      %tmp13 = arith.constant dense<9.99999997E-7> : tensor<1x1xf32> loc(#loc105)
      %tmp13_30 = arith.addf %tmp11_29, %tmp13 : tensor<1x1xf32> loc(#loc105)
      %tmp14 = tt.extern_elementwise %tmp13_30 {libname = "", libpath = "", pure = true, symbol = "__nv_rsqrtf"} : (tensor<1x1xf32>) -> tensor<1x1xf32> loc(#loc106)
      %tmp15 = tt.broadcast %tmp14 : tensor<1x1xf32> -> tensor<1x4096xf32> loc(#loc107)
      %tmp15_31 = arith.mulf %tmp8_22, %tmp15 : tensor<1x4096xf32> loc(#loc107)
      %tmp18 = arith.constant 1.000000e+00 : f32 loc(#loc108)
      %tmp19 = arith.constant dense<1.000000e+00> : tensor<1x4096xf32> loc(#loc109)
      %tmp19_32 = arith.addf %tmp16_28, %tmp19 : tensor<1x4096xf32> loc(#loc109)
      %tmp20 = arith.mulf %tmp15_31, %tmp19_32 : tensor<1x4096xf32> loc(#loc110)
      %8 = tt.splat %out_ptr2 : !tt.ptr<bf16> -> tensor<1x4096x!tt.ptr<bf16>> loc(#loc49)
      %9 = tt.addptr %8, %r0_index_15 : tensor<1x4096x!tt.ptr<bf16>>, tensor<1x4096xi32> loc(#loc49)
      %10 = arith.truncf %tmp20 : tensor<1x4096xf32> to tensor<1x4096xbf16> loc(#loc50)
      tt.store %9, %10, %r0_mask_16 : tensor<1x4096x!tt.ptr<bf16>> loc(#loc50)
    } loc(#loc31)
    tt.return loc(#loc51)
  } loc(#loc)
  tt.func private @"triton.language.standard.sum__fp32S1_4096S__(1,)cconstexpr_1__(2,)cconstexpr_False__(3,)cNone"(%input: tensor<1x4096xf32> loc("input"(#loc52))) -> tensor<1xf32> attributes {noinline = false} {
    %0 = "tt.reduce"(%input) <{axis = 1 : i32}> ({
    ^bb0(%arg1: f32 loc(unknown), %arg2: f32 loc(unknown)):
      %2 = tt.call @triton.language.standard._sum_combine__fp32_fp32__(%arg1, %arg2) : (f32, f32) -> f32 loc(#loc53)
      tt.reduce.return %2 : f32 loc(#loc53)
    }) : (tensor<1x4096xf32>) -> tensor<1xf32> loc(#loc53)
    tt.return %0 : tensor<1xf32> loc(#loc55)
  ^bb1:  // no predecessors
    %1 = ub.poison : tensor<1xf32> loc(#loc56)
    tt.return %1 : tensor<1xf32> loc(#loc56)
  } loc(#loc52)
  tt.func private @triton.language.standard._sum_combine__fp32_fp32__(%a: f32 loc("a"(#loc57)), %b: f32 loc("b"(#loc57))) -> f32 attributes {noinline = false} {
    %0 = arith.addf %a, %b : f32 loc(#loc58)
    tt.return %0 : f32 loc(#loc59)
  ^bb1:  // no predecessors
    %1 = ub.poison : f32 loc(#loc60)
    tt.return %1 : f32 loc(#loc60)
  } loc(#loc57)
} loc(#loc)
#loc1 = loc("/data/jcy/zzs/zijinhua/.vllm_cache_reflection/torch_compile/mt/cmtc5iwtjwwwwtytuqnlamk7qv3naiqerwnx5nbavqyn7zsnsrn5.py":19:13)
#loc2 = loc("/data/jcy/zzs/zijinhua/.vllm_cache_reflection/torch_compile/mt/cmtc5iwtjwwwwtytuqnlamk7qv3naiqerwnx5nbavqyn7zsnsrn5.py":20:15)
#loc3 = loc("/data/jcy/zzs/zijinhua/.vllm_cache_reflection/torch_compile/mt/cmtc5iwtjwwwwtytuqnlamk7qv3naiqerwnx5nbavqyn7zsnsrn5.py":23:28)
#loc4 = loc("/data/jcy/zzs/zijinhua/.vllm_cache_reflection/torch_compile/mt/cmtc5iwtjwwwwtytuqnlamk7qv3naiqerwnx5nbavqyn7zsnsrn5.py":23:33)
#loc5 = loc("/data/jcy/zzs/zijinhua/.vllm_cache_reflection/torch_compile/mt/cmtc5iwtjwwwwtytuqnlamk7qv3naiqerwnx5nbavqyn7zsnsrn5.py":24:36)
#loc6 = loc("/data/jcy/zzs/zijinhua/.vllm_cache_reflection/torch_compile/mt/cmtc5iwtjwwwwtytuqnlamk7qv3naiqerwnx5nbavqyn7zsnsrn5.py":24:44)
#loc7 = loc("/data/jcy/zzs/zijinhua/.vllm_cache_reflection/torch_compile/mt/cmtc5iwtjwwwwtytuqnlamk7qv3naiqerwnx5nbavqyn7zsnsrn5.py":24:23)
#loc8 = loc("/data/jcy/zzs/zijinhua/.vllm_cache_reflection/torch_compile/mt/cmtc5iwtjwwwwtytuqnlamk7qv3naiqerwnx5nbavqyn7zsnsrn5.py":25:36)
#loc9 = loc("/data/jcy/zzs/zijinhua/.vllm_cache_reflection/torch_compile/mt/cmtc5iwtjwwwwtytuqnlamk7qv3naiqerwnx5nbavqyn7zsnsrn5.py":25:45)
#loc10 = loc("/data/jcy/zzs/zijinhua/.vllm_cache_reflection/torch_compile/mt/cmtc5iwtjwwwwtytuqnlamk7qv3naiqerwnx5nbavqyn7zsnsrn5.py":26:27)
#loc11 = loc("/data/jcy/zzs/zijinhua/.vllm_cache_reflection/torch_compile/mt/cmtc5iwtjwwwwtytuqnlamk7qv3naiqerwnx5nbavqyn7zsnsrn5.py":26:37)
#loc12 = loc("/data/jcy/zzs/zijinhua/.vllm_cache_reflection/torch_compile/mt/cmtc5iwtjwwwwtytuqnlamk7qv3naiqerwnx5nbavqyn7zsnsrn5.py":28:43)
#loc13 = loc("/data/jcy/zzs/zijinhua/.vllm_cache_reflection/torch_compile/mt/cmtc5iwtjwwwwtytuqnlamk7qv3naiqerwnx5nbavqyn7zsnsrn5.py":29:40)
#loc14 = loc("/data/jcy/zzs/zijinhua/.vllm_cache_reflection/torch_compile/mt/cmtc5iwtjwwwwtytuqnlamk7qv3naiqerwnx5nbavqyn7zsnsrn5.py":30:31)
#loc15 = loc("/data/jcy/zzs/zijinhua/.vllm_cache_reflection/torch_compile/mt/cmtc5iwtjwwwwtytuqnlamk7qv3naiqerwnx5nbavqyn7zsnsrn5.py":31:29)
#loc16 = loc("/data/jcy/zzs/zijinhua/.vllm_cache_reflection/torch_compile/mt/cmtc5iwtjwwwwtytuqnlamk7qv3naiqerwnx5nbavqyn7zsnsrn5.py":35:34)
#loc17 = loc("/data/jcy/zzs/zijinhua/.vllm_cache_reflection/torch_compile/mt/cmtc5iwtjwwwwtytuqnlamk7qv3naiqerwnx5nbavqyn7zsnsrn5.py":35:41)
#loc18 = loc("/data/jcy/zzs/zijinhua/.vllm_cache_reflection/torch_compile/mt/cmtc5iwtjwwwwtytuqnlamk7qv3naiqerwnx5nbavqyn7zsnsrn5.py":35:95)
#loc19 = loc("/data/jcy/zzs/zijinhua/.vllm_cache_reflection/torch_compile/mt/cmtc5iwtjwwwwtytuqnlamk7qv3naiqerwnx5nbavqyn7zsnsrn5.py":36:34)
#loc20 = loc("/data/jcy/zzs/zijinhua/.vllm_cache_reflection/torch_compile/mt/cmtc5iwtjwwwwtytuqnlamk7qv3naiqerwnx5nbavqyn7zsnsrn5.py":36:41)
#loc21 = loc("/data/jcy/zzs/zijinhua/.vllm_cache_reflection/torch_compile/mt/cmtc5iwtjwwwwtytuqnlamk7qv3naiqerwnx5nbavqyn7zsnsrn5.py":36:95)
#loc22 = loc("/data/jcy/zzs/zijinhua/.vllm_cache_reflection/torch_compile/mt/cmtc5iwtjwwwwtytuqnlamk7qv3naiqerwnx5nbavqyn7zsnsrn5.py":37:22)
#loc23 = loc("/data/jcy/zzs/zijinhua/.vllm_cache_reflection/torch_compile/mt/cmtc5iwtjwwwwtytuqnlamk7qv3naiqerwnx5nbavqyn7zsnsrn5.py":39:22)
#loc24 = loc("/data/jcy/zzs/zijinhua/.vllm_cache_reflection/torch_compile/mt/cmtc5iwtjwwwwtytuqnlamk7qv3naiqerwnx5nbavqyn7zsnsrn5.py":41:23)
#loc25 = loc("/data/jcy/zzs/zijinhua/.vllm_cache_reflection/torch_compile/mt/cmtc5iwtjwwwwtytuqnlamk7qv3naiqerwnx5nbavqyn7zsnsrn5.py":42:40)
#loc26 = loc("/data/jcy/zzs/zijinhua/.vllm_cache_reflection/torch_compile/mt/cmtc5iwtjwwwwtytuqnlamk7qv3naiqerwnx5nbavqyn7zsnsrn5.py":43:29)
#loc27 = loc("/data/jcy/zzs/zijinhua/.vllm_cache_reflection/torch_compile/mt/cmtc5iwtjwwwwtytuqnlamk7qv3naiqerwnx5nbavqyn7zsnsrn5.py":43:79)
#loc28 = loc("/data/jcy/zzs/zijinhua/.vllm_cache_reflection/torch_compile/mt/cmtc5iwtjwwwwtytuqnlamk7qv3naiqerwnx5nbavqyn7zsnsrn5.py":43:8)
#loc29 = loc("/data/jcy/zzs/zijinhua/.vllm_cache_reflection/torch_compile/mt/cmtc5iwtjwwwwtytuqnlamk7qv3naiqerwnx5nbavqyn7zsnsrn5.py":44:25)
#loc30 = loc("/data/jcy/zzs/zijinhua/.vllm_cache_reflection/torch_compile/mt/cmtc5iwtjwwwwtytuqnlamk7qv3naiqerwnx5nbavqyn7zsnsrn5.py":44:28)
#loc31 = loc("/data/jcy/zzs/zijinhua/.vllm_cache_reflection/torch_compile/mt/cmtc5iwtjwwwwtytuqnlamk7qv3naiqerwnx5nbavqyn7zsnsrn5.py":45:40)
#loc32 = loc("/data/jcy/zzs/zijinhua/.vllm_cache_reflection/torch_compile/mt/cmtc5iwtjwwwwtytuqnlamk7qv3naiqerwnx5nbavqyn7zsnsrn5.py":46:31)
#loc33 = loc("/data/jcy/zzs/zijinhua/.vllm_cache_reflection/torch_compile/mt/cmtc5iwtjwwwwtytuqnlamk7qv3naiqerwnx5nbavqyn7zsnsrn5.py":47:29)
#loc34 = loc("/data/jcy/zzs/zijinhua/.vllm_cache_reflection/torch_compile/mt/cmtc5iwtjwwwwtytuqnlamk7qv3naiqerwnx5nbavqyn7zsnsrn5.py":51:35)
#loc35 = loc("/data/jcy/zzs/zijinhua/.vllm_cache_reflection/torch_compile/mt/cmtc5iwtjwwwwtytuqnlamk7qv3naiqerwnx5nbavqyn7zsnsrn5.py":51:42)
#loc36 = loc("/data/jcy/zzs/zijinhua/.vllm_cache_reflection/torch_compile/mt/cmtc5iwtjwwwwtytuqnlamk7qv3naiqerwnx5nbavqyn7zsnsrn5.py":51:96)
#loc37 = loc("/data/jcy/zzs/zijinhua/.vllm_cache_reflection/torch_compile/mt/cmtc5iwtjwwwwtytuqnlamk7qv3naiqerwnx5nbavqyn7zsnsrn5.py":52:35)
#loc38 = loc("/data/jcy/zzs/zijinhua/.vllm_cache_reflection/torch_compile/mt/cmtc5iwtjwwwwtytuqnlamk7qv3naiqerwnx5nbavqyn7zsnsrn5.py":52:42)
#loc39 = loc("/data/jcy/zzs/zijinhua/.vllm_cache_reflection/torch_compile/mt/cmtc5iwtjwwwwtytuqnlamk7qv3naiqerwnx5nbavqyn7zsnsrn5.py":52:96)
#loc40 = loc("/data/jcy/zzs/zijinhua/.vllm_cache_reflection/torch_compile/mt/cmtc5iwtjwwwwtytuqnlamk7qv3naiqerwnx5nbavqyn7zsnsrn5.py":54:16)
#loc41 = loc("/data/jcy/zzs/zijinhua/.vllm_cache_reflection/torch_compile/mt/cmtc5iwtjwwwwtytuqnlamk7qv3naiqerwnx5nbavqyn7zsnsrn5.py":55:24)
#loc42 = loc("/data/jcy/zzs/zijinhua/.vllm_cache_reflection/torch_compile/mt/cmtc5iwtjwwwwtytuqnlamk7qv3naiqerwnx5nbavqyn7zsnsrn5.py":56:16)
#loc43 = loc("/data/jcy/zzs/zijinhua/.vllm_cache_reflection/torch_compile/mt/cmtc5iwtjwwwwtytuqnlamk7qv3naiqerwnx5nbavqyn7zsnsrn5.py":57:24)
#loc44 = loc("/data/jcy/zzs/zijinhua/.vllm_cache_reflection/torch_compile/mt/cmtc5iwtjwwwwtytuqnlamk7qv3naiqerwnx5nbavqyn7zsnsrn5.py":58:32)
#loc45 = loc("/data/jcy/zzs/zijinhua/.vllm_cache_reflection/torch_compile/mt/cmtc5iwtjwwwwtytuqnlamk7qv3naiqerwnx5nbavqyn7zsnsrn5.py":59:23)
#loc46 = loc("/data/jcy/zzs/zijinhua/.vllm_cache_reflection/torch_compile/mt/cmtc5iwtjwwwwtytuqnlamk7qv3naiqerwnx5nbavqyn7zsnsrn5.py":61:16)
#loc47 = loc("/data/jcy/zzs/zijinhua/.vllm_cache_reflection/torch_compile/mt/cmtc5iwtjwwwwtytuqnlamk7qv3naiqerwnx5nbavqyn7zsnsrn5.py":62:24)
#loc48 = loc("/data/jcy/zzs/zijinhua/.vllm_cache_reflection/torch_compile/mt/cmtc5iwtjwwwwtytuqnlamk7qv3naiqerwnx5nbavqyn7zsnsrn5.py":63:24)
#loc49 = loc("/data/jcy/zzs/zijinhua/.vllm_cache_reflection/torch_compile/mt/cmtc5iwtjwwwwtytuqnlamk7qv3naiqerwnx5nbavqyn7zsnsrn5.py":65:29)
#loc50 = loc("/data/jcy/zzs/zijinhua/.vllm_cache_reflection/torch_compile/mt/cmtc5iwtjwwwwtytuqnlamk7qv3naiqerwnx5nbavqyn7zsnsrn5.py":65:80)
#loc51 = loc("/data/jcy/zzs/zijinhua/.vllm_cache_reflection/torch_compile/mt/cmtc5iwtjwwwwtytuqnlamk7qv3naiqerwnx5nbavqyn7zsnsrn5.py":45:4)
#loc53 = loc("/data/conda/envs/or_llm/lib/python3.12/site-packages/triton/language/standard.py":293:36)
#loc55 = loc("/data/conda/envs/or_llm/lib/python3.12/site-packages/triton/language/standard.py":293:11)
#loc56 = loc("/data/conda/envs/or_llm/lib/python3.12/site-packages/triton/language/standard.py":293:4)
#loc58 = loc("/data/conda/envs/or_llm/lib/python3.12/site-packages/triton/language/standard.py":263:15)
#loc59 = loc("/data/conda/envs/or_llm/lib/python3.12/site-packages/triton/language/standard.py":263:11)
#loc60 = loc("/data/conda/envs/or_llm/lib/python3.12/site-packages/triton/language/standard.py":263:4)
#loc67 = loc("xnumel"(#loc1))
#loc68 = loc("r0_numel"(#loc2))
#loc69 = loc("xoffset"(#loc3))
#loc70 = loc("xoffset"(#loc4))
#loc71 = loc("xindex"(#loc5))
#loc72 = loc("xindex"(#loc6))
#loc73 = loc("xindex"(#loc7))
#loc74 = loc("xmask"(#loc8))
#loc75 = loc("xmask"(#loc9))
#loc76 = loc("r0_base"(#loc10))
#loc77 = loc("r0_base"(#loc11))
#loc78 = loc("_tmp6"(#loc12))
#loc79 = loc("_tmp6"(#loc13))
#loc80 = loc("r0_index"(#loc14))
#loc81 = loc("r0_mask"(#loc15))
#loc82 = loc("tmp0"(#loc16))
#loc83 = loc("tmp0"(#loc17))
#loc84 = loc("tmp0"(#loc18))
#loc85 = loc("tmp1"(#loc19))
#loc86 = loc("tmp1"(#loc20))
#loc87 = loc("tmp1"(#loc21))
#loc88 = loc("tmp2"(#loc22))
#loc89 = loc("tmp4"(#loc23))
#loc90 = loc("tmp7"(#loc24))
#loc91 = loc("_tmp6"(#loc25))
#loc92 = loc("tmp6"(#loc29))
#loc93 = loc("tmp6"(#loc30))
#loc94 = loc("r0_index"(#loc32))
#loc95 = loc("r0_mask"(#loc33))
#loc96 = loc("tmp8"(#loc34))
#loc97 = loc("tmp8"(#loc35))
#loc98 = loc("tmp8"(#loc36))
#loc99 = loc("tmp16"(#loc37))
#loc100 = loc("tmp16"(#loc38))
#loc101 = loc("tmp16"(#loc39))
#loc102 = loc("tmp10"(#loc40))
#loc103 = loc("tmp11"(#loc41))
#loc104 = loc("tmp12"(#loc42))
#loc105 = loc("tmp13"(#loc43))
#loc106 = loc("tmp14"(#loc44))
#loc107 = loc("tmp15"(#loc45))
#loc108 = loc("tmp18"(#loc46))
#loc109 = loc("tmp19"(#loc47))
#loc110 = loc("tmp20"(#loc48))
