#loc = loc("/data/jcy/zzs/zijinhua/.vllm_cache_reflection/torch_compile/mt/cmtc5iwtjwwwwtytuqnlamk7qv3naiqerwnx5nbavqyn7zsnsrn5.py":18:0)
#loc1 = loc(unknown)
#loc18 = loc("/data/jcy/zzs/zijinhua/.vllm_cache_reflection/torch_compile/mt/cmtc5iwtjwwwwtytuqnlamk7qv3naiqerwnx5nbavqyn7zsnsrn5.py":44:25)
#loc35 = loc("in_ptr0"(#loc))
#loc36 = loc("in_ptr1"(#loc))
#loc37 = loc("in_ptr2"(#loc))
#loc38 = loc("out_ptr0"(#loc))
#loc39 = loc("out_ptr2"(#loc))
#loc40 = loc("r0_numel"(#loc))
#loc54 = loc("tmp6"(#loc18))
#loc68 = loc(callsite(#loc1 at #loc54))
module {
  tt.func public @triton_red_fused__to_copy_add_mean_mul_pow_rsqrt_0(%in_ptr0: !tt.ptr<bf16> {tt.divisibility = 16 : i32} loc("in_ptr0"(#loc)), %in_ptr1: !tt.ptr<bf16> {tt.divisibility = 16 : i32} loc("in_ptr1"(#loc)), %in_ptr2: !tt.ptr<bf16> {tt.divisibility = 16 : i32} loc("in_ptr2"(#loc)), %out_ptr0: !tt.ptr<bf16> {tt.divisibility = 16 : i32} loc("out_ptr0"(#loc)), %out_ptr2: !tt.ptr<bf16> {tt.divisibility = 16 : i32} loc("out_ptr2"(#loc)), %r0_numel: i32 {tt.divisibility = 16 : i32} loc("r0_numel"(#loc))) attributes {noinline = false} {
    %cst = arith.constant dense<0.000000e+00> : tensor<1x4096xbf16> loc(#loc1)
    %cst_0 = arith.constant dense<1.000000e+00> : tensor<1x4096xf32> loc(#loc1)
    %cst_1 = arith.constant dense<9.99999997E-7> : tensor<1x1xf32> loc(#loc1)
    %cst_2 = arith.constant dense<4.096000e+03> : tensor<1x1xf32> loc(#loc1)
    %cst_3 = arith.constant dense<4096> : tensor<1x4096xi32> loc(#loc1)
    %cst_4 = arith.constant dense<0.000000e+00> : tensor<1x4096xf32> loc(#loc1)
    %r0_base = tt.make_range {end = 4096 : i32, start = 0 : i32} : tensor<4096xi32> loc(#loc41)
    %r0_base_5 = tt.expand_dims %r0_base {axis = 0 : i32} : tensor<4096xi32> -> tensor<1x4096xi32> loc(#loc42)
    %r0_mask = arith.cmpi slt, %r0_base_5, %cst_3 : tensor<1x4096xi32> loc(#loc43)
    %tmp0 = tt.splat %in_ptr0 : !tt.ptr<bf16> -> tensor<1x4096x!tt.ptr<bf16>> loc(#loc44)
    %tmp0_6 = tt.addptr %tmp0, %r0_base_5 : tensor<1x4096x!tt.ptr<bf16>>, tensor<1x4096xi32> loc(#loc44)
    %tmp0_7 = tt.load %tmp0_6, %r0_mask, %cst evictionPolicy = evict_first : tensor<1x4096x!tt.ptr<bf16>> loc(#loc45)
    %tmp0_8 = arith.extf %tmp0_7 : tensor<1x4096xbf16> to tensor<1x4096xf32> loc(#loc46)
    %tmp1 = tt.splat %in_ptr1 : !tt.ptr<bf16> -> tensor<1x4096x!tt.ptr<bf16>> loc(#loc47)
    %tmp1_9 = tt.addptr %tmp1, %r0_base_5 : tensor<1x4096x!tt.ptr<bf16>>, tensor<1x4096xi32> loc(#loc47)
    %tmp1_10 = tt.load %tmp1_9, %r0_mask, %cst evictionPolicy = evict_first : tensor<1x4096x!tt.ptr<bf16>> loc(#loc48)
    %tmp1_11 = arith.extf %tmp1_10 : tensor<1x4096xbf16> to tensor<1x4096xf32> loc(#loc49)
    %tmp2 = arith.addf %tmp0_8, %tmp1_11 : tensor<1x4096xf32> loc(#loc50)
    %tmp4 = arith.mulf %tmp2, %tmp2 : tensor<1x4096xf32> loc(#loc51)
    %tmp7 = arith.addf %tmp4, %cst_4 : tensor<1x4096xf32> loc(#loc52)
    %_tmp6 = arith.select %r0_mask, %tmp7, %cst_4 : tensor<1x4096xi1>, tensor<1x4096xf32> loc(#loc53)
    %0 = tt.splat %out_ptr0 : !tt.ptr<bf16> -> tensor<1x4096x!tt.ptr<bf16>> loc(#loc15)
    %1 = tt.addptr %0, %r0_base_5 : tensor<1x4096x!tt.ptr<bf16>>, tensor<1x4096xi32> loc(#loc15)
    %2 = arith.truncf %tmp2 : tensor<1x4096xf32> to tensor<1x4096xbf16> loc(#loc16)
    tt.store %1, %2, %r0_mask : tensor<1x4096x!tt.ptr<bf16>> loc(#loc16)
    %tmp6 = "tt.reduce"(%_tmp6) <{axis = 1 : i32}> ({
    ^bb0(%tmp6_18: f32 loc(callsite(#loc1 at #loc54)), %tmp6_19: f32 loc(callsite(#loc1 at #loc54))):
      %tmp6_20 = arith.addf %tmp6_18, %tmp6_19 : f32 loc(#loc69)
      tt.reduce.return %tmp6_20 : f32 loc(#loc67)
    }) : (tensor<1x4096xf32>) -> tensor<1xf32> loc(#loc67)
    %tmp6_12 = tt.expand_dims %tmp6 {axis = 1 : i32} : tensor<1xf32> -> tensor<1x1xf32> loc(#loc55)
    %tmp8 = tt.load %1, %r0_mask, %cst evictionPolicy = evict_first : tensor<1x4096x!tt.ptr<bf16>> loc(#loc56)
    %tmp8_13 = arith.extf %tmp8 : tensor<1x4096xbf16> to tensor<1x4096xf32> loc(#loc57)
    %tmp16 = tt.splat %in_ptr2 : !tt.ptr<bf16> -> tensor<1x4096x!tt.ptr<bf16>> loc(#loc58)
    %tmp16_14 = tt.addptr %tmp16, %r0_base_5 : tensor<1x4096x!tt.ptr<bf16>>, tensor<1x4096xi32> loc(#loc58)
    %tmp16_15 = tt.load %tmp16_14, %r0_mask, %cst evictionPolicy = evict_first : tensor<1x4096x!tt.ptr<bf16>> loc(#loc59)
    %tmp16_16 = arith.extf %tmp16_15 : tensor<1x4096xbf16> to tensor<1x4096xf32> loc(#loc60)
    %tmp11 = arith.divf %tmp6_12, %cst_2 : tensor<1x1xf32> loc(#loc61)
    %tmp13 = arith.addf %tmp11, %cst_1 : tensor<1x1xf32> loc(#loc62)
    %tmp14 = tt.extern_elementwise %tmp13 {libname = "", libpath = "", pure = true, symbol = "__nv_rsqrtf"} : (tensor<1x1xf32>) -> tensor<1x1xf32> loc(#loc63)
    %tmp15 = tt.broadcast %tmp14 : tensor<1x1xf32> -> tensor<1x4096xf32> loc(#loc64)
    %tmp15_17 = arith.mulf %tmp8_13, %tmp15 : tensor<1x4096xf32> loc(#loc64)
    %tmp19 = arith.addf %tmp16_16, %cst_0 : tensor<1x4096xf32> loc(#loc65)
    %tmp20 = arith.mulf %tmp15_17, %tmp19 : tensor<1x4096xf32> loc(#loc66)
    %3 = tt.splat %out_ptr2 : !tt.ptr<bf16> -> tensor<1x4096x!tt.ptr<bf16>> loc(#loc32)
    %4 = tt.addptr %3, %r0_base_5 : tensor<1x4096x!tt.ptr<bf16>>, tensor<1x4096xi32> loc(#loc32)
    %5 = arith.truncf %tmp20 : tensor<1x4096xf32> to tensor<1x4096xbf16> loc(#loc33)
    tt.store %4, %5, %r0_mask : tensor<1x4096x!tt.ptr<bf16>> loc(#loc33)
    tt.return loc(#loc34)
  } loc(#loc)
} loc(#loc)
#loc2 = loc("/data/jcy/zzs/zijinhua/.vllm_cache_reflection/torch_compile/mt/cmtc5iwtjwwwwtytuqnlamk7qv3naiqerwnx5nbavqyn7zsnsrn5.py":26:27)
#loc3 = loc("/data/jcy/zzs/zijinhua/.vllm_cache_reflection/torch_compile/mt/cmtc5iwtjwwwwtytuqnlamk7qv3naiqerwnx5nbavqyn7zsnsrn5.py":26:37)
#loc4 = loc("/data/jcy/zzs/zijinhua/.vllm_cache_reflection/torch_compile/mt/cmtc5iwtjwwwwtytuqnlamk7qv3naiqerwnx5nbavqyn7zsnsrn5.py":31:29)
#loc5 = loc("/data/jcy/zzs/zijinhua/.vllm_cache_reflection/torch_compile/mt/cmtc5iwtjwwwwtytuqnlamk7qv3naiqerwnx5nbavqyn7zsnsrn5.py":35:34)
#loc6 = loc("/data/jcy/zzs/zijinhua/.vllm_cache_reflection/torch_compile/mt/cmtc5iwtjwwwwtytuqnlamk7qv3naiqerwnx5nbavqyn7zsnsrn5.py":35:41)
#loc7 = loc("/data/jcy/zzs/zijinhua/.vllm_cache_reflection/torch_compile/mt/cmtc5iwtjwwwwtytuqnlamk7qv3naiqerwnx5nbavqyn7zsnsrn5.py":35:95)
#loc8 = loc("/data/jcy/zzs/zijinhua/.vllm_cache_reflection/torch_compile/mt/cmtc5iwtjwwwwtytuqnlamk7qv3naiqerwnx5nbavqyn7zsnsrn5.py":36:34)
#loc9 = loc("/data/jcy/zzs/zijinhua/.vllm_cache_reflection/torch_compile/mt/cmtc5iwtjwwwwtytuqnlamk7qv3naiqerwnx5nbavqyn7zsnsrn5.py":36:41)
#loc10 = loc("/data/jcy/zzs/zijinhua/.vllm_cache_reflection/torch_compile/mt/cmtc5iwtjwwwwtytuqnlamk7qv3naiqerwnx5nbavqyn7zsnsrn5.py":36:95)
#loc11 = loc("/data/jcy/zzs/zijinhua/.vllm_cache_reflection/torch_compile/mt/cmtc5iwtjwwwwtytuqnlamk7qv3naiqerwnx5nbavqyn7zsnsrn5.py":37:22)
#loc12 = loc("/data/jcy/zzs/zijinhua/.vllm_cache_reflection/torch_compile/mt/cmtc5iwtjwwwwtytuqnlamk7qv3naiqerwnx5nbavqyn7zsnsrn5.py":39:22)
#loc13 = loc("/data/jcy/zzs/zijinhua/.vllm_cache_reflection/torch_compile/mt/cmtc5iwtjwwwwtytuqnlamk7qv3naiqerwnx5nbavqyn7zsnsrn5.py":41:23)
#loc14 = loc("/data/jcy/zzs/zijinhua/.vllm_cache_reflection/torch_compile/mt/cmtc5iwtjwwwwtytuqnlamk7qv3naiqerwnx5nbavqyn7zsnsrn5.py":42:40)
#loc15 = loc("/data/jcy/zzs/zijinhua/.vllm_cache_reflection/torch_compile/mt/cmtc5iwtjwwwwtytuqnlamk7qv3naiqerwnx5nbavqyn7zsnsrn5.py":43:29)
#loc16 = loc("/data/jcy/zzs/zijinhua/.vllm_cache_reflection/torch_compile/mt/cmtc5iwtjwwwwtytuqnlamk7qv3naiqerwnx5nbavqyn7zsnsrn5.py":43:79)
#loc17 = loc("/data/conda/envs/or_llm/lib/python3.12/site-packages/triton/language/standard.py":293:36)
#loc19 = loc("/data/conda/envs/or_llm/lib/python3.12/site-packages/triton/language/standard.py":263:15)
#loc20 = loc("/data/jcy/zzs/zijinhua/.vllm_cache_reflection/torch_compile/mt/cmtc5iwtjwwwwtytuqnlamk7qv3naiqerwnx5nbavqyn7zsnsrn5.py":44:28)
#loc21 = loc("/data/jcy/zzs/zijinhua/.vllm_cache_reflection/torch_compile/mt/cmtc5iwtjwwwwtytuqnlamk7qv3naiqerwnx5nbavqyn7zsnsrn5.py":51:42)
#loc22 = loc("/data/jcy/zzs/zijinhua/.vllm_cache_reflection/torch_compile/mt/cmtc5iwtjwwwwtytuqnlamk7qv3naiqerwnx5nbavqyn7zsnsrn5.py":51:96)
#loc23 = loc("/data/jcy/zzs/zijinhua/.vllm_cache_reflection/torch_compile/mt/cmtc5iwtjwwwwtytuqnlamk7qv3naiqerwnx5nbavqyn7zsnsrn5.py":52:35)
#loc24 = loc("/data/jcy/zzs/zijinhua/.vllm_cache_reflection/torch_compile/mt/cmtc5iwtjwwwwtytuqnlamk7qv3naiqerwnx5nbavqyn7zsnsrn5.py":52:42)
#loc25 = loc("/data/jcy/zzs/zijinhua/.vllm_cache_reflection/torch_compile/mt/cmtc5iwtjwwwwtytuqnlamk7qv3naiqerwnx5nbavqyn7zsnsrn5.py":52:96)
#loc26 = loc("/data/jcy/zzs/zijinhua/.vllm_cache_reflection/torch_compile/mt/cmtc5iwtjwwwwtytuqnlamk7qv3naiqerwnx5nbavqyn7zsnsrn5.py":55:24)
#loc27 = loc("/data/jcy/zzs/zijinhua/.vllm_cache_reflection/torch_compile/mt/cmtc5iwtjwwwwtytuqnlamk7qv3naiqerwnx5nbavqyn7zsnsrn5.py":57:24)
#loc28 = loc("/data/jcy/zzs/zijinhua/.vllm_cache_reflection/torch_compile/mt/cmtc5iwtjwwwwtytuqnlamk7qv3naiqerwnx5nbavqyn7zsnsrn5.py":58:32)
#loc29 = loc("/data/jcy/zzs/zijinhua/.vllm_cache_reflection/torch_compile/mt/cmtc5iwtjwwwwtytuqnlamk7qv3naiqerwnx5nbavqyn7zsnsrn5.py":59:23)
#loc30 = loc("/data/jcy/zzs/zijinhua/.vllm_cache_reflection/torch_compile/mt/cmtc5iwtjwwwwtytuqnlamk7qv3naiqerwnx5nbavqyn7zsnsrn5.py":62:24)
#loc31 = loc("/data/jcy/zzs/zijinhua/.vllm_cache_reflection/torch_compile/mt/cmtc5iwtjwwwwtytuqnlamk7qv3naiqerwnx5nbavqyn7zsnsrn5.py":63:24)
#loc32 = loc("/data/jcy/zzs/zijinhua/.vllm_cache_reflection/torch_compile/mt/cmtc5iwtjwwwwtytuqnlamk7qv3naiqerwnx5nbavqyn7zsnsrn5.py":65:29)
#loc33 = loc("/data/jcy/zzs/zijinhua/.vllm_cache_reflection/torch_compile/mt/cmtc5iwtjwwwwtytuqnlamk7qv3naiqerwnx5nbavqyn7zsnsrn5.py":65:80)
#loc34 = loc("/data/jcy/zzs/zijinhua/.vllm_cache_reflection/torch_compile/mt/cmtc5iwtjwwwwtytuqnlamk7qv3naiqerwnx5nbavqyn7zsnsrn5.py":45:4)
#loc41 = loc("r0_base"(#loc2))
#loc42 = loc("r0_base"(#loc3))
#loc43 = loc("r0_mask"(#loc4))
#loc44 = loc("tmp0"(#loc5))
#loc45 = loc("tmp0"(#loc6))
#loc46 = loc("tmp0"(#loc7))
#loc47 = loc("tmp1"(#loc8))
#loc48 = loc("tmp1"(#loc9))
#loc49 = loc("tmp1"(#loc10))
#loc50 = loc("tmp2"(#loc11))
#loc51 = loc("tmp4"(#loc12))
#loc52 = loc("tmp7"(#loc13))
#loc53 = loc("_tmp6"(#loc14))
#loc55 = loc("tmp6"(#loc20))
#loc56 = loc("tmp8"(#loc21))
#loc57 = loc("tmp8"(#loc22))
#loc58 = loc("tmp16"(#loc23))
#loc59 = loc("tmp16"(#loc24))
#loc60 = loc("tmp16"(#loc25))
#loc61 = loc("tmp11"(#loc26))
#loc62 = loc("tmp13"(#loc27))
#loc63 = loc("tmp14"(#loc28))
#loc64 = loc("tmp15"(#loc29))
#loc65 = loc("tmp19"(#loc30))
#loc66 = loc("tmp20"(#loc31))
#loc67 = loc(callsite(#loc17 at #loc54))
#loc69 = loc(callsite(#loc19 at #loc67))
