#loc = loc("/data/conda/envs/or_llm/lib/python3.12/site-packages/vllm/model_executor/layers/fla/ops/chunk_o.py":42:0)
#loc70 = loc("q"(#loc))
#loc71 = loc("k"(#loc))
#loc72 = loc("v"(#loc))
#loc73 = loc("h"(#loc))
#loc74 = loc("g"(#loc))
#loc75 = loc("o"(#loc))
#loc76 = loc("cu_seqlens"(#loc))
#loc77 = loc("chunk_indices"(#loc))
#loc78 = loc("scale"(#loc))
#loc79 = loc("T"(#loc))
module {
  tt.func public @chunk_fwd_kernel_o(%q: !tt.ptr<bf16> {tt.divisibility = 16 : i32} loc("q"(#loc)), %k: !tt.ptr<bf16> {tt.divisibility = 16 : i32} loc("k"(#loc)), %v: !tt.ptr<bf16> {tt.divisibility = 16 : i32} loc("v"(#loc)), %h: !tt.ptr<bf16> {tt.divisibility = 16 : i32} loc("h"(#loc)), %g: !tt.ptr<f32> {tt.divisibility = 16 : i32} loc("g"(#loc)), %o: !tt.ptr<bf16> {tt.divisibility = 16 : i32} loc("o"(#loc)), %cu_seqlens: !tt.ptr<i32> {tt.divisibility = 16 : i32} loc("cu_seqlens"(#loc)), %chunk_indices: !tt.ptr<i32> {tt.divisibility = 16 : i32} loc("chunk_indices"(#loc)), %scale: f32 loc("scale"(#loc)), %T: i32 loc("T"(#loc))) attributes {noinline = false} {
    %cst = arith.constant dense<128> : tensor<1x64xi64> loc(#loc1)
    %cst_0 = arith.constant dense<0> : tensor<1x64xi64> loc(#loc1)
    %cst_1 = arith.constant dense<4096> : tensor<16x1xi64> loc(#loc1)
    %b_g = arith.constant dense<0> : tensor<16xi64> loc(#loc80)
    %b_g_2 = arith.constant dense<32> : tensor<16xi64> loc(#loc80)
    %b_h = arith.constant dense<0> : tensor<64x1xi64> loc(#loc81)
    %cst_3 = arith.constant dense<128> : tensor<64x1xi64> loc(#loc1)
    %b_k = arith.constant dense<0> : tensor<1x16xi64> loc(#loc82)
    %b_k_4 = arith.constant dense<128> : tensor<128x1xi64> loc(#loc82)
    %b_k_5 = arith.constant dense<0> : tensor<128x1xi64> loc(#loc82)
    %b_k_6 = arith.constant dense<2048> : tensor<1x16xi64> loc(#loc82)
    %cst_7 = arith.constant dense<128> : tensor<1x128xi64> loc(#loc1)
    %cst_8 = arith.constant dense<0> : tensor<1x128xi64> loc(#loc1)
    %cst_9 = arith.constant dense<0> : tensor<16x1xi64> loc(#loc1)
    %b_q = arith.constant dense<2048> : tensor<16x1xi64> loc(#loc83)
    %h_10 = arith.constant 16384 : i64 loc(#loc84)
    %cst_11 = arith.constant dense<0.000000e+00> : tensor<16x16xf32> loc(#loc1)
    %cst_12 = arith.constant dense<0.000000e+00> : tensor<16x64xf32> loc(#loc1)
    %c64_i32 = arith.constant 64 : i32 loc(#loc1)
    %c128_i32 = arith.constant 128 : i32 loc(#loc1)
    %c16_i32 = arith.constant 16 : i32 loc(#loc1)
    %c1_i32 = arith.constant 1 : i32 loc(#loc1)
    %c2_i32 = arith.constant 2 : i32 loc(#loc1)
    %c32_i32 = arith.constant 32 : i32 loc(#loc1)
    %0 = tt.get_program_id x : i32 loc(#loc7)
    %1 = tt.get_program_id y : i32 loc(#loc8)
    %2 = tt.get_program_id z : i32 loc(#loc9)
    %3 = arith.remsi %2, %c32_i32 : i32 loc(#loc10)
    %4 = arith.muli %1, %c2_i32 : i32 loc(#loc11)
    %5 = tt.addptr %chunk_indices, %4 : !tt.ptr<i32>, i32 loc(#loc12)
    %6 = tt.load %5 : !tt.ptr<i32> loc(#loc13)
    %7 = tt.addptr %5, %c1_i32 : !tt.ptr<i32>, i32 loc(#loc14)
    %8 = tt.load %7 : !tt.ptr<i32> loc(#loc15)
    %9 = tt.addptr %cu_seqlens, %6 : !tt.ptr<i32>, i32 loc(#loc16)
    %10 = tt.load %9 : !tt.ptr<i32> loc(#loc17)
    %11 = tt.addptr %9, %c1_i32 : !tt.ptr<i32>, i32 loc(#loc18)
    %12 = tt.load %11 : !tt.ptr<i32> loc(#loc19)
    %T_13 = arith.subi %12, %10 : i32 loc(#loc85)
    %q_14 = arith.muli %10, %c16_i32 : i32 loc(#loc86)
    %q_15 = arith.divsi %3, %c2_i32 : i32 loc(#loc87)
    %q_16 = arith.addi %q_14, %q_15 : i32 loc(#loc88)
    %q_17 = arith.muli %q_16, %c128_i32 : i32 loc(#loc89)
    %q_18 = tt.addptr %q, %q_17 : !tt.ptr<bf16>, i32 loc(#loc90)
    %k_19 = tt.addptr %k, %q_17 : !tt.ptr<bf16>, i32 loc(#loc91)
    %v_20 = arith.muli %10, %c32_i32 : i32 loc(#loc92)
    %v_21 = arith.addi %v_20, %3 : i32 loc(#loc93)
    %v_22 = arith.muli %v_21, %c128_i32 : i32 loc(#loc94)
    %v_23 = tt.addptr %v, %v_22 : !tt.ptr<bf16>, i32 loc(#loc95)
    %o_24 = tt.addptr %o, %v_22 : !tt.ptr<bf16>, i32 loc(#loc96)
    %h_25 = arith.muli %1, %c32_i32 : i32 loc(#loc97)
    %h_26 = arith.addi %h_25, %3 : i32 loc(#loc98)
    %h_27 = arith.extsi %h_26 : i32 to i64 loc(#loc99)
    %h_28 = arith.muli %h_27, %h_10 : i64 loc(#loc84)
    %h_29 = tt.addptr %h, %h_28 : !tt.ptr<bf16>, i64 loc(#loc100)
    %p_q = arith.muli %8, %c16_i32 : i32 loc(#loc101)
    %p_q_30 = arith.extsi %T_13 : i32 to i64 loc(#loc102)
    %p_q_31 = arith.extsi %p_q : i32 to i64 loc(#loc102)
    %p_h = arith.muli %0, %c64_i32 : i32 loc(#loc103)
    %p_h_32 = arith.extsi %p_h : i32 to i64 loc(#loc104)
    %b_q_33 = tt.splat %q_18 : !tt.ptr<bf16> -> tensor<16x128x!tt.ptr<bf16>> loc(#loc83)
    %b_q_34 = tt.splat %p_q_31 : i64 -> tensor<16xi64> loc(#loc83)
    %b_q_35 = tt.make_range {end = 16 : i32, start = 0 : i32} : tensor<16xi32> loc(#loc83)
    %b_q_36 = arith.extsi %b_q_35 : tensor<16xi32> to tensor<16xi64> loc(#loc83)
    %b_q_37 = arith.addi %b_q_34, %b_q_36 : tensor<16xi64> loc(#loc83)
    %b_q_38 = tt.expand_dims %b_q_37 {axis = 1 : i32} : tensor<16xi64> -> tensor<16x1xi64> loc(#loc83)
    %b_q_39 = arith.muli %b_q_38, %b_q : tensor<16x1xi64> loc(#loc83)
    %b_q_40 = tt.broadcast %b_q_39 : tensor<16x1xi64> -> tensor<16x128xi64> loc(#loc83)
    %b_q_41 = tt.make_range {end = 128 : i32, start = 0 : i32} : tensor<128xi32> loc(#loc83)
    %b_q_42 = arith.extsi %b_q_41 : tensor<128xi32> to tensor<128xi64> loc(#loc83)
    %b_q_43 = tt.expand_dims %b_q_42 {axis = 0 : i32} : tensor<128xi64> -> tensor<1x128xi64> loc(#loc83)
    %b_q_44 = tt.broadcast %b_q_43 : tensor<1x128xi64> -> tensor<16x128xi64> loc(#loc83)
    %b_q_45 = arith.addi %b_q_40, %b_q_44 : tensor<16x128xi64> loc(#loc83)
    %b_q_46 = tt.addptr %b_q_33, %b_q_45 : tensor<16x128x!tt.ptr<bf16>>, tensor<16x128xi64> loc(#loc83)
    %b_q_47 = arith.cmpi sge, %b_q_38, %cst_9 : tensor<16x1xi64> loc(#loc83)
    %b_q_48 = tt.splat %p_q_30 : i64 -> tensor<16x1xi64> loc(#loc83)
    %b_q_49 = arith.cmpi slt, %b_q_38, %b_q_48 : tensor<16x1xi64> loc(#loc83)
    %b_q_50 = arith.andi %b_q_47, %b_q_49 : tensor<16x1xi1> loc(#loc83)
    %b_q_51 = tt.broadcast %b_q_50 : tensor<16x1xi1> -> tensor<16x128xi1> loc(#loc83)
    %b_q_52 = arith.cmpi sge, %b_q_43, %cst_8 : tensor<1x128xi64> loc(#loc83)
    %b_q_53 = arith.cmpi slt, %b_q_43, %cst_7 : tensor<1x128xi64> loc(#loc83)
    %b_q_54 = arith.andi %b_q_52, %b_q_53 : tensor<1x128xi1> loc(#loc83)
    %b_q_55 = tt.broadcast %b_q_54 : tensor<1x128xi1> -> tensor<16x128xi1> loc(#loc83)
    %b_q_56 = arith.andi %b_q_51, %b_q_55 : tensor<16x128xi1> loc(#loc83)
    %b_q_57 = tt.load %b_q_46, %b_q_56 : tensor<16x128x!tt.ptr<bf16>> loc(#loc83)
    %b_k_58 = tt.splat %k_19 : !tt.ptr<bf16> -> tensor<128x16x!tt.ptr<bf16>> loc(#loc82)
    %b_k_59 = tt.expand_dims %b_q_42 {axis = 1 : i32} : tensor<128xi64> -> tensor<128x1xi64> loc(#loc82)
    %b_k_60 = tt.broadcast %b_k_59 : tensor<128x1xi64> -> tensor<128x16xi64> loc(#loc82)
    %b_k_61 = tt.expand_dims %b_q_37 {axis = 0 : i32} : tensor<16xi64> -> tensor<1x16xi64> loc(#loc82)
    %b_k_62 = arith.muli %b_k_61, %b_k_6 : tensor<1x16xi64> loc(#loc82)
    %b_k_63 = tt.broadcast %b_k_62 : tensor<1x16xi64> -> tensor<128x16xi64> loc(#loc82)
    %b_k_64 = arith.addi %b_k_60, %b_k_63 : tensor<128x16xi64> loc(#loc82)
    %b_k_65 = tt.addptr %b_k_58, %b_k_64 : tensor<128x16x!tt.ptr<bf16>>, tensor<128x16xi64> loc(#loc82)
    %b_k_66 = arith.cmpi sge, %b_k_59, %b_k_5 : tensor<128x1xi64> loc(#loc82)
    %b_k_67 = arith.cmpi slt, %b_k_59, %b_k_4 : tensor<128x1xi64> loc(#loc82)
    %b_k_68 = arith.andi %b_k_66, %b_k_67 : tensor<128x1xi1> loc(#loc82)
    %b_k_69 = tt.broadcast %b_k_68 : tensor<128x1xi1> -> tensor<128x16xi1> loc(#loc82)
    %b_k_70 = arith.cmpi sge, %b_k_61, %b_k : tensor<1x16xi64> loc(#loc82)
    %b_k_71 = tt.splat %p_q_30 : i64 -> tensor<1x16xi64> loc(#loc82)
    %b_k_72 = arith.cmpi slt, %b_k_61, %b_k_71 : tensor<1x16xi64> loc(#loc82)
    %b_k_73 = arith.andi %b_k_70, %b_k_72 : tensor<1x16xi1> loc(#loc82)
    %b_k_74 = tt.broadcast %b_k_73 : tensor<1x16xi1> -> tensor<128x16xi1> loc(#loc82)
    %b_k_75 = arith.andi %b_k_69, %b_k_74 : tensor<128x16xi1> loc(#loc82)
    %b_k_76 = tt.load %b_k_65, %b_k_75 : tensor<128x16x!tt.ptr<bf16>> loc(#loc82)
    %b_h_77 = tt.splat %h_29 : !tt.ptr<bf16> -> tensor<64x128x!tt.ptr<bf16>> loc(#loc81)
    %b_h_78 = tt.splat %p_h_32 : i64 -> tensor<64xi64> loc(#loc81)
    %b_h_79 = tt.make_range {end = 64 : i32, start = 0 : i32} : tensor<64xi32> loc(#loc81)
    %b_h_80 = arith.extsi %b_h_79 : tensor<64xi32> to tensor<64xi64> loc(#loc81)
    %b_h_81 = arith.addi %b_h_78, %b_h_80 : tensor<64xi64> loc(#loc81)
    %b_h_82 = tt.expand_dims %b_h_81 {axis = 1 : i32} : tensor<64xi64> -> tensor<64x1xi64> loc(#loc81)
    %b_h_83 = arith.muli %b_h_82, %cst_3 : tensor<64x1xi64> loc(#loc81)
    %b_h_84 = tt.broadcast %b_h_83 : tensor<64x1xi64> -> tensor<64x128xi64> loc(#loc81)
    %b_h_85 = tt.broadcast %b_q_43 : tensor<1x128xi64> -> tensor<64x128xi64> loc(#loc81)
    %b_h_86 = arith.addi %b_h_84, %b_h_85 : tensor<64x128xi64> loc(#loc81)
    %b_h_87 = tt.addptr %b_h_77, %b_h_86 : tensor<64x128x!tt.ptr<bf16>>, tensor<64x128xi64> loc(#loc81)
    %b_h_88 = arith.cmpi sge, %b_h_82, %b_h : tensor<64x1xi64> loc(#loc81)
    %b_h_89 = arith.cmpi slt, %b_h_82, %cst_3 : tensor<64x1xi64> loc(#loc81)
    %b_h_90 = arith.andi %b_h_88, %b_h_89 : tensor<64x1xi1> loc(#loc81)
    %b_h_91 = tt.broadcast %b_h_90 : tensor<64x1xi1> -> tensor<64x128xi1> loc(#loc81)
    %b_h_92 = tt.broadcast %b_q_54 : tensor<1x128xi1> -> tensor<64x128xi1> loc(#loc81)
    %b_h_93 = arith.andi %b_h_91, %b_h_92 : tensor<64x128xi1> loc(#loc81)
    %b_h_94 = tt.load %b_h_87, %b_h_93 : tensor<64x128x!tt.ptr<bf16>> loc(#loc81)
    %b_o = tt.trans %b_h_94 {order = array<i32: 1, 0>} : tensor<64x128xbf16> -> tensor<128x64xbf16> loc(#loc105)
    %b_o_95 = tt.dot %b_q_57, %b_o, %cst_12, inputPrecision = tf32 : tensor<16x128xbf16> * tensor<128x64xbf16> -> tensor<16x64xf32> loc(#loc106)
    %b_A = tt.dot %b_q_57, %b_k_76, %cst_11, inputPrecision = tf32 : tensor<16x128xbf16> * tensor<128x16xbf16> -> tensor<16x16xf32> loc(#loc107)
    %g_96 = tt.addptr %g, %v_21 : !tt.ptr<f32>, i32 loc(#loc108)
    %b_g_97 = tt.splat %g_96 : !tt.ptr<f32> -> tensor<16x!tt.ptr<f32>> loc(#loc80)
    %b_g_98 = arith.muli %b_q_37, %b_g_2 : tensor<16xi64> loc(#loc80)
    %b_g_99 = tt.addptr %b_g_97, %b_g_98 : tensor<16x!tt.ptr<f32>>, tensor<16xi64> loc(#loc80)
    %b_g_100 = arith.cmpi sge, %b_q_37, %b_g : tensor<16xi64> loc(#loc80)
    %b_g_101 = tt.splat %p_q_30 : i64 -> tensor<16xi64> loc(#loc80)
    %b_g_102 = arith.cmpi slt, %b_q_37, %b_g_101 : tensor<16xi64> loc(#loc80)
    %b_g_103 = arith.andi %b_g_100, %b_g_102 : tensor<16xi1> loc(#loc80)
    %b_g_104 = tt.load %b_g_99, %b_g_103 : tensor<16x!tt.ptr<f32>> loc(#loc80)
    %b_o_105 = math.exp %b_g_104 : tensor<16xf32> loc(#loc109)
    %b_o_106 = tt.expand_dims %b_o_105 {axis = 1 : i32} : tensor<16xf32> -> tensor<16x1xf32> loc(#loc110)
    %b_o_107 = tt.broadcast %b_o_106 : tensor<16x1xf32> -> tensor<16x64xf32> loc(#loc111)
    %b_o_108 = arith.mulf %b_o_95, %b_o_107 : tensor<16x64xf32> loc(#loc111)
    %b_A_109 = tt.expand_dims %b_g_104 {axis = 1 : i32} : tensor<16xf32> -> tensor<16x1xf32> loc(#loc112)
    %b_A_110 = tt.expand_dims %b_g_104 {axis = 0 : i32} : tensor<16xf32> -> tensor<1x16xf32> loc(#loc113)
    %b_A_111 = tt.broadcast %b_A_109 : tensor<16x1xf32> -> tensor<16x16xf32> loc(#loc114)
    %b_A_112 = tt.broadcast %b_A_110 : tensor<1x16xf32> -> tensor<16x16xf32> loc(#loc114)
    %b_A_113 = arith.subf %b_A_111, %b_A_112 : tensor<16x16xf32> loc(#loc114)
    %b_A_114 = math.exp %b_A_113 : tensor<16x16xf32> loc(#loc115)
    %b_A_115 = arith.mulf %b_A, %b_A_114 : tensor<16x16xf32> loc(#loc116)
    %o_t = tt.splat %p_q : i32 -> tensor<16xi32> loc(#loc117)
    %o_t_116 = arith.addi %o_t, %b_q_35 : tensor<16xi32> loc(#loc117)
    %m_t = tt.splat %T_13 : i32 -> tensor<16xi32> loc(#loc118)
    %m_t_117 = arith.cmpi slt, %o_t_116, %m_t : tensor<16xi32> loc(#loc118)
    %m_A = tt.expand_dims %o_t_116 {axis = 1 : i32} : tensor<16xi32> -> tensor<16x1xi32> loc(#loc119)
    %m_A_118 = tt.expand_dims %o_t_116 {axis = 0 : i32} : tensor<16xi32> -> tensor<1x16xi32> loc(#loc120)
    %m_A_119 = tt.broadcast %m_A : tensor<16x1xi32> -> tensor<16x16xi32> loc(#loc121)
    %m_A_120 = tt.broadcast %m_A_118 : tensor<1x16xi32> -> tensor<16x16xi32> loc(#loc121)
    %m_A_121 = arith.cmpi sge, %m_A_119, %m_A_120 : tensor<16x16xi32> loc(#loc121)
    %m_A_122 = tt.expand_dims %m_t_117 {axis = 1 : i32} : tensor<16xi1> -> tensor<16x1xi1> loc(#loc122)
    %m_A_123 = tt.expand_dims %m_t_117 {axis = 0 : i32} : tensor<16xi1> -> tensor<1x16xi1> loc(#loc123)
    %m_A_124 = tt.broadcast %m_A_122 : tensor<16x1xi1> -> tensor<16x16xi1> loc(#loc123)
    %m_A_125 = tt.broadcast %m_A_123 : tensor<1x16xi1> -> tensor<16x16xi1> loc(#loc123)
    %m_A_126 = arith.andi %m_A_124, %m_A_125 : tensor<16x16xi1> loc(#loc123)
    %m_A_127 = arith.andi %m_A_121, %m_A_126 : tensor<16x16xi1> loc(#loc124)
    %b_A_128 = arith.select %m_A_127, %b_A_115, %cst_11 : tensor<16x16xi1>, tensor<16x16xf32> loc(#loc125)
    %b_v = tt.splat %v_23 : !tt.ptr<bf16> -> tensor<16x64x!tt.ptr<bf16>> loc(#loc126)
    %b_v_129 = arith.muli %b_q_38, %cst_1 : tensor<16x1xi64> loc(#loc126)
    %b_v_130 = tt.broadcast %b_v_129 : tensor<16x1xi64> -> tensor<16x64xi64> loc(#loc126)
    %b_v_131 = tt.expand_dims %b_h_81 {axis = 0 : i32} : tensor<64xi64> -> tensor<1x64xi64> loc(#loc126)
    %b_v_132 = tt.broadcast %b_v_131 : tensor<1x64xi64> -> tensor<16x64xi64> loc(#loc126)
    %b_v_133 = arith.addi %b_v_130, %b_v_132 : tensor<16x64xi64> loc(#loc126)
    %b_v_134 = tt.addptr %b_v, %b_v_133 : tensor<16x64x!tt.ptr<bf16>>, tensor<16x64xi64> loc(#loc126)
    %b_v_135 = tt.broadcast %b_q_50 : tensor<16x1xi1> -> tensor<16x64xi1> loc(#loc126)
    %b_v_136 = arith.cmpi sge, %b_v_131, %cst_0 : tensor<1x64xi64> loc(#loc126)
    %b_v_137 = arith.cmpi slt, %b_v_131, %cst : tensor<1x64xi64> loc(#loc126)
    %b_v_138 = arith.andi %b_v_136, %b_v_137 : tensor<1x64xi1> loc(#loc126)
    %b_v_139 = tt.broadcast %b_v_138 : tensor<1x64xi1> -> tensor<16x64xi1> loc(#loc126)
    %b_v_140 = arith.andi %b_v_135, %b_v_139 : tensor<16x64xi1> loc(#loc126)
    %b_v_141 = tt.load %b_v_134, %b_v_140 : tensor<16x64x!tt.ptr<bf16>> loc(#loc126)
    %b_o_142 = tt.splat %scale : f32 -> tensor<16x64xf32> loc(#loc127)
    %b_o_143 = arith.mulf %b_o_108, %b_o_142 : tensor<16x64xf32> loc(#loc127)
    %b_o_144 = arith.truncf %b_A_128 : tensor<16x16xf32> to tensor<16x16xbf16> loc(#loc128)
    %b_o_145 = tt.dot %b_o_144, %b_v_141, %cst_12, inputPrecision = tf32 : tensor<16x16xbf16> * tensor<16x64xbf16> -> tensor<16x64xf32> loc(#loc129)
    %b_o_146 = arith.mulf %b_o_145, %b_o_142 : tensor<16x64xf32> loc(#loc130)
    %b_o_147 = arith.addf %b_o_143, %b_o_146 : tensor<16x64xf32> loc(#loc131)
    %13 = arith.truncf %b_o_147 : tensor<16x64xf32> to tensor<16x64xbf16> loc(#loc67)
    %14 = tt.splat %o_24 : !tt.ptr<bf16> -> tensor<16x64x!tt.ptr<bf16>> loc(#loc68)
    %15 = tt.addptr %14, %b_v_133 : tensor<16x64x!tt.ptr<bf16>>, tensor<16x64xi64> loc(#loc68)
    tt.store %15, %13, %b_v_140 : tensor<16x64x!tt.ptr<bf16>> loc(#loc68)
    tt.return loc(#loc69)
  } loc(#loc)
} loc(#loc)
#loc1 = loc(unknown)
#loc2 = loc("/data/conda/envs/or_llm/lib/python3.12/site-packages/vllm/model_executor/layers/fla/ops/chunk_o.py":118:22)
#loc3 = loc("/data/conda/envs/or_llm/lib/python3.12/site-packages/vllm/model_executor/layers/fla/ops/chunk_o.py":108:22)
#loc4 = loc("/data/conda/envs/or_llm/lib/python3.12/site-packages/vllm/model_executor/layers/fla/ops/chunk_o.py":106:22)
#loc5 = loc("/data/conda/envs/or_llm/lib/python3.12/site-packages/vllm/model_executor/layers/fla/ops/chunk_o.py":104:22)
#loc6 = loc("/data/conda/envs/or_llm/lib/python3.12/site-packages/vllm/model_executor/layers/fla/ops/chunk_o.py":88:45)
#loc7 = loc("/data/conda/envs/or_llm/lib/python3.12/site-packages/vllm/model_executor/layers/fla/ops/chunk_o.py":63:35)
#loc8 = loc("/data/conda/envs/or_llm/lib/python3.12/site-packages/vllm/model_executor/layers/fla/ops/chunk_o.py":63:53)
#loc9 = loc("/data/conda/envs/or_llm/lib/python3.12/site-packages/vllm/model_executor/layers/fla/ops/chunk_o.py":63:71)
#loc10 = loc("/data/conda/envs/or_llm/lib/python3.12/site-packages/vllm/model_executor/layers/fla/ops/chunk_o.py":64:33)
#loc11 = loc("/data/conda/envs/or_llm/lib/python3.12/site-packages/vllm/model_executor/layers/fla/ops/chunk_o.py":69:42)
#loc12 = loc("/data/conda/envs/or_llm/lib/python3.12/site-packages/vllm/model_executor/layers/fla/ops/chunk_o.py":69:36)
#loc13 = loc("/data/conda/envs/or_llm/lib/python3.12/site-packages/vllm/model_executor/layers/fla/ops/chunk_o.py":69:20)
#loc14 = loc("/data/conda/envs/or_llm/lib/python3.12/site-packages/vllm/model_executor/layers/fla/ops/chunk_o.py":70:46)
#loc15 = loc("/data/conda/envs/or_llm/lib/python3.12/site-packages/vllm/model_executor/layers/fla/ops/chunk_o.py":70:20)
#loc16 = loc("/data/conda/envs/or_llm/lib/python3.12/site-packages/vllm/model_executor/layers/fla/ops/chunk_o.py":73:33)
#loc17 = loc("/data/conda/envs/or_llm/lib/python3.12/site-packages/vllm/model_executor/layers/fla/ops/chunk_o.py":73:20)
#loc18 = loc("/data/conda/envs/or_llm/lib/python3.12/site-packages/vllm/model_executor/layers/fla/ops/chunk_o.py":74:39)
#loc19 = loc("/data/conda/envs/or_llm/lib/python3.12/site-packages/vllm/model_executor/layers/fla/ops/chunk_o.py":74:20)
#loc20 = loc("/data/conda/envs/or_llm/lib/python3.12/site-packages/vllm/model_executor/layers/fla/ops/chunk_o.py":76:18)
#loc21 = loc("/data/conda/envs/or_llm/lib/python3.12/site-packages/vllm/model_executor/layers/fla/ops/chunk_o.py":84:16)
#loc22 = loc("/data/conda/envs/or_llm/lib/python3.12/site-packages/vllm/model_executor/layers/fla/ops/chunk_o.py":84:29)
#loc23 = loc("/data/conda/envs/or_llm/lib/python3.12/site-packages/vllm/model_executor/layers/fla/ops/chunk_o.py":84:21)
#loc24 = loc("/data/conda/envs/or_llm/lib/python3.12/site-packages/vllm/model_executor/layers/fla/ops/chunk_o.py":84:41)
#loc25 = loc("/data/conda/envs/or_llm/lib/python3.12/site-packages/vllm/model_executor/layers/fla/ops/chunk_o.py":84:9)
#loc26 = loc("/data/conda/envs/or_llm/lib/python3.12/site-packages/vllm/model_executor/layers/fla/ops/chunk_o.py":85:9)
#loc27 = loc("/data/conda/envs/or_llm/lib/python3.12/site-packages/vllm/model_executor/layers/fla/ops/chunk_o.py":86:16)
#loc28 = loc("/data/conda/envs/or_llm/lib/python3.12/site-packages/vllm/model_executor/layers/fla/ops/chunk_o.py":86:20)
#loc29 = loc("/data/conda/envs/or_llm/lib/python3.12/site-packages/vllm/model_executor/layers/fla/ops/chunk_o.py":86:27)
#loc30 = loc("/data/conda/envs/or_llm/lib/python3.12/site-packages/vllm/model_executor/layers/fla/ops/chunk_o.py":86:9)
#loc31 = loc("/data/conda/envs/or_llm/lib/python3.12/site-packages/vllm/model_executor/layers/fla/ops/chunk_o.py":87:9)
#loc32 = loc("/data/conda/envs/or_llm/lib/python3.12/site-packages/vllm/model_executor/layers/fla/ops/chunk_o.py":88:17)
#loc33 = loc("/data/conda/envs/or_llm/lib/python3.12/site-packages/vllm/model_executor/layers/fla/ops/chunk_o.py":88:21)
#loc34 = loc("/data/conda/envs/or_llm/lib/python3.12/site-packages/vllm/model_executor/layers/fla/ops/chunk_o.py":88:29)
#loc35 = loc("/data/conda/envs/or_llm/lib/python3.12/site-packages/vllm/model_executor/layers/fla/ops/chunk_o.py":88:9)
#loc36 = loc("/data/conda/envs/or_llm/lib/python3.12/site-packages/vllm/model_executor/layers/fla/ops/chunk_o.py":95:43)
#loc37 = loc("/data/conda/envs/or_llm/lib/python3.12/site-packages/vllm/model_executor/layers/fla/ops/chunk_o.py":95:68)
#loc38 = loc("/data/conda/envs/or_llm/lib/python3.12/site-packages/vllm/model_executor/layers/fla/ops/chunk_o.py":101:38)
#loc39 = loc("/data/conda/envs/or_llm/lib/python3.12/site-packages/vllm/model_executor/layers/fla/ops/chunk_o.py":101:63)
#loc40 = loc("/data/conda/envs/or_llm/lib/python3.12/site-packages/vllm/model_executor/layers/fla/ops/chunk_o.py":111:36)
#loc41 = loc("/data/conda/envs/or_llm/lib/python3.12/site-packages/vllm/model_executor/layers/fla/ops/chunk_o.py":111:27)
#loc42 = loc("/data/conda/envs/or_llm/lib/python3.12/site-packages/vllm/model_executor/layers/fla/ops/chunk_o.py":113:27)
#loc43 = loc("/data/conda/envs/or_llm/lib/python3.12/site-packages/vllm/model_executor/layers/fla/ops/chunk_o.py":116:13)
#loc44 = loc("/data/conda/envs/or_llm/lib/python3.12/site-packages/vllm/model_executor/layers/fla/ops/chunk_o.py":119:24)
#loc45 = loc("/data/conda/envs/or_llm/lib/python3.12/site-packages/vllm/model_executor/layers/fla/ops/chunk_o.py":119:29)
#loc46 = loc("/data/conda/envs/or_llm/lib/python3.12/site-packages/vllm/model_executor/layers/fla/ops/chunk_o.py":119:20)
#loc47 = loc("/data/conda/envs/or_llm/lib/python3.12/site-packages/vllm/model_executor/layers/fla/ops/chunk_o.py":120:28)
#loc48 = loc("/data/conda/envs/or_llm/lib/python3.12/site-packages/vllm/model_executor/layers/fla/ops/chunk_o.py":120:43)
#loc49 = loc("/data/conda/envs/or_llm/lib/python3.12/site-packages/vllm/model_executor/layers/fla/ops/chunk_o.py":120:39)
#loc50 = loc("/data/conda/envs/or_llm/lib/python3.12/site-packages/vllm/model_executor/layers/fla/ops/chunk_o.py":120:24)
#loc51 = loc("/data/conda/envs/or_llm/lib/python3.12/site-packages/vllm/model_executor/layers/fla/ops/chunk_o.py":120:20)
#loc52 = loc("/data/conda/envs/or_llm/lib/python3.12/site-packages/vllm/model_executor/layers/fla/ops/chunk_o.py":122:21)
#loc53 = loc("/data/conda/envs/or_llm/lib/python3.12/site-packages/vllm/model_executor/layers/fla/ops/chunk_o.py":123:16)
#loc54 = loc("/data/conda/envs/or_llm/lib/python3.12/site-packages/vllm/model_executor/layers/fla/ops/chunk_o.py":124:15)
#loc55 = loc("/data/conda/envs/or_llm/lib/python3.12/site-packages/vllm/model_executor/layers/fla/ops/chunk_o.py":124:31)
#loc56 = loc("/data/conda/envs/or_llm/lib/python3.12/site-packages/vllm/model_executor/layers/fla/ops/chunk_o.py":124:27)
#loc57 = loc("/data/conda/envs/or_llm/lib/python3.12/site-packages/vllm/model_executor/layers/fla/ops/chunk_o.py":124:48)
#loc58 = loc("/data/conda/envs/or_llm/lib/python3.12/site-packages/vllm/model_executor/layers/fla/ops/chunk_o.py":124:59)
#loc59 = loc("/data/conda/envs/or_llm/lib/python3.12/site-packages/vllm/model_executor/layers/fla/ops/chunk_o.py":124:44)
#loc60 = loc("/data/conda/envs/or_llm/lib/python3.12/site-packages/vllm/model_executor/layers/fla/ops/chunk_o.py":125:29)
#loc61 = loc("/data/conda/envs/or_llm/lib/python3.12/site-packages/vllm/model_executor/layers/fla/ops/chunk_o.py":133:18)
#loc62 = loc("/data/conda/envs/or_llm/lib/python3.12/site-packages/vllm/model_executor/layers/fla/ops/chunk_o.py":137:16)
#loc63 = loc("/data/conda/envs/or_llm/lib/python3.12/site-packages/vllm/model_executor/layers/fla/ops/chunk_o.py":137:38)
#loc64 = loc("/data/conda/envs/or_llm/lib/python3.12/site-packages/vllm/model_executor/layers/fla/ops/chunk_o.py":137:50)
#loc65 = loc("/data/conda/envs/or_llm/lib/python3.12/site-packages/vllm/model_executor/layers/fla/ops/chunk_o.py":137:57)
#loc66 = loc("/data/conda/envs/or_llm/lib/python3.12/site-packages/vllm/model_executor/layers/fla/ops/chunk_o.py":137:24)
#loc67 = loc("/data/conda/envs/or_llm/lib/python3.12/site-packages/vllm/model_executor/layers/fla/ops/chunk_o.py":138:25)
#loc68 = loc("/data/conda/envs/or_llm/lib/python3.12/site-packages/vllm/model_executor/layers/fla/ops/chunk_o.py":138:18)
#loc69 = loc("/data/conda/envs/or_llm/lib/python3.12/site-packages/vllm/model_executor/layers/fla/ops/chunk_o.py":138:4)
#loc80 = loc("b_g"(#loc2))
#loc81 = loc("b_h"(#loc3))
#loc82 = loc("b_k"(#loc4))
#loc83 = loc("b_q"(#loc5))
#loc84 = loc("h"(#loc6))
#loc85 = loc("T"(#loc20))
#loc86 = loc("q"(#loc21))
#loc87 = loc("q"(#loc22))
#loc88 = loc("q"(#loc23))
#loc89 = loc("q"(#loc24))
#loc90 = loc("q"(#loc25))
#loc91 = loc("k"(#loc26))
#loc92 = loc("v"(#loc27))
#loc93 = loc("v"(#loc28))
#loc94 = loc("v"(#loc29))
#loc95 = loc("v"(#loc30))
#loc96 = loc("o"(#loc31))
#loc97 = loc("h"(#loc32))
#loc98 = loc("h"(#loc33))
#loc99 = loc("h"(#loc34))
#loc100 = loc("h"(#loc35))
#loc101 = loc("p_q"(#loc36))
#loc102 = loc("p_q"(#loc37))
#loc103 = loc("p_h"(#loc38))
#loc104 = loc("p_h"(#loc39))
#loc105 = loc("b_o"(#loc40))
#loc106 = loc("b_o"(#loc41))
#loc107 = loc("b_A"(#loc42))
#loc108 = loc("g"(#loc43))
#loc109 = loc("b_o"(#loc44))
#loc110 = loc("b_o"(#loc45))
#loc111 = loc("b_o"(#loc46))
#loc112 = loc("b_A"(#loc47))
#loc113 = loc("b_A"(#loc48))
#loc114 = loc("b_A"(#loc49))
#loc115 = loc("b_A"(#loc50))
#loc116 = loc("b_A"(#loc51))
#loc117 = loc("o_t"(#loc52))
#loc118 = loc("m_t"(#loc53))
#loc119 = loc("m_A"(#loc54))
#loc120 = loc("m_A"(#loc55))
#loc121 = loc("m_A"(#loc56))
#loc122 = loc("m_A"(#loc57))
#loc123 = loc("m_A"(#loc58))
#loc124 = loc("m_A"(#loc59))
#loc125 = loc("b_A"(#loc60))
#loc126 = loc("b_v"(#loc61))
#loc127 = loc("b_o"(#loc62))
#loc128 = loc("b_o"(#loc63))
#loc129 = loc("b_o"(#loc64))
#loc130 = loc("b_o"(#loc65))
#loc131 = loc("b_o"(#loc66))
