#loc = loc("/data/jcy/zzs/zijinhua/.vllm_cache_simplevqa/torch_compile/yf/cyfs56zb2suw3tsmosn5l676nggdzxkxtp5fzg2rehjtqrhlho3f.py":18:0)
#loc1 = loc(unknown)
#loc24 = loc("/data/jcy/zzs/zijinhua/.vllm_cache_simplevqa/torch_compile/yf/cyfs56zb2suw3tsmosn5l676nggdzxkxtp5fzg2rehjtqrhlho3f.py":45:25)
#loc47 = loc("in_ptr0"(#loc))
#loc48 = loc("in_ptr1"(#loc))
#loc49 = loc("in_ptr2"(#loc))
#loc50 = loc("out_ptr0"(#loc))
#loc51 = loc("out_ptr2"(#loc))
#loc52 = loc("xnumel"(#loc))
#loc53 = loc("r0_numel"(#loc))
#loc72 = loc("tmp6"(#loc24))
#loc92 = loc(callsite(#loc1 at #loc72))
module {
  tt.func public @triton_red_fused__to_copy_add_mean_mul_pow_rsqrt_0(%in_ptr0: !tt.ptr<bf16> {tt.divisibility = 16 : i32} loc("in_ptr0"(#loc)), %in_ptr1: !tt.ptr<bf16> {tt.divisibility = 16 : i32} loc("in_ptr1"(#loc)), %in_ptr2: !tt.ptr<bf16> {tt.divisibility = 16 : i32} loc("in_ptr2"(#loc)), %out_ptr0: !tt.ptr<bf16> {tt.divisibility = 16 : i32} loc("out_ptr0"(#loc)), %out_ptr2: !tt.ptr<bf16> {tt.divisibility = 16 : i32} loc("out_ptr2"(#loc)), %xnumel: i32 {tt.divisibility = 16 : i32} loc("xnumel"(#loc)), %r0_numel: i32 {tt.divisibility = 16 : i32} loc("r0_numel"(#loc))) attributes {noinline = false} {
    %cst = arith.constant dense<0.000000e+00> : tensor<1x2048xbf16> loc(#loc1)
    %c2048_i32 = arith.constant 2048 : i32 loc(#loc1)
    %c4096_i32 = arith.constant 4096 : i32 loc(#loc1)
    %c0_i32 = arith.constant 0 : i32 loc(#loc1)
    %cst_0 = arith.constant dense<1.000000e+00> : tensor<1x2048xf32> loc(#loc1)
    %cst_1 = arith.constant dense<9.99999997E-7> : tensor<1x1xf32> loc(#loc1)
    %cst_2 = arith.constant dense<4.096000e+03> : tensor<1x1xf32> loc(#loc1)
    %cst_3 = arith.constant dense<4096> : tensor<1x2048xi32> loc(#loc1)
    %cst_4 = arith.constant dense<0.000000e+00> : tensor<1x2048xf32> loc(#loc1)
    %xoffset = tt.get_program_id x : i32 loc(#loc54)
    %r0_base = tt.make_range {end = 2048 : i32, start = 0 : i32} : tensor<2048xi32> loc(#loc55)
    %r0_base_5 = tt.expand_dims %r0_base {axis = 0 : i32} : tensor<2048xi32> -> tensor<1x2048xi32> loc(#loc56)
    %_tmp6 = scf.for %r0_offset = %c0_i32 to %c4096_i32 step %c2048_i32 iter_args(%_tmp6_7 = %cst_4) -> (tensor<1x2048xf32>)  : i32 {
      %r0_index = tt.splat %r0_offset : i32 -> tensor<1x2048xi32> loc(#loc58)
      %r0_index_8 = arith.addi %r0_index, %r0_base_5 : tensor<1x2048xi32> loc(#loc58)
      %r0_mask = arith.cmpi slt, %r0_index_8, %cst_3 : tensor<1x2048xi32> loc(#loc59)
      %tmp0 = arith.muli %xoffset, %c4096_i32 : i32 loc(#loc60)
      %tmp0_9 = tt.splat %tmp0 : i32 -> tensor<1x2048xi32> loc(#loc90)
      %tmp0_10 = arith.addi %r0_index_8, %tmp0_9 : tensor<1x2048xi32> loc(#loc61)
      %tmp0_11 = tt.splat %in_ptr0 : !tt.ptr<bf16> -> tensor<1x2048x!tt.ptr<bf16>> loc(#loc62)
      %tmp0_12 = tt.addptr %tmp0_11, %tmp0_10 : tensor<1x2048x!tt.ptr<bf16>>, tensor<1x2048xi32> loc(#loc62)
      %tmp0_13 = tt.load %tmp0_12, %r0_mask, %cst evictionPolicy = evict_first : tensor<1x2048x!tt.ptr<bf16>> loc(#loc63)
      %tmp0_14 = arith.extf %tmp0_13 : tensor<1x2048xbf16> to tensor<1x2048xf32> loc(#loc64)
      %tmp1 = tt.splat %in_ptr1 : !tt.ptr<bf16> -> tensor<1x2048x!tt.ptr<bf16>> loc(#loc65)
      %tmp1_15 = tt.addptr %tmp1, %tmp0_10 : tensor<1x2048x!tt.ptr<bf16>>, tensor<1x2048xi32> loc(#loc65)
      %tmp1_16 = tt.load %tmp1_15, %r0_mask, %cst evictionPolicy = evict_first : tensor<1x2048x!tt.ptr<bf16>> loc(#loc66)
      %tmp1_17 = arith.extf %tmp1_16 : tensor<1x2048xbf16> to tensor<1x2048xf32> loc(#loc67)
      %tmp2 = arith.addf %tmp0_14, %tmp1_17 : tensor<1x2048xf32> loc(#loc68)
      %tmp4 = arith.mulf %tmp2, %tmp2 : tensor<1x2048xf32> loc(#loc69)
      %tmp7 = arith.addf %_tmp6_7, %tmp4 : tensor<1x2048xf32> loc(#loc70)
      %_tmp6_18 = arith.select %r0_mask, %tmp7, %_tmp6_7 : tensor<1x2048xi1>, tensor<1x2048xf32> loc(#loc71)
      %0 = tt.splat %out_ptr0 : !tt.ptr<bf16> -> tensor<1x2048x!tt.ptr<bf16>> loc(#loc20)
      %1 = tt.addptr %0, %tmp0_10 : tensor<1x2048x!tt.ptr<bf16>>, tensor<1x2048xi32> loc(#loc20)
      %2 = arith.truncf %tmp2 : tensor<1x2048xf32> to tensor<1x2048xbf16> loc(#loc21)
      tt.store %1, %2, %r0_mask : tensor<1x2048x!tt.ptr<bf16>> loc(#loc21)
      scf.yield %_tmp6_18 : tensor<1x2048xf32> loc(#loc22)
    } loc(#loc57)
    %tmp6 = "tt.reduce"(%_tmp6) <{axis = 1 : i32}> ({
    ^bb0(%tmp6_7: f32 loc(callsite(#loc1 at #loc72)), %tmp6_8: f32 loc(callsite(#loc1 at #loc72))):
      %tmp6_9 = arith.addf %tmp6_7, %tmp6_8 : f32 loc(#loc94)
      tt.reduce.return %tmp6_9 : f32 loc(#loc91)
    }) : (tensor<1x2048xf32>) -> tensor<1xf32> loc(#loc91)
    %tmp6_6 = tt.expand_dims %tmp6 {axis = 1 : i32} : tensor<1xf32> -> tensor<1x1xf32> loc(#loc73)
    scf.for %r0_offset = %c0_i32 to %c4096_i32 step %c2048_i32  : i32 {
      %r0_index = tt.splat %r0_offset : i32 -> tensor<1x2048xi32> loc(#loc74)
      %r0_index_7 = arith.addi %r0_index, %r0_base_5 : tensor<1x2048xi32> loc(#loc74)
      %r0_mask = arith.cmpi slt, %r0_index_7, %cst_3 : tensor<1x2048xi32> loc(#loc75)
      %tmp8 = arith.muli %xoffset, %c4096_i32 : i32 loc(#loc76)
      %tmp8_8 = tt.splat %tmp8 : i32 -> tensor<1x2048xi32> loc(#loc93)
      %tmp8_9 = arith.addi %r0_index_7, %tmp8_8 : tensor<1x2048xi32> loc(#loc77)
      %tmp8_10 = tt.splat %out_ptr0 : !tt.ptr<bf16> -> tensor<1x2048x!tt.ptr<bf16>> loc(#loc78)
      %tmp8_11 = tt.addptr %tmp8_10, %tmp8_9 : tensor<1x2048x!tt.ptr<bf16>>, tensor<1x2048xi32> loc(#loc78)
      %tmp8_12 = tt.load %tmp8_11, %r0_mask, %cst evictionPolicy = evict_first : tensor<1x2048x!tt.ptr<bf16>> loc(#loc79)
      %tmp8_13 = arith.extf %tmp8_12 : tensor<1x2048xbf16> to tensor<1x2048xf32> loc(#loc80)
      %tmp16 = tt.splat %in_ptr2 : !tt.ptr<bf16> -> tensor<1x2048x!tt.ptr<bf16>> loc(#loc81)
      %tmp16_14 = tt.addptr %tmp16, %r0_index_7 : tensor<1x2048x!tt.ptr<bf16>>, tensor<1x2048xi32> loc(#loc81)
      %tmp16_15 = tt.load %tmp16_14, %r0_mask, %cst evictionPolicy = evict_last : tensor<1x2048x!tt.ptr<bf16>> loc(#loc82)
      %tmp16_16 = arith.extf %tmp16_15 : tensor<1x2048xbf16> to tensor<1x2048xf32> loc(#loc83)
      %tmp11 = arith.divf %tmp6_6, %cst_2 : tensor<1x1xf32> loc(#loc84)
      %tmp13 = arith.addf %tmp11, %cst_1 : tensor<1x1xf32> loc(#loc85)
      %tmp14 = tt.extern_elementwise %tmp13 {libname = "", libpath = "", pure = true, symbol = "__nv_rsqrtf"} : (tensor<1x1xf32>) -> tensor<1x1xf32> loc(#loc86)
      %tmp15 = tt.broadcast %tmp14 : tensor<1x1xf32> -> tensor<1x2048xf32> loc(#loc87)
      %tmp15_17 = arith.mulf %tmp8_13, %tmp15 : tensor<1x2048xf32> loc(#loc87)
      %tmp19 = arith.addf %tmp16_16, %cst_0 : tensor<1x2048xf32> loc(#loc88)
      %tmp20 = arith.mulf %tmp15_17, %tmp19 : tensor<1x2048xf32> loc(#loc89)
      %0 = tt.splat %out_ptr2 : !tt.ptr<bf16> -> tensor<1x2048x!tt.ptr<bf16>> loc(#loc44)
      %1 = tt.addptr %0, %tmp8_9 : tensor<1x2048x!tt.ptr<bf16>>, tensor<1x2048xi32> loc(#loc44)
      %2 = arith.truncf %tmp20 : tensor<1x2048xf32> to tensor<1x2048xbf16> loc(#loc45)
      tt.store %1, %2, %r0_mask : tensor<1x2048x!tt.ptr<bf16>> loc(#loc45)
    } loc(#loc27)
    tt.return loc(#loc46)
  } loc(#loc)
} loc(#loc)
#loc2 = loc("/data/jcy/zzs/zijinhua/.vllm_cache_simplevqa/torch_compile/yf/cyfs56zb2suw3tsmosn5l676nggdzxkxtp5fzg2rehjtqrhlho3f.py":23:28)
#loc3 = loc("/data/jcy/zzs/zijinhua/.vllm_cache_simplevqa/torch_compile/yf/cyfs56zb2suw3tsmosn5l676nggdzxkxtp5fzg2rehjtqrhlho3f.py":26:27)
#loc4 = loc("/data/jcy/zzs/zijinhua/.vllm_cache_simplevqa/torch_compile/yf/cyfs56zb2suw3tsmosn5l676nggdzxkxtp5fzg2rehjtqrhlho3f.py":26:37)
#loc5 = loc("/data/jcy/zzs/zijinhua/.vllm_cache_simplevqa/torch_compile/yf/cyfs56zb2suw3tsmosn5l676nggdzxkxtp5fzg2rehjtqrhlho3f.py":30:40)
#loc6 = loc("/data/jcy/zzs/zijinhua/.vllm_cache_simplevqa/torch_compile/yf/cyfs56zb2suw3tsmosn5l676nggdzxkxtp5fzg2rehjtqrhlho3f.py":31:31)
#loc7 = loc("/data/jcy/zzs/zijinhua/.vllm_cache_simplevqa/torch_compile/yf/cyfs56zb2suw3tsmosn5l676nggdzxkxtp5fzg2rehjtqrhlho3f.py":32:29)
#loc8 = loc("/data/jcy/zzs/zijinhua/.vllm_cache_simplevqa/torch_compile/yf/cyfs56zb2suw3tsmosn5l676nggdzxkxtp5fzg2rehjtqrhlho3f.py":36:46)
#loc9 = loc("/data/jcy/zzs/zijinhua/.vllm_cache_simplevqa/torch_compile/yf/cyfs56zb2suw3tsmosn5l676nggdzxkxtp5fzg2rehjtqrhlho3f.py":36:41)
#loc10 = loc("/data/jcy/zzs/zijinhua/.vllm_cache_simplevqa/torch_compile/yf/cyfs56zb2suw3tsmosn5l676nggdzxkxtp5fzg2rehjtqrhlho3f.py":36:34)
#loc11 = loc("/data/jcy/zzs/zijinhua/.vllm_cache_simplevqa/torch_compile/yf/cyfs56zb2suw3tsmosn5l676nggdzxkxtp5fzg2rehjtqrhlho3f.py":36:51)
#loc12 = loc("/data/jcy/zzs/zijinhua/.vllm_cache_simplevqa/torch_compile/yf/cyfs56zb2suw3tsmosn5l676nggdzxkxtp5fzg2rehjtqrhlho3f.py":36:105)
#loc13 = loc("/data/jcy/zzs/zijinhua/.vllm_cache_simplevqa/torch_compile/yf/cyfs56zb2suw3tsmosn5l676nggdzxkxtp5fzg2rehjtqrhlho3f.py":37:34)
#loc14 = loc("/data/jcy/zzs/zijinhua/.vllm_cache_simplevqa/torch_compile/yf/cyfs56zb2suw3tsmosn5l676nggdzxkxtp5fzg2rehjtqrhlho3f.py":37:51)
#loc15 = loc("/data/jcy/zzs/zijinhua/.vllm_cache_simplevqa/torch_compile/yf/cyfs56zb2suw3tsmosn5l676nggdzxkxtp5fzg2rehjtqrhlho3f.py":37:105)
#loc16 = loc("/data/jcy/zzs/zijinhua/.vllm_cache_simplevqa/torch_compile/yf/cyfs56zb2suw3tsmosn5l676nggdzxkxtp5fzg2rehjtqrhlho3f.py":38:22)
#loc17 = loc("/data/jcy/zzs/zijinhua/.vllm_cache_simplevqa/torch_compile/yf/cyfs56zb2suw3tsmosn5l676nggdzxkxtp5fzg2rehjtqrhlho3f.py":40:22)
#loc18 = loc("/data/jcy/zzs/zijinhua/.vllm_cache_simplevqa/torch_compile/yf/cyfs56zb2suw3tsmosn5l676nggdzxkxtp5fzg2rehjtqrhlho3f.py":42:23)
#loc19 = loc("/data/jcy/zzs/zijinhua/.vllm_cache_simplevqa/torch_compile/yf/cyfs56zb2suw3tsmosn5l676nggdzxkxtp5fzg2rehjtqrhlho3f.py":43:40)
#loc20 = loc("/data/jcy/zzs/zijinhua/.vllm_cache_simplevqa/torch_compile/yf/cyfs56zb2suw3tsmosn5l676nggdzxkxtp5fzg2rehjtqrhlho3f.py":44:29)
#loc21 = loc("/data/jcy/zzs/zijinhua/.vllm_cache_simplevqa/torch_compile/yf/cyfs56zb2suw3tsmosn5l676nggdzxkxtp5fzg2rehjtqrhlho3f.py":44:52)
#loc22 = loc("/data/jcy/zzs/zijinhua/.vllm_cache_simplevqa/torch_compile/yf/cyfs56zb2suw3tsmosn5l676nggdzxkxtp5fzg2rehjtqrhlho3f.py":44:8)
#loc23 = loc("/data/conda/envs/or_llm/lib/python3.12/site-packages/triton/language/standard.py":293:36)
#loc25 = loc("/data/conda/envs/or_llm/lib/python3.12/site-packages/triton/language/standard.py":263:15)
#loc26 = loc("/data/jcy/zzs/zijinhua/.vllm_cache_simplevqa/torch_compile/yf/cyfs56zb2suw3tsmosn5l676nggdzxkxtp5fzg2rehjtqrhlho3f.py":45:28)
#loc27 = loc("/data/jcy/zzs/zijinhua/.vllm_cache_simplevqa/torch_compile/yf/cyfs56zb2suw3tsmosn5l676nggdzxkxtp5fzg2rehjtqrhlho3f.py":46:40)
#loc28 = loc("/data/jcy/zzs/zijinhua/.vllm_cache_simplevqa/torch_compile/yf/cyfs56zb2suw3tsmosn5l676nggdzxkxtp5fzg2rehjtqrhlho3f.py":47:31)
#loc29 = loc("/data/jcy/zzs/zijinhua/.vllm_cache_simplevqa/torch_compile/yf/cyfs56zb2suw3tsmosn5l676nggdzxkxtp5fzg2rehjtqrhlho3f.py":48:29)
#loc30 = loc("/data/jcy/zzs/zijinhua/.vllm_cache_simplevqa/torch_compile/yf/cyfs56zb2suw3tsmosn5l676nggdzxkxtp5fzg2rehjtqrhlho3f.py":52:47)
#loc31 = loc("/data/jcy/zzs/zijinhua/.vllm_cache_simplevqa/torch_compile/yf/cyfs56zb2suw3tsmosn5l676nggdzxkxtp5fzg2rehjtqrhlho3f.py":52:42)
#loc32 = loc("/data/jcy/zzs/zijinhua/.vllm_cache_simplevqa/torch_compile/yf/cyfs56zb2suw3tsmosn5l676nggdzxkxtp5fzg2rehjtqrhlho3f.py":52:35)
#loc33 = loc("/data/jcy/zzs/zijinhua/.vllm_cache_simplevqa/torch_compile/yf/cyfs56zb2suw3tsmosn5l676nggdzxkxtp5fzg2rehjtqrhlho3f.py":52:52)
#loc34 = loc("/data/jcy/zzs/zijinhua/.vllm_cache_simplevqa/torch_compile/yf/cyfs56zb2suw3tsmosn5l676nggdzxkxtp5fzg2rehjtqrhlho3f.py":52:106)
#loc35 = loc("/data/jcy/zzs/zijinhua/.vllm_cache_simplevqa/torch_compile/yf/cyfs56zb2suw3tsmosn5l676nggdzxkxtp5fzg2rehjtqrhlho3f.py":53:35)
#loc36 = loc("/data/jcy/zzs/zijinhua/.vllm_cache_simplevqa/torch_compile/yf/cyfs56zb2suw3tsmosn5l676nggdzxkxtp5fzg2rehjtqrhlho3f.py":53:42)
#loc37 = loc("/data/jcy/zzs/zijinhua/.vllm_cache_simplevqa/torch_compile/yf/cyfs56zb2suw3tsmosn5l676nggdzxkxtp5fzg2rehjtqrhlho3f.py":53:95)
#loc38 = loc("/data/jcy/zzs/zijinhua/.vllm_cache_simplevqa/torch_compile/yf/cyfs56zb2suw3tsmosn5l676nggdzxkxtp5fzg2rehjtqrhlho3f.py":56:24)
#loc39 = loc("/data/jcy/zzs/zijinhua/.vllm_cache_simplevqa/torch_compile/yf/cyfs56zb2suw3tsmosn5l676nggdzxkxtp5fzg2rehjtqrhlho3f.py":58:24)
#loc40 = loc("/data/jcy/zzs/zijinhua/.vllm_cache_simplevqa/torch_compile/yf/cyfs56zb2suw3tsmosn5l676nggdzxkxtp5fzg2rehjtqrhlho3f.py":59:32)
#loc41 = loc("/data/jcy/zzs/zijinhua/.vllm_cache_simplevqa/torch_compile/yf/cyfs56zb2suw3tsmosn5l676nggdzxkxtp5fzg2rehjtqrhlho3f.py":60:23)
#loc42 = loc("/data/jcy/zzs/zijinhua/.vllm_cache_simplevqa/torch_compile/yf/cyfs56zb2suw3tsmosn5l676nggdzxkxtp5fzg2rehjtqrhlho3f.py":63:24)
#loc43 = loc("/data/jcy/zzs/zijinhua/.vllm_cache_simplevqa/torch_compile/yf/cyfs56zb2suw3tsmosn5l676nggdzxkxtp5fzg2rehjtqrhlho3f.py":64:24)
#loc44 = loc("/data/jcy/zzs/zijinhua/.vllm_cache_simplevqa/torch_compile/yf/cyfs56zb2suw3tsmosn5l676nggdzxkxtp5fzg2rehjtqrhlho3f.py":66:29)
#loc45 = loc("/data/jcy/zzs/zijinhua/.vllm_cache_simplevqa/torch_compile/yf/cyfs56zb2suw3tsmosn5l676nggdzxkxtp5fzg2rehjtqrhlho3f.py":66:53)
#loc46 = loc("/data/jcy/zzs/zijinhua/.vllm_cache_simplevqa/torch_compile/yf/cyfs56zb2suw3tsmosn5l676nggdzxkxtp5fzg2rehjtqrhlho3f.py":46:4)
#loc54 = loc("xoffset"(#loc2))
#loc55 = loc("r0_base"(#loc3))
#loc56 = loc("r0_base"(#loc4))
#loc57 = loc("_tmp6"(#loc5))
#loc58 = loc("r0_index"(#loc6))
#loc59 = loc("r0_mask"(#loc7))
#loc60 = loc("tmp0"(#loc8))
#loc61 = loc("tmp0"(#loc9))
#loc62 = loc("tmp0"(#loc10))
#loc63 = loc("tmp0"(#loc11))
#loc64 = loc("tmp0"(#loc12))
#loc65 = loc("tmp1"(#loc13))
#loc66 = loc("tmp1"(#loc14))
#loc67 = loc("tmp1"(#loc15))
#loc68 = loc("tmp2"(#loc16))
#loc69 = loc("tmp4"(#loc17))
#loc70 = loc("tmp7"(#loc18))
#loc71 = loc("_tmp6"(#loc19))
#loc73 = loc("tmp6"(#loc26))
#loc74 = loc("r0_index"(#loc28))
#loc75 = loc("r0_mask"(#loc29))
#loc76 = loc("tmp8"(#loc30))
#loc77 = loc("tmp8"(#loc31))
#loc78 = loc("tmp8"(#loc32))
#loc79 = loc("tmp8"(#loc33))
#loc80 = loc("tmp8"(#loc34))
#loc81 = loc("tmp16"(#loc35))
#loc82 = loc("tmp16"(#loc36))
#loc83 = loc("tmp16"(#loc37))
#loc84 = loc("tmp11"(#loc38))
#loc85 = loc("tmp13"(#loc39))
#loc86 = loc("tmp14"(#loc40))
#loc87 = loc("tmp15"(#loc41))
#loc88 = loc("tmp19"(#loc42))
#loc89 = loc("tmp20"(#loc43))
#loc90 = loc(fused[#loc61, #loc60])
#loc91 = loc(callsite(#loc23 at #loc72))
#loc93 = loc(fused[#loc77, #loc76])
#loc94 = loc(callsite(#loc25 at #loc91))
