#loc = loc("/data/conda/envs/or_llm/lib/python3.12/site-packages/vllm/model_executor/layers/rotary_embedding/mrope.py":15:0)
#loc103 = loc("q_ptr"(#loc))
#loc104 = loc("k_ptr"(#loc))
#loc105 = loc("cos"(#loc))
#loc106 = loc("sin"(#loc))
#loc107 = loc("num_tokens"(#loc))
module {
  tt.func public @_triton_mrope_forward(%q_ptr: !tt.ptr<bf16> {tt.divisibility = 16 : i32} loc("q_ptr"(#loc)), %k_ptr: !tt.ptr<bf16> {tt.divisibility = 16 : i32} loc("k_ptr"(#loc)), %cos: !tt.ptr<bf16> {tt.divisibility = 16 : i32} loc("cos"(#loc)), %sin: !tt.ptr<bf16> {tt.divisibility = 16 : i32} loc("sin"(#loc)), %num_tokens: i32 loc("num_tokens"(#loc))) attributes {noinline = false} {
    %pid = tt.get_program_id x : i32 loc(#loc108)
    %q_ptr_0 = arith.constant 4096 : i32 loc(#loc109)
    %q_ptr_1 = arith.constant 4096 : i32 loc(#loc109)
    %q_ptr_2 = arith.extsi %pid : i32 to i64 loc(#loc109)
    %q_ptr_3 = arith.extsi %q_ptr_1 : i32 to i64 loc(#loc109)
    %q_ptr_4 = arith.muli %q_ptr_2, %q_ptr_3 : i64 loc(#loc109)
    %q_ptr_5 = arith.constant 2147483647 : i64 loc(#loc109)
    %q_ptr_6 = arith.constant -2147483648 : i64 loc(#loc109)
    %q_ptr_7 = arith.cmpi sle, %q_ptr_4, %q_ptr_5 : i64 loc(#loc109)
    %q_ptr_8 = arith.cmpi sge, %q_ptr_4, %q_ptr_6 : i64 loc(#loc109)
    %q_ptr_9 = arith.andi %q_ptr_7, %q_ptr_8 : i1 loc(#loc109)
    %q_ptr_10 = arith.muli %pid, %q_ptr_1 : i32 loc(#loc109)
    %q_ptr_11 = tt.addptr %q_ptr, %q_ptr_10 : !tt.ptr<bf16>, i32 loc(#loc110)
    %k_ptr_12 = arith.constant 1024 : i32 loc(#loc111)
    %k_ptr_13 = arith.constant 1024 : i32 loc(#loc111)
    %k_ptr_14 = arith.extsi %pid : i32 to i64 loc(#loc111)
    %k_ptr_15 = arith.extsi %k_ptr_13 : i32 to i64 loc(#loc111)
    %k_ptr_16 = arith.muli %k_ptr_14, %k_ptr_15 : i64 loc(#loc111)
    %k_ptr_17 = arith.constant 2147483647 : i64 loc(#loc111)
    %k_ptr_18 = arith.constant -2147483648 : i64 loc(#loc111)
    %k_ptr_19 = arith.cmpi sle, %k_ptr_16, %k_ptr_17 : i64 loc(#loc111)
    %k_ptr_20 = arith.cmpi sge, %k_ptr_16, %k_ptr_18 : i64 loc(#loc111)
    %k_ptr_21 = arith.andi %k_ptr_19, %k_ptr_20 : i1 loc(#loc111)
    %k_ptr_22 = arith.muli %pid, %k_ptr_13 : i32 loc(#loc111)
    %k_ptr_23 = tt.addptr %k_ptr, %k_ptr_22 : !tt.ptr<bf16>, i32 loc(#loc112)
    %half_rd = arith.constant 32 : i32 loc(#loc113)
    %t_cos = arith.extsi %pid : i32 to i64 loc(#loc114)
    %t_cos_24 = arith.extsi %half_rd : i32 to i64 loc(#loc114)
    %t_cos_25 = arith.muli %t_cos, %t_cos_24 : i64 loc(#loc114)
    %t_cos_26 = arith.constant 2147483647 : i64 loc(#loc114)
    %t_cos_27 = arith.constant -2147483648 : i64 loc(#loc114)
    %t_cos_28 = arith.cmpi sle, %t_cos_25, %t_cos_26 : i64 loc(#loc114)
    %t_cos_29 = arith.cmpi sge, %t_cos_25, %t_cos_27 : i64 loc(#loc114)
    %t_cos_30 = arith.andi %t_cos_28, %t_cos_29 : i1 loc(#loc114)
    %t_cos_31 = arith.muli %pid, %half_rd : i32 loc(#loc114)
    %t_cos_32 = tt.addptr %cos, %t_cos_31 : !tt.ptr<bf16>, i32 loc(#loc115)
    %h_cos = arith.extsi %num_tokens : i32 to i64 loc(#loc116)
    %h_cos_33 = arith.extsi %half_rd : i32 to i64 loc(#loc116)
    %h_cos_34 = arith.muli %h_cos, %h_cos_33 : i64 loc(#loc116)
    %h_cos_35 = arith.constant 2147483647 : i64 loc(#loc116)
    %h_cos_36 = arith.constant -2147483648 : i64 loc(#loc116)
    %h_cos_37 = arith.cmpi sle, %h_cos_34, %h_cos_35 : i64 loc(#loc116)
    %h_cos_38 = arith.cmpi sge, %h_cos_34, %h_cos_36 : i64 loc(#loc116)
    %h_cos_39 = arith.andi %h_cos_37, %h_cos_38 : i1 loc(#loc116)
    %h_cos_40 = arith.muli %num_tokens, %half_rd : i32 loc(#loc116)
    %h_cos_41 = tt.addptr %t_cos_32, %h_cos_40 : !tt.ptr<bf16>, i32 loc(#loc117)
    %w_cos = arith.extsi %num_tokens : i32 to i64 loc(#loc118)
    %w_cos_42 = arith.extsi %half_rd : i32 to i64 loc(#loc118)
    %w_cos_43 = arith.muli %w_cos, %w_cos_42 : i64 loc(#loc118)
    %w_cos_44 = arith.constant 2147483647 : i64 loc(#loc118)
    %w_cos_45 = arith.constant -2147483648 : i64 loc(#loc118)
    %w_cos_46 = arith.cmpi sle, %w_cos_43, %w_cos_44 : i64 loc(#loc118)
    %w_cos_47 = arith.cmpi sge, %w_cos_43, %w_cos_45 : i64 loc(#loc118)
    %w_cos_48 = arith.andi %w_cos_46, %w_cos_47 : i1 loc(#loc118)
    %w_cos_49 = arith.muli %num_tokens, %half_rd : i32 loc(#loc118)
    %w_cos_50 = tt.addptr %h_cos_41, %w_cos_49 : !tt.ptr<bf16>, i32 loc(#loc119)
    %t_sin = arith.extsi %pid : i32 to i64 loc(#loc120)
    %t_sin_51 = arith.extsi %half_rd : i32 to i64 loc(#loc120)
    %t_sin_52 = arith.muli %t_sin, %t_sin_51 : i64 loc(#loc120)
    %t_sin_53 = arith.constant 2147483647 : i64 loc(#loc120)
    %t_sin_54 = arith.constant -2147483648 : i64 loc(#loc120)
    %t_sin_55 = arith.cmpi sle, %t_sin_52, %t_sin_53 : i64 loc(#loc120)
    %t_sin_56 = arith.cmpi sge, %t_sin_52, %t_sin_54 : i64 loc(#loc120)
    %t_sin_57 = arith.andi %t_sin_55, %t_sin_56 : i1 loc(#loc120)
    %t_sin_58 = arith.muli %pid, %half_rd : i32 loc(#loc120)
    %t_sin_59 = tt.addptr %sin, %t_sin_58 : !tt.ptr<bf16>, i32 loc(#loc121)
    %h_sin = arith.extsi %num_tokens : i32 to i64 loc(#loc122)
    %h_sin_60 = arith.extsi %half_rd : i32 to i64 loc(#loc122)
    %h_sin_61 = arith.muli %h_sin, %h_sin_60 : i64 loc(#loc122)
    %h_sin_62 = arith.constant 2147483647 : i64 loc(#loc122)
    %h_sin_63 = arith.constant -2147483648 : i64 loc(#loc122)
    %h_sin_64 = arith.cmpi sle, %h_sin_61, %h_sin_62 : i64 loc(#loc122)
    %h_sin_65 = arith.cmpi sge, %h_sin_61, %h_sin_63 : i64 loc(#loc122)
    %h_sin_66 = arith.andi %h_sin_64, %h_sin_65 : i1 loc(#loc122)
    %h_sin_67 = arith.muli %num_tokens, %half_rd : i32 loc(#loc122)
    %h_sin_68 = tt.addptr %t_sin_59, %h_sin_67 : !tt.ptr<bf16>, i32 loc(#loc123)
    %w_sin = arith.extsi %num_tokens : i32 to i64 loc(#loc124)
    %w_sin_69 = arith.extsi %half_rd : i32 to i64 loc(#loc124)
    %w_sin_70 = arith.muli %w_sin, %w_sin_69 : i64 loc(#loc124)
    %w_sin_71 = arith.constant 2147483647 : i64 loc(#loc124)
    %w_sin_72 = arith.constant -2147483648 : i64 loc(#loc124)
    %w_sin_73 = arith.cmpi sle, %w_sin_70, %w_sin_71 : i64 loc(#loc124)
    %w_sin_74 = arith.cmpi sge, %w_sin_70, %w_sin_72 : i64 loc(#loc124)
    %w_sin_75 = arith.andi %w_sin_73, %w_sin_74 : i1 loc(#loc124)
    %w_sin_76 = arith.muli %num_tokens, %half_rd : i32 loc(#loc124)
    %w_sin_77 = tt.addptr %h_sin_68, %w_sin_76 : !tt.ptr<bf16>, i32 loc(#loc125)
    %cos_offsets = tt.make_range {end = 128 : i32, start = 0 : i32} : tensor<128xi32> loc(#loc126)
    %h_mask = arith.constant 3 : i32 loc(#loc127)
    %h_mask_78 = arith.constant 3 : i32 loc(#loc127)
    %h_mask_79 = arith.constant dense<3> : tensor<128xi32> loc(#loc127)
    %h_mask_80 = arith.remsi %cos_offsets, %h_mask_79 : tensor<128xi32> loc(#loc127)
    %h_mask_81 = arith.constant 1 : i32 loc(#loc128)
    %h_mask_82 = arith.constant dense<1> : tensor<128xi32> loc(#loc128)
    %h_mask_83 = arith.cmpi eq, %h_mask_80, %h_mask_82 : tensor<128xi32> loc(#loc128)
    %h_mask_84 = arith.constant 33 : i32 loc(#loc129)
    %h_mask_85 = arith.constant dense<33> : tensor<128xi32> loc(#loc129)
    %h_mask_86 = arith.cmpi sle, %cos_offsets, %h_mask_85 : tensor<128xi32> loc(#loc129)
    %h_mask_87 = arith.andi %h_mask_83, %h_mask_86 : tensor<128xi1> loc(#loc130)
    %w_mask = arith.constant 3 : i32 loc(#loc131)
    %w_mask_88 = arith.constant 3 : i32 loc(#loc131)
    %w_mask_89 = arith.constant dense<3> : tensor<128xi32> loc(#loc131)
    %w_mask_90 = arith.remsi %cos_offsets, %w_mask_89 : tensor<128xi32> loc(#loc131)
    %w_mask_91 = arith.constant 2 : i32 loc(#loc132)
    %w_mask_92 = arith.constant dense<2> : tensor<128xi32> loc(#loc132)
    %w_mask_93 = arith.cmpi eq, %w_mask_90, %w_mask_92 : tensor<128xi32> loc(#loc132)
    %w_mask_94 = arith.constant 30 : i32 loc(#loc133)
    %w_mask_95 = arith.constant dense<30> : tensor<128xi32> loc(#loc133)
    %w_mask_96 = arith.cmpi sle, %cos_offsets, %w_mask_95 : tensor<128xi32> loc(#loc133)
    %w_mask_97 = arith.andi %w_mask_93, %w_mask_96 : tensor<128xi1> loc(#loc134)
    %t_mask = arith.ori %h_mask_87, %w_mask_97 : tensor<128xi1> loc(#loc135)
    %t_mask_98 = arith.constant true loc(#loc136)
    %t_mask_99 = arith.constant dense<true> : tensor<128xi1> loc(#loc136)
    %t_mask_100 = arith.xori %t_mask, %t_mask_99 : tensor<128xi1> loc(#loc136)
    %t_cos_row = tt.splat %t_cos_32 : !tt.ptr<bf16> -> tensor<128x!tt.ptr<bf16>> loc(#loc137)
    %t_cos_row_101 = tt.addptr %t_cos_row, %cos_offsets : tensor<128x!tt.ptr<bf16>>, tensor<128xi32> loc(#loc137)
    %t_cos_row_102 = arith.constant 0 : i32 loc(#loc138)
    %t_cos_row_103 = arith.constant dense<0> : tensor<128xi32> loc(#loc138)
    %t_cos_row_104 = arith.sitofp %t_cos_row_103 : tensor<128xi32> to tensor<128xbf16> loc(#loc138)
    %t_cos_row_105 = tt.load %t_cos_row_101, %t_mask_100, %t_cos_row_104 : tensor<128x!tt.ptr<bf16>> loc(#loc138)
    %h_cos_row = tt.splat %h_cos_41 : !tt.ptr<bf16> -> tensor<128x!tt.ptr<bf16>> loc(#loc139)
    %h_cos_row_106 = tt.addptr %h_cos_row, %cos_offsets : tensor<128x!tt.ptr<bf16>>, tensor<128xi32> loc(#loc139)
    %h_cos_row_107 = arith.constant 0 : i32 loc(#loc140)
    %h_cos_row_108 = arith.constant dense<0> : tensor<128xi32> loc(#loc140)
    %h_cos_row_109 = arith.sitofp %h_cos_row_108 : tensor<128xi32> to tensor<128xbf16> loc(#loc140)
    %h_cos_row_110 = tt.load %h_cos_row_106, %h_mask_87, %h_cos_row_109 : tensor<128x!tt.ptr<bf16>> loc(#loc140)
    %w_cos_row = tt.splat %w_cos_50 : !tt.ptr<bf16> -> tensor<128x!tt.ptr<bf16>> loc(#loc141)
    %w_cos_row_111 = tt.addptr %w_cos_row, %cos_offsets : tensor<128x!tt.ptr<bf16>>, tensor<128xi32> loc(#loc141)
    %w_cos_row_112 = arith.constant 0 : i32 loc(#loc142)
    %w_cos_row_113 = arith.constant dense<0> : tensor<128xi32> loc(#loc142)
    %w_cos_row_114 = arith.sitofp %w_cos_row_113 : tensor<128xi32> to tensor<128xbf16> loc(#loc142)
    %w_cos_row_115 = tt.load %w_cos_row_111, %w_mask_97, %w_cos_row_114 : tensor<128x!tt.ptr<bf16>> loc(#loc142)
    %t_sin_row = tt.splat %t_sin_59 : !tt.ptr<bf16> -> tensor<128x!tt.ptr<bf16>> loc(#loc143)
    %t_sin_row_116 = tt.addptr %t_sin_row, %cos_offsets : tensor<128x!tt.ptr<bf16>>, tensor<128xi32> loc(#loc143)
    %t_sin_row_117 = arith.constant 0 : i32 loc(#loc144)
    %t_sin_row_118 = arith.constant dense<0> : tensor<128xi32> loc(#loc144)
    %t_sin_row_119 = arith.sitofp %t_sin_row_118 : tensor<128xi32> to tensor<128xbf16> loc(#loc144)
    %t_sin_row_120 = tt.load %t_sin_row_116, %t_mask_100, %t_sin_row_119 : tensor<128x!tt.ptr<bf16>> loc(#loc144)
    %h_sin_row = tt.splat %h_sin_68 : !tt.ptr<bf16> -> tensor<128x!tt.ptr<bf16>> loc(#loc145)
    %h_sin_row_121 = tt.addptr %h_sin_row, %cos_offsets : tensor<128x!tt.ptr<bf16>>, tensor<128xi32> loc(#loc145)
    %h_sin_row_122 = arith.constant 0 : i32 loc(#loc146)
    %h_sin_row_123 = arith.constant dense<0> : tensor<128xi32> loc(#loc146)
    %h_sin_row_124 = arith.sitofp %h_sin_row_123 : tensor<128xi32> to tensor<128xbf16> loc(#loc146)
    %h_sin_row_125 = tt.load %h_sin_row_121, %h_mask_87, %h_sin_row_124 : tensor<128x!tt.ptr<bf16>> loc(#loc146)
    %w_sin_row = tt.splat %w_sin_77 : !tt.ptr<bf16> -> tensor<128x!tt.ptr<bf16>> loc(#loc147)
    %w_sin_row_126 = tt.addptr %w_sin_row, %cos_offsets : tensor<128x!tt.ptr<bf16>>, tensor<128xi32> loc(#loc147)
    %w_sin_row_127 = arith.constant 0 : i32 loc(#loc148)
    %w_sin_row_128 = arith.constant dense<0> : tensor<128xi32> loc(#loc148)
    %w_sin_row_129 = arith.sitofp %w_sin_row_128 : tensor<128xi32> to tensor<128xbf16> loc(#loc148)
    %w_sin_row_130 = tt.load %w_sin_row_126, %w_mask_97, %w_sin_row_129 : tensor<128x!tt.ptr<bf16>> loc(#loc148)
    %cos_row = arith.addf %t_cos_row_105, %h_cos_row_110 : tensor<128xbf16> loc(#loc149)
    %cos_row_131 = arith.addf %cos_row, %w_cos_row_115 : tensor<128xbf16> loc(#loc150)
    %sin_row = arith.addf %t_sin_row_120, %h_sin_row_125 : tensor<128xbf16> loc(#loc151)
    %sin_row_132 = arith.addf %sin_row, %w_sin_row_130 : tensor<128xbf16> loc(#loc152)
    %first_half_q_offsets = tt.make_range {end = 16 : i32, start = 0 : i32} : tensor<16xi32> loc(#loc153)
    %first_half_q_offsets_133 = tt.expand_dims %first_half_q_offsets {axis = 1 : i32} : tensor<16xi32> -> tensor<16x1xi32> loc(#loc154)
    %first_half_q_offsets_134 = arith.constant 256 : i32 loc(#loc155)
    %first_half_q_offsets_135 = arith.constant 256 : i32 loc(#loc155)
    %first_half_q_offsets_136 = arith.constant dense<256> : tensor<16x1xi32> loc(#loc155)
    %first_half_q_offsets_137 = arith.extsi %first_half_q_offsets_133 : tensor<16x1xi32> to tensor<16x1xi64> loc(#loc155)
    %first_half_q_offsets_138 = arith.extsi %first_half_q_offsets_136 : tensor<16x1xi32> to tensor<16x1xi64> loc(#loc155)
    %first_half_q_offsets_139 = arith.muli %first_half_q_offsets_137, %first_half_q_offsets_138 : tensor<16x1xi64> loc(#loc155)
    %first_half_q_offsets_140 = arith.constant 2147483647 : i64 loc(#loc155)
    %first_half_q_offsets_141 = arith.constant -2147483648 : i64 loc(#loc155)
    %first_half_q_offsets_142 = arith.constant dense<2147483647> : tensor<16x1xi64> loc(#loc155)
    %first_half_q_offsets_143 = arith.cmpi sle, %first_half_q_offsets_139, %first_half_q_offsets_142 : tensor<16x1xi64> loc(#loc155)
    %first_half_q_offsets_144 = arith.constant dense<-2147483648> : tensor<16x1xi64> loc(#loc155)
    %first_half_q_offsets_145 = arith.cmpi sge, %first_half_q_offsets_139, %first_half_q_offsets_144 : tensor<16x1xi64> loc(#loc155)
    %first_half_q_offsets_146 = arith.andi %first_half_q_offsets_143, %first_half_q_offsets_145 : tensor<16x1xi1> loc(#loc155)
    %first_half_q_offsets_147 = arith.muli %first_half_q_offsets_133, %first_half_q_offsets_136 : tensor<16x1xi32> loc(#loc155)
    %first_half_q_offsets_148 = tt.make_range {end = 128 : i32, start = 0 : i32} : tensor<128xi32> loc(#loc156)
    %first_half_q_offsets_149 = tt.expand_dims %first_half_q_offsets_148 {axis = 0 : i32} : tensor<128xi32> -> tensor<1x128xi32> loc(#loc157)
    %first_half_q_offsets_150 = tt.broadcast %first_half_q_offsets_147 : tensor<16x1xi32> -> tensor<16x128xi32> loc(#loc158)
    %first_half_q_offsets_151 = tt.broadcast %first_half_q_offsets_149 : tensor<1x128xi32> -> tensor<16x128xi32> loc(#loc158)
    %first_half_q_offsets_152 = arith.extsi %first_half_q_offsets_150 : tensor<16x128xi32> to tensor<16x128xi64> loc(#loc158)
    %first_half_q_offsets_153 = arith.extsi %first_half_q_offsets_151 : tensor<16x128xi32> to tensor<16x128xi64> loc(#loc158)
    %first_half_q_offsets_154 = arith.addi %first_half_q_offsets_152, %first_half_q_offsets_153 : tensor<16x128xi64> loc(#loc158)
    %first_half_q_offsets_155 = arith.constant 2147483647 : i64 loc(#loc158)
    %first_half_q_offsets_156 = arith.constant -2147483648 : i64 loc(#loc158)
    %first_half_q_offsets_157 = arith.constant dense<2147483647> : tensor<16x128xi64> loc(#loc158)
    %first_half_q_offsets_158 = arith.cmpi sle, %first_half_q_offsets_154, %first_half_q_offsets_157 : tensor<16x128xi64> loc(#loc158)
    %first_half_q_offsets_159 = arith.constant dense<-2147483648> : tensor<16x128xi64> loc(#loc158)
    %first_half_q_offsets_160 = arith.cmpi sge, %first_half_q_offsets_154, %first_half_q_offsets_159 : tensor<16x128xi64> loc(#loc158)
    %first_half_q_offsets_161 = arith.andi %first_half_q_offsets_158, %first_half_q_offsets_160 : tensor<16x128xi1> loc(#loc158)
    %first_half_q_offsets_162 = arith.addi %first_half_q_offsets_150, %first_half_q_offsets_151 : tensor<16x128xi32> loc(#loc158)
    %first_half_k_offsets = tt.make_range {end = 4 : i32, start = 0 : i32} : tensor<4xi32> loc(#loc159)
    %first_half_k_offsets_163 = tt.expand_dims %first_half_k_offsets {axis = 1 : i32} : tensor<4xi32> -> tensor<4x1xi32> loc(#loc160)
    %first_half_k_offsets_164 = arith.constant 256 : i32 loc(#loc161)
    %first_half_k_offsets_165 = arith.constant 256 : i32 loc(#loc161)
    %first_half_k_offsets_166 = arith.constant dense<256> : tensor<4x1xi32> loc(#loc161)
    %first_half_k_offsets_167 = arith.extsi %first_half_k_offsets_163 : tensor<4x1xi32> to tensor<4x1xi64> loc(#loc161)
    %first_half_k_offsets_168 = arith.extsi %first_half_k_offsets_166 : tensor<4x1xi32> to tensor<4x1xi64> loc(#loc161)
    %first_half_k_offsets_169 = arith.muli %first_half_k_offsets_167, %first_half_k_offsets_168 : tensor<4x1xi64> loc(#loc161)
    %first_half_k_offsets_170 = arith.constant 2147483647 : i64 loc(#loc161)
    %first_half_k_offsets_171 = arith.constant -2147483648 : i64 loc(#loc161)
    %first_half_k_offsets_172 = arith.constant dense<2147483647> : tensor<4x1xi64> loc(#loc161)
    %first_half_k_offsets_173 = arith.cmpi sle, %first_half_k_offsets_169, %first_half_k_offsets_172 : tensor<4x1xi64> loc(#loc161)
    %first_half_k_offsets_174 = arith.constant dense<-2147483648> : tensor<4x1xi64> loc(#loc161)
    %first_half_k_offsets_175 = arith.cmpi sge, %first_half_k_offsets_169, %first_half_k_offsets_174 : tensor<4x1xi64> loc(#loc161)
    %first_half_k_offsets_176 = arith.andi %first_half_k_offsets_173, %first_half_k_offsets_175 : tensor<4x1xi1> loc(#loc161)
    %first_half_k_offsets_177 = arith.muli %first_half_k_offsets_163, %first_half_k_offsets_166 : tensor<4x1xi32> loc(#loc161)
    %first_half_k_offsets_178 = tt.make_range {end = 128 : i32, start = 0 : i32} : tensor<128xi32> loc(#loc162)
    %first_half_k_offsets_179 = tt.expand_dims %first_half_k_offsets_178 {axis = 0 : i32} : tensor<128xi32> -> tensor<1x128xi32> loc(#loc163)
    %first_half_k_offsets_180 = tt.broadcast %first_half_k_offsets_177 : tensor<4x1xi32> -> tensor<4x128xi32> loc(#loc164)
    %first_half_k_offsets_181 = tt.broadcast %first_half_k_offsets_179 : tensor<1x128xi32> -> tensor<4x128xi32> loc(#loc164)
    %first_half_k_offsets_182 = arith.extsi %first_half_k_offsets_180 : tensor<4x128xi32> to tensor<4x128xi64> loc(#loc164)
    %first_half_k_offsets_183 = arith.extsi %first_half_k_offsets_181 : tensor<4x128xi32> to tensor<4x128xi64> loc(#loc164)
    %first_half_k_offsets_184 = arith.addi %first_half_k_offsets_182, %first_half_k_offsets_183 : tensor<4x128xi64> loc(#loc164)
    %first_half_k_offsets_185 = arith.constant 2147483647 : i64 loc(#loc164)
    %first_half_k_offsets_186 = arith.constant -2147483648 : i64 loc(#loc164)
    %first_half_k_offsets_187 = arith.constant dense<2147483647> : tensor<4x128xi64> loc(#loc164)
    %first_half_k_offsets_188 = arith.cmpi sle, %first_half_k_offsets_184, %first_half_k_offsets_187 : tensor<4x128xi64> loc(#loc164)
    %first_half_k_offsets_189 = arith.constant dense<-2147483648> : tensor<4x128xi64> loc(#loc164)
    %first_half_k_offsets_190 = arith.cmpi sge, %first_half_k_offsets_184, %first_half_k_offsets_189 : tensor<4x128xi64> loc(#loc164)
    %first_half_k_offsets_191 = arith.andi %first_half_k_offsets_188, %first_half_k_offsets_190 : tensor<4x128xi1> loc(#loc164)
    %first_half_k_offsets_192 = arith.addi %first_half_k_offsets_180, %first_half_k_offsets_181 : tensor<4x128xi32> loc(#loc164)
    %first_q_mask = tt.make_range {end = 16 : i32, start = 0 : i32} : tensor<16xi32> loc(#loc165)
    %first_q_mask_193 = tt.expand_dims %first_q_mask {axis = 1 : i32} : tensor<16xi32> -> tensor<16x1xi32> loc(#loc166)
    %first_q_mask_194 = arith.constant 16 : i32 loc(#loc167)
    %first_q_mask_195 = arith.constant dense<16> : tensor<16x1xi32> loc(#loc167)
    %first_q_mask_196 = arith.cmpi slt, %first_q_mask_193, %first_q_mask_195 : tensor<16x1xi32> loc(#loc167)
    %first_q_mask_197 = tt.make_range {end = 128 : i32, start = 0 : i32} : tensor<128xi32> loc(#loc168)
    %first_q_mask_198 = tt.expand_dims %first_q_mask_197 {axis = 0 : i32} : tensor<128xi32> -> tensor<1x128xi32> loc(#loc169)
    %first_q_mask_199 = arith.constant 32 : i32 loc(#loc170)
    %first_q_mask_200 = arith.constant dense<32> : tensor<1x128xi32> loc(#loc170)
    %first_q_mask_201 = arith.cmpi slt, %first_q_mask_198, %first_q_mask_200 : tensor<1x128xi32> loc(#loc170)
    %first_q_mask_202 = tt.broadcast %first_q_mask_196 : tensor<16x1xi1> -> tensor<16x128xi1> loc(#loc171)
    %first_q_mask_203 = tt.broadcast %first_q_mask_201 : tensor<1x128xi1> -> tensor<16x128xi1> loc(#loc171)
    %first_q_mask_204 = arith.andi %first_q_mask_202, %first_q_mask_203 : tensor<16x128xi1> loc(#loc171)
    %first_k_mask = tt.make_range {end = 4 : i32, start = 0 : i32} : tensor<4xi32> loc(#loc172)
    %first_k_mask_205 = tt.expand_dims %first_k_mask {axis = 1 : i32} : tensor<4xi32> -> tensor<4x1xi32> loc(#loc173)
    %first_k_mask_206 = arith.constant 4 : i32 loc(#loc174)
    %first_k_mask_207 = arith.constant dense<4> : tensor<4x1xi32> loc(#loc174)
    %first_k_mask_208 = arith.cmpi slt, %first_k_mask_205, %first_k_mask_207 : tensor<4x1xi32> loc(#loc174)
    %first_k_mask_209 = tt.make_range {end = 128 : i32, start = 0 : i32} : tensor<128xi32> loc(#loc175)
    %first_k_mask_210 = tt.expand_dims %first_k_mask_209 {axis = 0 : i32} : tensor<128xi32> -> tensor<1x128xi32> loc(#loc176)
    %first_k_mask_211 = arith.constant 32 : i32 loc(#loc177)
    %first_k_mask_212 = arith.constant dense<32> : tensor<1x128xi32> loc(#loc177)
    %first_k_mask_213 = arith.cmpi slt, %first_k_mask_210, %first_k_mask_212 : tensor<1x128xi32> loc(#loc177)
    %first_k_mask_214 = tt.broadcast %first_k_mask_208 : tensor<4x1xi1> -> tensor<4x128xi1> loc(#loc178)
    %first_k_mask_215 = tt.broadcast %first_k_mask_213 : tensor<1x128xi1> -> tensor<4x128xi1> loc(#loc178)
    %first_k_mask_216 = arith.andi %first_k_mask_214, %first_k_mask_215 : tensor<4x128xi1> loc(#loc178)
    %q_tile_1 = tt.splat %q_ptr_11 : !tt.ptr<bf16> -> tensor<16x128x!tt.ptr<bf16>> loc(#loc179)
    %q_tile_1_217 = tt.addptr %q_tile_1, %first_half_q_offsets_162 : tensor<16x128x!tt.ptr<bf16>>, tensor<16x128xi32> loc(#loc179)
    %q_tile_1_218 = arith.constant 0 : i32 loc(#loc180)
    %q_tile_1_219 = arith.constant dense<0> : tensor<16x128xi32> loc(#loc180)
    %q_tile_1_220 = arith.sitofp %q_tile_1_219 : tensor<16x128xi32> to tensor<16x128xbf16> loc(#loc180)
    %q_tile_1_221 = tt.load %q_tile_1_217, %first_q_mask_204, %q_tile_1_220 : tensor<16x128x!tt.ptr<bf16>> loc(#loc180)
    %k_tile_1 = tt.splat %k_ptr_23 : !tt.ptr<bf16> -> tensor<4x128x!tt.ptr<bf16>> loc(#loc181)
    %k_tile_1_222 = tt.addptr %k_tile_1, %first_half_k_offsets_192 : tensor<4x128x!tt.ptr<bf16>>, tensor<4x128xi32> loc(#loc181)
    %k_tile_1_223 = arith.constant 0 : i32 loc(#loc182)
    %k_tile_1_224 = arith.constant dense<0> : tensor<4x128xi32> loc(#loc182)
    %k_tile_1_225 = arith.sitofp %k_tile_1_224 : tensor<4x128xi32> to tensor<4x128xbf16> loc(#loc182)
    %k_tile_1_226 = tt.load %k_tile_1_222, %first_k_mask_216, %k_tile_1_225 : tensor<4x128x!tt.ptr<bf16>> loc(#loc182)
    %second_half_q_offsets = arith.constant 32 : i32 loc(#loc183)
    %second_half_q_offsets_227 = arith.constant 32 : i32 loc(#loc183)
    %second_half_q_offsets_228 = arith.constant dense<32> : tensor<16x128xi32> loc(#loc183)
    %second_half_q_offsets_229 = arith.extsi %first_half_q_offsets_162 : tensor<16x128xi32> to tensor<16x128xi64> loc(#loc183)
    %second_half_q_offsets_230 = arith.extsi %second_half_q_offsets_228 : tensor<16x128xi32> to tensor<16x128xi64> loc(#loc183)
    %second_half_q_offsets_231 = arith.addi %second_half_q_offsets_229, %second_half_q_offsets_230 : tensor<16x128xi64> loc(#loc183)
    %second_half_q_offsets_232 = arith.constant 2147483647 : i64 loc(#loc183)
    %second_half_q_offsets_233 = arith.constant -2147483648 : i64 loc(#loc183)
    %second_half_q_offsets_234 = arith.constant dense<2147483647> : tensor<16x128xi64> loc(#loc183)
    %second_half_q_offsets_235 = arith.cmpi sle, %second_half_q_offsets_231, %second_half_q_offsets_234 : tensor<16x128xi64> loc(#loc183)
    %second_half_q_offsets_236 = arith.constant dense<-2147483648> : tensor<16x128xi64> loc(#loc183)
    %second_half_q_offsets_237 = arith.cmpi sge, %second_half_q_offsets_231, %second_half_q_offsets_236 : tensor<16x128xi64> loc(#loc183)
    %second_half_q_offsets_238 = arith.andi %second_half_q_offsets_235, %second_half_q_offsets_237 : tensor<16x128xi1> loc(#loc183)
    %second_half_q_offsets_239 = arith.addi %first_half_q_offsets_162, %second_half_q_offsets_228 : tensor<16x128xi32> loc(#loc183)
    %second_half_k_offsets = arith.constant 32 : i32 loc(#loc184)
    %second_half_k_offsets_240 = arith.constant 32 : i32 loc(#loc184)
    %second_half_k_offsets_241 = arith.constant dense<32> : tensor<4x128xi32> loc(#loc184)
    %second_half_k_offsets_242 = arith.extsi %first_half_k_offsets_192 : tensor<4x128xi32> to tensor<4x128xi64> loc(#loc184)
    %second_half_k_offsets_243 = arith.extsi %second_half_k_offsets_241 : tensor<4x128xi32> to tensor<4x128xi64> loc(#loc184)
    %second_half_k_offsets_244 = arith.addi %second_half_k_offsets_242, %second_half_k_offsets_243 : tensor<4x128xi64> loc(#loc184)
    %second_half_k_offsets_245 = arith.constant 2147483647 : i64 loc(#loc184)
    %second_half_k_offsets_246 = arith.constant -2147483648 : i64 loc(#loc184)
    %second_half_k_offsets_247 = arith.constant dense<2147483647> : tensor<4x128xi64> loc(#loc184)
    %second_half_k_offsets_248 = arith.cmpi sle, %second_half_k_offsets_244, %second_half_k_offsets_247 : tensor<4x128xi64> loc(#loc184)
    %second_half_k_offsets_249 = arith.constant dense<-2147483648> : tensor<4x128xi64> loc(#loc184)
    %second_half_k_offsets_250 = arith.cmpi sge, %second_half_k_offsets_244, %second_half_k_offsets_249 : tensor<4x128xi64> loc(#loc184)
    %second_half_k_offsets_251 = arith.andi %second_half_k_offsets_248, %second_half_k_offsets_250 : tensor<4x128xi1> loc(#loc184)
    %second_half_k_offsets_252 = arith.addi %first_half_k_offsets_192, %second_half_k_offsets_241 : tensor<4x128xi32> loc(#loc184)
    %q_tile_2 = tt.splat %q_ptr_11 : !tt.ptr<bf16> -> tensor<16x128x!tt.ptr<bf16>> loc(#loc185)
    %q_tile_2_253 = tt.addptr %q_tile_2, %second_half_q_offsets_239 : tensor<16x128x!tt.ptr<bf16>>, tensor<16x128xi32> loc(#loc185)
    %q_tile_2_254 = arith.constant 0 : i32 loc(#loc186)
    %q_tile_2_255 = arith.constant dense<0> : tensor<16x128xi32> loc(#loc186)
    %q_tile_2_256 = arith.sitofp %q_tile_2_255 : tensor<16x128xi32> to tensor<16x128xbf16> loc(#loc186)
    %q_tile_2_257 = tt.load %q_tile_2_253, %first_q_mask_204, %q_tile_2_256 : tensor<16x128x!tt.ptr<bf16>> loc(#loc186)
    %k_tile_2 = tt.splat %k_ptr_23 : !tt.ptr<bf16> -> tensor<4x128x!tt.ptr<bf16>> loc(#loc187)
    %k_tile_2_258 = tt.addptr %k_tile_2, %second_half_k_offsets_252 : tensor<4x128x!tt.ptr<bf16>>, tensor<4x128xi32> loc(#loc187)
    %k_tile_2_259 = arith.constant 0 : i32 loc(#loc188)
    %k_tile_2_260 = arith.constant dense<0> : tensor<4x128xi32> loc(#loc188)
    %k_tile_2_261 = arith.sitofp %k_tile_2_260 : tensor<4x128xi32> to tensor<4x128xbf16> loc(#loc188)
    %k_tile_2_262 = tt.load %k_tile_2_258, %first_k_mask_216, %k_tile_2_261 : tensor<4x128x!tt.ptr<bf16>> loc(#loc188)
    %new_q_tile_1 = tt.expand_dims %cos_row_131 {axis = 0 : i32} : tensor<128xbf16> -> tensor<1x128xbf16> loc(#loc189)
    %new_q_tile_1_263 = tt.broadcast %new_q_tile_1 : tensor<1x128xbf16> -> tensor<16x128xbf16> loc(#loc189)
    %new_q_tile_1_264 = arith.mulf %q_tile_1_221, %new_q_tile_1_263 : tensor<16x128xbf16> loc(#loc189)
    %new_q_tile_1_265 = tt.expand_dims %sin_row_132 {axis = 0 : i32} : tensor<128xbf16> -> tensor<1x128xbf16> loc(#loc190)
    %new_q_tile_1_266 = tt.broadcast %new_q_tile_1_265 : tensor<1x128xbf16> -> tensor<16x128xbf16> loc(#loc190)
    %new_q_tile_1_267 = arith.mulf %q_tile_2_257, %new_q_tile_1_266 : tensor<16x128xbf16> loc(#loc190)
    %new_q_tile_1_268 = arith.subf %new_q_tile_1_264, %new_q_tile_1_267 : tensor<16x128xbf16> loc(#loc191)
    %0 = tt.splat %q_ptr_11 : !tt.ptr<bf16> -> tensor<16x128x!tt.ptr<bf16>> loc(#loc85)
    %1 = tt.addptr %0, %first_half_q_offsets_162 : tensor<16x128x!tt.ptr<bf16>>, tensor<16x128xi32> loc(#loc85)
    tt.store %1, %new_q_tile_1_268, %first_q_mask_204 : tensor<16x128x!tt.ptr<bf16>> loc(#loc86)
    %new_q_tile_2 = tt.expand_dims %cos_row_131 {axis = 0 : i32} : tensor<128xbf16> -> tensor<1x128xbf16> loc(#loc192)
    %new_q_tile_2_269 = tt.broadcast %new_q_tile_2 : tensor<1x128xbf16> -> tensor<16x128xbf16> loc(#loc192)
    %new_q_tile_2_270 = arith.mulf %q_tile_2_257, %new_q_tile_2_269 : tensor<16x128xbf16> loc(#loc192)
    %new_q_tile_2_271 = tt.expand_dims %sin_row_132 {axis = 0 : i32} : tensor<128xbf16> -> tensor<1x128xbf16> loc(#loc193)
    %new_q_tile_2_272 = tt.broadcast %new_q_tile_2_271 : tensor<1x128xbf16> -> tensor<16x128xbf16> loc(#loc193)
    %new_q_tile_2_273 = arith.mulf %q_tile_1_221, %new_q_tile_2_272 : tensor<16x128xbf16> loc(#loc193)
    %new_q_tile_2_274 = arith.addf %new_q_tile_2_270, %new_q_tile_2_273 : tensor<16x128xbf16> loc(#loc194)
    %2 = tt.splat %q_ptr_11 : !tt.ptr<bf16> -> tensor<16x128x!tt.ptr<bf16>> loc(#loc90)
    %3 = tt.addptr %2, %second_half_q_offsets_239 : tensor<16x128x!tt.ptr<bf16>>, tensor<16x128xi32> loc(#loc90)
    tt.store %3, %new_q_tile_2_274, %first_q_mask_204 : tensor<16x128x!tt.ptr<bf16>> loc(#loc91)
    %new_k_tile_1 = tt.expand_dims %cos_row_131 {axis = 0 : i32} : tensor<128xbf16> -> tensor<1x128xbf16> loc(#loc195)
    %new_k_tile_1_275 = tt.broadcast %new_k_tile_1 : tensor<1x128xbf16> -> tensor<4x128xbf16> loc(#loc195)
    %new_k_tile_1_276 = arith.mulf %k_tile_1_226, %new_k_tile_1_275 : tensor<4x128xbf16> loc(#loc195)
    %new_k_tile_1_277 = tt.expand_dims %sin_row_132 {axis = 0 : i32} : tensor<128xbf16> -> tensor<1x128xbf16> loc(#loc196)
    %new_k_tile_1_278 = tt.broadcast %new_k_tile_1_277 : tensor<1x128xbf16> -> tensor<4x128xbf16> loc(#loc196)
    %new_k_tile_1_279 = arith.mulf %k_tile_2_262, %new_k_tile_1_278 : tensor<4x128xbf16> loc(#loc196)
    %new_k_tile_1_280 = arith.subf %new_k_tile_1_276, %new_k_tile_1_279 : tensor<4x128xbf16> loc(#loc197)
    %4 = tt.splat %k_ptr_23 : !tt.ptr<bf16> -> tensor<4x128x!tt.ptr<bf16>> loc(#loc95)
    %5 = tt.addptr %4, %first_half_k_offsets_192 : tensor<4x128x!tt.ptr<bf16>>, tensor<4x128xi32> loc(#loc95)
    tt.store %5, %new_k_tile_1_280, %first_k_mask_216 : tensor<4x128x!tt.ptr<bf16>> loc(#loc96)
    %new_k_tile_2 = tt.expand_dims %cos_row_131 {axis = 0 : i32} : tensor<128xbf16> -> tensor<1x128xbf16> loc(#loc198)
    %new_k_tile_2_281 = tt.broadcast %new_k_tile_2 : tensor<1x128xbf16> -> tensor<4x128xbf16> loc(#loc198)
    %new_k_tile_2_282 = arith.mulf %k_tile_2_262, %new_k_tile_2_281 : tensor<4x128xbf16> loc(#loc198)
    %new_k_tile_2_283 = tt.expand_dims %sin_row_132 {axis = 0 : i32} : tensor<128xbf16> -> tensor<1x128xbf16> loc(#loc199)
    %new_k_tile_2_284 = tt.broadcast %new_k_tile_2_283 : tensor<1x128xbf16> -> tensor<4x128xbf16> loc(#loc199)
    %new_k_tile_2_285 = arith.mulf %k_tile_1_226, %new_k_tile_2_284 : tensor<4x128xbf16> loc(#loc199)
    %new_k_tile_2_286 = arith.addf %new_k_tile_2_282, %new_k_tile_2_285 : tensor<4x128xbf16> loc(#loc200)
    %6 = tt.splat %k_ptr_23 : !tt.ptr<bf16> -> tensor<4x128x!tt.ptr<bf16>> loc(#loc100)
    %7 = tt.addptr %6, %second_half_k_offsets_252 : tensor<4x128x!tt.ptr<bf16>>, tensor<4x128xi32> loc(#loc100)
    tt.store %7, %new_k_tile_2_286, %first_k_mask_216 : tensor<4x128x!tt.ptr<bf16>> loc(#loc101)
    tt.return loc(#loc102)
  } loc(#loc)
} loc(#loc)
#loc1 = loc("/data/conda/envs/or_llm/lib/python3.12/site-packages/vllm/model_executor/layers/rotary_embedding/mrope.py":38:24)
#loc2 = loc("/data/conda/envs/or_llm/lib/python3.12/site-packages/vllm/model_executor/layers/rotary_embedding/mrope.py":40:27)
#loc3 = loc("/data/conda/envs/or_llm/lib/python3.12/site-packages/vllm/model_executor/layers/rotary_embedding/mrope.py":40:20)
#loc4 = loc("/data/conda/envs/or_llm/lib/python3.12/site-packages/vllm/model_executor/layers/rotary_embedding/mrope.py":41:27)
#loc5 = loc("/data/conda/envs/or_llm/lib/python3.12/site-packages/vllm/model_executor/layers/rotary_embedding/mrope.py":41:20)
#loc6 = loc("/data/conda/envs/or_llm/lib/python3.12/site-packages/vllm/model_executor/layers/rotary_embedding/mrope.py":50:14)
#loc7 = loc("/data/conda/envs/or_llm/lib/python3.12/site-packages/vllm/model_executor/layers/rotary_embedding/mrope.py":51:24)
#loc8 = loc("/data/conda/envs/or_llm/lib/python3.12/site-packages/vllm/model_executor/layers/rotary_embedding/mrope.py":51:18)
#loc9 = loc("/data/conda/envs/or_llm/lib/python3.12/site-packages/vllm/model_executor/layers/rotary_embedding/mrope.py":52:33)
#loc10 = loc("/data/conda/envs/or_llm/lib/python3.12/site-packages/vllm/model_executor/layers/rotary_embedding/mrope.py":52:20)
#loc11 = loc("/data/conda/envs/or_llm/lib/python3.12/site-packages/vllm/model_executor/layers/rotary_embedding/mrope.py":53:33)
#loc12 = loc("/data/conda/envs/or_llm/lib/python3.12/site-packages/vllm/model_executor/layers/rotary_embedding/mrope.py":53:20)
#loc13 = loc("/data/conda/envs/or_llm/lib/python3.12/site-packages/vllm/model_executor/layers/rotary_embedding/mrope.py":54:24)
#loc14 = loc("/data/conda/envs/or_llm/lib/python3.12/site-packages/vllm/model_executor/layers/rotary_embedding/mrope.py":54:18)
#loc15 = loc("/data/conda/envs/or_llm/lib/python3.12/site-packages/vllm/model_executor/layers/rotary_embedding/mrope.py":55:33)
#loc16 = loc("/data/conda/envs/or_llm/lib/python3.12/site-packages/vllm/model_executor/layers/rotary_embedding/mrope.py":55:20)
#loc17 = loc("/data/conda/envs/or_llm/lib/python3.12/site-packages/vllm/model_executor/layers/rotary_embedding/mrope.py":56:33)
#loc18 = loc("/data/conda/envs/or_llm/lib/python3.12/site-packages/vllm/model_executor/layers/rotary_embedding/mrope.py":56:20)
#loc19 = loc("/data/conda/envs/or_llm/lib/python3.12/site-packages/vllm/model_executor/layers/rotary_embedding/mrope.py":59:31)
#loc20 = loc("/data/conda/envs/or_llm/lib/python3.12/site-packages/vllm/model_executor/layers/rotary_embedding/mrope.py":61:33)
#loc21 = loc("/data/conda/envs/or_llm/lib/python3.12/site-packages/vllm/model_executor/layers/rotary_embedding/mrope.py":61:39)
#loc22 = loc("/data/conda/envs/or_llm/lib/python3.12/site-packages/vllm/model_executor/layers/rotary_embedding/mrope.py":61:60)
#loc23 = loc("/data/conda/envs/or_llm/lib/python3.12/site-packages/vllm/model_executor/layers/rotary_embedding/mrope.py":61:45)
#loc24 = loc("/data/conda/envs/or_llm/lib/python3.12/site-packages/vllm/model_executor/layers/rotary_embedding/mrope.py":62:33)
#loc25 = loc("/data/conda/envs/or_llm/lib/python3.12/site-packages/vllm/model_executor/layers/rotary_embedding/mrope.py":62:39)
#loc26 = loc("/data/conda/envs/or_llm/lib/python3.12/site-packages/vllm/model_executor/layers/rotary_embedding/mrope.py":62:60)
#loc27 = loc("/data/conda/envs/or_llm/lib/python3.12/site-packages/vllm/model_executor/layers/rotary_embedding/mrope.py":62:45)
#loc28 = loc("/data/conda/envs/or_llm/lib/python3.12/site-packages/vllm/model_executor/layers/rotary_embedding/mrope.py":63:28)
#loc29 = loc("/data/conda/envs/or_llm/lib/python3.12/site-packages/vllm/model_executor/layers/rotary_embedding/mrope.py":63:19)
#loc30 = loc("/data/conda/envs/or_llm/lib/python3.12/site-packages/vllm/model_executor/layers/rotary_embedding/mrope.py":71:32)
#loc31 = loc("/data/conda/envs/or_llm/lib/python3.12/site-packages/vllm/model_executor/layers/rotary_embedding/mrope.py":71:24)
#loc32 = loc("/data/conda/envs/or_llm/lib/python3.12/site-packages/vllm/model_executor/layers/rotary_embedding/mrope.py":72:32)
#loc33 = loc("/data/conda/envs/or_llm/lib/python3.12/site-packages/vllm/model_executor/layers/rotary_embedding/mrope.py":72:24)
#loc34 = loc("/data/conda/envs/or_llm/lib/python3.12/site-packages/vllm/model_executor/layers/rotary_embedding/mrope.py":73:32)
#loc35 = loc("/data/conda/envs/or_llm/lib/python3.12/site-packages/vllm/model_executor/layers/rotary_embedding/mrope.py":73:24)
#loc36 = loc("/data/conda/envs/or_llm/lib/python3.12/site-packages/vllm/model_executor/layers/rotary_embedding/mrope.py":74:32)
#loc37 = loc("/data/conda/envs/or_llm/lib/python3.12/site-packages/vllm/model_executor/layers/rotary_embedding/mrope.py":74:24)
#loc38 = loc("/data/conda/envs/or_llm/lib/python3.12/site-packages/vllm/model_executor/layers/rotary_embedding/mrope.py":75:32)
#loc39 = loc("/data/conda/envs/or_llm/lib/python3.12/site-packages/vllm/model_executor/layers/rotary_embedding/mrope.py":75:24)
#loc40 = loc("/data/conda/envs/or_llm/lib/python3.12/site-packages/vllm/model_executor/layers/rotary_embedding/mrope.py":76:32)
#loc41 = loc("/data/conda/envs/or_llm/lib/python3.12/site-packages/vllm/model_executor/layers/rotary_embedding/mrope.py":76:24)
#loc42 = loc("/data/conda/envs/or_llm/lib/python3.12/site-packages/vllm/model_executor/layers/rotary_embedding/mrope.py":78:26)
#loc43 = loc("/data/conda/envs/or_llm/lib/python3.12/site-packages/vllm/model_executor/layers/rotary_embedding/mrope.py":78:38)
#loc44 = loc("/data/conda/envs/or_llm/lib/python3.12/site-packages/vllm/model_executor/layers/rotary_embedding/mrope.py":79:26)
#loc45 = loc("/data/conda/envs/or_llm/lib/python3.12/site-packages/vllm/model_executor/layers/rotary_embedding/mrope.py":79:38)
#loc46 = loc("/data/conda/envs/or_llm/lib/python3.12/site-packages/vllm/model_executor/layers/rotary_embedding/mrope.py":87:21)
#loc47 = loc("/data/conda/envs/or_llm/lib/python3.12/site-packages/vllm/model_executor/layers/rotary_embedding/mrope.py":87:31)
#loc48 = loc("/data/conda/envs/or_llm/lib/python3.12/site-packages/vllm/model_executor/layers/rotary_embedding/mrope.py":87:42)
#loc49 = loc("/data/conda/envs/or_llm/lib/python3.12/site-packages/vllm/model_executor/layers/rotary_embedding/mrope.py":87:60)
#loc50 = loc("/data/conda/envs/or_llm/lib/python3.12/site-packages/vllm/model_executor/layers/rotary_embedding/mrope.py":87:73)
#loc51 = loc("/data/conda/envs/or_llm/lib/python3.12/site-packages/vllm/model_executor/layers/rotary_embedding/mrope.py":87:47)
#loc52 = loc("/data/conda/envs/or_llm/lib/python3.12/site-packages/vllm/model_executor/layers/rotary_embedding/mrope.py":90:21)
#loc53 = loc("/data/conda/envs/or_llm/lib/python3.12/site-packages/vllm/model_executor/layers/rotary_embedding/mrope.py":90:31)
#loc54 = loc("/data/conda/envs/or_llm/lib/python3.12/site-packages/vllm/model_executor/layers/rotary_embedding/mrope.py":90:42)
#loc55 = loc("/data/conda/envs/or_llm/lib/python3.12/site-packages/vllm/model_executor/layers/rotary_embedding/mrope.py":90:60)
#loc56 = loc("/data/conda/envs/or_llm/lib/python3.12/site-packages/vllm/model_executor/layers/rotary_embedding/mrope.py":90:73)
#loc57 = loc("/data/conda/envs/or_llm/lib/python3.12/site-packages/vllm/model_executor/layers/rotary_embedding/mrope.py":90:47)
#loc58 = loc("/data/conda/envs/or_llm/lib/python3.12/site-packages/vllm/model_executor/layers/rotary_embedding/mrope.py":92:33)
#loc59 = loc("/data/conda/envs/or_llm/lib/python3.12/site-packages/vllm/model_executor/layers/rotary_embedding/mrope.py":92:43)
#loc60 = loc("/data/conda/envs/or_llm/lib/python3.12/site-packages/vllm/model_executor/layers/rotary_embedding/mrope.py":92:54)
#loc61 = loc("/data/conda/envs/or_llm/lib/python3.12/site-packages/vllm/model_executor/layers/rotary_embedding/mrope.py":93:21)
#loc62 = loc("/data/conda/envs/or_llm/lib/python3.12/site-packages/vllm/model_executor/layers/rotary_embedding/mrope.py":93:34)
#loc63 = loc("/data/conda/envs/or_llm/lib/python3.12/site-packages/vllm/model_executor/layers/rotary_embedding/mrope.py":93:45)
#loc64 = loc("/data/conda/envs/or_llm/lib/python3.12/site-packages/vllm/model_executor/layers/rotary_embedding/mrope.py":93:8)
#loc65 = loc("/data/conda/envs/or_llm/lib/python3.12/site-packages/vllm/model_executor/layers/rotary_embedding/mrope.py":95:33)
#loc66 = loc("/data/conda/envs/or_llm/lib/python3.12/site-packages/vllm/model_executor/layers/rotary_embedding/mrope.py":95:43)
#loc67 = loc("/data/conda/envs/or_llm/lib/python3.12/site-packages/vllm/model_executor/layers/rotary_embedding/mrope.py":95:54)
#loc68 = loc("/data/conda/envs/or_llm/lib/python3.12/site-packages/vllm/model_executor/layers/rotary_embedding/mrope.py":96:21)
#loc69 = loc("/data/conda/envs/or_llm/lib/python3.12/site-packages/vllm/model_executor/layers/rotary_embedding/mrope.py":96:34)
#loc70 = loc("/data/conda/envs/or_llm/lib/python3.12/site-packages/vllm/model_executor/layers/rotary_embedding/mrope.py":96:45)
#loc71 = loc("/data/conda/envs/or_llm/lib/python3.12/site-packages/vllm/model_executor/layers/rotary_embedding/mrope.py":96:8)
#loc72 = loc("/data/conda/envs/or_llm/lib/python3.12/site-packages/vllm/model_executor/layers/rotary_embedding/mrope.py":99:31)
#loc73 = loc("/data/conda/envs/or_llm/lib/python3.12/site-packages/vllm/model_executor/layers/rotary_embedding/mrope.py":99:23)
#loc74 = loc("/data/conda/envs/or_llm/lib/python3.12/site-packages/vllm/model_executor/layers/rotary_embedding/mrope.py":102:31)
#loc75 = loc("/data/conda/envs/or_llm/lib/python3.12/site-packages/vllm/model_executor/layers/rotary_embedding/mrope.py":102:23)
#loc76 = loc("/data/conda/envs/or_llm/lib/python3.12/site-packages/vllm/model_executor/layers/rotary_embedding/mrope.py":107:52)
#loc77 = loc("/data/conda/envs/or_llm/lib/python3.12/site-packages/vllm/model_executor/layers/rotary_embedding/mrope.py":108:52)
#loc78 = loc("/data/conda/envs/or_llm/lib/python3.12/site-packages/vllm/model_executor/layers/rotary_embedding/mrope.py":112:31)
#loc79 = loc("/data/conda/envs/or_llm/lib/python3.12/site-packages/vllm/model_executor/layers/rotary_embedding/mrope.py":112:23)
#loc80 = loc("/data/conda/envs/or_llm/lib/python3.12/site-packages/vllm/model_executor/layers/rotary_embedding/mrope.py":115:31)
#loc81 = loc("/data/conda/envs/or_llm/lib/python3.12/site-packages/vllm/model_executor/layers/rotary_embedding/mrope.py":115:23)
#loc82 = loc("/data/conda/envs/or_llm/lib/python3.12/site-packages/vllm/model_executor/layers/rotary_embedding/mrope.py":122:30)
#loc83 = loc("/data/conda/envs/or_llm/lib/python3.12/site-packages/vllm/model_executor/layers/rotary_embedding/mrope.py":122:51)
#loc84 = loc("/data/conda/envs/or_llm/lib/python3.12/site-packages/vllm/model_executor/layers/rotary_embedding/mrope.py":122:40)
#loc85 = loc("/data/conda/envs/or_llm/lib/python3.12/site-packages/vllm/model_executor/layers/rotary_embedding/mrope.py":123:21)
#loc86 = loc("/data/conda/envs/or_llm/lib/python3.12/site-packages/vllm/model_executor/layers/rotary_embedding/mrope.py":123:43)
#loc87 = loc("/data/conda/envs/or_llm/lib/python3.12/site-packages/vllm/model_executor/layers/rotary_embedding/mrope.py":124:30)
#loc88 = loc("/data/conda/envs/or_llm/lib/python3.12/site-packages/vllm/model_executor/layers/rotary_embedding/mrope.py":124:51)
#loc89 = loc("/data/conda/envs/or_llm/lib/python3.12/site-packages/vllm/model_executor/layers/rotary_embedding/mrope.py":124:40)
#loc90 = loc("/data/conda/envs/or_llm/lib/python3.12/site-packages/vllm/model_executor/layers/rotary_embedding/mrope.py":125:21)
#loc91 = loc("/data/conda/envs/or_llm/lib/python3.12/site-packages/vllm/model_executor/layers/rotary_embedding/mrope.py":125:44)
#loc92 = loc("/data/conda/envs/or_llm/lib/python3.12/site-packages/vllm/model_executor/layers/rotary_embedding/mrope.py":127:30)
#loc93 = loc("/data/conda/envs/or_llm/lib/python3.12/site-packages/vllm/model_executor/layers/rotary_embedding/mrope.py":127:51)
#loc94 = loc("/data/conda/envs/or_llm/lib/python3.12/site-packages/vllm/model_executor/layers/rotary_embedding/mrope.py":127:40)
#loc95 = loc("/data/conda/envs/or_llm/lib/python3.12/site-packages/vllm/model_executor/layers/rotary_embedding/mrope.py":128:21)
#loc96 = loc("/data/conda/envs/or_llm/lib/python3.12/site-packages/vllm/model_executor/layers/rotary_embedding/mrope.py":128:43)
#loc97 = loc("/data/conda/envs/or_llm/lib/python3.12/site-packages/vllm/model_executor/layers/rotary_embedding/mrope.py":129:30)
#loc98 = loc("/data/conda/envs/or_llm/lib/python3.12/site-packages/vllm/model_executor/layers/rotary_embedding/mrope.py":129:51)
#loc99 = loc("/data/conda/envs/or_llm/lib/python3.12/site-packages/vllm/model_executor/layers/rotary_embedding/mrope.py":129:40)
#loc100 = loc("/data/conda/envs/or_llm/lib/python3.12/site-packages/vllm/model_executor/layers/rotary_embedding/mrope.py":130:21)
#loc101 = loc("/data/conda/envs/or_llm/lib/python3.12/site-packages/vllm/model_executor/layers/rotary_embedding/mrope.py":130:44)
#loc102 = loc("/data/conda/envs/or_llm/lib/python3.12/site-packages/vllm/model_executor/layers/rotary_embedding/mrope.py":130:4)
#loc108 = loc("pid"(#loc1))
#loc109 = loc("q_ptr"(#loc2))
#loc110 = loc("q_ptr"(#loc3))
#loc111 = loc("k_ptr"(#loc4))
#loc112 = loc("k_ptr"(#loc5))
#loc113 = loc("half_rd"(#loc6))
#loc114 = loc("t_cos"(#loc7))
#loc115 = loc("t_cos"(#loc8))
#loc116 = loc("h_cos"(#loc9))
#loc117 = loc("h_cos"(#loc10))
#loc118 = loc("w_cos"(#loc11))
#loc119 = loc("w_cos"(#loc12))
#loc120 = loc("t_sin"(#loc13))
#loc121 = loc("t_sin"(#loc14))
#loc122 = loc("h_sin"(#loc15))
#loc123 = loc("h_sin"(#loc16))
#loc124 = loc("w_sin"(#loc17))
#loc125 = loc("w_sin"(#loc18))
#loc126 = loc("cos_offsets"(#loc19))
#loc127 = loc("h_mask"(#loc20))
#loc128 = loc("h_mask"(#loc21))
#loc129 = loc("h_mask"(#loc22))
#loc130 = loc("h_mask"(#loc23))
#loc131 = loc("w_mask"(#loc24))
#loc132 = loc("w_mask"(#loc25))
#loc133 = loc("w_mask"(#loc26))
#loc134 = loc("w_mask"(#loc27))
#loc135 = loc("t_mask"(#loc28))
#loc136 = loc("t_mask"(#loc29))
#loc137 = loc("t_cos_row"(#loc30))
#loc138 = loc("t_cos_row"(#loc31))
#loc139 = loc("h_cos_row"(#loc32))
#loc140 = loc("h_cos_row"(#loc33))
#loc141 = loc("w_cos_row"(#loc34))
#loc142 = loc("w_cos_row"(#loc35))
#loc143 = loc("t_sin_row"(#loc36))
#loc144 = loc("t_sin_row"(#loc37))
#loc145 = loc("h_sin_row"(#loc38))
#loc146 = loc("h_sin_row"(#loc39))
#loc147 = loc("w_sin_row"(#loc40))
#loc148 = loc("w_sin_row"(#loc41))
#loc149 = loc("cos_row"(#loc42))
#loc150 = loc("cos_row"(#loc43))
#loc151 = loc("sin_row"(#loc44))
#loc152 = loc("sin_row"(#loc45))
#loc153 = loc("first_half_q_offsets"(#loc46))
#loc154 = loc("first_half_q_offsets"(#loc47))
#loc155 = loc("first_half_q_offsets"(#loc48))
#loc156 = loc("first_half_q_offsets"(#loc49))
#loc157 = loc("first_half_q_offsets"(#loc50))
#loc158 = loc("first_half_q_offsets"(#loc51))
#loc159 = loc("first_half_k_offsets"(#loc52))
#loc160 = loc("first_half_k_offsets"(#loc53))
#loc161 = loc("first_half_k_offsets"(#loc54))
#loc162 = loc("first_half_k_offsets"(#loc55))
#loc163 = loc("first_half_k_offsets"(#loc56))
#loc164 = loc("first_half_k_offsets"(#loc57))
#loc165 = loc("first_q_mask"(#loc58))
#loc166 = loc("first_q_mask"(#loc59))
#loc167 = loc("first_q_mask"(#loc60))
#loc168 = loc("first_q_mask"(#loc61))
#loc169 = loc("first_q_mask"(#loc62))
#loc170 = loc("first_q_mask"(#loc63))
#loc171 = loc("first_q_mask"(#loc64))
#loc172 = loc("first_k_mask"(#loc65))
#loc173 = loc("first_k_mask"(#loc66))
#loc174 = loc("first_k_mask"(#loc67))
#loc175 = loc("first_k_mask"(#loc68))
#loc176 = loc("first_k_mask"(#loc69))
#loc177 = loc("first_k_mask"(#loc70))
#loc178 = loc("first_k_mask"(#loc71))
#loc179 = loc("q_tile_1"(#loc72))
#loc180 = loc("q_tile_1"(#loc73))
#loc181 = loc("k_tile_1"(#loc74))
#loc182 = loc("k_tile_1"(#loc75))
#loc183 = loc("second_half_q_offsets"(#loc76))
#loc184 = loc("second_half_k_offsets"(#loc77))
#loc185 = loc("q_tile_2"(#loc78))
#loc186 = loc("q_tile_2"(#loc79))
#loc187 = loc("k_tile_2"(#loc80))
#loc188 = loc("k_tile_2"(#loc81))
#loc189 = loc("new_q_tile_1"(#loc82))
#loc190 = loc("new_q_tile_1"(#loc83))
#loc191 = loc("new_q_tile_1"(#loc84))
#loc192 = loc("new_q_tile_2"(#loc87))
#loc193 = loc("new_q_tile_2"(#loc88))
#loc194 = loc("new_q_tile_2"(#loc89))
#loc195 = loc("new_k_tile_1"(#loc92))
#loc196 = loc("new_k_tile_1"(#loc93))
#loc197 = loc("new_k_tile_1"(#loc94))
#loc198 = loc("new_k_tile_2"(#loc97))
#loc199 = loc("new_k_tile_2"(#loc98))
#loc200 = loc("new_k_tile_2"(#loc99))
