#loc = loc("/data/jcy/zzs/zijinhua/.vllm_cache_simplevqa/torch_compile/lx/clxrkkkrblf5hjd4urjeoo4vgkrojg4dgkvbvqgojumbjh5xceia.py":18:0)
#loc1 = loc(unknown)
#loc24 = loc("/data/jcy/zzs/zijinhua/.vllm_cache_simplevqa/torch_compile/lx/clxrkkkrblf5hjd4urjeoo4vgkrojg4dgkvbvqgojumbjh5xceia.py":40:25)
#loc49 = loc("in_ptr0"(#loc))
#loc50 = loc("in_ptr1"(#loc))
#loc51 = loc("out_ptr1"(#loc))
#loc52 = loc("ks0"(#loc))
#loc53 = loc("xnumel"(#loc))
#loc54 = loc("r0_numel"(#loc))
#loc75 = loc("tmp4"(#loc24))
#loc96 = loc(callsite(#loc1 at #loc75))
module {
  tt.func public @triton_red_fused__to_copy_add_mean_mul_pow_rsqrt_0(%in_ptr0: !tt.ptr<bf16> {tt.divisibility = 16 : i32} loc("in_ptr0"(#loc)), %in_ptr1: !tt.ptr<bf16> {tt.divisibility = 16 : i32} loc("in_ptr1"(#loc)), %out_ptr1: !tt.ptr<bf16> {tt.divisibility = 16 : i32} loc("out_ptr1"(#loc)), %ks0: i64 loc("ks0"(#loc)), %xnumel: i32 loc("xnumel"(#loc)), %r0_numel: i32 loc("r0_numel"(#loc))) attributes {noinline = false} {
    %cst = arith.constant dense<0.000000e+00> : tensor<1x128xbf16> loc(#loc1)
    %cst_0 = arith.constant dense<0.000000e+00> : tensor<2x128xbf16> loc(#loc1)
    %c128_i32 = arith.constant 128 : i32 loc(#loc1)
    %c0_i32 = arith.constant 0 : i32 loc(#loc1)
    %cst_1 = arith.constant dense<1.000000e+00> : tensor<1x128xf32> loc(#loc1)
    %cst_2 = arith.constant dense<9.99999997E-7> : tensor<2x1xf32> loc(#loc1)
    %cst_3 = arith.constant dense<0.000000e+00> : tensor<2x128xf32> loc(#loc1)
    %c2_i32 = arith.constant 2 : i32 loc(#loc1)
    %xoffset = tt.get_program_id x : i32 loc(#loc55)
    %xoffset_4 = arith.muli %xoffset, %c2_i32 : i32 loc(#loc56)
    %xindex = tt.make_range {end = 2 : i32, start = 0 : i32} : tensor<2xi32> loc(#loc57)
    %xindex_5 = tt.expand_dims %xindex {axis = 1 : i32} : tensor<2xi32> -> tensor<2x1xi32> loc(#loc58)
    %xindex_6 = tt.splat %xoffset_4 : i32 -> tensor<2x1xi32> loc(#loc59)
    %xindex_7 = arith.addi %xindex_6, %xindex_5 : tensor<2x1xi32> loc(#loc59)
    %xmask = tt.splat %xnumel : i32 -> tensor<2x1xi32> loc(#loc60)
    %xmask_8 = arith.cmpi slt, %xindex_7, %xmask : tensor<2x1xi32> loc(#loc60)
    %r0_base = tt.make_range {end = 128 : i32, start = 0 : i32} : tensor<128xi32> loc(#loc61)
    %r0_base_9 = tt.expand_dims %r0_base {axis = 0 : i32} : tensor<128xi32> -> tensor<1x128xi32> loc(#loc62)
    %_tmp4 = scf.for %r0_offset = %c0_i32 to %r0_numel step %c128_i32 iter_args(%_tmp4_11 = %cst_3) -> (tensor<2x128xf32>)  : i32 {
      %r0_index = tt.splat %r0_offset : i32 -> tensor<1x128xi32> loc(#loc64)
      %r0_index_12 = arith.addi %r0_index, %r0_base_9 : tensor<1x128xi32> loc(#loc64)
      %r0_mask = tt.splat %r0_numel : i32 -> tensor<1x128xi32> loc(#loc65)
      %r0_mask_13 = arith.cmpi slt, %r0_index_12, %r0_mask : tensor<1x128xi32> loc(#loc65)
      %tmp0 = arith.extsi %xindex_7 : tensor<2x1xi32> to tensor<2x1xi64> loc(#loc66)
      %tmp0_14 = tt.splat %ks0 : i64 -> tensor<2x1xi64> loc(#loc66)
      %tmp0_15 = arith.muli %tmp0_14, %tmp0 : tensor<2x1xi64> loc(#loc66)
      %tmp0_16 = arith.extsi %r0_index_12 : tensor<1x128xi32> to tensor<1x128xi64> loc(#loc67)
      %tmp0_17 = tt.broadcast %tmp0_16 : tensor<1x128xi64> -> tensor<2x128xi64> loc(#loc67)
      %tmp0_18 = tt.broadcast %tmp0_15 : tensor<2x1xi64> -> tensor<2x128xi64> loc(#loc67)
      %tmp0_19 = arith.addi %tmp0_17, %tmp0_18 : tensor<2x128xi64> loc(#loc67)
      %tmp0_20 = tt.splat %in_ptr0 : !tt.ptr<bf16> -> tensor<2x128x!tt.ptr<bf16>> loc(#loc68)
      %tmp0_21 = tt.addptr %tmp0_20, %tmp0_19 : tensor<2x128x!tt.ptr<bf16>>, tensor<2x128xi64> loc(#loc68)
      %tmp0_22 = tt.broadcast %r0_mask_13 : tensor<1x128xi1> -> tensor<2x128xi1> loc(#loc69)
      %tmp0_23 = tt.broadcast %xmask_8 : tensor<2x1xi1> -> tensor<2x128xi1> loc(#loc69)
      %tmp0_24 = arith.andi %tmp0_22, %tmp0_23 : tensor<2x128xi1> loc(#loc69)
      %tmp0_25 = tt.load %tmp0_21, %tmp0_24, %cst_0 evictionPolicy = evict_last : tensor<2x128x!tt.ptr<bf16>> loc(#loc70)
      %tmp0_26 = arith.extf %tmp0_25 : tensor<2x128xbf16> to tensor<2x128xf32> loc(#loc71)
      %tmp2 = arith.mulf %tmp0_26, %tmp0_26 : tensor<2x128xf32> loc(#loc72)
      %tmp5 = arith.addf %_tmp4_11, %tmp2 : tensor<2x128xf32> loc(#loc73)
      %_tmp4_27 = arith.select %tmp0_24, %tmp5, %_tmp4_11 : tensor<2x128xi1>, tensor<2x128xf32> loc(#loc74)
      scf.yield %_tmp4_27 : tensor<2x128xf32> loc(#loc22)
    } loc(#loc63)
    %tmp4 = "tt.reduce"(%_tmp4) <{axis = 1 : i32}> ({
    ^bb0(%tmp4_11: f32 loc(callsite(#loc1 at #loc75)), %tmp4_12: f32 loc(callsite(#loc1 at #loc75))):
      %tmp4_13 = arith.addf %tmp4_11, %tmp4_12 : f32 loc(#loc97)
      tt.reduce.return %tmp4_13 : f32 loc(#loc95)
    }) : (tensor<2x128xf32>) -> tensor<2xf32> loc(#loc95)
    %tmp4_10 = tt.expand_dims %tmp4 {axis = 1 : i32} : tensor<2xf32> -> tensor<2x1xf32> loc(#loc76)
    scf.for %r0_offset = %c0_i32 to %r0_numel step %c128_i32  : i32 {
      %r0_index = tt.splat %r0_offset : i32 -> tensor<1x128xi32> loc(#loc77)
      %r0_index_11 = arith.addi %r0_index, %r0_base_9 : tensor<1x128xi32> loc(#loc77)
      %r0_mask = tt.splat %r0_numel : i32 -> tensor<1x128xi32> loc(#loc78)
      %r0_mask_12 = arith.cmpi slt, %r0_index_11, %r0_mask : tensor<1x128xi32> loc(#loc78)
      %tmp6 = arith.extsi %xindex_7 : tensor<2x1xi32> to tensor<2x1xi64> loc(#loc79)
      %tmp6_13 = tt.splat %ks0 : i64 -> tensor<2x1xi64> loc(#loc79)
      %tmp6_14 = arith.muli %tmp6_13, %tmp6 : tensor<2x1xi64> loc(#loc79)
      %tmp6_15 = arith.extsi %r0_index_11 : tensor<1x128xi32> to tensor<1x128xi64> loc(#loc80)
      %tmp6_16 = tt.broadcast %tmp6_15 : tensor<1x128xi64> -> tensor<2x128xi64> loc(#loc80)
      %tmp6_17 = tt.broadcast %tmp6_14 : tensor<2x1xi64> -> tensor<2x128xi64> loc(#loc80)
      %tmp6_18 = arith.addi %tmp6_16, %tmp6_17 : tensor<2x128xi64> loc(#loc80)
      %tmp6_19 = tt.splat %in_ptr0 : !tt.ptr<bf16> -> tensor<2x128x!tt.ptr<bf16>> loc(#loc81)
      %tmp6_20 = tt.addptr %tmp6_19, %tmp6_18 : tensor<2x128x!tt.ptr<bf16>>, tensor<2x128xi64> loc(#loc81)
      %tmp6_21 = tt.broadcast %r0_mask_12 : tensor<1x128xi1> -> tensor<2x128xi1> loc(#loc82)
      %tmp6_22 = tt.broadcast %xmask_8 : tensor<2x1xi1> -> tensor<2x128xi1> loc(#loc82)
      %tmp6_23 = arith.andi %tmp6_21, %tmp6_22 : tensor<2x128xi1> loc(#loc82)
      %tmp6_24 = tt.load %tmp6_20, %tmp6_23, %cst_0 evictionPolicy = evict_first : tensor<2x128x!tt.ptr<bf16>> loc(#loc83)
      %tmp6_25 = arith.extf %tmp6_24 : tensor<2x128xbf16> to tensor<2x128xf32> loc(#loc84)
      %tmp15 = tt.splat %in_ptr1 : !tt.ptr<bf16> -> tensor<1x128x!tt.ptr<bf16>> loc(#loc85)
      %tmp15_26 = tt.addptr %tmp15, %r0_index_11 : tensor<1x128x!tt.ptr<bf16>>, tensor<1x128xi32> loc(#loc85)
      %tmp15_27 = tt.load %tmp15_26, %r0_mask_12, %cst evictionPolicy = evict_last : tensor<1x128x!tt.ptr<bf16>> loc(#loc86)
      %tmp15_28 = arith.extf %tmp15_27 : tensor<1x128xbf16> to tensor<1x128xf32> loc(#loc87)
      %tmp9 = arith.sitofp %ks0 : i64 to f32 loc(#loc88)
      %tmp10 = tt.splat %tmp9 : f32 -> tensor<2x1xf32> loc(#loc89)
      %tmp10_29 = arith.divf %tmp4_10, %tmp10 : tensor<2x1xf32> loc(#loc89)
      %tmp12 = arith.addf %tmp10_29, %cst_2 : tensor<2x1xf32> loc(#loc90)
      %tmp13 = tt.extern_elementwise %tmp12 {libname = "", libpath = "", pure = true, symbol = "__nv_rsqrtf"} : (tensor<2x1xf32>) -> tensor<2x1xf32> loc(#loc91)
      %tmp14 = tt.broadcast %tmp13 : tensor<2x1xf32> -> tensor<2x128xf32> loc(#loc92)
      %tmp14_30 = arith.mulf %tmp6_25, %tmp14 : tensor<2x128xf32> loc(#loc92)
      %tmp18 = arith.addf %tmp15_28, %cst_1 : tensor<1x128xf32> loc(#loc93)
      %tmp19 = tt.broadcast %tmp18 : tensor<1x128xf32> -> tensor<2x128xf32> loc(#loc94)
      %tmp19_31 = arith.mulf %tmp14_30, %tmp19 : tensor<2x128xf32> loc(#loc94)
      %0 = tt.splat %out_ptr1 : !tt.ptr<bf16> -> tensor<2x128x!tt.ptr<bf16>> loc(#loc46)
      %1 = tt.addptr %0, %tmp6_18 : tensor<2x128x!tt.ptr<bf16>>, tensor<2x128xi64> loc(#loc46)
      %2 = arith.truncf %tmp19_31 : tensor<2x128xf32> to tensor<2x128xbf16> loc(#loc47)
      tt.store %1, %2, %tmp6_23 : tensor<2x128x!tt.ptr<bf16>> loc(#loc47)
    } loc(#loc27)
    tt.return loc(#loc48)
  } loc(#loc)
} loc(#loc)
#loc2 = loc("/data/jcy/zzs/zijinhua/.vllm_cache_simplevqa/torch_compile/lx/clxrkkkrblf5hjd4urjeoo4vgkrojg4dgkvbvqgojumbjh5xceia.py":21:28)
#loc3 = loc("/data/jcy/zzs/zijinhua/.vllm_cache_simplevqa/torch_compile/lx/clxrkkkrblf5hjd4urjeoo4vgkrojg4dgkvbvqgojumbjh5xceia.py":21:33)
#loc4 = loc("/data/jcy/zzs/zijinhua/.vllm_cache_simplevqa/torch_compile/lx/clxrkkkrblf5hjd4urjeoo4vgkrojg4dgkvbvqgojumbjh5xceia.py":22:36)
#loc5 = loc("/data/jcy/zzs/zijinhua/.vllm_cache_simplevqa/torch_compile/lx/clxrkkkrblf5hjd4urjeoo4vgkrojg4dgkvbvqgojumbjh5xceia.py":22:44)
#loc6 = loc("/data/jcy/zzs/zijinhua/.vllm_cache_simplevqa/torch_compile/lx/clxrkkkrblf5hjd4urjeoo4vgkrojg4dgkvbvqgojumbjh5xceia.py":22:23)
#loc7 = loc("/data/jcy/zzs/zijinhua/.vllm_cache_simplevqa/torch_compile/lx/clxrkkkrblf5hjd4urjeoo4vgkrojg4dgkvbvqgojumbjh5xceia.py":23:21)
#loc8 = loc("/data/jcy/zzs/zijinhua/.vllm_cache_simplevqa/torch_compile/lx/clxrkkkrblf5hjd4urjeoo4vgkrojg4dgkvbvqgojumbjh5xceia.py":24:27)
#loc9 = loc("/data/jcy/zzs/zijinhua/.vllm_cache_simplevqa/torch_compile/lx/clxrkkkrblf5hjd4urjeoo4vgkrojg4dgkvbvqgojumbjh5xceia.py":24:37)
#loc10 = loc("/data/jcy/zzs/zijinhua/.vllm_cache_simplevqa/torch_compile/lx/clxrkkkrblf5hjd4urjeoo4vgkrojg4dgkvbvqgojumbjh5xceia.py":28:40)
#loc11 = loc("/data/jcy/zzs/zijinhua/.vllm_cache_simplevqa/torch_compile/lx/clxrkkkrblf5hjd4urjeoo4vgkrojg4dgkvbvqgojumbjh5xceia.py":29:31)
#loc12 = loc("/data/jcy/zzs/zijinhua/.vllm_cache_simplevqa/torch_compile/lx/clxrkkkrblf5hjd4urjeoo4vgkrojg4dgkvbvqgojumbjh5xceia.py":30:29)
#loc13 = loc("/data/jcy/zzs/zijinhua/.vllm_cache_simplevqa/torch_compile/lx/clxrkkkrblf5hjd4urjeoo4vgkrojg4dgkvbvqgojumbjh5xceia.py":34:45)
#loc14 = loc("/data/jcy/zzs/zijinhua/.vllm_cache_simplevqa/torch_compile/lx/clxrkkkrblf5hjd4urjeoo4vgkrojg4dgkvbvqgojumbjh5xceia.py":34:41)
#loc15 = loc("/data/jcy/zzs/zijinhua/.vllm_cache_simplevqa/torch_compile/lx/clxrkkkrblf5hjd4urjeoo4vgkrojg4dgkvbvqgojumbjh5xceia.py":34:34)
#loc16 = loc("/data/jcy/zzs/zijinhua/.vllm_cache_simplevqa/torch_compile/lx/clxrkkkrblf5hjd4urjeoo4vgkrojg4dgkvbvqgojumbjh5xceia.py":34:60)
#loc17 = loc("/data/jcy/zzs/zijinhua/.vllm_cache_simplevqa/torch_compile/lx/clxrkkkrblf5hjd4urjeoo4vgkrojg4dgkvbvqgojumbjh5xceia.py":34:50)
#loc18 = loc("/data/jcy/zzs/zijinhua/.vllm_cache_simplevqa/torch_compile/lx/clxrkkkrblf5hjd4urjeoo4vgkrojg4dgkvbvqgojumbjh5xceia.py":34:111)
#loc19 = loc("/data/jcy/zzs/zijinhua/.vllm_cache_simplevqa/torch_compile/lx/clxrkkkrblf5hjd4urjeoo4vgkrojg4dgkvbvqgojumbjh5xceia.py":36:22)
#loc20 = loc("/data/jcy/zzs/zijinhua/.vllm_cache_simplevqa/torch_compile/lx/clxrkkkrblf5hjd4urjeoo4vgkrojg4dgkvbvqgojumbjh5xceia.py":38:23)
#loc21 = loc("/data/jcy/zzs/zijinhua/.vllm_cache_simplevqa/torch_compile/lx/clxrkkkrblf5hjd4urjeoo4vgkrojg4dgkvbvqgojumbjh5xceia.py":39:48)
#loc22 = loc("/data/jcy/zzs/zijinhua/.vllm_cache_simplevqa/torch_compile/lx/clxrkkkrblf5hjd4urjeoo4vgkrojg4dgkvbvqgojumbjh5xceia.py":39:8)
#loc23 = loc("/data/conda/envs/or_llm/lib/python3.12/site-packages/triton/language/standard.py":293:36)
#loc25 = loc("/data/conda/envs/or_llm/lib/python3.12/site-packages/triton/language/standard.py":263:15)
#loc26 = loc("/data/jcy/zzs/zijinhua/.vllm_cache_simplevqa/torch_compile/lx/clxrkkkrblf5hjd4urjeoo4vgkrojg4dgkvbvqgojumbjh5xceia.py":40:28)
#loc27 = loc("/data/jcy/zzs/zijinhua/.vllm_cache_simplevqa/torch_compile/lx/clxrkkkrblf5hjd4urjeoo4vgkrojg4dgkvbvqgojumbjh5xceia.py":41:40)
#loc28 = loc("/data/jcy/zzs/zijinhua/.vllm_cache_simplevqa/torch_compile/lx/clxrkkkrblf5hjd4urjeoo4vgkrojg4dgkvbvqgojumbjh5xceia.py":42:31)
#loc29 = loc("/data/jcy/zzs/zijinhua/.vllm_cache_simplevqa/torch_compile/lx/clxrkkkrblf5hjd4urjeoo4vgkrojg4dgkvbvqgojumbjh5xceia.py":43:29)
#loc30 = loc("/data/jcy/zzs/zijinhua/.vllm_cache_simplevqa/torch_compile/lx/clxrkkkrblf5hjd4urjeoo4vgkrojg4dgkvbvqgojumbjh5xceia.py":47:45)
#loc31 = loc("/data/jcy/zzs/zijinhua/.vllm_cache_simplevqa/torch_compile/lx/clxrkkkrblf5hjd4urjeoo4vgkrojg4dgkvbvqgojumbjh5xceia.py":47:41)
#loc32 = loc("/data/jcy/zzs/zijinhua/.vllm_cache_simplevqa/torch_compile/lx/clxrkkkrblf5hjd4urjeoo4vgkrojg4dgkvbvqgojumbjh5xceia.py":47:34)
#loc33 = loc("/data/jcy/zzs/zijinhua/.vllm_cache_simplevqa/torch_compile/lx/clxrkkkrblf5hjd4urjeoo4vgkrojg4dgkvbvqgojumbjh5xceia.py":47:60)
#loc34 = loc("/data/jcy/zzs/zijinhua/.vllm_cache_simplevqa/torch_compile/lx/clxrkkkrblf5hjd4urjeoo4vgkrojg4dgkvbvqgojumbjh5xceia.py":47:50)
#loc35 = loc("/data/jcy/zzs/zijinhua/.vllm_cache_simplevqa/torch_compile/lx/clxrkkkrblf5hjd4urjeoo4vgkrojg4dgkvbvqgojumbjh5xceia.py":47:112)
#loc36 = loc("/data/jcy/zzs/zijinhua/.vllm_cache_simplevqa/torch_compile/lx/clxrkkkrblf5hjd4urjeoo4vgkrojg4dgkvbvqgojumbjh5xceia.py":48:35)
#loc37 = loc("/data/jcy/zzs/zijinhua/.vllm_cache_simplevqa/torch_compile/lx/clxrkkkrblf5hjd4urjeoo4vgkrojg4dgkvbvqgojumbjh5xceia.py":48:42)
#loc38 = loc("/data/jcy/zzs/zijinhua/.vllm_cache_simplevqa/torch_compile/lx/clxrkkkrblf5hjd4urjeoo4vgkrojg4dgkvbvqgojumbjh5xceia.py":48:95)
#loc39 = loc("/data/jcy/zzs/zijinhua/.vllm_cache_simplevqa/torch_compile/lx/clxrkkkrblf5hjd4urjeoo4vgkrojg4dgkvbvqgojumbjh5xceia.py":51:23)
#loc40 = loc("/data/jcy/zzs/zijinhua/.vllm_cache_simplevqa/torch_compile/lx/clxrkkkrblf5hjd4urjeoo4vgkrojg4dgkvbvqgojumbjh5xceia.py":52:24)
#loc41 = loc("/data/jcy/zzs/zijinhua/.vllm_cache_simplevqa/torch_compile/lx/clxrkkkrblf5hjd4urjeoo4vgkrojg4dgkvbvqgojumbjh5xceia.py":54:24)
#loc42 = loc("/data/jcy/zzs/zijinhua/.vllm_cache_simplevqa/torch_compile/lx/clxrkkkrblf5hjd4urjeoo4vgkrojg4dgkvbvqgojumbjh5xceia.py":55:32)
#loc43 = loc("/data/jcy/zzs/zijinhua/.vllm_cache_simplevqa/torch_compile/lx/clxrkkkrblf5hjd4urjeoo4vgkrojg4dgkvbvqgojumbjh5xceia.py":56:23)
#loc44 = loc("/data/jcy/zzs/zijinhua/.vllm_cache_simplevqa/torch_compile/lx/clxrkkkrblf5hjd4urjeoo4vgkrojg4dgkvbvqgojumbjh5xceia.py":59:24)
#loc45 = loc("/data/jcy/zzs/zijinhua/.vllm_cache_simplevqa/torch_compile/lx/clxrkkkrblf5hjd4urjeoo4vgkrojg4dgkvbvqgojumbjh5xceia.py":60:24)
#loc46 = loc("/data/jcy/zzs/zijinhua/.vllm_cache_simplevqa/torch_compile/lx/clxrkkkrblf5hjd4urjeoo4vgkrojg4dgkvbvqgojumbjh5xceia.py":62:29)
#loc47 = loc("/data/jcy/zzs/zijinhua/.vllm_cache_simplevqa/torch_compile/lx/clxrkkkrblf5hjd4urjeoo4vgkrojg4dgkvbvqgojumbjh5xceia.py":62:52)
#loc48 = loc("/data/jcy/zzs/zijinhua/.vllm_cache_simplevqa/torch_compile/lx/clxrkkkrblf5hjd4urjeoo4vgkrojg4dgkvbvqgojumbjh5xceia.py":41:4)
#loc55 = loc("xoffset"(#loc2))
#loc56 = loc("xoffset"(#loc3))
#loc57 = loc("xindex"(#loc4))
#loc58 = loc("xindex"(#loc5))
#loc59 = loc("xindex"(#loc6))
#loc60 = loc("xmask"(#loc7))
#loc61 = loc("r0_base"(#loc8))
#loc62 = loc("r0_base"(#loc9))
#loc63 = loc("_tmp4"(#loc10))
#loc64 = loc("r0_index"(#loc11))
#loc65 = loc("r0_mask"(#loc12))
#loc66 = loc("tmp0"(#loc13))
#loc67 = loc("tmp0"(#loc14))
#loc68 = loc("tmp0"(#loc15))
#loc69 = loc("tmp0"(#loc16))
#loc70 = loc("tmp0"(#loc17))
#loc71 = loc("tmp0"(#loc18))
#loc72 = loc("tmp2"(#loc19))
#loc73 = loc("tmp5"(#loc20))
#loc74 = loc("_tmp4"(#loc21))
#loc76 = loc("tmp4"(#loc26))
#loc77 = loc("r0_index"(#loc28))
#loc78 = loc("r0_mask"(#loc29))
#loc79 = loc("tmp6"(#loc30))
#loc80 = loc("tmp6"(#loc31))
#loc81 = loc("tmp6"(#loc32))
#loc82 = loc("tmp6"(#loc33))
#loc83 = loc("tmp6"(#loc34))
#loc84 = loc("tmp6"(#loc35))
#loc85 = loc("tmp15"(#loc36))
#loc86 = loc("tmp15"(#loc37))
#loc87 = loc("tmp15"(#loc38))
#loc88 = loc("tmp9"(#loc39))
#loc89 = loc("tmp10"(#loc40))
#loc90 = loc("tmp12"(#loc41))
#loc91 = loc("tmp13"(#loc42))
#loc92 = loc("tmp14"(#loc43))
#loc93 = loc("tmp18"(#loc44))
#loc94 = loc("tmp19"(#loc45))
#loc95 = loc(callsite(#loc23 at #loc75))
#loc97 = loc(callsite(#loc25 at #loc95))
