#loc = loc("/data/conda/envs/or_llm/lib/python3.12/site-packages/vllm/model_executor/layers/fla/ops/chunk_scaled_dot_kkt.py":35:0)
#loc79 = loc("k"(#loc))
#loc80 = loc("beta"(#loc))
#loc81 = loc("g"(#loc))
#loc82 = loc("A"(#loc))
#loc83 = loc("cu_seqlens"(#loc))
#loc84 = loc("chunk_indices"(#loc))
#loc85 = loc("T"(#loc))
module {
  tt.func public @chunk_scaled_dot_kkt_fwd_kernel(%k: !tt.ptr<bf16> {tt.divisibility = 16 : i32} loc("k"(#loc)), %beta: !tt.ptr<bf16> {tt.divisibility = 16 : i32} loc("beta"(#loc)), %g: !tt.ptr<f32> {tt.divisibility = 16 : i32} loc("g"(#loc)), %A: !tt.ptr<f32> {tt.divisibility = 16 : i32} loc("A"(#loc)), %cu_seqlens: !tt.ptr<i32> {tt.divisibility = 16 : i32} loc("cu_seqlens"(#loc)), %chunk_indices: !tt.ptr<i32> {tt.divisibility = 16 : i32} loc("chunk_indices"(#loc)), %T: i32 loc("T"(#loc))) attributes {noinline = false} {
    %0 = tt.get_program_id x : i32 loc(#loc1)
    %1 = tt.get_program_id y : i32 loc(#loc2)
    %c32_i32 = arith.constant 32 : i32 loc(#loc3)
    %c32_i32_0 = arith.constant 32 : i32 loc(#loc3)
    %2 = arith.divsi %1, %c32_i32_0 : i32 loc(#loc3)
    %c32_i32_1 = arith.constant 32 : i32 loc(#loc4)
    %c32_i32_2 = arith.constant 32 : i32 loc(#loc4)
    %3 = arith.remsi %1, %c32_i32_2 : i32 loc(#loc4)
    %c2_i32 = arith.constant 2 : i32 loc(#loc5)
    %c2_i32_3 = arith.constant 2 : i32 loc(#loc5)
    %4 = arith.extsi %0 : i32 to i64 loc(#loc5)
    %5 = arith.extsi %c2_i32_3 : i32 to i64 loc(#loc5)
    %6 = arith.muli %4, %5 : i64 loc(#loc5)
    %c2147483647_i64 = arith.constant 2147483647 : i64 loc(#loc5)
    %c-2147483648_i64 = arith.constant -2147483648 : i64 loc(#loc5)
    %7 = arith.cmpi sle, %6, %c2147483647_i64 : i64 loc(#loc5)
    %8 = arith.cmpi sge, %6, %c-2147483648_i64 : i64 loc(#loc5)
    %9 = arith.andi %7, %8 : i1 loc(#loc5)
    %10 = arith.muli %0, %c2_i32_3 : i32 loc(#loc5)
    %11 = tt.addptr %chunk_indices, %10 : !tt.ptr<i32>, i32 loc(#loc6)
    %12 = tt.load %11 : !tt.ptr<i32> loc(#loc7)
    %c2_i32_4 = arith.constant 2 : i32 loc(#loc8)
    %c2_i32_5 = arith.constant 2 : i32 loc(#loc8)
    %13 = arith.extsi %0 : i32 to i64 loc(#loc8)
    %14 = arith.extsi %c2_i32_5 : i32 to i64 loc(#loc8)
    %15 = arith.muli %13, %14 : i64 loc(#loc8)
    %c2147483647_i64_6 = arith.constant 2147483647 : i64 loc(#loc8)
    %c-2147483648_i64_7 = arith.constant -2147483648 : i64 loc(#loc8)
    %16 = arith.cmpi sle, %15, %c2147483647_i64_6 : i64 loc(#loc8)
    %17 = arith.cmpi sge, %15, %c-2147483648_i64_7 : i64 loc(#loc8)
    %18 = arith.andi %16, %17 : i1 loc(#loc8)
    %19 = arith.muli %0, %c2_i32_5 : i32 loc(#loc8)
    %20 = tt.addptr %chunk_indices, %19 : !tt.ptr<i32>, i32 loc(#loc9)
    %c1_i32 = arith.constant 1 : i32 loc(#loc10)
    %21 = tt.addptr %20, %c1_i32 : !tt.ptr<i32>, i32 loc(#loc10)
    %22 = tt.load %21 : !tt.ptr<i32> loc(#loc11)
    %23 = tt.addptr %cu_seqlens, %12 : !tt.ptr<i32>, i32 loc(#loc12)
    %24 = tt.load %23 : !tt.ptr<i32> loc(#loc13)
    %25 = tt.addptr %cu_seqlens, %12 : !tt.ptr<i32>, i32 loc(#loc14)
    %c1_i32_8 = arith.constant 1 : i32 loc(#loc15)
    %26 = tt.addptr %25, %c1_i32_8 : !tt.ptr<i32>, i32 loc(#loc15)
    %27 = tt.load %26 : !tt.ptr<i32> loc(#loc16)
    %T_9 = arith.extsi %27 : i32 to i64 loc(#loc86)
    %T_10 = arith.extsi %24 : i32 to i64 loc(#loc86)
    %T_11 = arith.subi %T_9, %T_10 : i64 loc(#loc86)
    %T_12 = arith.constant 2147483647 : i64 loc(#loc86)
    %T_13 = arith.constant -2147483648 : i64 loc(#loc86)
    %T_14 = arith.cmpi sle, %T_11, %T_12 : i64 loc(#loc86)
    %T_15 = arith.cmpi sge, %T_11, %T_13 : i64 loc(#loc86)
    %T_16 = arith.andi %T_14, %T_15 : i1 loc(#loc86)
    %T_17 = arith.subi %27, %24 : i32 loc(#loc86)
    %o_t = arith.constant 64 : i32 loc(#loc87)
    %o_t_18 = arith.constant 64 : i32 loc(#loc87)
    %o_t_19 = arith.extsi %22 : i32 to i64 loc(#loc87)
    %o_t_20 = arith.extsi %o_t_18 : i32 to i64 loc(#loc87)
    %o_t_21 = arith.muli %o_t_19, %o_t_20 : i64 loc(#loc87)
    %o_t_22 = arith.constant 2147483647 : i64 loc(#loc87)
    %o_t_23 = arith.constant -2147483648 : i64 loc(#loc87)
    %o_t_24 = arith.cmpi sle, %o_t_21, %o_t_22 : i64 loc(#loc87)
    %o_t_25 = arith.cmpi sge, %o_t_21, %o_t_23 : i64 loc(#loc87)
    %o_t_26 = arith.andi %o_t_24, %o_t_25 : i1 loc(#loc87)
    %o_t_27 = arith.muli %22, %o_t_18 : i32 loc(#loc87)
    %o_t_28 = tt.make_range {end = 64 : i32, start = 0 : i32} : tensor<64xi32> loc(#loc88)
    %o_t_29 = tt.splat %o_t_27 : i32 -> tensor<64xi32> loc(#loc89)
    %o_t_30 = arith.extsi %o_t_29 : tensor<64xi32> to tensor<64xi64> loc(#loc89)
    %o_t_31 = arith.extsi %o_t_28 : tensor<64xi32> to tensor<64xi64> loc(#loc89)
    %o_t_32 = arith.addi %o_t_30, %o_t_31 : tensor<64xi64> loc(#loc89)
    %o_t_33 = arith.constant 2147483647 : i64 loc(#loc89)
    %o_t_34 = arith.constant -2147483648 : i64 loc(#loc89)
    %o_t_35 = arith.constant dense<2147483647> : tensor<64xi64> loc(#loc89)
    %o_t_36 = arith.cmpi sle, %o_t_32, %o_t_35 : tensor<64xi64> loc(#loc89)
    %o_t_37 = arith.constant dense<-2147483648> : tensor<64xi64> loc(#loc89)
    %o_t_38 = arith.cmpi sge, %o_t_32, %o_t_37 : tensor<64xi64> loc(#loc89)
    %o_t_39 = arith.andi %o_t_36, %o_t_38 : tensor<64xi1> loc(#loc89)
    %o_t_40 = arith.addi %o_t_29, %o_t_28 : tensor<64xi32> loc(#loc89)
    %m_t = tt.splat %T_17 : i32 -> tensor<64xi32> loc(#loc90)
    %m_t_41 = arith.cmpi slt, %o_t_40, %m_t : tensor<64xi32> loc(#loc90)
    %p_beta = arith.constant 32 : i32 loc(#loc91)
    %p_beta_42 = arith.constant 32 : i32 loc(#loc91)
    %p_beta_43 = arith.extsi %24 : i32 to i64 loc(#loc91)
    %p_beta_44 = arith.extsi %p_beta_42 : i32 to i64 loc(#loc91)
    %p_beta_45 = arith.muli %p_beta_43, %p_beta_44 : i64 loc(#loc91)
    %p_beta_46 = arith.constant 2147483647 : i64 loc(#loc91)
    %p_beta_47 = arith.constant -2147483648 : i64 loc(#loc91)
    %p_beta_48 = arith.cmpi sle, %p_beta_45, %p_beta_46 : i64 loc(#loc91)
    %p_beta_49 = arith.cmpi sge, %p_beta_45, %p_beta_47 : i64 loc(#loc91)
    %p_beta_50 = arith.andi %p_beta_48, %p_beta_49 : i1 loc(#loc91)
    %p_beta_51 = arith.muli %24, %p_beta_42 : i32 loc(#loc91)
    %p_beta_52 = tt.addptr %beta, %p_beta_51 : !tt.ptr<bf16>, i32 loc(#loc92)
    %p_beta_53 = tt.addptr %p_beta_52, %3 : !tt.ptr<bf16>, i32 loc(#loc93)
    %p_beta_54 = arith.constant 64 : i32 loc(#loc94)
    %p_beta_55 = arith.constant 64 : i32 loc(#loc94)
    %p_beta_56 = arith.extsi %22 : i32 to i64 loc(#loc94)
    %p_beta_57 = arith.extsi %p_beta_55 : i32 to i64 loc(#loc94)
    %p_beta_58 = arith.muli %p_beta_56, %p_beta_57 : i64 loc(#loc94)
    %p_beta_59 = arith.constant 2147483647 : i64 loc(#loc94)
    %p_beta_60 = arith.constant -2147483648 : i64 loc(#loc94)
    %p_beta_61 = arith.cmpi sle, %p_beta_58, %p_beta_59 : i64 loc(#loc94)
    %p_beta_62 = arith.cmpi sge, %p_beta_58, %p_beta_60 : i64 loc(#loc94)
    %p_beta_63 = arith.andi %p_beta_61, %p_beta_62 : i1 loc(#loc94)
    %p_beta_64 = arith.muli %22, %p_beta_55 : i32 loc(#loc94)
    %p_beta_65 = arith.extsi %T_17 : i32 to i64 loc(#loc95)
    %p_beta_66 = arith.constant 32 : i64 loc(#loc95)
    %p_beta_67 = tt.make_tensor_ptr %p_beta_53, [%p_beta_65], [%p_beta_66], [%p_beta_64] {order = array<i32: 0>} : <tensor<64xbf16>> loc(#loc95)
    %b_beta = tt.load %p_beta_67 {boundaryCheck = array<i32: 0>} : !tt.ptr<tensor<64xbf16>> loc(#loc96)
    %b_A = tt.call @"triton.language.standard.zeros____(0, 0)cconstexpr_64__(0, 1)cconstexpr_64__(1,)cconstexpr_fp32_"() : () -> tensor<64x64xf32> loc(#loc97)
    %28 = tt.call @"triton.language.standard.cdiv____(0,)cconstexpr_128__(1,)cconstexpr_64_"() : () -> i32 loc(#loc29)
    %29 = tt.call @"triton.language.standard.cdiv____(0,)cconstexpr_128__(1,)cconstexpr_64_"() : () -> i32 loc(#loc29)
    %c0_i32 = arith.constant 0 : i32 loc(#loc30)
    %c1_i32_68 = arith.constant 1 : i32 loc(#loc30)
    %30 = arith.bitcast %c0_i32 : i32 to i32 loc(#loc30)
    %31 = arith.bitcast %29 : i32 to i32 loc(#loc30)
    %32 = arith.bitcast %c1_i32_68 : i32 to i32 loc(#loc30)
    %33 = ub.poison : i32 loc(#loc30)
    %b_A_69 = scf.for %i_k = %30 to %31 step %32 iter_args(%b_A_164 = %b_A) -> (tensor<64x64xf32>)  : i32 {
      %p_k = arith.constant 16 : i32 loc(#loc99)
      %p_k_165 = arith.constant 16 : i32 loc(#loc99)
      %p_k_166 = arith.extsi %24 : i32 to i64 loc(#loc99)
      %p_k_167 = arith.extsi %p_k_165 : i32 to i64 loc(#loc99)
      %p_k_168 = arith.muli %p_k_166, %p_k_167 : i64 loc(#loc99)
      %p_k_169 = arith.constant 2147483647 : i64 loc(#loc99)
      %p_k_170 = arith.constant -2147483648 : i64 loc(#loc99)
      %p_k_171 = arith.cmpi sle, %p_k_168, %p_k_169 : i64 loc(#loc99)
      %p_k_172 = arith.cmpi sge, %p_k_168, %p_k_170 : i64 loc(#loc99)
      %p_k_173 = arith.andi %p_k_171, %p_k_172 : i1 loc(#loc99)
      %p_k_174 = arith.muli %24, %p_k_165 : i32 loc(#loc99)
      %p_k_175 = arith.constant 2 : i32 loc(#loc100)
      %p_k_176 = arith.constant 2 : i32 loc(#loc100)
      %p_k_177 = arith.divsi %3, %p_k_176 : i32 loc(#loc100)
      %p_k_178 = arith.extsi %p_k_174 : i32 to i64 loc(#loc101)
      %p_k_179 = arith.extsi %p_k_177 : i32 to i64 loc(#loc101)
      %p_k_180 = arith.addi %p_k_178, %p_k_179 : i64 loc(#loc101)
      %p_k_181 = arith.constant 2147483647 : i64 loc(#loc101)
      %p_k_182 = arith.constant -2147483648 : i64 loc(#loc101)
      %p_k_183 = arith.cmpi sle, %p_k_180, %p_k_181 : i64 loc(#loc101)
      %p_k_184 = arith.cmpi sge, %p_k_180, %p_k_182 : i64 loc(#loc101)
      %p_k_185 = arith.andi %p_k_183, %p_k_184 : i1 loc(#loc101)
      %p_k_186 = arith.addi %p_k_174, %p_k_177 : i32 loc(#loc101)
      %p_k_187 = arith.constant 128 : i32 loc(#loc102)
      %p_k_188 = arith.constant 128 : i32 loc(#loc102)
      %p_k_189 = arith.extsi %p_k_186 : i32 to i64 loc(#loc102)
      %p_k_190 = arith.extsi %p_k_188 : i32 to i64 loc(#loc102)
      %p_k_191 = arith.muli %p_k_189, %p_k_190 : i64 loc(#loc102)
      %p_k_192 = arith.constant 2147483647 : i64 loc(#loc102)
      %p_k_193 = arith.constant -2147483648 : i64 loc(#loc102)
      %p_k_194 = arith.cmpi sle, %p_k_191, %p_k_192 : i64 loc(#loc102)
      %p_k_195 = arith.cmpi sge, %p_k_191, %p_k_193 : i64 loc(#loc102)
      %p_k_196 = arith.andi %p_k_194, %p_k_195 : i1 loc(#loc102)
      %p_k_197 = arith.muli %p_k_186, %p_k_188 : i32 loc(#loc102)
      %p_k_198 = tt.addptr %k, %p_k_197 : !tt.ptr<bf16>, i32 loc(#loc103)
      %p_k_199 = arith.constant 64 : i32 loc(#loc104)
      %p_k_200 = arith.constant 64 : i32 loc(#loc104)
      %p_k_201 = arith.extsi %22 : i32 to i64 loc(#loc104)
      %p_k_202 = arith.extsi %p_k_200 : i32 to i64 loc(#loc104)
      %p_k_203 = arith.muli %p_k_201, %p_k_202 : i64 loc(#loc104)
      %p_k_204 = arith.constant 2147483647 : i64 loc(#loc104)
      %p_k_205 = arith.constant -2147483648 : i64 loc(#loc104)
      %p_k_206 = arith.cmpi sle, %p_k_203, %p_k_204 : i64 loc(#loc104)
      %p_k_207 = arith.cmpi sge, %p_k_203, %p_k_205 : i64 loc(#loc104)
      %p_k_208 = arith.andi %p_k_206, %p_k_207 : i1 loc(#loc104)
      %p_k_209 = arith.muli %22, %p_k_200 : i32 loc(#loc104)
      %p_k_210 = arith.constant 64 : i32 loc(#loc105)
      %p_k_211 = arith.constant 64 : i32 loc(#loc105)
      %p_k_212 = arith.extsi %i_k : i32 to i64 loc(#loc105)
      %p_k_213 = arith.extsi %p_k_211 : i32 to i64 loc(#loc105)
      %p_k_214 = arith.muli %p_k_212, %p_k_213 : i64 loc(#loc105)
      %p_k_215 = arith.constant 2147483647 : i64 loc(#loc105)
      %p_k_216 = arith.constant -2147483648 : i64 loc(#loc105)
      %p_k_217 = arith.cmpi sle, %p_k_214, %p_k_215 : i64 loc(#loc105)
      %p_k_218 = arith.cmpi sge, %p_k_214, %p_k_216 : i64 loc(#loc105)
      %p_k_219 = arith.andi %p_k_217, %p_k_218 : i1 loc(#loc105)
      %p_k_220 = arith.muli %i_k, %p_k_211 : i32 loc(#loc105)
      %p_k_221 = arith.extsi %T_17 : i32 to i64 loc(#loc106)
      %p_k_222 = arith.constant 128 : i64 loc(#loc106)
      %p_k_223 = arith.constant 2048 : i64 loc(#loc106)
      %p_k_224 = arith.constant 1 : i64 loc(#loc106)
      %p_k_225 = tt.make_tensor_ptr %p_k_198, [%p_k_221, %p_k_222], [%p_k_223, %p_k_224], [%p_k_209, %p_k_220] {order = array<i32: 1, 0>} : <tensor<64x64xbf16>> loc(#loc106)
      %b_k = tt.load %p_k_225 {boundaryCheck = array<i32: 0, 1>} : !tt.ptr<tensor<64x64xbf16>> loc(#loc107)
      %b_kb = tt.expand_dims %b_beta {axis = 1 : i32} : tensor<64xbf16> -> tensor<64x1xbf16> loc(#loc108)
      %b_kb_226 = tt.broadcast %b_kb : tensor<64x1xbf16> -> tensor<64x64xbf16> loc(#loc109)
      %b_kb_227 = arith.mulf %b_k, %b_kb_226 : tensor<64x64xbf16> loc(#loc109)
      %b_A_228 = tt.trans %b_k {order = array<i32: 1, 0>} : tensor<64x64xbf16> -> tensor<64x64xbf16> loc(#loc110)
      %b_A_229 = arith.constant 0.000000e+00 : f32 loc(#loc111)
      %b_A_230 = arith.constant dense<0.000000e+00> : tensor<64x64xf32> loc(#loc111)
      %b_A_231 = tt.dot %b_kb_227, %b_A_228, %b_A_230, inputPrecision = tf32 : tensor<64x64xbf16> * tensor<64x64xbf16> -> tensor<64x64xf32> loc(#loc111)
      %b_A_232 = arith.addf %b_A_164, %b_A_231 : tensor<64x64xf32> loc(#loc112)
      scf.yield %b_A_232 : tensor<64x64xf32> loc(#loc45)
    } loc(#loc98)
    %p_g = arith.constant 32 : i32 loc(#loc113)
    %p_g_70 = arith.constant 32 : i32 loc(#loc113)
    %p_g_71 = arith.extsi %24 : i32 to i64 loc(#loc113)
    %p_g_72 = arith.extsi %p_g_70 : i32 to i64 loc(#loc113)
    %p_g_73 = arith.muli %p_g_71, %p_g_72 : i64 loc(#loc113)
    %p_g_74 = arith.constant 2147483647 : i64 loc(#loc113)
    %p_g_75 = arith.constant -2147483648 : i64 loc(#loc113)
    %p_g_76 = arith.cmpi sle, %p_g_73, %p_g_74 : i64 loc(#loc113)
    %p_g_77 = arith.cmpi sge, %p_g_73, %p_g_75 : i64 loc(#loc113)
    %p_g_78 = arith.andi %p_g_76, %p_g_77 : i1 loc(#loc113)
    %p_g_79 = arith.muli %24, %p_g_70 : i32 loc(#loc113)
    %p_g_80 = tt.addptr %g, %p_g_79 : !tt.ptr<f32>, i32 loc(#loc114)
    %p_g_81 = tt.addptr %p_g_80, %3 : !tt.ptr<f32>, i32 loc(#loc115)
    %p_g_82 = arith.constant 64 : i32 loc(#loc116)
    %p_g_83 = arith.constant 64 : i32 loc(#loc116)
    %p_g_84 = arith.extsi %22 : i32 to i64 loc(#loc116)
    %p_g_85 = arith.extsi %p_g_83 : i32 to i64 loc(#loc116)
    %p_g_86 = arith.muli %p_g_84, %p_g_85 : i64 loc(#loc116)
    %p_g_87 = arith.constant 2147483647 : i64 loc(#loc116)
    %p_g_88 = arith.constant -2147483648 : i64 loc(#loc116)
    %p_g_89 = arith.cmpi sle, %p_g_86, %p_g_87 : i64 loc(#loc116)
    %p_g_90 = arith.cmpi sge, %p_g_86, %p_g_88 : i64 loc(#loc116)
    %p_g_91 = arith.andi %p_g_89, %p_g_90 : i1 loc(#loc116)
    %p_g_92 = arith.muli %22, %p_g_83 : i32 loc(#loc116)
    %p_g_93 = arith.extsi %T_17 : i32 to i64 loc(#loc117)
    %p_g_94 = arith.constant 32 : i64 loc(#loc117)
    %p_g_95 = tt.make_tensor_ptr %p_g_81, [%p_g_93], [%p_g_94], [%p_g_92] {order = array<i32: 0>} : <tensor<64xf32>> loc(#loc117)
    %b_g = tt.load %p_g_95 {boundaryCheck = array<i32: 0>} : !tt.ptr<tensor<64xf32>> loc(#loc118)
    %b_g_diff = tt.expand_dims %b_g {axis = 1 : i32} : tensor<64xf32> -> tensor<64x1xf32> loc(#loc119)
    %b_g_diff_96 = tt.expand_dims %b_g {axis = 0 : i32} : tensor<64xf32> -> tensor<1x64xf32> loc(#loc120)
    %b_g_diff_97 = tt.broadcast %b_g_diff : tensor<64x1xf32> -> tensor<64x64xf32> loc(#loc121)
    %b_g_diff_98 = tt.broadcast %b_g_diff_96 : tensor<1x64xf32> -> tensor<64x64xf32> loc(#loc121)
    %b_g_diff_99 = arith.subf %b_g_diff_97, %b_g_diff_98 : tensor<64x64xf32> loc(#loc121)
    %b_A_100 = math.exp %b_g_diff_99 : tensor<64x64xf32> loc(#loc122)
    %b_A_101 = arith.mulf %b_A_69, %b_A_100 : tensor<64x64xf32> loc(#loc123)
    %m_A = tt.expand_dims %o_t_40 {axis = 1 : i32} : tensor<64xi32> -> tensor<64x1xi32> loc(#loc124)
    %m_A_102 = tt.expand_dims %o_t_40 {axis = 0 : i32} : tensor<64xi32> -> tensor<1x64xi32> loc(#loc125)
    %m_A_103 = tt.broadcast %m_A : tensor<64x1xi32> -> tensor<64x64xi32> loc(#loc126)
    %m_A_104 = tt.broadcast %m_A_102 : tensor<1x64xi32> -> tensor<64x64xi32> loc(#loc126)
    %m_A_105 = arith.cmpi sgt, %m_A_103, %m_A_104 : tensor<64x64xi32> loc(#loc126)
    %m_A_106 = tt.expand_dims %m_t_41 {axis = 1 : i32} : tensor<64xi1> -> tensor<64x1xi1> loc(#loc127)
    %m_A_107 = tt.expand_dims %m_t_41 {axis = 0 : i32} : tensor<64xi1> -> tensor<1x64xi1> loc(#loc128)
    %m_A_108 = tt.broadcast %m_A_106 : tensor<64x1xi1> -> tensor<64x64xi1> loc(#loc128)
    %m_A_109 = tt.broadcast %m_A_107 : tensor<1x64xi1> -> tensor<64x64xi1> loc(#loc128)
    %m_A_110 = arith.andi %m_A_108, %m_A_109 : tensor<64x64xi1> loc(#loc128)
    %m_A_111 = arith.andi %m_A_105, %m_A_110 : tensor<64x64xi1> loc(#loc129)
    %b_A_112 = arith.constant 0 : i32 loc(#loc130)
    %b_A_113 = arith.constant 0.000000e+00 : f32 loc(#loc130)
    %b_A_114 = arith.constant dense<0.000000e+00> : tensor<64x64xf32> loc(#loc130)
    %b_A_115 = arith.select %m_A_111, %b_A_101, %b_A_114 : tensor<64x64xi1>, tensor<64x64xf32> loc(#loc130)
    %p_A = arith.constant 32 : i32 loc(#loc131)
    %p_A_116 = arith.constant 32 : i32 loc(#loc131)
    %p_A_117 = arith.extsi %24 : i32 to i64 loc(#loc131)
    %p_A_118 = arith.extsi %p_A_116 : i32 to i64 loc(#loc131)
    %p_A_119 = arith.muli %p_A_117, %p_A_118 : i64 loc(#loc131)
    %p_A_120 = arith.constant 2147483647 : i64 loc(#loc131)
    %p_A_121 = arith.constant -2147483648 : i64 loc(#loc131)
    %p_A_122 = arith.cmpi sle, %p_A_119, %p_A_120 : i64 loc(#loc131)
    %p_A_123 = arith.cmpi sge, %p_A_119, %p_A_121 : i64 loc(#loc131)
    %p_A_124 = arith.andi %p_A_122, %p_A_123 : i1 loc(#loc131)
    %p_A_125 = arith.muli %24, %p_A_116 : i32 loc(#loc131)
    %p_A_126 = arith.extsi %p_A_125 : i32 to i64 loc(#loc132)
    %p_A_127 = arith.extsi %3 : i32 to i64 loc(#loc132)
    %p_A_128 = arith.addi %p_A_126, %p_A_127 : i64 loc(#loc132)
    %p_A_129 = arith.constant 2147483647 : i64 loc(#loc132)
    %p_A_130 = arith.constant -2147483648 : i64 loc(#loc132)
    %p_A_131 = arith.cmpi sle, %p_A_128, %p_A_129 : i64 loc(#loc132)
    %p_A_132 = arith.cmpi sge, %p_A_128, %p_A_130 : i64 loc(#loc132)
    %p_A_133 = arith.andi %p_A_131, %p_A_132 : i1 loc(#loc132)
    %p_A_134 = arith.addi %p_A_125, %3 : i32 loc(#loc132)
    %p_A_135 = arith.constant 64 : i32 loc(#loc133)
    %p_A_136 = arith.constant 64 : i32 loc(#loc133)
    %p_A_137 = arith.extsi %p_A_134 : i32 to i64 loc(#loc133)
    %p_A_138 = arith.extsi %p_A_136 : i32 to i64 loc(#loc133)
    %p_A_139 = arith.muli %p_A_137, %p_A_138 : i64 loc(#loc133)
    %p_A_140 = arith.constant 2147483647 : i64 loc(#loc133)
    %p_A_141 = arith.constant -2147483648 : i64 loc(#loc133)
    %p_A_142 = arith.cmpi sle, %p_A_139, %p_A_140 : i64 loc(#loc133)
    %p_A_143 = arith.cmpi sge, %p_A_139, %p_A_141 : i64 loc(#loc133)
    %p_A_144 = arith.andi %p_A_142, %p_A_143 : i1 loc(#loc133)
    %p_A_145 = arith.muli %p_A_134, %p_A_136 : i32 loc(#loc133)
    %p_A_146 = tt.addptr %A, %p_A_145 : !tt.ptr<f32>, i32 loc(#loc134)
    %p_A_147 = arith.constant 64 : i32 loc(#loc135)
    %p_A_148 = arith.constant 64 : i32 loc(#loc135)
    %p_A_149 = arith.extsi %22 : i32 to i64 loc(#loc135)
    %p_A_150 = arith.extsi %p_A_148 : i32 to i64 loc(#loc135)
    %p_A_151 = arith.muli %p_A_149, %p_A_150 : i64 loc(#loc135)
    %p_A_152 = arith.constant 2147483647 : i64 loc(#loc135)
    %p_A_153 = arith.constant -2147483648 : i64 loc(#loc135)
    %p_A_154 = arith.cmpi sle, %p_A_151, %p_A_152 : i64 loc(#loc135)
    %p_A_155 = arith.cmpi sge, %p_A_151, %p_A_153 : i64 loc(#loc135)
    %p_A_156 = arith.andi %p_A_154, %p_A_155 : i1 loc(#loc135)
    %p_A_157 = arith.muli %22, %p_A_148 : i32 loc(#loc135)
    %p_A_158 = arith.extsi %T_17 : i32 to i64 loc(#loc136)
    %p_A_159 = arith.constant 64 : i64 loc(#loc136)
    %p_A_160 = arith.constant 2048 : i64 loc(#loc136)
    %p_A_161 = arith.constant 1 : i64 loc(#loc136)
    %p_A_162 = arith.constant 0 : i32 loc(#loc136)
    %p_A_163 = tt.make_tensor_ptr %p_A_146, [%p_A_158, %p_A_159], [%p_A_160, %p_A_161], [%p_A_157, %p_A_162] {order = array<i32: 1, 0>} : <tensor<64x64xf32>> loc(#loc136)
    tt.store %p_A_163, %b_A_115 {boundaryCheck = array<i32: 0, 1>} : !tt.ptr<tensor<64x64xf32>> loc(#loc70)
    tt.return loc(#loc71)
  } loc(#loc)
  tt.func private @"triton.language.standard.zeros____(0, 0)cconstexpr_64__(0, 1)cconstexpr_64__(1,)cconstexpr_fp32_"() -> tensor<64x64xf32> attributes {noinline = false} {
    %cst = arith.constant 0.000000e+00 : f32 loc(#loc73)
    %cst_0 = arith.constant dense<0.000000e+00> : tensor<64x64xf32> loc(#loc73)
    tt.return %cst_0 : tensor<64x64xf32> loc(#loc74)
  ^bb1:  // no predecessors
    %0 = ub.poison : tensor<64x64xf32> loc(#loc75)
    tt.return %0 : tensor<64x64xf32> loc(#loc75)
  } loc(#loc72)
  tt.func private @"triton.language.standard.cdiv____(0,)cconstexpr_128__(1,)cconstexpr_64_"() -> i32 attributes {noinline = false} {
    %c2_i32 = arith.constant 2 : i32 loc(#loc77)
    tt.return %c2_i32 : i32 loc(#loc77)
  ^bb1:  // no predecessors
    %0 = ub.poison : i32 loc(#loc78)
    tt.return %0 : i32 loc(#loc78)
  } loc(#loc76)
} loc(#loc)
#loc1 = loc("/data/conda/envs/or_llm/lib/python3.12/site-packages/vllm/model_executor/layers/fla/ops/chunk_scaled_dot_kkt.py":51:30)
#loc2 = loc("/data/conda/envs/or_llm/lib/python3.12/site-packages/vllm/model_executor/layers/fla/ops/chunk_scaled_dot_kkt.py":51:48)
#loc3 = loc("/data/conda/envs/or_llm/lib/python3.12/site-packages/vllm/model_executor/layers/fla/ops/chunk_scaled_dot_kkt.py":52:23)
#loc4 = loc("/data/conda/envs/or_llm/lib/python3.12/site-packages/vllm/model_executor/layers/fla/ops/chunk_scaled_dot_kkt.py":52:33)
#loc5 = loc("/data/conda/envs/or_llm/lib/python3.12/site-packages/vllm/model_executor/layers/fla/ops/chunk_scaled_dot_kkt.py":55:42)
#loc6 = loc("/data/conda/envs/or_llm/lib/python3.12/site-packages/vllm/model_executor/layers/fla/ops/chunk_scaled_dot_kkt.py":55:36)
#loc7 = loc("/data/conda/envs/or_llm/lib/python3.12/site-packages/vllm/model_executor/layers/fla/ops/chunk_scaled_dot_kkt.py":55:20)
#loc8 = loc("/data/conda/envs/or_llm/lib/python3.12/site-packages/vllm/model_executor/layers/fla/ops/chunk_scaled_dot_kkt.py":56:42)
#loc9 = loc("/data/conda/envs/or_llm/lib/python3.12/site-packages/vllm/model_executor/layers/fla/ops/chunk_scaled_dot_kkt.py":56:36)
#loc10 = loc("/data/conda/envs/or_llm/lib/python3.12/site-packages/vllm/model_executor/layers/fla/ops/chunk_scaled_dot_kkt.py":56:46)
#loc11 = loc("/data/conda/envs/or_llm/lib/python3.12/site-packages/vllm/model_executor/layers/fla/ops/chunk_scaled_dot_kkt.py":56:20)
#loc12 = loc("/data/conda/envs/or_llm/lib/python3.12/site-packages/vllm/model_executor/layers/fla/ops/chunk_scaled_dot_kkt.py":59:33)
#loc13 = loc("/data/conda/envs/or_llm/lib/python3.12/site-packages/vllm/model_executor/layers/fla/ops/chunk_scaled_dot_kkt.py":59:20)
#loc14 = loc("/data/conda/envs/or_llm/lib/python3.12/site-packages/vllm/model_executor/layers/fla/ops/chunk_scaled_dot_kkt.py":60:33)
#loc15 = loc("/data/conda/envs/or_llm/lib/python3.12/site-packages/vllm/model_executor/layers/fla/ops/chunk_scaled_dot_kkt.py":60:39)
#loc16 = loc("/data/conda/envs/or_llm/lib/python3.12/site-packages/vllm/model_executor/layers/fla/ops/chunk_scaled_dot_kkt.py":60:20)
#loc17 = loc("/data/conda/envs/or_llm/lib/python3.12/site-packages/vllm/model_executor/layers/fla/ops/chunk_scaled_dot_kkt.py":62:18)
#loc18 = loc("/data/conda/envs/or_llm/lib/python3.12/site-packages/vllm/model_executor/layers/fla/ops/chunk_scaled_dot_kkt.py":65:16)
#loc19 = loc("/data/conda/envs/or_llm/lib/python3.12/site-packages/vllm/model_executor/layers/fla/ops/chunk_scaled_dot_kkt.py":65:34)
#loc20 = loc("/data/conda/envs/or_llm/lib/python3.12/site-packages/vllm/model_executor/layers/fla/ops/chunk_scaled_dot_kkt.py":65:21)
#loc21 = loc("/data/conda/envs/or_llm/lib/python3.12/site-packages/vllm/model_executor/layers/fla/ops/chunk_scaled_dot_kkt.py":66:16)
#loc22 = loc("/data/conda/envs/or_llm/lib/python3.12/site-packages/vllm/model_executor/layers/fla/ops/chunk_scaled_dot_kkt.py":69:21)
#loc23 = loc("/data/conda/envs/or_llm/lib/python3.12/site-packages/vllm/model_executor/layers/fla/ops/chunk_scaled_dot_kkt.py":69:15)
#loc24 = loc("/data/conda/envs/or_llm/lib/python3.12/site-packages/vllm/model_executor/layers/fla/ops/chunk_scaled_dot_kkt.py":69:25)
#loc25 = loc("/data/conda/envs/or_llm/lib/python3.12/site-packages/vllm/model_executor/layers/fla/ops/chunk_scaled_dot_kkt.py":69:49)
#loc26 = loc("/data/conda/envs/or_llm/lib/python3.12/site-packages/vllm/model_executor/layers/fla/ops/chunk_scaled_dot_kkt.py":69:62)
#loc27 = loc("/data/conda/envs/or_llm/lib/python3.12/site-packages/vllm/model_executor/layers/fla/ops/chunk_scaled_dot_kkt.py":71:21)
#loc28 = loc("/data/conda/envs/or_llm/lib/python3.12/site-packages/vllm/model_executor/layers/fla/ops/chunk_scaled_dot_kkt.py":73:19)
#loc29 = loc("/data/conda/envs/or_llm/lib/python3.12/site-packages/vllm/model_executor/layers/fla/ops/chunk_scaled_dot_kkt.py":74:32)
#loc30 = loc("/data/conda/envs/or_llm/lib/python3.12/site-packages/vllm/model_executor/layers/fla/ops/chunk_scaled_dot_kkt.py":74:21)
#loc31 = loc("/data/conda/envs/or_llm/lib/python3.12/site-packages/vllm/model_executor/layers/fla/ops/chunk_scaled_dot_kkt.py":76:23)
#loc32 = loc("/data/conda/envs/or_llm/lib/python3.12/site-packages/vllm/model_executor/layers/fla/ops/chunk_scaled_dot_kkt.py":76:36)
#loc33 = loc("/data/conda/envs/or_llm/lib/python3.12/site-packages/vllm/model_executor/layers/fla/ops/chunk_scaled_dot_kkt.py":76:28)
#loc34 = loc("/data/conda/envs/or_llm/lib/python3.12/site-packages/vllm/model_executor/layers/fla/ops/chunk_scaled_dot_kkt.py":76:48)
#loc35 = loc("/data/conda/envs/or_llm/lib/python3.12/site-packages/vllm/model_executor/layers/fla/ops/chunk_scaled_dot_kkt.py":76:16)
#loc36 = loc("/data/conda/envs/or_llm/lib/python3.12/site-packages/vllm/model_executor/layers/fla/ops/chunk_scaled_dot_kkt.py":79:19)
#loc37 = loc("/data/conda/envs/or_llm/lib/python3.12/site-packages/vllm/model_executor/layers/fla/ops/chunk_scaled_dot_kkt.py":79:29)
#loc38 = loc("/data/conda/envs/or_llm/lib/python3.12/site-packages/vllm/model_executor/layers/fla/ops/chunk_scaled_dot_kkt.py":81:12)
#loc39 = loc("/data/conda/envs/or_llm/lib/python3.12/site-packages/vllm/model_executor/layers/fla/ops/chunk_scaled_dot_kkt.py":83:22)
#loc40 = loc("/data/conda/envs/or_llm/lib/python3.12/site-packages/vllm/model_executor/layers/fla/ops/chunk_scaled_dot_kkt.py":84:28)
#loc41 = loc("/data/conda/envs/or_llm/lib/python3.12/site-packages/vllm/model_executor/layers/fla/ops/chunk_scaled_dot_kkt.py":84:21)
#loc42 = loc("/data/conda/envs/or_llm/lib/python3.12/site-packages/vllm/model_executor/layers/fla/ops/chunk_scaled_dot_kkt.py":85:51)
#loc43 = loc("/data/conda/envs/or_llm/lib/python3.12/site-packages/vllm/model_executor/layers/fla/ops/chunk_scaled_dot_kkt.py":85:42)
#loc44 = loc("/data/conda/envs/or_llm/lib/python3.12/site-packages/vllm/model_executor/layers/fla/ops/chunk_scaled_dot_kkt.py":85:15)
#loc45 = loc("/data/conda/envs/or_llm/lib/python3.12/site-packages/vllm/model_executor/layers/fla/ops/chunk_scaled_dot_kkt.py":85:8)
#loc46 = loc("/data/conda/envs/or_llm/lib/python3.12/site-packages/vllm/model_executor/layers/fla/ops/chunk_scaled_dot_kkt.py":88:42)
#loc47 = loc("/data/conda/envs/or_llm/lib/python3.12/site-packages/vllm/model_executor/layers/fla/ops/chunk_scaled_dot_kkt.py":88:36)
#loc48 = loc("/data/conda/envs/or_llm/lib/python3.12/site-packages/vllm/model_executor/layers/fla/ops/chunk_scaled_dot_kkt.py":88:46)
#loc49 = loc("/data/conda/envs/or_llm/lib/python3.12/site-packages/vllm/model_executor/layers/fla/ops/chunk_scaled_dot_kkt.py":88:70)
#loc50 = loc("/data/conda/envs/or_llm/lib/python3.12/site-packages/vllm/model_executor/layers/fla/ops/chunk_scaled_dot_kkt.py":88:83)
#loc51 = loc("/data/conda/envs/or_llm/lib/python3.12/site-packages/vllm/model_executor/layers/fla/ops/chunk_scaled_dot_kkt.py":89:22)
#loc52 = loc("/data/conda/envs/or_llm/lib/python3.12/site-packages/vllm/model_executor/layers/fla/ops/chunk_scaled_dot_kkt.py":90:23)
#loc53 = loc("/data/conda/envs/or_llm/lib/python3.12/site-packages/vllm/model_executor/layers/fla/ops/chunk_scaled_dot_kkt.py":90:38)
#loc54 = loc("/data/conda/envs/or_llm/lib/python3.12/site-packages/vllm/model_executor/layers/fla/ops/chunk_scaled_dot_kkt.py":90:34)
#loc55 = loc("/data/conda/envs/or_llm/lib/python3.12/site-packages/vllm/model_executor/layers/fla/ops/chunk_scaled_dot_kkt.py":91:24)
#loc56 = loc("/data/conda/envs/or_llm/lib/python3.12/site-packages/vllm/model_executor/layers/fla/ops/chunk_scaled_dot_kkt.py":91:20)
#loc57 = loc("/data/conda/envs/or_llm/lib/python3.12/site-packages/vllm/model_executor/layers/fla/ops/chunk_scaled_dot_kkt.py":93:15)
#loc58 = loc("/data/conda/envs/or_llm/lib/python3.12/site-packages/vllm/model_executor/layers/fla/ops/chunk_scaled_dot_kkt.py":93:30)
#loc59 = loc("/data/conda/envs/or_llm/lib/python3.12/site-packages/vllm/model_executor/layers/fla/ops/chunk_scaled_dot_kkt.py":93:26)
#loc60 = loc("/data/conda/envs/or_llm/lib/python3.12/site-packages/vllm/model_executor/layers/fla/ops/chunk_scaled_dot_kkt.py":93:47)
#loc61 = loc("/data/conda/envs/or_llm/lib/python3.12/site-packages/vllm/model_executor/layers/fla/ops/chunk_scaled_dot_kkt.py":93:58)
#loc62 = loc("/data/conda/envs/or_llm/lib/python3.12/site-packages/vllm/model_executor/layers/fla/ops/chunk_scaled_dot_kkt.py":93:43)
#loc63 = loc("/data/conda/envs/or_llm/lib/python3.12/site-packages/vllm/model_executor/layers/fla/ops/chunk_scaled_dot_kkt.py":94:29)
#loc64 = loc("/data/conda/envs/or_llm/lib/python3.12/site-packages/vllm/model_executor/layers/fla/ops/chunk_scaled_dot_kkt.py":96:19)
#loc65 = loc("/data/conda/envs/or_llm/lib/python3.12/site-packages/vllm/model_executor/layers/fla/ops/chunk_scaled_dot_kkt.py":96:23)
#loc66 = loc("/data/conda/envs/or_llm/lib/python3.12/site-packages/vllm/model_executor/layers/fla/ops/chunk_scaled_dot_kkt.py":96:30)
#loc67 = loc("/data/conda/envs/or_llm/lib/python3.12/site-packages/vllm/model_executor/layers/fla/ops/chunk_scaled_dot_kkt.py":96:12)
#loc68 = loc("/data/conda/envs/or_llm/lib/python3.12/site-packages/vllm/model_executor/layers/fla/ops/chunk_scaled_dot_kkt.py":96:63)
#loc69 = loc("/data/conda/envs/or_llm/lib/python3.12/site-packages/vllm/model_executor/layers/fla/ops/chunk_scaled_dot_kkt.py":96:81)
#loc70 = loc("/data/conda/envs/or_llm/lib/python3.12/site-packages/vllm/model_executor/layers/fla/ops/chunk_scaled_dot_kkt.py":98:18)
#loc71 = loc("/data/conda/envs/or_llm/lib/python3.12/site-packages/vllm/model_executor/layers/fla/ops/chunk_scaled_dot_kkt.py":98:4)
#loc72 = loc("/data/conda/envs/or_llm/lib/python3.12/site-packages/triton/language/standard.py":120:0)
#loc73 = loc("/data/conda/envs/or_llm/lib/python3.12/site-packages/triton/language/standard.py":129:31)
#loc74 = loc("/data/conda/envs/or_llm/lib/python3.12/site-packages/triton/language/standard.py":129:11)
#loc75 = loc("/data/conda/envs/or_llm/lib/python3.12/site-packages/triton/language/standard.py":129:4)
#loc76 = loc("/data/conda/envs/or_llm/lib/python3.12/site-packages/triton/language/standard.py":34:0)
#loc77 = loc("/data/conda/envs/or_llm/lib/python3.12/site-packages/triton/language/standard.py":43:11)
#loc78 = loc("/data/conda/envs/or_llm/lib/python3.12/site-packages/triton/language/standard.py":43:4)
#loc86 = loc("T"(#loc17))
#loc87 = loc("o_t"(#loc18))
#loc88 = loc("o_t"(#loc19))
#loc89 = loc("o_t"(#loc20))
#loc90 = loc("m_t"(#loc21))
#loc91 = loc("p_beta"(#loc22))
#loc92 = loc("p_beta"(#loc23))
#loc93 = loc("p_beta"(#loc24))
#loc94 = loc("p_beta"(#loc25))
#loc95 = loc("p_beta"(#loc26))
#loc96 = loc("b_beta"(#loc27))
#loc97 = loc("b_A"(#loc28))
#loc98 = loc("b_A"(#loc30))
#loc99 = loc("p_k"(#loc31))
#loc100 = loc("p_k"(#loc32))
#loc101 = loc("p_k"(#loc33))
#loc102 = loc("p_k"(#loc34))
#loc103 = loc("p_k"(#loc35))
#loc104 = loc("p_k"(#loc36))
#loc105 = loc("p_k"(#loc37))
#loc106 = loc("p_k"(#loc38))
#loc107 = loc("b_k"(#loc39))
#loc108 = loc("b_kb"(#loc40))
#loc109 = loc("b_kb"(#loc41))
#loc110 = loc("b_A"(#loc42))
#loc111 = loc("b_A"(#loc43))
#loc112 = loc("b_A"(#loc44))
#loc113 = loc("p_g"(#loc46))
#loc114 = loc("p_g"(#loc47))
#loc115 = loc("p_g"(#loc48))
#loc116 = loc("p_g"(#loc49))
#loc117 = loc("p_g"(#loc50))
#loc118 = loc("b_g"(#loc51))
#loc119 = loc("b_g_diff"(#loc52))
#loc120 = loc("b_g_diff"(#loc53))
#loc121 = loc("b_g_diff"(#loc54))
#loc122 = loc("b_A"(#loc55))
#loc123 = loc("b_A"(#loc56))
#loc124 = loc("m_A"(#loc57))
#loc125 = loc("m_A"(#loc58))
#loc126 = loc("m_A"(#loc59))
#loc127 = loc("m_A"(#loc60))
#loc128 = loc("m_A"(#loc61))
#loc129 = loc("m_A"(#loc62))
#loc130 = loc("b_A"(#loc63))
#loc131 = loc("p_A"(#loc64))
#loc132 = loc("p_A"(#loc65))
#loc133 = loc("p_A"(#loc66))
#loc134 = loc("p_A"(#loc67))
#loc135 = loc("p_A"(#loc68))
#loc136 = loc("p_A"(#loc69))
