#loc = loc("/data/jcy/zzs/zijinhua/.vllm_cache_simplevqa/torch_compile/lu/clu62ce6agx54gqsbnbt35dpgixbqcudonrmforw2mqz26zrrho2.py":18:0)
#loc1 = loc(unknown)
#loc26 = loc("/data/jcy/zzs/zijinhua/.vllm_cache_simplevqa/torch_compile/lu/clu62ce6agx54gqsbnbt35dpgixbqcudonrmforw2mqz26zrrho2.py":44:25)
#loc50 = loc("in_ptr0"(#loc))
#loc51 = loc("in_ptr1"(#loc))
#loc52 = loc("in_ptr2"(#loc))
#loc53 = loc("out_ptr0"(#loc))
#loc54 = loc("out_ptr2"(#loc))
#loc55 = loc("xnumel"(#loc))
#loc56 = loc("r0_numel"(#loc))
#loc77 = loc("tmp6"(#loc26))
#loc99 = loc(callsite(#loc1 at #loc77))
module {
  tt.func public @triton_red_fused__to_copy_add_mean_mul_pow_rsqrt_0(%in_ptr0: !tt.ptr<bf16> {tt.divisibility = 16 : i32} loc("in_ptr0"(#loc)), %in_ptr1: !tt.ptr<bf16> {tt.divisibility = 16 : i32} loc("in_ptr1"(#loc)), %in_ptr2: !tt.ptr<bf16> {tt.divisibility = 16 : i32} loc("in_ptr2"(#loc)), %out_ptr0: !tt.ptr<bf16> {tt.divisibility = 16 : i32} loc("out_ptr0"(#loc)), %out_ptr2: !tt.ptr<bf16> {tt.divisibility = 16 : i32} loc("out_ptr2"(#loc)), %xnumel: i32 loc("xnumel"(#loc)), %r0_numel: i32 {tt.divisibility = 16 : i32} loc("r0_numel"(#loc))) attributes {noinline = false} {
    %cst = arith.constant dense<0.000000e+00> : tensor<1x2048xbf16> loc(#loc1)
    %c2048_i32 = arith.constant 2048 : i32 loc(#loc1)
    %c4096_i32 = arith.constant 4096 : i32 loc(#loc1)
    %c0_i32 = arith.constant 0 : i32 loc(#loc1)
    %cst_0 = arith.constant dense<1.000000e+00> : tensor<1x2048xf32> loc(#loc1)
    %cst_1 = arith.constant dense<9.99999997E-7> : tensor<1x1xf32> loc(#loc1)
    %cst_2 = arith.constant dense<4.096000e+03> : tensor<1x1xf32> loc(#loc1)
    %cst_3 = arith.constant dense<4096> : tensor<1x2048xi32> loc(#loc1)
    %cst_4 = arith.constant dense<0.000000e+00> : tensor<1x2048xf32> loc(#loc1)
    %xoffset = tt.get_program_id x : i32 loc(#loc57)
    %xmask = arith.cmpi slt, %xoffset, %xnumel : i32 loc(#loc58)
    %r0_base = tt.make_range {end = 2048 : i32, start = 0 : i32} : tensor<2048xi32> loc(#loc59)
    %r0_base_5 = tt.expand_dims %r0_base {axis = 0 : i32} : tensor<2048xi32> -> tensor<1x2048xi32> loc(#loc60)
    %_tmp6 = scf.for %r0_offset = %c0_i32 to %c4096_i32 step %c2048_i32 iter_args(%_tmp6_7 = %cst_4) -> (tensor<1x2048xf32>)  : i32 {
      %r0_index = tt.splat %r0_offset : i32 -> tensor<1x2048xi32> loc(#loc62)
      %r0_index_8 = arith.addi %r0_index, %r0_base_5 : tensor<1x2048xi32> loc(#loc62)
      %r0_mask = arith.cmpi slt, %r0_index_8, %cst_3 : tensor<1x2048xi32> loc(#loc63)
      %tmp0 = arith.muli %xoffset, %c4096_i32 : i32 loc(#loc64)
      %tmp0_9 = tt.splat %tmp0 : i32 -> tensor<1x2048xi32> loc(#loc96)
      %tmp0_10 = arith.addi %r0_index_8, %tmp0_9 : tensor<1x2048xi32> loc(#loc65)
      %tmp0_11 = tt.splat %in_ptr0 : !tt.ptr<bf16> -> tensor<1x2048x!tt.ptr<bf16>> loc(#loc66)
      %tmp0_12 = tt.addptr %tmp0_11, %tmp0_10 : tensor<1x2048x!tt.ptr<bf16>>, tensor<1x2048xi32> loc(#loc66)
      %tmp0_13 = tt.splat %xmask : i1 -> tensor<1x2048xi1> loc(#loc97)
      %tmp0_14 = arith.andi %r0_mask, %tmp0_13 : tensor<1x2048xi1> loc(#loc67)
      %tmp0_15 = tt.load %tmp0_12, %tmp0_14, %cst evictionPolicy = evict_first : tensor<1x2048x!tt.ptr<bf16>> loc(#loc68)
      %tmp0_16 = arith.extf %tmp0_15 : tensor<1x2048xbf16> to tensor<1x2048xf32> loc(#loc69)
      %tmp1 = tt.splat %in_ptr1 : !tt.ptr<bf16> -> tensor<1x2048x!tt.ptr<bf16>> loc(#loc70)
      %tmp1_17 = tt.addptr %tmp1, %tmp0_10 : tensor<1x2048x!tt.ptr<bf16>>, tensor<1x2048xi32> loc(#loc70)
      %tmp1_18 = tt.load %tmp1_17, %tmp0_14, %cst evictionPolicy = evict_first : tensor<1x2048x!tt.ptr<bf16>> loc(#loc71)
      %tmp1_19 = arith.extf %tmp1_18 : tensor<1x2048xbf16> to tensor<1x2048xf32> loc(#loc72)
      %tmp2 = arith.addf %tmp0_16, %tmp1_19 : tensor<1x2048xf32> loc(#loc73)
      %tmp4 = arith.mulf %tmp2, %tmp2 : tensor<1x2048xf32> loc(#loc74)
      %tmp7 = arith.addf %_tmp6_7, %tmp4 : tensor<1x2048xf32> loc(#loc75)
      %_tmp6_20 = arith.select %tmp0_14, %tmp7, %_tmp6_7 : tensor<1x2048xi1>, tensor<1x2048xf32> loc(#loc76)
      %0 = tt.splat %out_ptr0 : !tt.ptr<bf16> -> tensor<1x2048x!tt.ptr<bf16>> loc(#loc22)
      %1 = tt.addptr %0, %tmp0_10 : tensor<1x2048x!tt.ptr<bf16>>, tensor<1x2048xi32> loc(#loc22)
      %2 = arith.truncf %tmp2 : tensor<1x2048xf32> to tensor<1x2048xbf16> loc(#loc23)
      tt.store %1, %2, %tmp0_14 : tensor<1x2048x!tt.ptr<bf16>> loc(#loc23)
      scf.yield %_tmp6_20 : tensor<1x2048xf32> loc(#loc24)
    } loc(#loc61)
    %tmp6 = "tt.reduce"(%_tmp6) <{axis = 1 : i32}> ({
    ^bb0(%tmp6_7: f32 loc(callsite(#loc1 at #loc77)), %tmp6_8: f32 loc(callsite(#loc1 at #loc77))):
      %tmp6_9 = arith.addf %tmp6_7, %tmp6_8 : f32 loc(#loc102)
      tt.reduce.return %tmp6_9 : f32 loc(#loc98)
    }) : (tensor<1x2048xf32>) -> tensor<1xf32> loc(#loc98)
    %tmp6_6 = tt.expand_dims %tmp6 {axis = 1 : i32} : tensor<1xf32> -> tensor<1x1xf32> loc(#loc78)
    scf.for %r0_offset = %c0_i32 to %c4096_i32 step %c2048_i32  : i32 {
      %r0_index = tt.splat %r0_offset : i32 -> tensor<1x2048xi32> loc(#loc79)
      %r0_index_7 = arith.addi %r0_index, %r0_base_5 : tensor<1x2048xi32> loc(#loc79)
      %r0_mask = arith.cmpi slt, %r0_index_7, %cst_3 : tensor<1x2048xi32> loc(#loc80)
      %tmp8 = arith.muli %xoffset, %c4096_i32 : i32 loc(#loc81)
      %tmp8_8 = tt.splat %tmp8 : i32 -> tensor<1x2048xi32> loc(#loc100)
      %tmp8_9 = arith.addi %r0_index_7, %tmp8_8 : tensor<1x2048xi32> loc(#loc82)
      %tmp8_10 = tt.splat %out_ptr0 : !tt.ptr<bf16> -> tensor<1x2048x!tt.ptr<bf16>> loc(#loc83)
      %tmp8_11 = tt.addptr %tmp8_10, %tmp8_9 : tensor<1x2048x!tt.ptr<bf16>>, tensor<1x2048xi32> loc(#loc83)
      %tmp8_12 = tt.splat %xmask : i1 -> tensor<1x2048xi1> loc(#loc101)
      %tmp8_13 = arith.andi %r0_mask, %tmp8_12 : tensor<1x2048xi1> loc(#loc84)
      %tmp8_14 = tt.load %tmp8_11, %tmp8_13, %cst evictionPolicy = evict_first : tensor<1x2048x!tt.ptr<bf16>> loc(#loc85)
      %tmp8_15 = arith.extf %tmp8_14 : tensor<1x2048xbf16> to tensor<1x2048xf32> loc(#loc86)
      %tmp16 = tt.splat %in_ptr2 : !tt.ptr<bf16> -> tensor<1x2048x!tt.ptr<bf16>> loc(#loc87)
      %tmp16_16 = tt.addptr %tmp16, %r0_index_7 : tensor<1x2048x!tt.ptr<bf16>>, tensor<1x2048xi32> loc(#loc87)
      %tmp16_17 = tt.load %tmp16_16, %r0_mask, %cst evictionPolicy = evict_last : tensor<1x2048x!tt.ptr<bf16>> loc(#loc88)
      %tmp16_18 = arith.extf %tmp16_17 : tensor<1x2048xbf16> to tensor<1x2048xf32> loc(#loc89)
      %tmp11 = arith.divf %tmp6_6, %cst_2 : tensor<1x1xf32> loc(#loc90)
      %tmp13 = arith.addf %tmp11, %cst_1 : tensor<1x1xf32> loc(#loc91)
      %tmp14 = tt.extern_elementwise %tmp13 {libname = "", libpath = "", pure = true, symbol = "__nv_rsqrtf"} : (tensor<1x1xf32>) -> tensor<1x1xf32> loc(#loc92)
      %tmp15 = tt.broadcast %tmp14 : tensor<1x1xf32> -> tensor<1x2048xf32> loc(#loc93)
      %tmp15_19 = arith.mulf %tmp8_15, %tmp15 : tensor<1x2048xf32> loc(#loc93)
      %tmp19 = arith.addf %tmp16_18, %cst_0 : tensor<1x2048xf32> loc(#loc94)
      %tmp20 = arith.mulf %tmp15_19, %tmp19 : tensor<1x2048xf32> loc(#loc95)
      %0 = tt.splat %out_ptr2 : !tt.ptr<bf16> -> tensor<1x2048x!tt.ptr<bf16>> loc(#loc47)
      %1 = tt.addptr %0, %tmp8_9 : tensor<1x2048x!tt.ptr<bf16>>, tensor<1x2048xi32> loc(#loc47)
      %2 = arith.truncf %tmp20 : tensor<1x2048xf32> to tensor<1x2048xbf16> loc(#loc48)
      tt.store %1, %2, %tmp8_13 : tensor<1x2048x!tt.ptr<bf16>> loc(#loc48)
    } loc(#loc29)
    tt.return loc(#loc49)
  } loc(#loc)
} loc(#loc)
#loc2 = loc("/data/jcy/zzs/zijinhua/.vllm_cache_simplevqa/torch_compile/lu/clu62ce6agx54gqsbnbt35dpgixbqcudonrmforw2mqz26zrrho2.py":22:28)
#loc3 = loc("/data/jcy/zzs/zijinhua/.vllm_cache_simplevqa/torch_compile/lu/clu62ce6agx54gqsbnbt35dpgixbqcudonrmforw2mqz26zrrho2.py":24:21)
#loc4 = loc("/data/jcy/zzs/zijinhua/.vllm_cache_simplevqa/torch_compile/lu/clu62ce6agx54gqsbnbt35dpgixbqcudonrmforw2mqz26zrrho2.py":25:27)
#loc5 = loc("/data/jcy/zzs/zijinhua/.vllm_cache_simplevqa/torch_compile/lu/clu62ce6agx54gqsbnbt35dpgixbqcudonrmforw2mqz26zrrho2.py":25:37)
#loc6 = loc("/data/jcy/zzs/zijinhua/.vllm_cache_simplevqa/torch_compile/lu/clu62ce6agx54gqsbnbt35dpgixbqcudonrmforw2mqz26zrrho2.py":29:40)
#loc7 = loc("/data/jcy/zzs/zijinhua/.vllm_cache_simplevqa/torch_compile/lu/clu62ce6agx54gqsbnbt35dpgixbqcudonrmforw2mqz26zrrho2.py":30:31)
#loc8 = loc("/data/jcy/zzs/zijinhua/.vllm_cache_simplevqa/torch_compile/lu/clu62ce6agx54gqsbnbt35dpgixbqcudonrmforw2mqz26zrrho2.py":31:29)
#loc9 = loc("/data/jcy/zzs/zijinhua/.vllm_cache_simplevqa/torch_compile/lu/clu62ce6agx54gqsbnbt35dpgixbqcudonrmforw2mqz26zrrho2.py":35:46)
#loc10 = loc("/data/jcy/zzs/zijinhua/.vllm_cache_simplevqa/torch_compile/lu/clu62ce6agx54gqsbnbt35dpgixbqcudonrmforw2mqz26zrrho2.py":35:41)
#loc11 = loc("/data/jcy/zzs/zijinhua/.vllm_cache_simplevqa/torch_compile/lu/clu62ce6agx54gqsbnbt35dpgixbqcudonrmforw2mqz26zrrho2.py":35:34)
#loc12 = loc("/data/jcy/zzs/zijinhua/.vllm_cache_simplevqa/torch_compile/lu/clu62ce6agx54gqsbnbt35dpgixbqcudonrmforw2mqz26zrrho2.py":35:61)
#loc13 = loc("/data/jcy/zzs/zijinhua/.vllm_cache_simplevqa/torch_compile/lu/clu62ce6agx54gqsbnbt35dpgixbqcudonrmforw2mqz26zrrho2.py":35:51)
#loc14 = loc("/data/jcy/zzs/zijinhua/.vllm_cache_simplevqa/torch_compile/lu/clu62ce6agx54gqsbnbt35dpgixbqcudonrmforw2mqz26zrrho2.py":35:113)
#loc15 = loc("/data/jcy/zzs/zijinhua/.vllm_cache_simplevqa/torch_compile/lu/clu62ce6agx54gqsbnbt35dpgixbqcudonrmforw2mqz26zrrho2.py":36:34)
#loc16 = loc("/data/jcy/zzs/zijinhua/.vllm_cache_simplevqa/torch_compile/lu/clu62ce6agx54gqsbnbt35dpgixbqcudonrmforw2mqz26zrrho2.py":36:51)
#loc17 = loc("/data/jcy/zzs/zijinhua/.vllm_cache_simplevqa/torch_compile/lu/clu62ce6agx54gqsbnbt35dpgixbqcudonrmforw2mqz26zrrho2.py":36:113)
#loc18 = loc("/data/jcy/zzs/zijinhua/.vllm_cache_simplevqa/torch_compile/lu/clu62ce6agx54gqsbnbt35dpgixbqcudonrmforw2mqz26zrrho2.py":37:22)
#loc19 = loc("/data/jcy/zzs/zijinhua/.vllm_cache_simplevqa/torch_compile/lu/clu62ce6agx54gqsbnbt35dpgixbqcudonrmforw2mqz26zrrho2.py":39:22)
#loc20 = loc("/data/jcy/zzs/zijinhua/.vllm_cache_simplevqa/torch_compile/lu/clu62ce6agx54gqsbnbt35dpgixbqcudonrmforw2mqz26zrrho2.py":41:23)
#loc21 = loc("/data/jcy/zzs/zijinhua/.vllm_cache_simplevqa/torch_compile/lu/clu62ce6agx54gqsbnbt35dpgixbqcudonrmforw2mqz26zrrho2.py":42:48)
#loc22 = loc("/data/jcy/zzs/zijinhua/.vllm_cache_simplevqa/torch_compile/lu/clu62ce6agx54gqsbnbt35dpgixbqcudonrmforw2mqz26zrrho2.py":43:29)
#loc23 = loc("/data/jcy/zzs/zijinhua/.vllm_cache_simplevqa/torch_compile/lu/clu62ce6agx54gqsbnbt35dpgixbqcudonrmforw2mqz26zrrho2.py":43:52)
#loc24 = loc("/data/jcy/zzs/zijinhua/.vllm_cache_simplevqa/torch_compile/lu/clu62ce6agx54gqsbnbt35dpgixbqcudonrmforw2mqz26zrrho2.py":43:8)
#loc25 = loc("/data/conda/envs/or_llm/lib/python3.12/site-packages/triton/language/standard.py":293:36)
#loc27 = loc("/data/conda/envs/or_llm/lib/python3.12/site-packages/triton/language/standard.py":263:15)
#loc28 = loc("/data/jcy/zzs/zijinhua/.vllm_cache_simplevqa/torch_compile/lu/clu62ce6agx54gqsbnbt35dpgixbqcudonrmforw2mqz26zrrho2.py":44:28)
#loc29 = loc("/data/jcy/zzs/zijinhua/.vllm_cache_simplevqa/torch_compile/lu/clu62ce6agx54gqsbnbt35dpgixbqcudonrmforw2mqz26zrrho2.py":45:40)
#loc30 = loc("/data/jcy/zzs/zijinhua/.vllm_cache_simplevqa/torch_compile/lu/clu62ce6agx54gqsbnbt35dpgixbqcudonrmforw2mqz26zrrho2.py":46:31)
#loc31 = loc("/data/jcy/zzs/zijinhua/.vllm_cache_simplevqa/torch_compile/lu/clu62ce6agx54gqsbnbt35dpgixbqcudonrmforw2mqz26zrrho2.py":47:29)
#loc32 = loc("/data/jcy/zzs/zijinhua/.vllm_cache_simplevqa/torch_compile/lu/clu62ce6agx54gqsbnbt35dpgixbqcudonrmforw2mqz26zrrho2.py":51:47)
#loc33 = loc("/data/jcy/zzs/zijinhua/.vllm_cache_simplevqa/torch_compile/lu/clu62ce6agx54gqsbnbt35dpgixbqcudonrmforw2mqz26zrrho2.py":51:42)
#loc34 = loc("/data/jcy/zzs/zijinhua/.vllm_cache_simplevqa/torch_compile/lu/clu62ce6agx54gqsbnbt35dpgixbqcudonrmforw2mqz26zrrho2.py":51:35)
#loc35 = loc("/data/jcy/zzs/zijinhua/.vllm_cache_simplevqa/torch_compile/lu/clu62ce6agx54gqsbnbt35dpgixbqcudonrmforw2mqz26zrrho2.py":51:62)
#loc36 = loc("/data/jcy/zzs/zijinhua/.vllm_cache_simplevqa/torch_compile/lu/clu62ce6agx54gqsbnbt35dpgixbqcudonrmforw2mqz26zrrho2.py":51:52)
#loc37 = loc("/data/jcy/zzs/zijinhua/.vllm_cache_simplevqa/torch_compile/lu/clu62ce6agx54gqsbnbt35dpgixbqcudonrmforw2mqz26zrrho2.py":51:114)
#loc38 = loc("/data/jcy/zzs/zijinhua/.vllm_cache_simplevqa/torch_compile/lu/clu62ce6agx54gqsbnbt35dpgixbqcudonrmforw2mqz26zrrho2.py":52:35)
#loc39 = loc("/data/jcy/zzs/zijinhua/.vllm_cache_simplevqa/torch_compile/lu/clu62ce6agx54gqsbnbt35dpgixbqcudonrmforw2mqz26zrrho2.py":52:42)
#loc40 = loc("/data/jcy/zzs/zijinhua/.vllm_cache_simplevqa/torch_compile/lu/clu62ce6agx54gqsbnbt35dpgixbqcudonrmforw2mqz26zrrho2.py":52:95)
#loc41 = loc("/data/jcy/zzs/zijinhua/.vllm_cache_simplevqa/torch_compile/lu/clu62ce6agx54gqsbnbt35dpgixbqcudonrmforw2mqz26zrrho2.py":55:24)
#loc42 = loc("/data/jcy/zzs/zijinhua/.vllm_cache_simplevqa/torch_compile/lu/clu62ce6agx54gqsbnbt35dpgixbqcudonrmforw2mqz26zrrho2.py":57:24)
#loc43 = loc("/data/jcy/zzs/zijinhua/.vllm_cache_simplevqa/torch_compile/lu/clu62ce6agx54gqsbnbt35dpgixbqcudonrmforw2mqz26zrrho2.py":58:32)
#loc44 = loc("/data/jcy/zzs/zijinhua/.vllm_cache_simplevqa/torch_compile/lu/clu62ce6agx54gqsbnbt35dpgixbqcudonrmforw2mqz26zrrho2.py":59:23)
#loc45 = loc("/data/jcy/zzs/zijinhua/.vllm_cache_simplevqa/torch_compile/lu/clu62ce6agx54gqsbnbt35dpgixbqcudonrmforw2mqz26zrrho2.py":62:24)
#loc46 = loc("/data/jcy/zzs/zijinhua/.vllm_cache_simplevqa/torch_compile/lu/clu62ce6agx54gqsbnbt35dpgixbqcudonrmforw2mqz26zrrho2.py":63:24)
#loc47 = loc("/data/jcy/zzs/zijinhua/.vllm_cache_simplevqa/torch_compile/lu/clu62ce6agx54gqsbnbt35dpgixbqcudonrmforw2mqz26zrrho2.py":65:29)
#loc48 = loc("/data/jcy/zzs/zijinhua/.vllm_cache_simplevqa/torch_compile/lu/clu62ce6agx54gqsbnbt35dpgixbqcudonrmforw2mqz26zrrho2.py":65:53)
#loc49 = loc("/data/jcy/zzs/zijinhua/.vllm_cache_simplevqa/torch_compile/lu/clu62ce6agx54gqsbnbt35dpgixbqcudonrmforw2mqz26zrrho2.py":45:4)
#loc57 = loc("xoffset"(#loc2))
#loc58 = loc("xmask"(#loc3))
#loc59 = loc("r0_base"(#loc4))
#loc60 = loc("r0_base"(#loc5))
#loc61 = loc("_tmp6"(#loc6))
#loc62 = loc("r0_index"(#loc7))
#loc63 = loc("r0_mask"(#loc8))
#loc64 = loc("tmp0"(#loc9))
#loc65 = loc("tmp0"(#loc10))
#loc66 = loc("tmp0"(#loc11))
#loc67 = loc("tmp0"(#loc12))
#loc68 = loc("tmp0"(#loc13))
#loc69 = loc("tmp0"(#loc14))
#loc70 = loc("tmp1"(#loc15))
#loc71 = loc("tmp1"(#loc16))
#loc72 = loc("tmp1"(#loc17))
#loc73 = loc("tmp2"(#loc18))
#loc74 = loc("tmp4"(#loc19))
#loc75 = loc("tmp7"(#loc20))
#loc76 = loc("_tmp6"(#loc21))
#loc78 = loc("tmp6"(#loc28))
#loc79 = loc("r0_index"(#loc30))
#loc80 = loc("r0_mask"(#loc31))
#loc81 = loc("tmp8"(#loc32))
#loc82 = loc("tmp8"(#loc33))
#loc83 = loc("tmp8"(#loc34))
#loc84 = loc("tmp8"(#loc35))
#loc85 = loc("tmp8"(#loc36))
#loc86 = loc("tmp8"(#loc37))
#loc87 = loc("tmp16"(#loc38))
#loc88 = loc("tmp16"(#loc39))
#loc89 = loc("tmp16"(#loc40))
#loc90 = loc("tmp11"(#loc41))
#loc91 = loc("tmp13"(#loc42))
#loc92 = loc("tmp14"(#loc43))
#loc93 = loc("tmp15"(#loc44))
#loc94 = loc("tmp19"(#loc45))
#loc95 = loc("tmp20"(#loc46))
#loc96 = loc(fused[#loc65, #loc64])
#loc97 = loc(fused[#loc67, #loc58])
#loc98 = loc(callsite(#loc25 at #loc77))
#loc100 = loc(fused[#loc82, #loc81])
#loc101 = loc(fused[#loc84, #loc58])
#loc102 = loc(callsite(#loc27 at #loc98))
