#loc = loc("/data/conda/envs/or_llm/lib/python3.12/site-packages/vllm/model_executor/layers/mamba/gdn_linear_attn.py":978:0)
#loc43 = loc("/data/conda/envs/or_llm/lib/python3.12/site-packages/triton/language/standard.py":49:0)
#loc50 = loc("g"(#loc))
#loc51 = loc("beta_output"(#loc))
#loc52 = loc("A_log"(#loc))
#loc53 = loc("a"(#loc))
#loc54 = loc("b"(#loc))
#loc55 = loc("dt_bias"(#loc))
#loc89 = loc("x"(#loc43))
module {
  tt.func public @fused_gdn_gating_kernel(%g: !tt.ptr<f32> {tt.divisibility = 16 : i32} loc("g"(#loc)), %beta_output: !tt.ptr<bf16> {tt.divisibility = 16 : i32} loc("beta_output"(#loc)), %A_log: !tt.ptr<f32> {tt.divisibility = 16 : i32} loc("A_log"(#loc)), %a: !tt.ptr<bf16> {tt.divisibility = 16 : i32} loc("a"(#loc)), %b: !tt.ptr<bf16> {tt.divisibility = 16 : i32} loc("b"(#loc)), %dt_bias: !tt.ptr<bf16> {tt.divisibility = 16 : i32} loc("dt_bias"(#loc))) attributes {noinline = false} {
    %0 = tt.get_program_id x : i32 loc(#loc1)
    %1 = tt.get_program_id y : i32 loc(#loc2)
    %2 = tt.get_program_id z : i32 loc(#loc3)
    %head_off = arith.constant 8 : i32 loc(#loc56)
    %head_off_0 = arith.constant 8 : i32 loc(#loc56)
    %head_off_1 = arith.extsi %2 : i32 to i64 loc(#loc56)
    %head_off_2 = arith.extsi %head_off_0 : i32 to i64 loc(#loc56)
    %head_off_3 = arith.muli %head_off_1, %head_off_2 : i64 loc(#loc56)
    %head_off_4 = arith.constant 2147483647 : i64 loc(#loc56)
    %head_off_5 = arith.constant -2147483648 : i64 loc(#loc56)
    %head_off_6 = arith.cmpi sle, %head_off_3, %head_off_4 : i64 loc(#loc56)
    %head_off_7 = arith.cmpi sge, %head_off_3, %head_off_5 : i64 loc(#loc56)
    %head_off_8 = arith.andi %head_off_6, %head_off_7 : i1 loc(#loc56)
    %head_off_9 = arith.muli %2, %head_off_0 : i32 loc(#loc56)
    %head_off_10 = tt.make_range {end = 8 : i32, start = 0 : i32} : tensor<8xi32> loc(#loc57)
    %head_off_11 = tt.splat %head_off_9 : i32 -> tensor<8xi32> loc(#loc58)
    %head_off_12 = arith.extsi %head_off_11 : tensor<8xi32> to tensor<8xi64> loc(#loc58)
    %head_off_13 = arith.extsi %head_off_10 : tensor<8xi32> to tensor<8xi64> loc(#loc58)
    %head_off_14 = arith.addi %head_off_12, %head_off_13 : tensor<8xi64> loc(#loc58)
    %head_off_15 = arith.constant 2147483647 : i64 loc(#loc58)
    %head_off_16 = arith.constant -2147483648 : i64 loc(#loc58)
    %head_off_17 = arith.constant dense<2147483647> : tensor<8xi64> loc(#loc58)
    %head_off_18 = arith.cmpi sle, %head_off_14, %head_off_17 : tensor<8xi64> loc(#loc58)
    %head_off_19 = arith.constant dense<-2147483648> : tensor<8xi64> loc(#loc58)
    %head_off_20 = arith.cmpi sge, %head_off_14, %head_off_19 : tensor<8xi64> loc(#loc58)
    %head_off_21 = arith.andi %head_off_18, %head_off_20 : tensor<8xi1> loc(#loc58)
    %head_off_22 = arith.addi %head_off_11, %head_off_10 : tensor<8xi32> loc(#loc58)
    %off = arith.constant 1 : i32 loc(#loc59)
    %off_23 = arith.constant 1 : i32 loc(#loc59)
    %off_24 = arith.extsi %0 : i32 to i64 loc(#loc59)
    %off_25 = arith.extsi %off_23 : i32 to i64 loc(#loc59)
    %off_26 = arith.muli %off_24, %off_25 : i64 loc(#loc59)
    %off_27 = arith.constant 2147483647 : i64 loc(#loc59)
    %off_28 = arith.constant -2147483648 : i64 loc(#loc59)
    %off_29 = arith.cmpi sle, %off_26, %off_27 : i64 loc(#loc59)
    %off_30 = arith.cmpi sge, %off_26, %off_28 : i64 loc(#loc59)
    %off_31 = arith.andi %off_29, %off_30 : i1 loc(#loc59)
    %off_32 = arith.muli %0, %off_23 : i32 loc(#loc59)
    %off_33 = arith.constant 32 : i32 loc(#loc60)
    %off_34 = arith.constant 32 : i32 loc(#loc60)
    %off_35 = arith.extsi %off_32 : i32 to i64 loc(#loc60)
    %off_36 = arith.extsi %off_34 : i32 to i64 loc(#loc60)
    %off_37 = arith.muli %off_35, %off_36 : i64 loc(#loc60)
    %off_38 = arith.constant 2147483647 : i64 loc(#loc60)
    %off_39 = arith.constant -2147483648 : i64 loc(#loc60)
    %off_40 = arith.cmpi sle, %off_37, %off_38 : i64 loc(#loc60)
    %off_41 = arith.cmpi sge, %off_37, %off_39 : i64 loc(#loc60)
    %off_42 = arith.andi %off_40, %off_41 : i1 loc(#loc60)
    %off_43 = arith.muli %off_32, %off_34 : i32 loc(#loc60)
    %off_44 = arith.constant 32 : i32 loc(#loc61)
    %off_45 = arith.constant 32 : i32 loc(#loc61)
    %off_46 = arith.extsi %1 : i32 to i64 loc(#loc61)
    %off_47 = arith.extsi %off_45 : i32 to i64 loc(#loc61)
    %off_48 = arith.muli %off_46, %off_47 : i64 loc(#loc61)
    %off_49 = arith.constant 2147483647 : i64 loc(#loc61)
    %off_50 = arith.constant -2147483648 : i64 loc(#loc61)
    %off_51 = arith.cmpi sle, %off_48, %off_49 : i64 loc(#loc61)
    %off_52 = arith.cmpi sge, %off_48, %off_50 : i64 loc(#loc61)
    %off_53 = arith.andi %off_51, %off_52 : i1 loc(#loc61)
    %off_54 = arith.muli %1, %off_45 : i32 loc(#loc61)
    %off_55 = arith.extsi %off_43 : i32 to i64 loc(#loc62)
    %off_56 = arith.extsi %off_54 : i32 to i64 loc(#loc62)
    %off_57 = arith.addi %off_55, %off_56 : i64 loc(#loc62)
    %off_58 = arith.constant 2147483647 : i64 loc(#loc62)
    %off_59 = arith.constant -2147483648 : i64 loc(#loc62)
    %off_60 = arith.cmpi sle, %off_57, %off_58 : i64 loc(#loc62)
    %off_61 = arith.cmpi sge, %off_57, %off_59 : i64 loc(#loc62)
    %off_62 = arith.andi %off_60, %off_61 : i1 loc(#loc62)
    %off_63 = arith.addi %off_43, %off_54 : i32 loc(#loc62)
    %off_64 = tt.splat %off_63 : i32 -> tensor<8xi32> loc(#loc63)
    %off_65 = arith.extsi %off_64 : tensor<8xi32> to tensor<8xi64> loc(#loc63)
    %off_66 = arith.extsi %head_off_22 : tensor<8xi32> to tensor<8xi64> loc(#loc63)
    %off_67 = arith.addi %off_65, %off_66 : tensor<8xi64> loc(#loc63)
    %off_68 = arith.constant 2147483647 : i64 loc(#loc63)
    %off_69 = arith.constant -2147483648 : i64 loc(#loc63)
    %off_70 = arith.constant dense<2147483647> : tensor<8xi64> loc(#loc63)
    %off_71 = arith.cmpi sle, %off_67, %off_70 : tensor<8xi64> loc(#loc63)
    %off_72 = arith.constant dense<-2147483648> : tensor<8xi64> loc(#loc63)
    %off_73 = arith.cmpi sge, %off_67, %off_72 : tensor<8xi64> loc(#loc63)
    %off_74 = arith.andi %off_71, %off_73 : tensor<8xi1> loc(#loc63)
    %off_75 = arith.addi %off_64, %head_off_22 : tensor<8xi32> loc(#loc63)
    %mask = arith.constant 32 : i32 loc(#loc64)
    %mask_76 = arith.constant dense<32> : tensor<8xi32> loc(#loc64)
    %mask_77 = arith.cmpi slt, %head_off_22, %mask_76 : tensor<8xi32> loc(#loc64)
    %blk_A_log = tt.splat %A_log : !tt.ptr<f32> -> tensor<8x!tt.ptr<f32>> loc(#loc65)
    %blk_A_log_78 = tt.addptr %blk_A_log, %head_off_22 : tensor<8x!tt.ptr<f32>>, tensor<8xi32> loc(#loc65)
    %blk_A_log_79 = tt.load %blk_A_log_78, %mask_77 : tensor<8x!tt.ptr<f32>> loc(#loc66)
    %blk_a = tt.splat %a : !tt.ptr<bf16> -> tensor<8x!tt.ptr<bf16>> loc(#loc67)
    %blk_a_80 = tt.addptr %blk_a, %off_75 : tensor<8x!tt.ptr<bf16>>, tensor<8xi32> loc(#loc67)
    %blk_a_81 = tt.load %blk_a_80, %mask_77 : tensor<8x!tt.ptr<bf16>> loc(#loc68)
    %blk_b = tt.splat %b : !tt.ptr<bf16> -> tensor<8x!tt.ptr<bf16>> loc(#loc69)
    %blk_b_82 = tt.addptr %blk_b, %off_75 : tensor<8x!tt.ptr<bf16>>, tensor<8xi32> loc(#loc69)
    %blk_b_83 = tt.load %blk_b_82, %mask_77 : tensor<8x!tt.ptr<bf16>> loc(#loc70)
    %blk_bias = tt.splat %dt_bias : !tt.ptr<bf16> -> tensor<8x!tt.ptr<bf16>> loc(#loc71)
    %blk_bias_84 = tt.addptr %blk_bias, %head_off_22 : tensor<8x!tt.ptr<bf16>>, tensor<8xi32> loc(#loc71)
    %blk_bias_85 = tt.load %blk_bias_84, %mask_77 : tensor<8x!tt.ptr<bf16>> loc(#loc72)
    %x = arith.extf %blk_a_81 : tensor<8xbf16> to tensor<8xf32> loc(#loc73)
    %x_86 = arith.extf %blk_bias_85 : tensor<8xbf16> to tensor<8xf32> loc(#loc74)
    %x_87 = arith.addf %x, %x_86 : tensor<8xf32> loc(#loc75)
    %softplus_x = arith.constant 1.000000e+00 : f32 loc(#loc76)
    %softplus_x_88 = arith.constant 1.000000e+00 : f32 loc(#loc76)
    %softplus_x_89 = arith.constant dense<1.000000e+00> : tensor<8xf32> loc(#loc76)
    %softplus_x_90 = arith.mulf %softplus_x_89, %x_87 : tensor<8xf32> loc(#loc76)
    %softplus_x_91 = arith.constant 2.000000e+01 : f32 loc(#loc77)
    %softplus_x_92 = arith.constant dense<2.000000e+01> : tensor<8xf32> loc(#loc77)
    %softplus_x_93 = arith.cmpf ole, %softplus_x_90, %softplus_x_92 : tensor<8xf32> loc(#loc77)
    %softplus_x_94 = arith.constant 1.000000e+00 : f32 loc(#loc78)
    %softplus_x_95 = arith.constant 1.000000e+00 : f32 loc(#loc78)
    %softplus_x_96 = arith.constant dense<1.000000e+00> : tensor<8xf32> loc(#loc78)
    %softplus_x_97 = arith.mulf %softplus_x_96, %x_87 : tensor<8xf32> loc(#loc78)
    %softplus_x_98 = math.exp %softplus_x_97 : tensor<8xf32> loc(#loc79)
    %softplus_x_99 = arith.constant 1 : i32 loc(#loc80)
    %softplus_x_100 = arith.constant 1.000000e+00 : f32 loc(#loc80)
    %softplus_x_101 = arith.constant dense<1.000000e+00> : tensor<8xf32> loc(#loc80)
    %softplus_x_102 = arith.addf %softplus_x_101, %softplus_x_98 : tensor<8xf32> loc(#loc80)
    %softplus_x_103 = math.log %softplus_x_102 : tensor<8xf32> loc(#loc81)
    %softplus_x_104 = arith.constant 1.000000e+00 : f32 loc(#loc82)
    %softplus_x_105 = arith.constant 1.000000e+00 : f32 loc(#loc82)
    %softplus_x_106 = arith.constant dense<1.000000e+00> : tensor<8xf32> loc(#loc82)
    %softplus_x_107 = arith.mulf %softplus_x_106, %softplus_x_103 : tensor<8xf32> loc(#loc82)
    %softplus_x_108 = arith.select %softplus_x_93, %softplus_x_107, %x_87 : tensor<8xi1>, tensor<8xf32> loc(#loc83)
    %blk_g = math.exp %blk_A_log_79 : tensor<8xf32> loc(#loc84)
    %blk_g_109 = arith.constant 0.000000e+00 : f32 loc(#loc85)
    %blk_g_110 = arith.constant dense<0.000000e+00> : tensor<8xf32> loc(#loc85)
    %blk_g_111 = arith.subf %blk_g_110, %blk_g : tensor<8xf32> loc(#loc85)
    %blk_g_112 = arith.mulf %blk_g_111, %softplus_x_108 : tensor<8xf32> loc(#loc86)
    %3 = tt.splat %g : !tt.ptr<f32> -> tensor<8x!tt.ptr<f32>> loc(#loc35)
    %4 = tt.addptr %3, %off_75 : tensor<8x!tt.ptr<f32>>, tensor<8xi32> loc(#loc35)
    tt.store %4, %blk_g_112, %mask_77 : tensor<8x!tt.ptr<f32>> loc(#loc36)
    %blk_beta_output = arith.extf %blk_b_83 : tensor<8xbf16> to tensor<8xf32> loc(#loc87)
    %blk_beta_output_113 = tt.call @triton.language.standard.sigmoid__fp32S8S__(%blk_beta_output) : (tensor<8xf32>) -> tensor<8xf32> loc(#loc88)
    %5 = tt.splat %beta_output : !tt.ptr<bf16> -> tensor<8x!tt.ptr<bf16>> loc(#loc39)
    %6 = tt.addptr %5, %off_75 : tensor<8x!tt.ptr<bf16>>, tensor<8xi32> loc(#loc39)
    %7 = arith.truncf %blk_beta_output_113 : tensor<8xf32> to tensor<8xbf16> loc(#loc40)
    tt.store %6, %7, %mask_77 : tensor<8x!tt.ptr<bf16>> loc(#loc41)
    tt.return loc(#loc42)
  } loc(#loc)
  tt.func private @triton.language.standard.sigmoid__fp32S8S__(%x: tensor<8xf32> loc("x"(#loc43))) -> tensor<8xf32> attributes {noinline = false} {
    %cst = arith.constant 0.000000e+00 : f32 loc(#loc44)
    %cst_0 = arith.constant dense<0.000000e+00> : tensor<8xf32> loc(#loc44)
    %0 = arith.subf %cst_0, %x : tensor<8xf32> loc(#loc44)
    %1 = math.exp %0 : tensor<8xf32> loc(#loc45)
    %c1_i32 = arith.constant 1 : i32 loc(#loc46)
    %cst_1 = arith.constant 1.000000e+00 : f32 loc(#loc46)
    %cst_2 = arith.constant dense<1.000000e+00> : tensor<8xf32> loc(#loc46)
    %2 = arith.addf %cst_2, %1 : tensor<8xf32> loc(#loc46)
    %c1_i32_3 = arith.constant 1 : i32 loc(#loc47)
    %cst_4 = arith.constant 1.000000e+00 : f32 loc(#loc47)
    %cst_5 = arith.constant dense<1.000000e+00> : tensor<8xf32> loc(#loc47)
    %3 = arith.divf %cst_5, %2 : tensor<8xf32> loc(#loc47)
    tt.return %3 : tensor<8xf32> loc(#loc48)
  ^bb1:  // no predecessors
    %4 = ub.poison : tensor<8xf32> loc(#loc49)
    tt.return %4 : tensor<8xf32> loc(#loc49)
  } loc(#loc43)
} loc(#loc)
#loc1 = loc("/data/conda/envs/or_llm/lib/python3.12/site-packages/vllm/model_executor/layers/mamba/gdn_linear_attn.py":991:34)
#loc2 = loc("/data/conda/envs/or_llm/lib/python3.12/site-packages/vllm/model_executor/layers/mamba/gdn_linear_attn.py":991:52)
#loc3 = loc("/data/conda/envs/or_llm/lib/python3.12/site-packages/vllm/model_executor/layers/mamba/gdn_linear_attn.py":991:70)
#loc4 = loc("/data/conda/envs/or_llm/lib/python3.12/site-packages/vllm/model_executor/layers/mamba/gdn_linear_attn.py":992:21)
#loc5 = loc("/data/conda/envs/or_llm/lib/python3.12/site-packages/vllm/model_executor/layers/mamba/gdn_linear_attn.py":992:46)
#loc6 = loc("/data/conda/envs/or_llm/lib/python3.12/site-packages/vllm/model_executor/layers/mamba/gdn_linear_attn.py":992:33)
#loc7 = loc("/data/conda/envs/or_llm/lib/python3.12/site-packages/vllm/model_executor/layers/mamba/gdn_linear_attn.py":993:16)
#loc8 = loc("/data/conda/envs/or_llm/lib/python3.12/site-packages/vllm/model_executor/layers/mamba/gdn_linear_attn.py":993:26)
#loc9 = loc("/data/conda/envs/or_llm/lib/python3.12/site-packages/vllm/model_executor/layers/mamba/gdn_linear_attn.py":993:44)
#loc10 = loc("/data/conda/envs/or_llm/lib/python3.12/site-packages/vllm/model_executor/layers/mamba/gdn_linear_attn.py":993:38)
#loc11 = loc("/data/conda/envs/or_llm/lib/python3.12/site-packages/vllm/model_executor/layers/mamba/gdn_linear_attn.py":993:56)
#loc12 = loc("/data/conda/envs/or_llm/lib/python3.12/site-packages/vllm/model_executor/layers/mamba/gdn_linear_attn.py":994:22)
#loc13 = loc("/data/conda/envs/or_llm/lib/python3.12/site-packages/vllm/model_executor/layers/mamba/gdn_linear_attn.py":995:32)
#loc14 = loc("/data/conda/envs/or_llm/lib/python3.12/site-packages/vllm/model_executor/layers/mamba/gdn_linear_attn.py":995:24)
#loc15 = loc("/data/conda/envs/or_llm/lib/python3.12/site-packages/vllm/model_executor/layers/mamba/gdn_linear_attn.py":996:24)
#loc16 = loc("/data/conda/envs/or_llm/lib/python3.12/site-packages/vllm/model_executor/layers/mamba/gdn_linear_attn.py":996:20)
#loc17 = loc("/data/conda/envs/or_llm/lib/python3.12/site-packages/vllm/model_executor/layers/mamba/gdn_linear_attn.py":997:24)
#loc18 = loc("/data/conda/envs/or_llm/lib/python3.12/site-packages/vllm/model_executor/layers/mamba/gdn_linear_attn.py":997:20)
#loc19 = loc("/data/conda/envs/or_llm/lib/python3.12/site-packages/vllm/model_executor/layers/mamba/gdn_linear_attn.py":998:33)
#loc20 = loc("/data/conda/envs/or_llm/lib/python3.12/site-packages/vllm/model_executor/layers/mamba/gdn_linear_attn.py":998:23)
#loc21 = loc("/data/conda/envs/or_llm/lib/python3.12/site-packages/vllm/model_executor/layers/mamba/gdn_linear_attn.py":1000:17)
#loc22 = loc("/data/conda/envs/or_llm/lib/python3.12/site-packages/vllm/model_executor/layers/mamba/gdn_linear_attn.py":1000:43)
#loc23 = loc("/data/conda/envs/or_llm/lib/python3.12/site-packages/vllm/model_executor/layers/mamba/gdn_linear_attn.py":1000:31)
#loc24 = loc("/data/conda/envs/or_llm/lib/python3.12/site-packages/vllm/model_executor/layers/mamba/gdn_linear_attn.py":1002:15)
#loc25 = loc("/data/conda/envs/or_llm/lib/python3.12/site-packages/vllm/model_executor/layers/mamba/gdn_linear_attn.py":1002:20)
#loc26 = loc("/data/conda/envs/or_llm/lib/python3.12/site-packages/vllm/model_executor/layers/mamba/gdn_linear_attn.py":1002:69)
#loc27 = loc("/data/conda/envs/or_llm/lib/python3.12/site-packages/vllm/model_executor/layers/mamba/gdn_linear_attn.py":1002:62)
#loc28 = loc("/data/conda/envs/or_llm/lib/python3.12/site-packages/vllm/model_executor/layers/mamba/gdn_linear_attn.py":1002:55)
#loc29 = loc("/data/conda/envs/or_llm/lib/python3.12/site-packages/vllm/model_executor/layers/mamba/gdn_linear_attn.py":1002:51)
#loc30 = loc("/data/conda/envs/or_llm/lib/python3.12/site-packages/vllm/model_executor/layers/mamba/gdn_linear_attn.py":1002:44)
#loc31 = loc("/data/conda/envs/or_llm/lib/python3.12/site-packages/vllm/model_executor/layers/mamba/gdn_linear_attn.py":1002:74)
#loc32 = loc("/data/conda/envs/or_llm/lib/python3.12/site-packages/vllm/model_executor/layers/mamba/gdn_linear_attn.py":1004:20)
#loc33 = loc("/data/conda/envs/or_llm/lib/python3.12/site-packages/vllm/model_executor/layers/mamba/gdn_linear_attn.py":1004:13)
#loc34 = loc("/data/conda/envs/or_llm/lib/python3.12/site-packages/vllm/model_executor/layers/mamba/gdn_linear_attn.py":1004:48)
#loc35 = loc("/data/conda/envs/or_llm/lib/python3.12/site-packages/vllm/model_executor/layers/mamba/gdn_linear_attn.py":1005:17)
#loc36 = loc("/data/conda/envs/or_llm/lib/python3.12/site-packages/vllm/model_executor/layers/mamba/gdn_linear_attn.py":1005:22)
#loc37 = loc("/data/conda/envs/or_llm/lib/python3.12/site-packages/vllm/model_executor/layers/mamba/gdn_linear_attn.py":1007:42)
#loc38 = loc("/data/conda/envs/or_llm/lib/python3.12/site-packages/vllm/model_executor/layers/mamba/gdn_linear_attn.py":1007:33)
#loc39 = loc("/data/conda/envs/or_llm/lib/python3.12/site-packages/vllm/model_executor/layers/mamba/gdn_linear_attn.py":1009:22)
#loc40 = loc("/data/conda/envs/or_llm/lib/python3.12/site-packages/vllm/model_executor/layers/mamba/gdn_linear_attn.py":1009:46)
#loc41 = loc("/data/conda/envs/or_llm/lib/python3.12/site-packages/vllm/model_executor/layers/mamba/gdn_linear_attn.py":1009:27)
#loc42 = loc("/data/conda/envs/or_llm/lib/python3.12/site-packages/vllm/model_executor/layers/mamba/gdn_linear_attn.py":1008:4)
#loc44 = loc("/data/conda/envs/or_llm/lib/python3.12/site-packages/triton/language/standard.py":50:30)
#loc45 = loc("/data/conda/envs/or_llm/lib/python3.12/site-packages/triton/language/standard.py":50:29)
#loc46 = loc("/data/conda/envs/or_llm/lib/python3.12/site-packages/triton/language/standard.py":50:20)
#loc47 = loc("/data/conda/envs/or_llm/lib/python3.12/site-packages/triton/language/standard.py":50:16)
#loc48 = loc("/data/conda/envs/or_llm/lib/python3.12/site-packages/triton/language/standard.py":50:11)
#loc49 = loc("/data/conda/envs/or_llm/lib/python3.12/site-packages/triton/language/standard.py":50:4)
#loc56 = loc("head_off"(#loc4))
#loc57 = loc("head_off"(#loc5))
#loc58 = loc("head_off"(#loc6))
#loc59 = loc("off"(#loc7))
#loc60 = loc("off"(#loc8))
#loc61 = loc("off"(#loc9))
#loc62 = loc("off"(#loc10))
#loc63 = loc("off"(#loc11))
#loc64 = loc("mask"(#loc12))
#loc65 = loc("blk_A_log"(#loc13))
#loc66 = loc("blk_A_log"(#loc14))
#loc67 = loc("blk_a"(#loc15))
#loc68 = loc("blk_a"(#loc16))
#loc69 = loc("blk_b"(#loc17))
#loc70 = loc("blk_b"(#loc18))
#loc71 = loc("blk_bias"(#loc19))
#loc72 = loc("blk_bias"(#loc20))
#loc73 = loc("x"(#loc21))
#loc74 = loc("x"(#loc22))
#loc75 = loc("x"(#loc23))
#loc76 = loc("softplus_x"(#loc24))
#loc77 = loc("softplus_x"(#loc25))
#loc78 = loc("softplus_x"(#loc26))
#loc79 = loc("softplus_x"(#loc27))
#loc80 = loc("softplus_x"(#loc28))
#loc81 = loc("softplus_x"(#loc29))
#loc82 = loc("softplus_x"(#loc30))
#loc83 = loc("softplus_x"(#loc31))
#loc84 = loc("blk_g"(#loc32))
#loc85 = loc("blk_g"(#loc33))
#loc86 = loc("blk_g"(#loc34))
#loc87 = loc("blk_beta_output"(#loc37))
#loc88 = loc("blk_beta_output"(#loc38))
