#loc = loc("/data/conda/envs/or_llm/lib/python3.12/site-packages/vllm/model_executor/layers/mamba/gdn_linear_attn.py":978:0)
#loc44 = loc("g"(#loc))
#loc45 = loc("beta_output"(#loc))
#loc46 = loc("A_log"(#loc))
#loc47 = loc("a"(#loc))
#loc48 = loc("b"(#loc))
#loc49 = loc("dt_bias"(#loc))
module {
  tt.func public @fused_gdn_gating_kernel(%g: !tt.ptr<f32> {tt.divisibility = 16 : i32} loc("g"(#loc)), %beta_output: !tt.ptr<bf16> {tt.divisibility = 16 : i32} loc("beta_output"(#loc)), %A_log: !tt.ptr<f32> {tt.divisibility = 16 : i32} loc("A_log"(#loc)), %a: !tt.ptr<bf16> {tt.divisibility = 16 : i32} loc("a"(#loc)), %b: !tt.ptr<bf16> {tt.divisibility = 16 : i32} loc("b"(#loc)), %dt_bias: !tt.ptr<bf16> {tt.divisibility = 16 : i32} loc("dt_bias"(#loc))) attributes {noinline = false} {
    %cst = arith.constant dense<0.000000e+00> : tensor<8xf32> loc(#loc1)
    %softplus_x = arith.constant dense<2.000000e+01> : tensor<8xf32> loc(#loc50)
    %cst_0 = arith.constant dense<1.000000e+00> : tensor<8xf32> loc(#loc1)
    %mask = arith.constant dense<32> : tensor<8xi32> loc(#loc51)
    %c32_i32 = arith.constant 32 : i32 loc(#loc1)
    %c8_i32 = arith.constant 8 : i32 loc(#loc1)
    %0 = tt.get_program_id x : i32 loc(#loc4)
    %1 = tt.get_program_id y : i32 loc(#loc5)
    %2 = tt.get_program_id z : i32 loc(#loc6)
    %head_off = arith.muli %2, %c8_i32 : i32 loc(#loc52)
    %head_off_1 = tt.make_range {end = 8 : i32, start = 0 : i32} : tensor<8xi32> loc(#loc53)
    %head_off_2 = tt.splat %head_off : i32 -> tensor<8xi32> loc(#loc54)
    %head_off_3 = arith.addi %head_off_2, %head_off_1 : tensor<8xi32> loc(#loc54)
    %off = arith.muli %0, %c32_i32 : i32 loc(#loc55)
    %off_4 = arith.muli %1, %c32_i32 : i32 loc(#loc56)
    %off_5 = arith.addi %off, %off_4 : i32 loc(#loc57)
    %off_6 = tt.splat %off_5 : i32 -> tensor<8xi32> loc(#loc58)
    %off_7 = arith.addi %off_6, %head_off_3 : tensor<8xi32> loc(#loc58)
    %mask_8 = arith.cmpi slt, %head_off_3, %mask : tensor<8xi32> loc(#loc51)
    %blk_A_log = tt.splat %A_log : !tt.ptr<f32> -> tensor<8x!tt.ptr<f32>> loc(#loc59)
    %blk_A_log_9 = tt.addptr %blk_A_log, %head_off_3 : tensor<8x!tt.ptr<f32>>, tensor<8xi32> loc(#loc59)
    %blk_A_log_10 = tt.load %blk_A_log_9, %mask_8 : tensor<8x!tt.ptr<f32>> loc(#loc60)
    %blk_a = tt.splat %a : !tt.ptr<bf16> -> tensor<8x!tt.ptr<bf16>> loc(#loc61)
    %blk_a_11 = tt.addptr %blk_a, %off_7 : tensor<8x!tt.ptr<bf16>>, tensor<8xi32> loc(#loc61)
    %blk_a_12 = tt.load %blk_a_11, %mask_8 : tensor<8x!tt.ptr<bf16>> loc(#loc62)
    %blk_b = tt.splat %b : !tt.ptr<bf16> -> tensor<8x!tt.ptr<bf16>> loc(#loc63)
    %blk_b_13 = tt.addptr %blk_b, %off_7 : tensor<8x!tt.ptr<bf16>>, tensor<8xi32> loc(#loc63)
    %blk_b_14 = tt.load %blk_b_13, %mask_8 : tensor<8x!tt.ptr<bf16>> loc(#loc64)
    %blk_bias = tt.splat %dt_bias : !tt.ptr<bf16> -> tensor<8x!tt.ptr<bf16>> loc(#loc65)
    %blk_bias_15 = tt.addptr %blk_bias, %head_off_3 : tensor<8x!tt.ptr<bf16>>, tensor<8xi32> loc(#loc65)
    %blk_bias_16 = tt.load %blk_bias_15, %mask_8 : tensor<8x!tt.ptr<bf16>> loc(#loc66)
    %x = arith.extf %blk_a_12 : tensor<8xbf16> to tensor<8xf32> loc(#loc67)
    %x_17 = arith.extf %blk_bias_16 : tensor<8xbf16> to tensor<8xf32> loc(#loc68)
    %x_18 = arith.addf %x, %x_17 : tensor<8xf32> loc(#loc69)
    %softplus_x_19 = arith.cmpf ole, %x_18, %softplus_x : tensor<8xf32> loc(#loc50)
    %softplus_x_20 = math.exp %x_18 : tensor<8xf32> loc(#loc70)
    %softplus_x_21 = arith.addf %softplus_x_20, %cst_0 : tensor<8xf32> loc(#loc71)
    %softplus_x_22 = math.log %softplus_x_21 : tensor<8xf32> loc(#loc72)
    %softplus_x_23 = arith.select %softplus_x_19, %softplus_x_22, %x_18 : tensor<8xi1>, tensor<8xf32> loc(#loc73)
    %blk_g = math.exp %blk_A_log_10 : tensor<8xf32> loc(#loc74)
    %blk_g_24 = arith.subf %cst, %blk_g : tensor<8xf32> loc(#loc75)
    %blk_g_25 = arith.mulf %blk_g_24, %softplus_x_23 : tensor<8xf32> loc(#loc76)
    %3 = tt.splat %g : !tt.ptr<f32> -> tensor<8x!tt.ptr<f32>> loc(#loc32)
    %4 = tt.addptr %3, %off_7 : tensor<8x!tt.ptr<f32>>, tensor<8xi32> loc(#loc32)
    tt.store %4, %blk_g_25, %mask_8 : tensor<8x!tt.ptr<f32>> loc(#loc33)
    %blk_beta_output = arith.extf %blk_b_14 : tensor<8xbf16> to tensor<8xf32> loc(#loc77)
    %blk_beta_output_26 = arith.subf %cst, %blk_beta_output : tensor<8xf32> loc(#loc79)
    %blk_beta_output_27 = math.exp %blk_beta_output_26 : tensor<8xf32> loc(#loc80)
    %blk_beta_output_28 = arith.addf %blk_beta_output_27, %cst_0 : tensor<8xf32> loc(#loc81)
    %blk_beta_output_29 = arith.divf %cst_0, %blk_beta_output_28 : tensor<8xf32> loc(#loc82)
    %5 = tt.splat %beta_output : !tt.ptr<bf16> -> tensor<8x!tt.ptr<bf16>> loc(#loc40)
    %6 = tt.addptr %5, %off_7 : tensor<8x!tt.ptr<bf16>>, tensor<8xi32> loc(#loc40)
    %7 = arith.truncf %blk_beta_output_29 : tensor<8xf32> to tensor<8xbf16> loc(#loc41)
    tt.store %6, %7, %mask_8 : tensor<8x!tt.ptr<bf16>> loc(#loc42)
    tt.return loc(#loc43)
  } loc(#loc)
} loc(#loc)
#loc1 = loc(unknown)
#loc2 = loc("/data/conda/envs/or_llm/lib/python3.12/site-packages/vllm/model_executor/layers/mamba/gdn_linear_attn.py":1002:20)
#loc3 = loc("/data/conda/envs/or_llm/lib/python3.12/site-packages/vllm/model_executor/layers/mamba/gdn_linear_attn.py":994:22)
#loc4 = loc("/data/conda/envs/or_llm/lib/python3.12/site-packages/vllm/model_executor/layers/mamba/gdn_linear_attn.py":991:34)
#loc5 = loc("/data/conda/envs/or_llm/lib/python3.12/site-packages/vllm/model_executor/layers/mamba/gdn_linear_attn.py":991:52)
#loc6 = loc("/data/conda/envs/or_llm/lib/python3.12/site-packages/vllm/model_executor/layers/mamba/gdn_linear_attn.py":991:70)
#loc7 = loc("/data/conda/envs/or_llm/lib/python3.12/site-packages/vllm/model_executor/layers/mamba/gdn_linear_attn.py":992:21)
#loc8 = loc("/data/conda/envs/or_llm/lib/python3.12/site-packages/vllm/model_executor/layers/mamba/gdn_linear_attn.py":992:46)
#loc9 = loc("/data/conda/envs/or_llm/lib/python3.12/site-packages/vllm/model_executor/layers/mamba/gdn_linear_attn.py":992:33)
#loc10 = loc("/data/conda/envs/or_llm/lib/python3.12/site-packages/vllm/model_executor/layers/mamba/gdn_linear_attn.py":993:26)
#loc11 = loc("/data/conda/envs/or_llm/lib/python3.12/site-packages/vllm/model_executor/layers/mamba/gdn_linear_attn.py":993:44)
#loc12 = loc("/data/conda/envs/or_llm/lib/python3.12/site-packages/vllm/model_executor/layers/mamba/gdn_linear_attn.py":993:38)
#loc13 = loc("/data/conda/envs/or_llm/lib/python3.12/site-packages/vllm/model_executor/layers/mamba/gdn_linear_attn.py":993:56)
#loc14 = loc("/data/conda/envs/or_llm/lib/python3.12/site-packages/vllm/model_executor/layers/mamba/gdn_linear_attn.py":995:32)
#loc15 = loc("/data/conda/envs/or_llm/lib/python3.12/site-packages/vllm/model_executor/layers/mamba/gdn_linear_attn.py":995:24)
#loc16 = loc("/data/conda/envs/or_llm/lib/python3.12/site-packages/vllm/model_executor/layers/mamba/gdn_linear_attn.py":996:24)
#loc17 = loc("/data/conda/envs/or_llm/lib/python3.12/site-packages/vllm/model_executor/layers/mamba/gdn_linear_attn.py":996:20)
#loc18 = loc("/data/conda/envs/or_llm/lib/python3.12/site-packages/vllm/model_executor/layers/mamba/gdn_linear_attn.py":997:24)
#loc19 = loc("/data/conda/envs/or_llm/lib/python3.12/site-packages/vllm/model_executor/layers/mamba/gdn_linear_attn.py":997:20)
#loc20 = loc("/data/conda/envs/or_llm/lib/python3.12/site-packages/vllm/model_executor/layers/mamba/gdn_linear_attn.py":998:33)
#loc21 = loc("/data/conda/envs/or_llm/lib/python3.12/site-packages/vllm/model_executor/layers/mamba/gdn_linear_attn.py":998:23)
#loc22 = loc("/data/conda/envs/or_llm/lib/python3.12/site-packages/vllm/model_executor/layers/mamba/gdn_linear_attn.py":1000:17)
#loc23 = loc("/data/conda/envs/or_llm/lib/python3.12/site-packages/vllm/model_executor/layers/mamba/gdn_linear_attn.py":1000:43)
#loc24 = loc("/data/conda/envs/or_llm/lib/python3.12/site-packages/vllm/model_executor/layers/mamba/gdn_linear_attn.py":1000:31)
#loc25 = loc("/data/conda/envs/or_llm/lib/python3.12/site-packages/vllm/model_executor/layers/mamba/gdn_linear_attn.py":1002:62)
#loc26 = loc("/data/conda/envs/or_llm/lib/python3.12/site-packages/vllm/model_executor/layers/mamba/gdn_linear_attn.py":1002:55)
#loc27 = loc("/data/conda/envs/or_llm/lib/python3.12/site-packages/vllm/model_executor/layers/mamba/gdn_linear_attn.py":1002:51)
#loc28 = loc("/data/conda/envs/or_llm/lib/python3.12/site-packages/vllm/model_executor/layers/mamba/gdn_linear_attn.py":1002:74)
#loc29 = loc("/data/conda/envs/or_llm/lib/python3.12/site-packages/vllm/model_executor/layers/mamba/gdn_linear_attn.py":1004:20)
#loc30 = loc("/data/conda/envs/or_llm/lib/python3.12/site-packages/vllm/model_executor/layers/mamba/gdn_linear_attn.py":1004:13)
#loc31 = loc("/data/conda/envs/or_llm/lib/python3.12/site-packages/vllm/model_executor/layers/mamba/gdn_linear_attn.py":1004:48)
#loc32 = loc("/data/conda/envs/or_llm/lib/python3.12/site-packages/vllm/model_executor/layers/mamba/gdn_linear_attn.py":1005:17)
#loc33 = loc("/data/conda/envs/or_llm/lib/python3.12/site-packages/vllm/model_executor/layers/mamba/gdn_linear_attn.py":1005:22)
#loc34 = loc("/data/conda/envs/or_llm/lib/python3.12/site-packages/vllm/model_executor/layers/mamba/gdn_linear_attn.py":1007:42)
#loc35 = loc("/data/conda/envs/or_llm/lib/python3.12/site-packages/triton/language/standard.py":50:30)
#loc36 = loc("/data/conda/envs/or_llm/lib/python3.12/site-packages/vllm/model_executor/layers/mamba/gdn_linear_attn.py":1007:33)
#loc37 = loc("/data/conda/envs/or_llm/lib/python3.12/site-packages/triton/language/standard.py":50:29)
#loc38 = loc("/data/conda/envs/or_llm/lib/python3.12/site-packages/triton/language/standard.py":50:20)
#loc39 = loc("/data/conda/envs/or_llm/lib/python3.12/site-packages/triton/language/standard.py":50:16)
#loc40 = loc("/data/conda/envs/or_llm/lib/python3.12/site-packages/vllm/model_executor/layers/mamba/gdn_linear_attn.py":1009:22)
#loc41 = loc("/data/conda/envs/or_llm/lib/python3.12/site-packages/vllm/model_executor/layers/mamba/gdn_linear_attn.py":1009:46)
#loc42 = loc("/data/conda/envs/or_llm/lib/python3.12/site-packages/vllm/model_executor/layers/mamba/gdn_linear_attn.py":1009:27)
#loc43 = loc("/data/conda/envs/or_llm/lib/python3.12/site-packages/vllm/model_executor/layers/mamba/gdn_linear_attn.py":1008:4)
#loc50 = loc("softplus_x"(#loc2))
#loc51 = loc("mask"(#loc3))
#loc52 = loc("head_off"(#loc7))
#loc53 = loc("head_off"(#loc8))
#loc54 = loc("head_off"(#loc9))
#loc55 = loc("off"(#loc10))
#loc56 = loc("off"(#loc11))
#loc57 = loc("off"(#loc12))
#loc58 = loc("off"(#loc13))
#loc59 = loc("blk_A_log"(#loc14))
#loc60 = loc("blk_A_log"(#loc15))
#loc61 = loc("blk_a"(#loc16))
#loc62 = loc("blk_a"(#loc17))
#loc63 = loc("blk_b"(#loc18))
#loc64 = loc("blk_b"(#loc19))
#loc65 = loc("blk_bias"(#loc20))
#loc66 = loc("blk_bias"(#loc21))
#loc67 = loc("x"(#loc22))
#loc68 = loc("x"(#loc23))
#loc69 = loc("x"(#loc24))
#loc70 = loc("softplus_x"(#loc25))
#loc71 = loc("softplus_x"(#loc26))
#loc72 = loc("softplus_x"(#loc27))
#loc73 = loc("softplus_x"(#loc28))
#loc74 = loc("blk_g"(#loc29))
#loc75 = loc("blk_g"(#loc30))
#loc76 = loc("blk_g"(#loc31))
#loc77 = loc("blk_beta_output"(#loc34))
#loc78 = loc("blk_beta_output"(#loc36))
#loc79 = loc(callsite(#loc35 at #loc78))
#loc80 = loc(callsite(#loc37 at #loc78))
#loc81 = loc(callsite(#loc38 at #loc78))
#loc82 = loc(callsite(#loc39 at #loc78))
