#loc = loc("/data/conda/envs/or_llm/lib/python3.12/site-packages/vllm/model_executor/layers/fla/ops/chunk_o.py":42:0)
#loc70 = loc("q"(#loc))
#loc71 = loc("k"(#loc))
#loc72 = loc("v"(#loc))
#loc73 = loc("h"(#loc))
#loc74 = loc("g"(#loc))
#loc75 = loc("o"(#loc))
#loc76 = loc("cu_seqlens"(#loc))
#loc77 = loc("chunk_indices"(#loc))
#loc78 = loc("scale"(#loc))
#loc79 = loc("T"(#loc))
module {
  tt.func public @chunk_fwd_kernel_o(%q: !tt.ptr<bf16> {tt.divisibility = 16 : i32} loc("q"(#loc)), %k: !tt.ptr<bf16> {tt.divisibility = 16 : i32} loc("k"(#loc)), %v: !tt.ptr<bf16> {tt.divisibility = 16 : i32} loc("v"(#loc)), %h: !tt.ptr<bf16> {tt.divisibility = 16 : i32} loc("h"(#loc)), %g: !tt.ptr<f32> {tt.divisibility = 16 : i32} loc("g"(#loc)), %o: !tt.ptr<bf16> {tt.divisibility = 16 : i32} loc("o"(#loc)), %cu_seqlens: !tt.ptr<i32> {tt.divisibility = 16 : i32} loc("cu_seqlens"(#loc)), %chunk_indices: !tt.ptr<i32> {tt.divisibility = 16 : i32} loc("chunk_indices"(#loc)), %scale: f32 loc("scale"(#loc)), %T: i32 loc("T"(#loc))) attributes {noinline = false} {
    %cst = arith.constant dense<128> : tensor<1x64xi64> loc(#loc1)
    %cst_0 = arith.constant dense<4096> : tensor<64x1xi64> loc(#loc1)
    %b_g = arith.constant dense<0> : tensor<64xi64> loc(#loc80)
    %b_g_1 = arith.constant dense<32> : tensor<64xi64> loc(#loc80)
    %cst_2 = arith.constant dense<128> : tensor<64x1xi64> loc(#loc1)
    %cst_3 = arith.constant dense<0> : tensor<1x64xi64> loc(#loc1)
    %b_k = arith.constant dense<128> : tensor<128x1xi64> loc(#loc81)
    %b_k_4 = arith.constant dense<0> : tensor<128x1xi64> loc(#loc81)
    %b_k_5 = arith.constant dense<2048> : tensor<1x64xi64> loc(#loc81)
    %cst_6 = arith.constant dense<128> : tensor<1x128xi64> loc(#loc1)
    %cst_7 = arith.constant dense<0> : tensor<1x128xi64> loc(#loc1)
    %cst_8 = arith.constant dense<0> : tensor<64x1xi64> loc(#loc1)
    %b_q = arith.constant dense<2048> : tensor<64x1xi64> loc(#loc82)
    %h_9 = arith.constant 16384 : i64 loc(#loc83)
    %cst_10 = arith.constant dense<0.000000e+00> : tensor<64x64xf32> loc(#loc1)
    %c64_i32 = arith.constant 64 : i32 loc(#loc1)
    %c128_i32 = arith.constant 128 : i32 loc(#loc1)
    %c16_i32 = arith.constant 16 : i32 loc(#loc1)
    %c1_i32 = arith.constant 1 : i32 loc(#loc1)
    %c2_i32 = arith.constant 2 : i32 loc(#loc1)
    %c32_i32 = arith.constant 32 : i32 loc(#loc1)
    %0 = tt.get_program_id x : i32 loc(#loc6)
    %1 = tt.get_program_id y : i32 loc(#loc7)
    %2 = tt.get_program_id z : i32 loc(#loc8)
    %3 = arith.remsi %2, %c32_i32 : i32 loc(#loc9)
    %4 = arith.muli %1, %c2_i32 : i32 loc(#loc10)
    %5 = tt.addptr %chunk_indices, %4 : !tt.ptr<i32>, i32 loc(#loc11)
    %6 = tt.load %5 : !tt.ptr<i32> loc(#loc12)
    %7 = tt.addptr %5, %c1_i32 : !tt.ptr<i32>, i32 loc(#loc13)
    %8 = tt.load %7 : !tt.ptr<i32> loc(#loc14)
    %9 = tt.addptr %cu_seqlens, %6 : !tt.ptr<i32>, i32 loc(#loc15)
    %10 = tt.load %9 : !tt.ptr<i32> loc(#loc16)
    %11 = tt.addptr %9, %c1_i32 : !tt.ptr<i32>, i32 loc(#loc17)
    %12 = tt.load %11 : !tt.ptr<i32> loc(#loc18)
    %T_11 = arith.subi %12, %10 : i32 loc(#loc84)
    %q_12 = arith.muli %10, %c16_i32 : i32 loc(#loc85)
    %q_13 = arith.divsi %3, %c2_i32 : i32 loc(#loc86)
    %q_14 = arith.addi %q_12, %q_13 : i32 loc(#loc87)
    %q_15 = arith.muli %q_14, %c128_i32 : i32 loc(#loc88)
    %q_16 = tt.addptr %q, %q_15 : !tt.ptr<bf16>, i32 loc(#loc89)
    %k_17 = tt.addptr %k, %q_15 : !tt.ptr<bf16>, i32 loc(#loc90)
    %v_18 = arith.muli %10, %c32_i32 : i32 loc(#loc91)
    %v_19 = arith.addi %v_18, %3 : i32 loc(#loc92)
    %v_20 = arith.muli %v_19, %c128_i32 : i32 loc(#loc93)
    %v_21 = tt.addptr %v, %v_20 : !tt.ptr<bf16>, i32 loc(#loc94)
    %o_22 = tt.addptr %o, %v_20 : !tt.ptr<bf16>, i32 loc(#loc95)
    %h_23 = arith.muli %1, %c32_i32 : i32 loc(#loc96)
    %h_24 = arith.addi %h_23, %3 : i32 loc(#loc97)
    %h_25 = arith.extsi %h_24 : i32 to i64 loc(#loc98)
    %h_26 = arith.muli %h_25, %h_9 : i64 loc(#loc83)
    %h_27 = tt.addptr %h, %h_26 : !tt.ptr<bf16>, i64 loc(#loc99)
    %p_q = arith.muli %8, %c64_i32 : i32 loc(#loc100)
    %p_q_28 = arith.extsi %T_11 : i32 to i64 loc(#loc101)
    %p_q_29 = arith.extsi %p_q : i32 to i64 loc(#loc101)
    %p_h = arith.muli %0, %c64_i32 : i32 loc(#loc102)
    %p_h_30 = arith.extsi %p_h : i32 to i64 loc(#loc103)
    %b_q_31 = tt.splat %q_16 : !tt.ptr<bf16> -> tensor<64x128x!tt.ptr<bf16>> loc(#loc82)
    %b_q_32 = tt.splat %p_q_29 : i64 -> tensor<64xi64> loc(#loc82)
    %b_q_33 = tt.make_range {end = 64 : i32, start = 0 : i32} : tensor<64xi32> loc(#loc82)
    %b_q_34 = arith.extsi %b_q_33 : tensor<64xi32> to tensor<64xi64> loc(#loc82)
    %b_q_35 = arith.addi %b_q_32, %b_q_34 : tensor<64xi64> loc(#loc82)
    %b_q_36 = tt.expand_dims %b_q_35 {axis = 1 : i32} : tensor<64xi64> -> tensor<64x1xi64> loc(#loc82)
    %b_q_37 = arith.muli %b_q_36, %b_q : tensor<64x1xi64> loc(#loc82)
    %b_q_38 = tt.broadcast %b_q_37 : tensor<64x1xi64> -> tensor<64x128xi64> loc(#loc82)
    %b_q_39 = tt.make_range {end = 128 : i32, start = 0 : i32} : tensor<128xi32> loc(#loc82)
    %b_q_40 = arith.extsi %b_q_39 : tensor<128xi32> to tensor<128xi64> loc(#loc82)
    %b_q_41 = tt.expand_dims %b_q_40 {axis = 0 : i32} : tensor<128xi64> -> tensor<1x128xi64> loc(#loc82)
    %b_q_42 = tt.broadcast %b_q_41 : tensor<1x128xi64> -> tensor<64x128xi64> loc(#loc82)
    %b_q_43 = arith.addi %b_q_38, %b_q_42 : tensor<64x128xi64> loc(#loc82)
    %b_q_44 = tt.addptr %b_q_31, %b_q_43 : tensor<64x128x!tt.ptr<bf16>>, tensor<64x128xi64> loc(#loc82)
    %b_q_45 = arith.cmpi sge, %b_q_36, %cst_8 : tensor<64x1xi64> loc(#loc82)
    %b_q_46 = tt.splat %p_q_28 : i64 -> tensor<64x1xi64> loc(#loc82)
    %b_q_47 = arith.cmpi slt, %b_q_36, %b_q_46 : tensor<64x1xi64> loc(#loc82)
    %b_q_48 = arith.andi %b_q_45, %b_q_47 : tensor<64x1xi1> loc(#loc82)
    %b_q_49 = tt.broadcast %b_q_48 : tensor<64x1xi1> -> tensor<64x128xi1> loc(#loc82)
    %b_q_50 = arith.cmpi sge, %b_q_41, %cst_7 : tensor<1x128xi64> loc(#loc82)
    %b_q_51 = arith.cmpi slt, %b_q_41, %cst_6 : tensor<1x128xi64> loc(#loc82)
    %b_q_52 = arith.andi %b_q_50, %b_q_51 : tensor<1x128xi1> loc(#loc82)
    %b_q_53 = tt.broadcast %b_q_52 : tensor<1x128xi1> -> tensor<64x128xi1> loc(#loc82)
    %b_q_54 = arith.andi %b_q_49, %b_q_53 : tensor<64x128xi1> loc(#loc82)
    %b_q_55 = tt.load %b_q_44, %b_q_54 : tensor<64x128x!tt.ptr<bf16>> loc(#loc82)
    %b_k_56 = tt.splat %k_17 : !tt.ptr<bf16> -> tensor<128x64x!tt.ptr<bf16>> loc(#loc81)
    %b_k_57 = tt.expand_dims %b_q_40 {axis = 1 : i32} : tensor<128xi64> -> tensor<128x1xi64> loc(#loc81)
    %b_k_58 = tt.broadcast %b_k_57 : tensor<128x1xi64> -> tensor<128x64xi64> loc(#loc81)
    %b_k_59 = tt.expand_dims %b_q_35 {axis = 0 : i32} : tensor<64xi64> -> tensor<1x64xi64> loc(#loc81)
    %b_k_60 = arith.muli %b_k_59, %b_k_5 : tensor<1x64xi64> loc(#loc81)
    %b_k_61 = tt.broadcast %b_k_60 : tensor<1x64xi64> -> tensor<128x64xi64> loc(#loc81)
    %b_k_62 = arith.addi %b_k_58, %b_k_61 : tensor<128x64xi64> loc(#loc81)
    %b_k_63 = tt.addptr %b_k_56, %b_k_62 : tensor<128x64x!tt.ptr<bf16>>, tensor<128x64xi64> loc(#loc81)
    %b_k_64 = arith.cmpi sge, %b_k_57, %b_k_4 : tensor<128x1xi64> loc(#loc81)
    %b_k_65 = arith.cmpi slt, %b_k_57, %b_k : tensor<128x1xi64> loc(#loc81)
    %b_k_66 = arith.andi %b_k_64, %b_k_65 : tensor<128x1xi1> loc(#loc81)
    %b_k_67 = tt.broadcast %b_k_66 : tensor<128x1xi1> -> tensor<128x64xi1> loc(#loc81)
    %b_k_68 = arith.cmpi sge, %b_k_59, %cst_3 : tensor<1x64xi64> loc(#loc81)
    %b_k_69 = tt.splat %p_q_28 : i64 -> tensor<1x64xi64> loc(#loc81)
    %b_k_70 = arith.cmpi slt, %b_k_59, %b_k_69 : tensor<1x64xi64> loc(#loc81)
    %b_k_71 = arith.andi %b_k_68, %b_k_70 : tensor<1x64xi1> loc(#loc81)
    %b_k_72 = tt.broadcast %b_k_71 : tensor<1x64xi1> -> tensor<128x64xi1> loc(#loc81)
    %b_k_73 = arith.andi %b_k_67, %b_k_72 : tensor<128x64xi1> loc(#loc81)
    %b_k_74 = tt.load %b_k_63, %b_k_73 : tensor<128x64x!tt.ptr<bf16>> loc(#loc81)
    %b_h = tt.splat %h_27 : !tt.ptr<bf16> -> tensor<64x128x!tt.ptr<bf16>> loc(#loc104)
    %b_h_75 = tt.splat %p_h_30 : i64 -> tensor<64xi64> loc(#loc104)
    %b_h_76 = arith.addi %b_h_75, %b_q_34 : tensor<64xi64> loc(#loc104)
    %b_h_77 = tt.expand_dims %b_h_76 {axis = 1 : i32} : tensor<64xi64> -> tensor<64x1xi64> loc(#loc104)
    %b_h_78 = arith.muli %b_h_77, %cst_2 : tensor<64x1xi64> loc(#loc104)
    %b_h_79 = tt.broadcast %b_h_78 : tensor<64x1xi64> -> tensor<64x128xi64> loc(#loc104)
    %b_h_80 = arith.addi %b_h_79, %b_q_42 : tensor<64x128xi64> loc(#loc104)
    %b_h_81 = tt.addptr %b_h, %b_h_80 : tensor<64x128x!tt.ptr<bf16>>, tensor<64x128xi64> loc(#loc104)
    %b_h_82 = arith.cmpi sge, %b_h_77, %cst_8 : tensor<64x1xi64> loc(#loc104)
    %b_h_83 = arith.cmpi slt, %b_h_77, %cst_2 : tensor<64x1xi64> loc(#loc104)
    %b_h_84 = arith.andi %b_h_82, %b_h_83 : tensor<64x1xi1> loc(#loc104)
    %b_h_85 = tt.broadcast %b_h_84 : tensor<64x1xi1> -> tensor<64x128xi1> loc(#loc104)
    %b_h_86 = arith.andi %b_h_85, %b_q_53 : tensor<64x128xi1> loc(#loc104)
    %b_h_87 = tt.load %b_h_81, %b_h_86 : tensor<64x128x!tt.ptr<bf16>> loc(#loc104)
    %b_o = tt.trans %b_h_87 {order = array<i32: 1, 0>} : tensor<64x128xbf16> -> tensor<128x64xbf16> loc(#loc105)
    %b_o_88 = tt.dot %b_q_55, %b_o, %cst_10, inputPrecision = tf32 : tensor<64x128xbf16> * tensor<128x64xbf16> -> tensor<64x64xf32> loc(#loc106)
    %b_A = tt.dot %b_q_55, %b_k_74, %cst_10, inputPrecision = tf32 : tensor<64x128xbf16> * tensor<128x64xbf16> -> tensor<64x64xf32> loc(#loc107)
    %g_89 = tt.addptr %g, %v_19 : !tt.ptr<f32>, i32 loc(#loc108)
    %b_g_90 = tt.splat %g_89 : !tt.ptr<f32> -> tensor<64x!tt.ptr<f32>> loc(#loc80)
    %b_g_91 = arith.muli %b_q_35, %b_g_1 : tensor<64xi64> loc(#loc80)
    %b_g_92 = tt.addptr %b_g_90, %b_g_91 : tensor<64x!tt.ptr<f32>>, tensor<64xi64> loc(#loc80)
    %b_g_93 = arith.cmpi sge, %b_q_35, %b_g : tensor<64xi64> loc(#loc80)
    %b_g_94 = tt.splat %p_q_28 : i64 -> tensor<64xi64> loc(#loc80)
    %b_g_95 = arith.cmpi slt, %b_q_35, %b_g_94 : tensor<64xi64> loc(#loc80)
    %b_g_96 = arith.andi %b_g_93, %b_g_95 : tensor<64xi1> loc(#loc80)
    %b_g_97 = tt.load %b_g_92, %b_g_96 : tensor<64x!tt.ptr<f32>> loc(#loc80)
    %b_o_98 = math.exp %b_g_97 : tensor<64xf32> loc(#loc109)
    %b_o_99 = tt.expand_dims %b_o_98 {axis = 1 : i32} : tensor<64xf32> -> tensor<64x1xf32> loc(#loc110)
    %b_o_100 = tt.broadcast %b_o_99 : tensor<64x1xf32> -> tensor<64x64xf32> loc(#loc111)
    %b_o_101 = arith.mulf %b_o_88, %b_o_100 : tensor<64x64xf32> loc(#loc111)
    %b_A_102 = tt.expand_dims %b_g_97 {axis = 1 : i32} : tensor<64xf32> -> tensor<64x1xf32> loc(#loc112)
    %b_A_103 = tt.expand_dims %b_g_97 {axis = 0 : i32} : tensor<64xf32> -> tensor<1x64xf32> loc(#loc113)
    %b_A_104 = tt.broadcast %b_A_102 : tensor<64x1xf32> -> tensor<64x64xf32> loc(#loc114)
    %b_A_105 = tt.broadcast %b_A_103 : tensor<1x64xf32> -> tensor<64x64xf32> loc(#loc114)
    %b_A_106 = arith.subf %b_A_104, %b_A_105 : tensor<64x64xf32> loc(#loc114)
    %b_A_107 = math.exp %b_A_106 : tensor<64x64xf32> loc(#loc115)
    %b_A_108 = arith.mulf %b_A, %b_A_107 : tensor<64x64xf32> loc(#loc116)
    %o_t = tt.splat %p_q : i32 -> tensor<64xi32> loc(#loc117)
    %o_t_109 = arith.addi %o_t, %b_q_33 : tensor<64xi32> loc(#loc117)
    %m_t = tt.splat %T_11 : i32 -> tensor<64xi32> loc(#loc118)
    %m_t_110 = arith.cmpi slt, %o_t_109, %m_t : tensor<64xi32> loc(#loc118)
    %m_A = tt.expand_dims %o_t_109 {axis = 1 : i32} : tensor<64xi32> -> tensor<64x1xi32> loc(#loc119)
    %m_A_111 = tt.expand_dims %o_t_109 {axis = 0 : i32} : tensor<64xi32> -> tensor<1x64xi32> loc(#loc120)
    %m_A_112 = tt.broadcast %m_A : tensor<64x1xi32> -> tensor<64x64xi32> loc(#loc121)
    %m_A_113 = tt.broadcast %m_A_111 : tensor<1x64xi32> -> tensor<64x64xi32> loc(#loc121)
    %m_A_114 = arith.cmpi sge, %m_A_112, %m_A_113 : tensor<64x64xi32> loc(#loc121)
    %m_A_115 = tt.expand_dims %m_t_110 {axis = 1 : i32} : tensor<64xi1> -> tensor<64x1xi1> loc(#loc122)
    %m_A_116 = tt.expand_dims %m_t_110 {axis = 0 : i32} : tensor<64xi1> -> tensor<1x64xi1> loc(#loc123)
    %m_A_117 = tt.broadcast %m_A_115 : tensor<64x1xi1> -> tensor<64x64xi1> loc(#loc123)
    %m_A_118 = tt.broadcast %m_A_116 : tensor<1x64xi1> -> tensor<64x64xi1> loc(#loc123)
    %m_A_119 = arith.andi %m_A_117, %m_A_118 : tensor<64x64xi1> loc(#loc123)
    %m_A_120 = arith.andi %m_A_114, %m_A_119 : tensor<64x64xi1> loc(#loc124)
    %b_A_121 = arith.select %m_A_120, %b_A_108, %cst_10 : tensor<64x64xi1>, tensor<64x64xf32> loc(#loc125)
    %b_v = tt.splat %v_21 : !tt.ptr<bf16> -> tensor<64x64x!tt.ptr<bf16>> loc(#loc126)
    %b_v_122 = arith.muli %b_q_36, %cst_0 : tensor<64x1xi64> loc(#loc126)
    %b_v_123 = tt.broadcast %b_v_122 : tensor<64x1xi64> -> tensor<64x64xi64> loc(#loc126)
    %b_v_124 = tt.expand_dims %b_h_76 {axis = 0 : i32} : tensor<64xi64> -> tensor<1x64xi64> loc(#loc126)
    %b_v_125 = tt.broadcast %b_v_124 : tensor<1x64xi64> -> tensor<64x64xi64> loc(#loc126)
    %b_v_126 = arith.addi %b_v_123, %b_v_125 : tensor<64x64xi64> loc(#loc126)
    %b_v_127 = tt.addptr %b_v, %b_v_126 : tensor<64x64x!tt.ptr<bf16>>, tensor<64x64xi64> loc(#loc126)
    %b_v_128 = tt.broadcast %b_q_48 : tensor<64x1xi1> -> tensor<64x64xi1> loc(#loc126)
    %b_v_129 = arith.cmpi sge, %b_v_124, %cst_3 : tensor<1x64xi64> loc(#loc126)
    %b_v_130 = arith.cmpi slt, %b_v_124, %cst : tensor<1x64xi64> loc(#loc126)
    %b_v_131 = arith.andi %b_v_129, %b_v_130 : tensor<1x64xi1> loc(#loc126)
    %b_v_132 = tt.broadcast %b_v_131 : tensor<1x64xi1> -> tensor<64x64xi1> loc(#loc126)
    %b_v_133 = arith.andi %b_v_128, %b_v_132 : tensor<64x64xi1> loc(#loc126)
    %b_v_134 = tt.load %b_v_127, %b_v_133 : tensor<64x64x!tt.ptr<bf16>> loc(#loc126)
    %b_o_135 = tt.splat %scale : f32 -> tensor<64x64xf32> loc(#loc127)
    %b_o_136 = arith.mulf %b_o_101, %b_o_135 : tensor<64x64xf32> loc(#loc127)
    %b_o_137 = arith.truncf %b_A_121 : tensor<64x64xf32> to tensor<64x64xbf16> loc(#loc128)
    %b_o_138 = tt.dot %b_o_137, %b_v_134, %cst_10, inputPrecision = tf32 : tensor<64x64xbf16> * tensor<64x64xbf16> -> tensor<64x64xf32> loc(#loc129)
    %b_o_139 = arith.mulf %b_o_138, %b_o_135 : tensor<64x64xf32> loc(#loc130)
    %b_o_140 = arith.addf %b_o_136, %b_o_139 : tensor<64x64xf32> loc(#loc131)
    %13 = arith.truncf %b_o_140 : tensor<64x64xf32> to tensor<64x64xbf16> loc(#loc67)
    %14 = tt.splat %o_22 : !tt.ptr<bf16> -> tensor<64x64x!tt.ptr<bf16>> loc(#loc68)
    %15 = tt.addptr %14, %b_v_126 : tensor<64x64x!tt.ptr<bf16>>, tensor<64x64xi64> loc(#loc68)
    tt.store %15, %13, %b_v_133 : tensor<64x64x!tt.ptr<bf16>> loc(#loc68)
    tt.return loc(#loc69)
  } loc(#loc)
} loc(#loc)
#loc1 = loc(unknown)
#loc2 = loc("/data/conda/envs/or_llm/lib/python3.12/site-packages/vllm/model_executor/layers/fla/ops/chunk_o.py":118:22)
#loc3 = loc("/data/conda/envs/or_llm/lib/python3.12/site-packages/vllm/model_executor/layers/fla/ops/chunk_o.py":106:22)
#loc4 = loc("/data/conda/envs/or_llm/lib/python3.12/site-packages/vllm/model_executor/layers/fla/ops/chunk_o.py":104:22)
#loc5 = loc("/data/conda/envs/or_llm/lib/python3.12/site-packages/vllm/model_executor/layers/fla/ops/chunk_o.py":88:45)
#loc6 = loc("/data/conda/envs/or_llm/lib/python3.12/site-packages/vllm/model_executor/layers/fla/ops/chunk_o.py":63:35)
#loc7 = loc("/data/conda/envs/or_llm/lib/python3.12/site-packages/vllm/model_executor/layers/fla/ops/chunk_o.py":63:53)
#loc8 = loc("/data/conda/envs/or_llm/lib/python3.12/site-packages/vllm/model_executor/layers/fla/ops/chunk_o.py":63:71)
#loc9 = loc("/data/conda/envs/or_llm/lib/python3.12/site-packages/vllm/model_executor/layers/fla/ops/chunk_o.py":64:33)
#loc10 = loc("/data/conda/envs/or_llm/lib/python3.12/site-packages/vllm/model_executor/layers/fla/ops/chunk_o.py":69:42)
#loc11 = loc("/data/conda/envs/or_llm/lib/python3.12/site-packages/vllm/model_executor/layers/fla/ops/chunk_o.py":69:36)
#loc12 = loc("/data/conda/envs/or_llm/lib/python3.12/site-packages/vllm/model_executor/layers/fla/ops/chunk_o.py":69:20)
#loc13 = loc("/data/conda/envs/or_llm/lib/python3.12/site-packages/vllm/model_executor/layers/fla/ops/chunk_o.py":70:46)
#loc14 = loc("/data/conda/envs/or_llm/lib/python3.12/site-packages/vllm/model_executor/layers/fla/ops/chunk_o.py":70:20)
#loc15 = loc("/data/conda/envs/or_llm/lib/python3.12/site-packages/vllm/model_executor/layers/fla/ops/chunk_o.py":73:33)
#loc16 = loc("/data/conda/envs/or_llm/lib/python3.12/site-packages/vllm/model_executor/layers/fla/ops/chunk_o.py":73:20)
#loc17 = loc("/data/conda/envs/or_llm/lib/python3.12/site-packages/vllm/model_executor/layers/fla/ops/chunk_o.py":74:39)
#loc18 = loc("/data/conda/envs/or_llm/lib/python3.12/site-packages/vllm/model_executor/layers/fla/ops/chunk_o.py":74:20)
#loc19 = loc("/data/conda/envs/or_llm/lib/python3.12/site-packages/vllm/model_executor/layers/fla/ops/chunk_o.py":76:18)
#loc20 = loc("/data/conda/envs/or_llm/lib/python3.12/site-packages/vllm/model_executor/layers/fla/ops/chunk_o.py":84:16)
#loc21 = loc("/data/conda/envs/or_llm/lib/python3.12/site-packages/vllm/model_executor/layers/fla/ops/chunk_o.py":84:29)
#loc22 = loc("/data/conda/envs/or_llm/lib/python3.12/site-packages/vllm/model_executor/layers/fla/ops/chunk_o.py":84:21)
#loc23 = loc("/data/conda/envs/or_llm/lib/python3.12/site-packages/vllm/model_executor/layers/fla/ops/chunk_o.py":84:41)
#loc24 = loc("/data/conda/envs/or_llm/lib/python3.12/site-packages/vllm/model_executor/layers/fla/ops/chunk_o.py":84:9)
#loc25 = loc("/data/conda/envs/or_llm/lib/python3.12/site-packages/vllm/model_executor/layers/fla/ops/chunk_o.py":85:9)
#loc26 = loc("/data/conda/envs/or_llm/lib/python3.12/site-packages/vllm/model_executor/layers/fla/ops/chunk_o.py":86:16)
#loc27 = loc("/data/conda/envs/or_llm/lib/python3.12/site-packages/vllm/model_executor/layers/fla/ops/chunk_o.py":86:20)
#loc28 = loc("/data/conda/envs/or_llm/lib/python3.12/site-packages/vllm/model_executor/layers/fla/ops/chunk_o.py":86:27)
#loc29 = loc("/data/conda/envs/or_llm/lib/python3.12/site-packages/vllm/model_executor/layers/fla/ops/chunk_o.py":86:9)
#loc30 = loc("/data/conda/envs/or_llm/lib/python3.12/site-packages/vllm/model_executor/layers/fla/ops/chunk_o.py":87:9)
#loc31 = loc("/data/conda/envs/or_llm/lib/python3.12/site-packages/vllm/model_executor/layers/fla/ops/chunk_o.py":88:17)
#loc32 = loc("/data/conda/envs/or_llm/lib/python3.12/site-packages/vllm/model_executor/layers/fla/ops/chunk_o.py":88:21)
#loc33 = loc("/data/conda/envs/or_llm/lib/python3.12/site-packages/vllm/model_executor/layers/fla/ops/chunk_o.py":88:29)
#loc34 = loc("/data/conda/envs/or_llm/lib/python3.12/site-packages/vllm/model_executor/layers/fla/ops/chunk_o.py":88:9)
#loc35 = loc("/data/conda/envs/or_llm/lib/python3.12/site-packages/vllm/model_executor/layers/fla/ops/chunk_o.py":95:43)
#loc36 = loc("/data/conda/envs/or_llm/lib/python3.12/site-packages/vllm/model_executor/layers/fla/ops/chunk_o.py":95:68)
#loc37 = loc("/data/conda/envs/or_llm/lib/python3.12/site-packages/vllm/model_executor/layers/fla/ops/chunk_o.py":101:38)
#loc38 = loc("/data/conda/envs/or_llm/lib/python3.12/site-packages/vllm/model_executor/layers/fla/ops/chunk_o.py":101:63)
#loc39 = loc("/data/conda/envs/or_llm/lib/python3.12/site-packages/vllm/model_executor/layers/fla/ops/chunk_o.py":108:22)
#loc40 = loc("/data/conda/envs/or_llm/lib/python3.12/site-packages/vllm/model_executor/layers/fla/ops/chunk_o.py":111:36)
#loc41 = loc("/data/conda/envs/or_llm/lib/python3.12/site-packages/vllm/model_executor/layers/fla/ops/chunk_o.py":111:27)
#loc42 = loc("/data/conda/envs/or_llm/lib/python3.12/site-packages/vllm/model_executor/layers/fla/ops/chunk_o.py":113:27)
#loc43 = loc("/data/conda/envs/or_llm/lib/python3.12/site-packages/vllm/model_executor/layers/fla/ops/chunk_o.py":116:13)
#loc44 = loc("/data/conda/envs/or_llm/lib/python3.12/site-packages/vllm/model_executor/layers/fla/ops/chunk_o.py":119:24)
#loc45 = loc("/data/conda/envs/or_llm/lib/python3.12/site-packages/vllm/model_executor/layers/fla/ops/chunk_o.py":119:29)
#loc46 = loc("/data/conda/envs/or_llm/lib/python3.12/site-packages/vllm/model_executor/layers/fla/ops/chunk_o.py":119:20)
#loc47 = loc("/data/conda/envs/or_llm/lib/python3.12/site-packages/vllm/model_executor/layers/fla/ops/chunk_o.py":120:28)
#loc48 = loc("/data/conda/envs/or_llm/lib/python3.12/site-packages/vllm/model_executor/layers/fla/ops/chunk_o.py":120:43)
#loc49 = loc("/data/conda/envs/or_llm/lib/python3.12/site-packages/vllm/model_executor/layers/fla/ops/chunk_o.py":120:39)
#loc50 = loc("/data/conda/envs/or_llm/lib/python3.12/site-packages/vllm/model_executor/layers/fla/ops/chunk_o.py":120:24)
#loc51 = loc("/data/conda/envs/or_llm/lib/python3.12/site-packages/vllm/model_executor/layers/fla/ops/chunk_o.py":120:20)
#loc52 = loc("/data/conda/envs/or_llm/lib/python3.12/site-packages/vllm/model_executor/layers/fla/ops/chunk_o.py":122:21)
#loc53 = loc("/data/conda/envs/or_llm/lib/python3.12/site-packages/vllm/model_executor/layers/fla/ops/chunk_o.py":123:16)
#loc54 = loc("/data/conda/envs/or_llm/lib/python3.12/site-packages/vllm/model_executor/layers/fla/ops/chunk_o.py":124:15)
#loc55 = loc("/data/conda/envs/or_llm/lib/python3.12/site-packages/vllm/model_executor/layers/fla/ops/chunk_o.py":124:31)
#loc56 = loc("/data/conda/envs/or_llm/lib/python3.12/site-packages/vllm/model_executor/layers/fla/ops/chunk_o.py":124:27)
#loc57 = loc("/data/conda/envs/or_llm/lib/python3.12/site-packages/vllm/model_executor/layers/fla/ops/chunk_o.py":124:48)
#loc58 = loc("/data/conda/envs/or_llm/lib/python3.12/site-packages/vllm/model_executor/layers/fla/ops/chunk_o.py":124:59)
#loc59 = loc("/data/conda/envs/or_llm/lib/python3.12/site-packages/vllm/model_executor/layers/fla/ops/chunk_o.py":124:44)
#loc60 = loc("/data/conda/envs/or_llm/lib/python3.12/site-packages/vllm/model_executor/layers/fla/ops/chunk_o.py":125:29)
#loc61 = loc("/data/conda/envs/or_llm/lib/python3.12/site-packages/vllm/model_executor/layers/fla/ops/chunk_o.py":133:18)
#loc62 = loc("/data/conda/envs/or_llm/lib/python3.12/site-packages/vllm/model_executor/layers/fla/ops/chunk_o.py":137:16)
#loc63 = loc("/data/conda/envs/or_llm/lib/python3.12/site-packages/vllm/model_executor/layers/fla/ops/chunk_o.py":137:38)
#loc64 = loc("/data/conda/envs/or_llm/lib/python3.12/site-packages/vllm/model_executor/layers/fla/ops/chunk_o.py":137:50)
#loc65 = loc("/data/conda/envs/or_llm/lib/python3.12/site-packages/vllm/model_executor/layers/fla/ops/chunk_o.py":137:57)
#loc66 = loc("/data/conda/envs/or_llm/lib/python3.12/site-packages/vllm/model_executor/layers/fla/ops/chunk_o.py":137:24)
#loc67 = loc("/data/conda/envs/or_llm/lib/python3.12/site-packages/vllm/model_executor/layers/fla/ops/chunk_o.py":138:25)
#loc68 = loc("/data/conda/envs/or_llm/lib/python3.12/site-packages/vllm/model_executor/layers/fla/ops/chunk_o.py":138:18)
#loc69 = loc("/data/conda/envs/or_llm/lib/python3.12/site-packages/vllm/model_executor/layers/fla/ops/chunk_o.py":138:4)
#loc80 = loc("b_g"(#loc2))
#loc81 = loc("b_k"(#loc3))
#loc82 = loc("b_q"(#loc4))
#loc83 = loc("h"(#loc5))
#loc84 = loc("T"(#loc19))
#loc85 = loc("q"(#loc20))
#loc86 = loc("q"(#loc21))
#loc87 = loc("q"(#loc22))
#loc88 = loc("q"(#loc23))
#loc89 = loc("q"(#loc24))
#loc90 = loc("k"(#loc25))
#loc91 = loc("v"(#loc26))
#loc92 = loc("v"(#loc27))
#loc93 = loc("v"(#loc28))
#loc94 = loc("v"(#loc29))
#loc95 = loc("o"(#loc30))
#loc96 = loc("h"(#loc31))
#loc97 = loc("h"(#loc32))
#loc98 = loc("h"(#loc33))
#loc99 = loc("h"(#loc34))
#loc100 = loc("p_q"(#loc35))
#loc101 = loc("p_q"(#loc36))
#loc102 = loc("p_h"(#loc37))
#loc103 = loc("p_h"(#loc38))
#loc104 = loc("b_h"(#loc39))
#loc105 = loc("b_o"(#loc40))
#loc106 = loc("b_o"(#loc41))
#loc107 = loc("b_A"(#loc42))
#loc108 = loc("g"(#loc43))
#loc109 = loc("b_o"(#loc44))
#loc110 = loc("b_o"(#loc45))
#loc111 = loc("b_o"(#loc46))
#loc112 = loc("b_A"(#loc47))
#loc113 = loc("b_A"(#loc48))
#loc114 = loc("b_A"(#loc49))
#loc115 = loc("b_A"(#loc50))
#loc116 = loc("b_A"(#loc51))
#loc117 = loc("o_t"(#loc52))
#loc118 = loc("m_t"(#loc53))
#loc119 = loc("m_A"(#loc54))
#loc120 = loc("m_A"(#loc55))
#loc121 = loc("m_A"(#loc56))
#loc122 = loc("m_A"(#loc57))
#loc123 = loc("m_A"(#loc58))
#loc124 = loc("m_A"(#loc59))
#loc125 = loc("b_A"(#loc60))
#loc126 = loc("b_v"(#loc61))
#loc127 = loc("b_o"(#loc62))
#loc128 = loc("b_o"(#loc63))
#loc129 = loc("b_o"(#loc64))
#loc130 = loc("b_o"(#loc65))
#loc131 = loc("b_o"(#loc66))
