#loc = loc("/data/conda/envs/or_llm/lib/python3.12/site-packages/vllm/model_executor/layers/rotary_embedding/mrope.py":15:0)
#loc81 = loc("q_ptr"(#loc))
#loc82 = loc("k_ptr"(#loc))
#loc83 = loc("cos"(#loc))
#loc84 = loc("sin"(#loc))
module {
  tt.func public @_triton_mrope_forward(%q_ptr: !tt.ptr<bf16> {tt.divisibility = 16 : i32} loc("q_ptr"(#loc)), %k_ptr: !tt.ptr<bf16> {tt.divisibility = 16 : i32} loc("k_ptr"(#loc)), %cos: !tt.ptr<bf16> {tt.divisibility = 16 : i32} loc("cos"(#loc)), %sin: !tt.ptr<bf16> {tt.divisibility = 16 : i32} loc("sin"(#loc))) attributes {noinline = false} {
    %c64_i32 = arith.constant 64 : i32 loc(#loc1)
    %cst = arith.constant dense<0.000000e+00> : tensor<4x128xbf16> loc(#loc1)
    %cst_0 = arith.constant dense<0.000000e+00> : tensor<16x128xbf16> loc(#loc1)
    %cst_1 = arith.constant dense<0.000000e+00> : tensor<128xbf16> loc(#loc1)
    %second_half_k_offsets = arith.constant dense<32> : tensor<4x128xi32> loc(#loc85)
    %second_half_q_offsets = arith.constant dense<32> : tensor<16x128xi32> loc(#loc86)
    %first_k_mask = arith.constant dense<4> : tensor<4x1xi32> loc(#loc87)
    %cst_2 = arith.constant dense<32> : tensor<1x128xi32> loc(#loc1)
    %first_q_mask = arith.constant dense<16> : tensor<16x1xi32> loc(#loc88)
    %first_half_k_offsets = arith.constant dense<256> : tensor<4x1xi32> loc(#loc89)
    %first_half_q_offsets = arith.constant dense<256> : tensor<16x1xi32> loc(#loc90)
    %t_mask = arith.constant dense<true> : tensor<128xi1> loc(#loc91)
    %w_mask = arith.constant dense<30> : tensor<128xi32> loc(#loc92)
    %w_mask_3 = arith.constant dense<2> : tensor<128xi32> loc(#loc93)
    %h_mask = arith.constant dense<33> : tensor<128xi32> loc(#loc94)
    %h_mask_4 = arith.constant dense<1> : tensor<128xi32> loc(#loc95)
    %cst_5 = arith.constant dense<3> : tensor<128xi32> loc(#loc1)
    %c32_i32 = arith.constant 32 : i32 loc(#loc1)
    %c1024_i32 = arith.constant 1024 : i32 loc(#loc1)
    %c4096_i32 = arith.constant 4096 : i32 loc(#loc1)
    %pid = tt.get_program_id x : i32 loc(#loc96)
    %q_ptr_6 = arith.muli %pid, %c4096_i32 : i32 loc(#loc97)
    %q_ptr_7 = tt.addptr %q_ptr, %q_ptr_6 : !tt.ptr<bf16>, i32 loc(#loc98)
    %k_ptr_8 = arith.muli %pid, %c1024_i32 : i32 loc(#loc99)
    %k_ptr_9 = tt.addptr %k_ptr, %k_ptr_8 : !tt.ptr<bf16>, i32 loc(#loc100)
    %t_cos = arith.muli %pid, %c32_i32 : i32 loc(#loc101)
    %t_cos_10 = tt.addptr %cos, %t_cos : !tt.ptr<bf16>, i32 loc(#loc102)
    %h_cos = tt.addptr %t_cos_10, %c32_i32 : !tt.ptr<bf16>, i32 loc(#loc103)
    %w_cos = tt.addptr %t_cos_10, %c64_i32 : !tt.ptr<bf16>, i32 loc(#loc159)
    %t_sin = tt.addptr %sin, %t_cos : !tt.ptr<bf16>, i32 loc(#loc105)
    %h_sin = tt.addptr %t_sin, %c32_i32 : !tt.ptr<bf16>, i32 loc(#loc106)
    %w_sin = tt.addptr %t_sin, %c64_i32 : !tt.ptr<bf16>, i32 loc(#loc160)
    %cos_offsets = tt.make_range {end = 128 : i32, start = 0 : i32} : tensor<128xi32> loc(#loc108)
    %h_mask_11 = arith.remsi %cos_offsets, %cst_5 : tensor<128xi32> loc(#loc109)
    %h_mask_12 = arith.cmpi eq, %h_mask_11, %h_mask_4 : tensor<128xi32> loc(#loc95)
    %h_mask_13 = arith.cmpi sle, %cos_offsets, %h_mask : tensor<128xi32> loc(#loc94)
    %h_mask_14 = arith.andi %h_mask_12, %h_mask_13 : tensor<128xi1> loc(#loc110)
    %w_mask_15 = arith.cmpi eq, %h_mask_11, %w_mask_3 : tensor<128xi32> loc(#loc93)
    %w_mask_16 = arith.cmpi sle, %cos_offsets, %w_mask : tensor<128xi32> loc(#loc92)
    %w_mask_17 = arith.andi %w_mask_15, %w_mask_16 : tensor<128xi1> loc(#loc111)
    %t_mask_18 = arith.ori %h_mask_14, %w_mask_17 : tensor<128xi1> loc(#loc112)
    %t_mask_19 = arith.xori %t_mask_18, %t_mask : tensor<128xi1> loc(#loc91)
    %t_cos_row = tt.splat %t_cos_10 : !tt.ptr<bf16> -> tensor<128x!tt.ptr<bf16>> loc(#loc113)
    %t_cos_row_20 = tt.addptr %t_cos_row, %cos_offsets : tensor<128x!tt.ptr<bf16>>, tensor<128xi32> loc(#loc113)
    %t_cos_row_21 = tt.load %t_cos_row_20, %t_mask_19, %cst_1 : tensor<128x!tt.ptr<bf16>> loc(#loc114)
    %h_cos_row = tt.splat %h_cos : !tt.ptr<bf16> -> tensor<128x!tt.ptr<bf16>> loc(#loc115)
    %h_cos_row_22 = tt.addptr %h_cos_row, %cos_offsets : tensor<128x!tt.ptr<bf16>>, tensor<128xi32> loc(#loc115)
    %h_cos_row_23 = tt.load %h_cos_row_22, %h_mask_14, %cst_1 : tensor<128x!tt.ptr<bf16>> loc(#loc116)
    %w_cos_row = tt.splat %w_cos : !tt.ptr<bf16> -> tensor<128x!tt.ptr<bf16>> loc(#loc117)
    %w_cos_row_24 = tt.addptr %w_cos_row, %cos_offsets : tensor<128x!tt.ptr<bf16>>, tensor<128xi32> loc(#loc117)
    %w_cos_row_25 = tt.load %w_cos_row_24, %w_mask_17, %cst_1 : tensor<128x!tt.ptr<bf16>> loc(#loc118)
    %t_sin_row = tt.splat %t_sin : !tt.ptr<bf16> -> tensor<128x!tt.ptr<bf16>> loc(#loc119)
    %t_sin_row_26 = tt.addptr %t_sin_row, %cos_offsets : tensor<128x!tt.ptr<bf16>>, tensor<128xi32> loc(#loc119)
    %t_sin_row_27 = tt.load %t_sin_row_26, %t_mask_19, %cst_1 : tensor<128x!tt.ptr<bf16>> loc(#loc120)
    %h_sin_row = tt.splat %h_sin : !tt.ptr<bf16> -> tensor<128x!tt.ptr<bf16>> loc(#loc121)
    %h_sin_row_28 = tt.addptr %h_sin_row, %cos_offsets : tensor<128x!tt.ptr<bf16>>, tensor<128xi32> loc(#loc121)
    %h_sin_row_29 = tt.load %h_sin_row_28, %h_mask_14, %cst_1 : tensor<128x!tt.ptr<bf16>> loc(#loc122)
    %w_sin_row = tt.splat %w_sin : !tt.ptr<bf16> -> tensor<128x!tt.ptr<bf16>> loc(#loc123)
    %w_sin_row_30 = tt.addptr %w_sin_row, %cos_offsets : tensor<128x!tt.ptr<bf16>>, tensor<128xi32> loc(#loc123)
    %w_sin_row_31 = tt.load %w_sin_row_30, %w_mask_17, %cst_1 : tensor<128x!tt.ptr<bf16>> loc(#loc124)
    %cos_row = arith.addf %t_cos_row_21, %h_cos_row_23 : tensor<128xbf16> loc(#loc125)
    %cos_row_32 = arith.addf %cos_row, %w_cos_row_25 : tensor<128xbf16> loc(#loc126)
    %sin_row = arith.addf %t_sin_row_27, %h_sin_row_29 : tensor<128xbf16> loc(#loc127)
    %sin_row_33 = arith.addf %sin_row, %w_sin_row_31 : tensor<128xbf16> loc(#loc128)
    %first_half_q_offsets_34 = tt.make_range {end = 16 : i32, start = 0 : i32} : tensor<16xi32> loc(#loc129)
    %first_half_q_offsets_35 = tt.expand_dims %first_half_q_offsets_34 {axis = 1 : i32} : tensor<16xi32> -> tensor<16x1xi32> loc(#loc130)
    %first_half_q_offsets_36 = arith.muli %first_half_q_offsets_35, %first_half_q_offsets : tensor<16x1xi32> loc(#loc90)
    %first_half_q_offsets_37 = tt.expand_dims %cos_offsets {axis = 0 : i32} : tensor<128xi32> -> tensor<1x128xi32> loc(#loc131)
    %first_half_q_offsets_38 = tt.broadcast %first_half_q_offsets_36 : tensor<16x1xi32> -> tensor<16x128xi32> loc(#loc132)
    %first_half_q_offsets_39 = tt.broadcast %first_half_q_offsets_37 : tensor<1x128xi32> -> tensor<16x128xi32> loc(#loc132)
    %first_half_q_offsets_40 = arith.addi %first_half_q_offsets_38, %first_half_q_offsets_39 : tensor<16x128xi32> loc(#loc132)
    %first_half_k_offsets_41 = tt.make_range {end = 4 : i32, start = 0 : i32} : tensor<4xi32> loc(#loc133)
    %first_half_k_offsets_42 = tt.expand_dims %first_half_k_offsets_41 {axis = 1 : i32} : tensor<4xi32> -> tensor<4x1xi32> loc(#loc134)
    %first_half_k_offsets_43 = arith.muli %first_half_k_offsets_42, %first_half_k_offsets : tensor<4x1xi32> loc(#loc89)
    %first_half_k_offsets_44 = tt.broadcast %first_half_k_offsets_43 : tensor<4x1xi32> -> tensor<4x128xi32> loc(#loc135)
    %first_half_k_offsets_45 = tt.broadcast %first_half_q_offsets_37 : tensor<1x128xi32> -> tensor<4x128xi32> loc(#loc135)
    %first_half_k_offsets_46 = arith.addi %first_half_k_offsets_44, %first_half_k_offsets_45 : tensor<4x128xi32> loc(#loc135)
    %first_q_mask_47 = arith.cmpi slt, %first_half_q_offsets_35, %first_q_mask : tensor<16x1xi32> loc(#loc88)
    %first_q_mask_48 = arith.cmpi slt, %first_half_q_offsets_37, %cst_2 : tensor<1x128xi32> loc(#loc136)
    %first_q_mask_49 = tt.broadcast %first_q_mask_47 : tensor<16x1xi1> -> tensor<16x128xi1> loc(#loc137)
    %first_q_mask_50 = tt.broadcast %first_q_mask_48 : tensor<1x128xi1> -> tensor<16x128xi1> loc(#loc137)
    %first_q_mask_51 = arith.andi %first_q_mask_49, %first_q_mask_50 : tensor<16x128xi1> loc(#loc137)
    %first_k_mask_52 = arith.cmpi slt, %first_half_k_offsets_42, %first_k_mask : tensor<4x1xi32> loc(#loc87)
    %first_k_mask_53 = tt.broadcast %first_k_mask_52 : tensor<4x1xi1> -> tensor<4x128xi1> loc(#loc138)
    %first_k_mask_54 = tt.broadcast %first_q_mask_48 : tensor<1x128xi1> -> tensor<4x128xi1> loc(#loc138)
    %first_k_mask_55 = arith.andi %first_k_mask_53, %first_k_mask_54 : tensor<4x128xi1> loc(#loc138)
    %q_tile_1 = tt.splat %q_ptr_7 : !tt.ptr<bf16> -> tensor<16x128x!tt.ptr<bf16>> loc(#loc139)
    %q_tile_1_56 = tt.addptr %q_tile_1, %first_half_q_offsets_40 : tensor<16x128x!tt.ptr<bf16>>, tensor<16x128xi32> loc(#loc139)
    %q_tile_1_57 = tt.load %q_tile_1_56, %first_q_mask_51, %cst_0 : tensor<16x128x!tt.ptr<bf16>> loc(#loc140)
    %k_tile_1 = tt.splat %k_ptr_9 : !tt.ptr<bf16> -> tensor<4x128x!tt.ptr<bf16>> loc(#loc141)
    %k_tile_1_58 = tt.addptr %k_tile_1, %first_half_k_offsets_46 : tensor<4x128x!tt.ptr<bf16>>, tensor<4x128xi32> loc(#loc141)
    %k_tile_1_59 = tt.load %k_tile_1_58, %first_k_mask_55, %cst : tensor<4x128x!tt.ptr<bf16>> loc(#loc142)
    %second_half_q_offsets_60 = arith.addi %first_half_q_offsets_40, %second_half_q_offsets : tensor<16x128xi32> loc(#loc86)
    %second_half_k_offsets_61 = arith.addi %first_half_k_offsets_46, %second_half_k_offsets : tensor<4x128xi32> loc(#loc85)
    %q_tile_2 = tt.addptr %q_tile_1, %second_half_q_offsets_60 : tensor<16x128x!tt.ptr<bf16>>, tensor<16x128xi32> loc(#loc143)
    %q_tile_2_62 = tt.load %q_tile_2, %first_q_mask_51, %cst_0 : tensor<16x128x!tt.ptr<bf16>> loc(#loc144)
    %k_tile_2 = tt.addptr %k_tile_1, %second_half_k_offsets_61 : tensor<4x128x!tt.ptr<bf16>>, tensor<4x128xi32> loc(#loc145)
    %k_tile_2_63 = tt.load %k_tile_2, %first_k_mask_55, %cst : tensor<4x128x!tt.ptr<bf16>> loc(#loc146)
    %new_q_tile_1 = tt.expand_dims %cos_row_32 {axis = 0 : i32} : tensor<128xbf16> -> tensor<1x128xbf16> loc(#loc147)
    %new_q_tile_1_64 = tt.broadcast %new_q_tile_1 : tensor<1x128xbf16> -> tensor<16x128xbf16> loc(#loc147)
    %new_q_tile_1_65 = arith.mulf %q_tile_1_57, %new_q_tile_1_64 : tensor<16x128xbf16> loc(#loc147)
    %new_q_tile_1_66 = tt.expand_dims %sin_row_33 {axis = 0 : i32} : tensor<128xbf16> -> tensor<1x128xbf16> loc(#loc148)
    %new_q_tile_1_67 = tt.broadcast %new_q_tile_1_66 : tensor<1x128xbf16> -> tensor<16x128xbf16> loc(#loc148)
    %new_q_tile_1_68 = arith.mulf %q_tile_2_62, %new_q_tile_1_67 : tensor<16x128xbf16> loc(#loc148)
    %new_q_tile_1_69 = arith.subf %new_q_tile_1_65, %new_q_tile_1_68 : tensor<16x128xbf16> loc(#loc149)
    tt.store %q_tile_1_56, %new_q_tile_1_69, %first_q_mask_51 : tensor<16x128x!tt.ptr<bf16>> loc(#loc67)
    %new_q_tile_2 = arith.mulf %q_tile_2_62, %new_q_tile_1_64 : tensor<16x128xbf16> loc(#loc150)
    %new_q_tile_2_70 = arith.mulf %q_tile_1_57, %new_q_tile_1_67 : tensor<16x128xbf16> loc(#loc151)
    %new_q_tile_2_71 = arith.addf %new_q_tile_2, %new_q_tile_2_70 : tensor<16x128xbf16> loc(#loc152)
    tt.store %q_tile_2, %new_q_tile_2_71, %first_q_mask_51 : tensor<16x128x!tt.ptr<bf16>> loc(#loc71)
    %new_k_tile_1 = tt.broadcast %new_q_tile_1 : tensor<1x128xbf16> -> tensor<4x128xbf16> loc(#loc153)
    %new_k_tile_1_72 = arith.mulf %k_tile_1_59, %new_k_tile_1 : tensor<4x128xbf16> loc(#loc153)
    %new_k_tile_1_73 = tt.broadcast %new_q_tile_1_66 : tensor<1x128xbf16> -> tensor<4x128xbf16> loc(#loc154)
    %new_k_tile_1_74 = arith.mulf %k_tile_2_63, %new_k_tile_1_73 : tensor<4x128xbf16> loc(#loc154)
    %new_k_tile_1_75 = arith.subf %new_k_tile_1_72, %new_k_tile_1_74 : tensor<4x128xbf16> loc(#loc155)
    tt.store %k_tile_1_58, %new_k_tile_1_75, %first_k_mask_55 : tensor<4x128x!tt.ptr<bf16>> loc(#loc75)
    %new_k_tile_2 = arith.mulf %k_tile_2_63, %new_k_tile_1 : tensor<4x128xbf16> loc(#loc156)
    %new_k_tile_2_76 = arith.mulf %k_tile_1_59, %new_k_tile_1_73 : tensor<4x128xbf16> loc(#loc157)
    %new_k_tile_2_77 = arith.addf %new_k_tile_2, %new_k_tile_2_76 : tensor<4x128xbf16> loc(#loc158)
    tt.store %k_tile_2, %new_k_tile_2_77, %first_k_mask_55 : tensor<4x128x!tt.ptr<bf16>> loc(#loc79)
    tt.return loc(#loc80)
  } loc(#loc)
} loc(#loc)
#loc1 = loc(unknown)
#loc2 = loc("/data/conda/envs/or_llm/lib/python3.12/site-packages/vllm/model_executor/layers/rotary_embedding/mrope.py":108:52)
#loc3 = loc("/data/conda/envs/or_llm/lib/python3.12/site-packages/vllm/model_executor/layers/rotary_embedding/mrope.py":107:52)
#loc4 = loc("/data/conda/envs/or_llm/lib/python3.12/site-packages/vllm/model_executor/layers/rotary_embedding/mrope.py":95:54)
#loc5 = loc("/data/conda/envs/or_llm/lib/python3.12/site-packages/vllm/model_executor/layers/rotary_embedding/mrope.py":92:54)
#loc6 = loc("/data/conda/envs/or_llm/lib/python3.12/site-packages/vllm/model_executor/layers/rotary_embedding/mrope.py":90:42)
#loc7 = loc("/data/conda/envs/or_llm/lib/python3.12/site-packages/vllm/model_executor/layers/rotary_embedding/mrope.py":87:42)
#loc8 = loc("/data/conda/envs/or_llm/lib/python3.12/site-packages/vllm/model_executor/layers/rotary_embedding/mrope.py":63:19)
#loc9 = loc("/data/conda/envs/or_llm/lib/python3.12/site-packages/vllm/model_executor/layers/rotary_embedding/mrope.py":62:60)
#loc10 = loc("/data/conda/envs/or_llm/lib/python3.12/site-packages/vllm/model_executor/layers/rotary_embedding/mrope.py":62:39)
#loc11 = loc("/data/conda/envs/or_llm/lib/python3.12/site-packages/vllm/model_executor/layers/rotary_embedding/mrope.py":61:60)
#loc12 = loc("/data/conda/envs/or_llm/lib/python3.12/site-packages/vllm/model_executor/layers/rotary_embedding/mrope.py":61:39)
#loc13 = loc("/data/conda/envs/or_llm/lib/python3.12/site-packages/vllm/model_executor/layers/rotary_embedding/mrope.py":38:24)
#loc14 = loc("/data/conda/envs/or_llm/lib/python3.12/site-packages/vllm/model_executor/layers/rotary_embedding/mrope.py":40:27)
#loc15 = loc("/data/conda/envs/or_llm/lib/python3.12/site-packages/vllm/model_executor/layers/rotary_embedding/mrope.py":40:20)
#loc16 = loc("/data/conda/envs/or_llm/lib/python3.12/site-packages/vllm/model_executor/layers/rotary_embedding/mrope.py":41:27)
#loc17 = loc("/data/conda/envs/or_llm/lib/python3.12/site-packages/vllm/model_executor/layers/rotary_embedding/mrope.py":41:20)
#loc18 = loc("/data/conda/envs/or_llm/lib/python3.12/site-packages/vllm/model_executor/layers/rotary_embedding/mrope.py":51:24)
#loc19 = loc("/data/conda/envs/or_llm/lib/python3.12/site-packages/vllm/model_executor/layers/rotary_embedding/mrope.py":51:18)
#loc20 = loc("/data/conda/envs/or_llm/lib/python3.12/site-packages/vllm/model_executor/layers/rotary_embedding/mrope.py":52:20)
#loc21 = loc("/data/conda/envs/or_llm/lib/python3.12/site-packages/vllm/model_executor/layers/rotary_embedding/mrope.py":53:20)
#loc22 = loc("/data/conda/envs/or_llm/lib/python3.12/site-packages/vllm/model_executor/layers/rotary_embedding/mrope.py":54:18)
#loc23 = loc("/data/conda/envs/or_llm/lib/python3.12/site-packages/vllm/model_executor/layers/rotary_embedding/mrope.py":55:20)
#loc24 = loc("/data/conda/envs/or_llm/lib/python3.12/site-packages/vllm/model_executor/layers/rotary_embedding/mrope.py":56:20)
#loc25 = loc("/data/conda/envs/or_llm/lib/python3.12/site-packages/vllm/model_executor/layers/rotary_embedding/mrope.py":59:31)
#loc26 = loc("/data/conda/envs/or_llm/lib/python3.12/site-packages/vllm/model_executor/layers/rotary_embedding/mrope.py":61:33)
#loc27 = loc("/data/conda/envs/or_llm/lib/python3.12/site-packages/vllm/model_executor/layers/rotary_embedding/mrope.py":61:45)
#loc28 = loc("/data/conda/envs/or_llm/lib/python3.12/site-packages/vllm/model_executor/layers/rotary_embedding/mrope.py":62:45)
#loc29 = loc("/data/conda/envs/or_llm/lib/python3.12/site-packages/vllm/model_executor/layers/rotary_embedding/mrope.py":63:28)
#loc30 = loc("/data/conda/envs/or_llm/lib/python3.12/site-packages/vllm/model_executor/layers/rotary_embedding/mrope.py":71:32)
#loc31 = loc("/data/conda/envs/or_llm/lib/python3.12/site-packages/vllm/model_executor/layers/rotary_embedding/mrope.py":71:24)
#loc32 = loc("/data/conda/envs/or_llm/lib/python3.12/site-packages/vllm/model_executor/layers/rotary_embedding/mrope.py":72:32)
#loc33 = loc("/data/conda/envs/or_llm/lib/python3.12/site-packages/vllm/model_executor/layers/rotary_embedding/mrope.py":72:24)
#loc34 = loc("/data/conda/envs/or_llm/lib/python3.12/site-packages/vllm/model_executor/layers/rotary_embedding/mrope.py":73:32)
#loc35 = loc("/data/conda/envs/or_llm/lib/python3.12/site-packages/vllm/model_executor/layers/rotary_embedding/mrope.py":73:24)
#loc36 = loc("/data/conda/envs/or_llm/lib/python3.12/site-packages/vllm/model_executor/layers/rotary_embedding/mrope.py":74:32)
#loc37 = loc("/data/conda/envs/or_llm/lib/python3.12/site-packages/vllm/model_executor/layers/rotary_embedding/mrope.py":74:24)
#loc38 = loc("/data/conda/envs/or_llm/lib/python3.12/site-packages/vllm/model_executor/layers/rotary_embedding/mrope.py":75:32)
#loc39 = loc("/data/conda/envs/or_llm/lib/python3.12/site-packages/vllm/model_executor/layers/rotary_embedding/mrope.py":75:24)
#loc40 = loc("/data/conda/envs/or_llm/lib/python3.12/site-packages/vllm/model_executor/layers/rotary_embedding/mrope.py":76:32)
#loc41 = loc("/data/conda/envs/or_llm/lib/python3.12/site-packages/vllm/model_executor/layers/rotary_embedding/mrope.py":76:24)
#loc42 = loc("/data/conda/envs/or_llm/lib/python3.12/site-packages/vllm/model_executor/layers/rotary_embedding/mrope.py":78:26)
#loc43 = loc("/data/conda/envs/or_llm/lib/python3.12/site-packages/vllm/model_executor/layers/rotary_embedding/mrope.py":78:38)
#loc44 = loc("/data/conda/envs/or_llm/lib/python3.12/site-packages/vllm/model_executor/layers/rotary_embedding/mrope.py":79:26)
#loc45 = loc("/data/conda/envs/or_llm/lib/python3.12/site-packages/vllm/model_executor/layers/rotary_embedding/mrope.py":79:38)
#loc46 = loc("/data/conda/envs/or_llm/lib/python3.12/site-packages/vllm/model_executor/layers/rotary_embedding/mrope.py":87:21)
#loc47 = loc("/data/conda/envs/or_llm/lib/python3.12/site-packages/vllm/model_executor/layers/rotary_embedding/mrope.py":87:31)
#loc48 = loc("/data/conda/envs/or_llm/lib/python3.12/site-packages/vllm/model_executor/layers/rotary_embedding/mrope.py":87:73)
#loc49 = loc("/data/conda/envs/or_llm/lib/python3.12/site-packages/vllm/model_executor/layers/rotary_embedding/mrope.py":87:47)
#loc50 = loc("/data/conda/envs/or_llm/lib/python3.12/site-packages/vllm/model_executor/layers/rotary_embedding/mrope.py":90:21)
#loc51 = loc("/data/conda/envs/or_llm/lib/python3.12/site-packages/vllm/model_executor/layers/rotary_embedding/mrope.py":90:31)
#loc52 = loc("/data/conda/envs/or_llm/lib/python3.12/site-packages/vllm/model_executor/layers/rotary_embedding/mrope.py":90:47)
#loc53 = loc("/data/conda/envs/or_llm/lib/python3.12/site-packages/vllm/model_executor/layers/rotary_embedding/mrope.py":93:45)
#loc54 = loc("/data/conda/envs/or_llm/lib/python3.12/site-packages/vllm/model_executor/layers/rotary_embedding/mrope.py":93:8)
#loc55 = loc("/data/conda/envs/or_llm/lib/python3.12/site-packages/vllm/model_executor/layers/rotary_embedding/mrope.py":96:8)
#loc56 = loc("/data/conda/envs/or_llm/lib/python3.12/site-packages/vllm/model_executor/layers/rotary_embedding/mrope.py":99:31)
#loc57 = loc("/data/conda/envs/or_llm/lib/python3.12/site-packages/vllm/model_executor/layers/rotary_embedding/mrope.py":99:23)
#loc58 = loc("/data/conda/envs/or_llm/lib/python3.12/site-packages/vllm/model_executor/layers/rotary_embedding/mrope.py":102:31)
#loc59 = loc("/data/conda/envs/or_llm/lib/python3.12/site-packages/vllm/model_executor/layers/rotary_embedding/mrope.py":102:23)
#loc60 = loc("/data/conda/envs/or_llm/lib/python3.12/site-packages/vllm/model_executor/layers/rotary_embedding/mrope.py":112:31)
#loc61 = loc("/data/conda/envs/or_llm/lib/python3.12/site-packages/vllm/model_executor/layers/rotary_embedding/mrope.py":112:23)
#loc62 = loc("/data/conda/envs/or_llm/lib/python3.12/site-packages/vllm/model_executor/layers/rotary_embedding/mrope.py":115:31)
#loc63 = loc("/data/conda/envs/or_llm/lib/python3.12/site-packages/vllm/model_executor/layers/rotary_embedding/mrope.py":115:23)
#loc64 = loc("/data/conda/envs/or_llm/lib/python3.12/site-packages/vllm/model_executor/layers/rotary_embedding/mrope.py":122:30)
#loc65 = loc("/data/conda/envs/or_llm/lib/python3.12/site-packages/vllm/model_executor/layers/rotary_embedding/mrope.py":122:51)
#loc66 = loc("/data/conda/envs/or_llm/lib/python3.12/site-packages/vllm/model_executor/layers/rotary_embedding/mrope.py":122:40)
#loc67 = loc("/data/conda/envs/or_llm/lib/python3.12/site-packages/vllm/model_executor/layers/rotary_embedding/mrope.py":123:43)
#loc68 = loc("/data/conda/envs/or_llm/lib/python3.12/site-packages/vllm/model_executor/layers/rotary_embedding/mrope.py":124:30)
#loc69 = loc("/data/conda/envs/or_llm/lib/python3.12/site-packages/vllm/model_executor/layers/rotary_embedding/mrope.py":124:51)
#loc70 = loc("/data/conda/envs/or_llm/lib/python3.12/site-packages/vllm/model_executor/layers/rotary_embedding/mrope.py":124:40)
#loc71 = loc("/data/conda/envs/or_llm/lib/python3.12/site-packages/vllm/model_executor/layers/rotary_embedding/mrope.py":125:44)
#loc72 = loc("/data/conda/envs/or_llm/lib/python3.12/site-packages/vllm/model_executor/layers/rotary_embedding/mrope.py":127:30)
#loc73 = loc("/data/conda/envs/or_llm/lib/python3.12/site-packages/vllm/model_executor/layers/rotary_embedding/mrope.py":127:51)
#loc74 = loc("/data/conda/envs/or_llm/lib/python3.12/site-packages/vllm/model_executor/layers/rotary_embedding/mrope.py":127:40)
#loc75 = loc("/data/conda/envs/or_llm/lib/python3.12/site-packages/vllm/model_executor/layers/rotary_embedding/mrope.py":128:43)
#loc76 = loc("/data/conda/envs/or_llm/lib/python3.12/site-packages/vllm/model_executor/layers/rotary_embedding/mrope.py":129:30)
#loc77 = loc("/data/conda/envs/or_llm/lib/python3.12/site-packages/vllm/model_executor/layers/rotary_embedding/mrope.py":129:51)
#loc78 = loc("/data/conda/envs/or_llm/lib/python3.12/site-packages/vllm/model_executor/layers/rotary_embedding/mrope.py":129:40)
#loc79 = loc("/data/conda/envs/or_llm/lib/python3.12/site-packages/vllm/model_executor/layers/rotary_embedding/mrope.py":130:44)
#loc80 = loc("/data/conda/envs/or_llm/lib/python3.12/site-packages/vllm/model_executor/layers/rotary_embedding/mrope.py":130:4)
#loc85 = loc("second_half_k_offsets"(#loc2))
#loc86 = loc("second_half_q_offsets"(#loc3))
#loc87 = loc("first_k_mask"(#loc4))
#loc88 = loc("first_q_mask"(#loc5))
#loc89 = loc("first_half_k_offsets"(#loc6))
#loc90 = loc("first_half_q_offsets"(#loc7))
#loc91 = loc("t_mask"(#loc8))
#loc92 = loc("w_mask"(#loc9))
#loc93 = loc("w_mask"(#loc10))
#loc94 = loc("h_mask"(#loc11))
#loc95 = loc("h_mask"(#loc12))
#loc96 = loc("pid"(#loc13))
#loc97 = loc("q_ptr"(#loc14))
#loc98 = loc("q_ptr"(#loc15))
#loc99 = loc("k_ptr"(#loc16))
#loc100 = loc("k_ptr"(#loc17))
#loc101 = loc("t_cos"(#loc18))
#loc102 = loc("t_cos"(#loc19))
#loc103 = loc("h_cos"(#loc20))
#loc104 = loc("w_cos"(#loc21))
#loc105 = loc("t_sin"(#loc22))
#loc106 = loc("h_sin"(#loc23))
#loc107 = loc("w_sin"(#loc24))
#loc108 = loc("cos_offsets"(#loc25))
#loc109 = loc("h_mask"(#loc26))
#loc110 = loc("h_mask"(#loc27))
#loc111 = loc("w_mask"(#loc28))
#loc112 = loc("t_mask"(#loc29))
#loc113 = loc("t_cos_row"(#loc30))
#loc114 = loc("t_cos_row"(#loc31))
#loc115 = loc("h_cos_row"(#loc32))
#loc116 = loc("h_cos_row"(#loc33))
#loc117 = loc("w_cos_row"(#loc34))
#loc118 = loc("w_cos_row"(#loc35))
#loc119 = loc("t_sin_row"(#loc36))
#loc120 = loc("t_sin_row"(#loc37))
#loc121 = loc("h_sin_row"(#loc38))
#loc122 = loc("h_sin_row"(#loc39))
#loc123 = loc("w_sin_row"(#loc40))
#loc124 = loc("w_sin_row"(#loc41))
#loc125 = loc("cos_row"(#loc42))
#loc126 = loc("cos_row"(#loc43))
#loc127 = loc("sin_row"(#loc44))
#loc128 = loc("sin_row"(#loc45))
#loc129 = loc("first_half_q_offsets"(#loc46))
#loc130 = loc("first_half_q_offsets"(#loc47))
#loc131 = loc("first_half_q_offsets"(#loc48))
#loc132 = loc("first_half_q_offsets"(#loc49))
#loc133 = loc("first_half_k_offsets"(#loc50))
#loc134 = loc("first_half_k_offsets"(#loc51))
#loc135 = loc("first_half_k_offsets"(#loc52))
#loc136 = loc("first_q_mask"(#loc53))
#loc137 = loc("first_q_mask"(#loc54))
#loc138 = loc("first_k_mask"(#loc55))
#loc139 = loc("q_tile_1"(#loc56))
#loc140 = loc("q_tile_1"(#loc57))
#loc141 = loc("k_tile_1"(#loc58))
#loc142 = loc("k_tile_1"(#loc59))
#loc143 = loc("q_tile_2"(#loc60))
#loc144 = loc("q_tile_2"(#loc61))
#loc145 = loc("k_tile_2"(#loc62))
#loc146 = loc("k_tile_2"(#loc63))
#loc147 = loc("new_q_tile_1"(#loc64))
#loc148 = loc("new_q_tile_1"(#loc65))
#loc149 = loc("new_q_tile_1"(#loc66))
#loc150 = loc("new_q_tile_2"(#loc68))
#loc151 = loc("new_q_tile_2"(#loc69))
#loc152 = loc("new_q_tile_2"(#loc70))
#loc153 = loc("new_k_tile_1"(#loc72))
#loc154 = loc("new_k_tile_1"(#loc73))
#loc155 = loc("new_k_tile_1"(#loc74))
#loc156 = loc("new_k_tile_2"(#loc76))
#loc157 = loc("new_k_tile_2"(#loc77))
#loc158 = loc("new_k_tile_2"(#loc78))
#loc159 = loc(fused[#loc104, #loc103])
#loc160 = loc(fused[#loc107, #loc106])
