#loc = loc("/data/conda/envs/or_llm/lib/python3.12/site-packages/vllm/model_executor/layers/fla/ops/chunk_o.py":42:0)
#loc77 = loc("q"(#loc))
#loc78 = loc("k"(#loc))
#loc79 = loc("v"(#loc))
#loc80 = loc("h"(#loc))
#loc81 = loc("g"(#loc))
#loc82 = loc("o"(#loc))
#loc83 = loc("cu_seqlens"(#loc))
#loc84 = loc("chunk_indices"(#loc))
#loc85 = loc("scale"(#loc))
#loc86 = loc("T"(#loc))
module {
  tt.func public @chunk_fwd_kernel_o(%q: !tt.ptr<bf16> {tt.divisibility = 16 : i32} loc("q"(#loc)), %k: !tt.ptr<bf16> {tt.divisibility = 16 : i32} loc("k"(#loc)), %v: !tt.ptr<bf16> {tt.divisibility = 16 : i32} loc("v"(#loc)), %h: !tt.ptr<bf16> {tt.divisibility = 16 : i32} loc("h"(#loc)), %g: !tt.ptr<f32> {tt.divisibility = 16 : i32} loc("g"(#loc)), %o: !tt.ptr<bf16> {tt.divisibility = 16 : i32} loc("o"(#loc)), %cu_seqlens: !tt.ptr<i32> {tt.divisibility = 16 : i32} loc("cu_seqlens"(#loc)), %chunk_indices: !tt.ptr<i32> {tt.divisibility = 16 : i32} loc("chunk_indices"(#loc)), %scale: f32 loc("scale"(#loc)), %T: i32 loc("T"(#loc))) attributes {noinline = false} {
    %cst = arith.constant dense<128> : tensor<1x128xi64> loc(#loc1)
    %cst_0 = arith.constant dense<0> : tensor<1x128xi64> loc(#loc1)
    %cst_1 = arith.constant dense<4096> : tensor<32x1xi64> loc(#loc1)
    %b_g = arith.constant dense<0> : tensor<32xi64> loc(#loc87)
    %b_g_2 = arith.constant dense<32> : tensor<32xi64> loc(#loc87)
    %cst_3 = arith.constant dense<0> : tensor<128x1xi64> loc(#loc1)
    %cst_4 = arith.constant dense<128> : tensor<128x1xi64> loc(#loc1)
    %cst_5 = arith.constant dense<0> : tensor<1x32xi64> loc(#loc1)
    %cst_6 = arith.constant dense<128> : tensor<64x1xi64> loc(#loc1)
    %cst_7 = arith.constant dense<0> : tensor<64x1xi64> loc(#loc1)
    %cst_8 = arith.constant dense<2048> : tensor<1x32xi64> loc(#loc1)
    %cst_9 = arith.constant dense<128> : tensor<1x64xi64> loc(#loc1)
    %cst_10 = arith.constant dense<0> : tensor<1x64xi64> loc(#loc1)
    %cst_11 = arith.constant dense<0> : tensor<32x1xi64> loc(#loc1)
    %cst_12 = arith.constant dense<2048> : tensor<32x1xi64> loc(#loc1)
    %c0_i32 = arith.constant 0 : i32 loc(#loc3)
    %h_13 = arith.constant 16384 : i64 loc(#loc88)
    %cst_14 = arith.constant dense<0.000000e+00> : tensor<32x32xf32> loc(#loc1)
    %cst_15 = arith.constant dense<0.000000e+00> : tensor<32x128xf32> loc(#loc1)
    %c64_i32 = arith.constant 64 : i32 loc(#loc1)
    %c128_i32 = arith.constant 128 : i32 loc(#loc1)
    %c16_i32 = arith.constant 16 : i32 loc(#loc1)
    %c1_i32 = arith.constant 1 : i32 loc(#loc1)
    %c2_i32 = arith.constant 2 : i32 loc(#loc1)
    %c32_i32 = arith.constant 32 : i32 loc(#loc1)
    %0 = tt.get_program_id x : i32 loc(#loc5)
    %1 = tt.get_program_id y : i32 loc(#loc6)
    %2 = tt.get_program_id z : i32 loc(#loc7)
    %3 = arith.remsi %2, %c32_i32 : i32 loc(#loc8)
    %4 = arith.muli %1, %c2_i32 : i32 loc(#loc9)
    %5 = tt.addptr %chunk_indices, %4 : !tt.ptr<i32>, i32 loc(#loc10)
    %6 = tt.load %5 : !tt.ptr<i32> loc(#loc11)
    %7 = tt.addptr %5, %c1_i32 : !tt.ptr<i32>, i32 loc(#loc12)
    %8 = tt.load %7 : !tt.ptr<i32> loc(#loc13)
    %9 = tt.addptr %cu_seqlens, %6 : !tt.ptr<i32>, i32 loc(#loc14)
    %10 = tt.load %9 : !tt.ptr<i32> loc(#loc15)
    %11 = tt.addptr %9, %c1_i32 : !tt.ptr<i32>, i32 loc(#loc16)
    %12 = tt.load %11 : !tt.ptr<i32> loc(#loc17)
    %T_16 = arith.subi %12, %10 : i32 loc(#loc89)
    %q_17 = arith.muli %10, %c16_i32 : i32 loc(#loc90)
    %q_18 = arith.divsi %3, %c2_i32 : i32 loc(#loc91)
    %q_19 = arith.addi %q_17, %q_18 : i32 loc(#loc92)
    %q_20 = arith.muli %q_19, %c128_i32 : i32 loc(#loc93)
    %q_21 = tt.addptr %q, %q_20 : !tt.ptr<bf16>, i32 loc(#loc94)
    %k_22 = tt.addptr %k, %q_20 : !tt.ptr<bf16>, i32 loc(#loc95)
    %v_23 = arith.muli %10, %c32_i32 : i32 loc(#loc96)
    %v_24 = arith.addi %v_23, %3 : i32 loc(#loc97)
    %v_25 = arith.muli %v_24, %c128_i32 : i32 loc(#loc98)
    %v_26 = tt.addptr %v, %v_25 : !tt.ptr<bf16>, i32 loc(#loc99)
    %o_27 = tt.addptr %o, %v_25 : !tt.ptr<bf16>, i32 loc(#loc100)
    %h_28 = arith.muli %1, %c32_i32 : i32 loc(#loc101)
    %h_29 = arith.addi %h_28, %3 : i32 loc(#loc102)
    %h_30 = arith.extsi %h_29 : i32 to i64 loc(#loc103)
    %h_31 = arith.muli %h_30, %h_13 : i64 loc(#loc88)
    %h_32 = tt.addptr %h, %h_31 : !tt.ptr<bf16>, i64 loc(#loc104)
    %b_A:2 = scf.for %i_k = %c0_i32 to %c2_i32 step %c1_i32 iter_args(%b_o_100 = %cst_15, %b_A_101 = %cst_14) -> (tensor<32x128xf32>, tensor<32x32xf32>)  : i32 {
      %p_q = arith.muli %8, %c32_i32 : i32 loc(#loc106)
      %p_q_102 = arith.muli %i_k, %c64_i32 : i32 loc(#loc107)
      %p_q_103 = arith.extsi %T_16 : i32 to i64 loc(#loc108)
      %p_q_104 = arith.extsi %p_q : i32 to i64 loc(#loc108)
      %p_q_105 = arith.extsi %p_q_102 : i32 to i64 loc(#loc108)
      %p_h = arith.muli %0, %c128_i32 : i32 loc(#loc109)
      %p_h_106 = arith.extsi %p_h : i32 to i64 loc(#loc110)
      %b_q = tt.splat %q_21 : !tt.ptr<bf16> -> tensor<32x64x!tt.ptr<bf16>> loc(#loc111)
      %b_q_107 = tt.splat %p_q_104 : i64 -> tensor<32xi64> loc(#loc111)
      %b_q_108 = tt.make_range {end = 32 : i32, start = 0 : i32} : tensor<32xi32> loc(#loc111)
      %b_q_109 = arith.extsi %b_q_108 : tensor<32xi32> to tensor<32xi64> loc(#loc111)
      %b_q_110 = arith.addi %b_q_107, %b_q_109 : tensor<32xi64> loc(#loc111)
      %b_q_111 = tt.expand_dims %b_q_110 {axis = 1 : i32} : tensor<32xi64> -> tensor<32x1xi64> loc(#loc111)
      %b_q_112 = arith.muli %b_q_111, %cst_12 : tensor<32x1xi64> loc(#loc111)
      %b_q_113 = tt.broadcast %b_q_112 : tensor<32x1xi64> -> tensor<32x64xi64> loc(#loc111)
      %b_q_114 = tt.splat %p_q_105 : i64 -> tensor<64xi64> loc(#loc111)
      %b_q_115 = tt.make_range {end = 64 : i32, start = 0 : i32} : tensor<64xi32> loc(#loc111)
      %b_q_116 = arith.extsi %b_q_115 : tensor<64xi32> to tensor<64xi64> loc(#loc111)
      %b_q_117 = arith.addi %b_q_114, %b_q_116 : tensor<64xi64> loc(#loc111)
      %b_q_118 = tt.expand_dims %b_q_117 {axis = 0 : i32} : tensor<64xi64> -> tensor<1x64xi64> loc(#loc111)
      %b_q_119 = tt.broadcast %b_q_118 : tensor<1x64xi64> -> tensor<32x64xi64> loc(#loc111)
      %b_q_120 = arith.addi %b_q_113, %b_q_119 : tensor<32x64xi64> loc(#loc111)
      %b_q_121 = tt.addptr %b_q, %b_q_120 : tensor<32x64x!tt.ptr<bf16>>, tensor<32x64xi64> loc(#loc111)
      %b_q_122 = arith.cmpi sge, %b_q_111, %cst_11 : tensor<32x1xi64> loc(#loc111)
      %b_q_123 = tt.splat %p_q_103 : i64 -> tensor<32x1xi64> loc(#loc111)
      %b_q_124 = arith.cmpi slt, %b_q_111, %b_q_123 : tensor<32x1xi64> loc(#loc111)
      %b_q_125 = arith.andi %b_q_122, %b_q_124 : tensor<32x1xi1> loc(#loc111)
      %b_q_126 = tt.broadcast %b_q_125 : tensor<32x1xi1> -> tensor<32x64xi1> loc(#loc111)
      %b_q_127 = arith.cmpi sge, %b_q_118, %cst_10 : tensor<1x64xi64> loc(#loc111)
      %b_q_128 = arith.cmpi slt, %b_q_118, %cst_9 : tensor<1x64xi64> loc(#loc111)
      %b_q_129 = arith.andi %b_q_127, %b_q_128 : tensor<1x64xi1> loc(#loc111)
      %b_q_130 = tt.broadcast %b_q_129 : tensor<1x64xi1> -> tensor<32x64xi1> loc(#loc111)
      %b_q_131 = arith.andi %b_q_126, %b_q_130 : tensor<32x64xi1> loc(#loc111)
      %b_q_132 = tt.load %b_q_121, %b_q_131 : tensor<32x64x!tt.ptr<bf16>> loc(#loc111)
      %b_k = tt.splat %k_22 : !tt.ptr<bf16> -> tensor<64x32x!tt.ptr<bf16>> loc(#loc112)
      %b_k_133 = tt.expand_dims %b_q_117 {axis = 1 : i32} : tensor<64xi64> -> tensor<64x1xi64> loc(#loc112)
      %b_k_134 = tt.broadcast %b_k_133 : tensor<64x1xi64> -> tensor<64x32xi64> loc(#loc112)
      %b_k_135 = tt.expand_dims %b_q_110 {axis = 0 : i32} : tensor<32xi64> -> tensor<1x32xi64> loc(#loc112)
      %b_k_136 = arith.muli %b_k_135, %cst_8 : tensor<1x32xi64> loc(#loc112)
      %b_k_137 = tt.broadcast %b_k_136 : tensor<1x32xi64> -> tensor<64x32xi64> loc(#loc112)
      %b_k_138 = arith.addi %b_k_134, %b_k_137 : tensor<64x32xi64> loc(#loc112)
      %b_k_139 = tt.addptr %b_k, %b_k_138 : tensor<64x32x!tt.ptr<bf16>>, tensor<64x32xi64> loc(#loc112)
      %b_k_140 = arith.cmpi sge, %b_k_133, %cst_7 : tensor<64x1xi64> loc(#loc112)
      %b_k_141 = arith.cmpi slt, %b_k_133, %cst_6 : tensor<64x1xi64> loc(#loc112)
      %b_k_142 = arith.andi %b_k_140, %b_k_141 : tensor<64x1xi1> loc(#loc112)
      %b_k_143 = tt.broadcast %b_k_142 : tensor<64x1xi1> -> tensor<64x32xi1> loc(#loc112)
      %b_k_144 = arith.cmpi sge, %b_k_135, %cst_5 : tensor<1x32xi64> loc(#loc112)
      %b_k_145 = tt.splat %p_q_103 : i64 -> tensor<1x32xi64> loc(#loc112)
      %b_k_146 = arith.cmpi slt, %b_k_135, %b_k_145 : tensor<1x32xi64> loc(#loc112)
      %b_k_147 = arith.andi %b_k_144, %b_k_146 : tensor<1x32xi1> loc(#loc112)
      %b_k_148 = tt.broadcast %b_k_147 : tensor<1x32xi1> -> tensor<64x32xi1> loc(#loc112)
      %b_k_149 = arith.andi %b_k_143, %b_k_148 : tensor<64x32xi1> loc(#loc112)
      %b_k_150 = tt.load %b_k_139, %b_k_149 : tensor<64x32x!tt.ptr<bf16>> loc(#loc112)
      %b_h = tt.splat %h_32 : !tt.ptr<bf16> -> tensor<128x64x!tt.ptr<bf16>> loc(#loc113)
      %b_h_151 = tt.splat %p_h_106 : i64 -> tensor<128xi64> loc(#loc113)
      %b_h_152 = tt.make_range {end = 128 : i32, start = 0 : i32} : tensor<128xi32> loc(#loc113)
      %b_h_153 = arith.extsi %b_h_152 : tensor<128xi32> to tensor<128xi64> loc(#loc113)
      %b_h_154 = arith.addi %b_h_151, %b_h_153 : tensor<128xi64> loc(#loc113)
      %b_h_155 = tt.expand_dims %b_h_154 {axis = 1 : i32} : tensor<128xi64> -> tensor<128x1xi64> loc(#loc113)
      %b_h_156 = arith.muli %b_h_155, %cst_4 : tensor<128x1xi64> loc(#loc113)
      %b_h_157 = tt.broadcast %b_h_156 : tensor<128x1xi64> -> tensor<128x64xi64> loc(#loc113)
      %b_h_158 = tt.broadcast %b_q_118 : tensor<1x64xi64> -> tensor<128x64xi64> loc(#loc113)
      %b_h_159 = arith.addi %b_h_157, %b_h_158 : tensor<128x64xi64> loc(#loc113)
      %b_h_160 = tt.addptr %b_h, %b_h_159 : tensor<128x64x!tt.ptr<bf16>>, tensor<128x64xi64> loc(#loc113)
      %b_h_161 = arith.cmpi sge, %b_h_155, %cst_3 : tensor<128x1xi64> loc(#loc113)
      %b_h_162 = arith.cmpi slt, %b_h_155, %cst_4 : tensor<128x1xi64> loc(#loc113)
      %b_h_163 = arith.andi %b_h_161, %b_h_162 : tensor<128x1xi1> loc(#loc113)
      %b_h_164 = tt.broadcast %b_h_163 : tensor<128x1xi1> -> tensor<128x64xi1> loc(#loc113)
      %b_h_165 = tt.broadcast %b_q_129 : tensor<1x64xi1> -> tensor<128x64xi1> loc(#loc113)
      %b_h_166 = arith.andi %b_h_164, %b_h_165 : tensor<128x64xi1> loc(#loc113)
      %b_h_167 = tt.load %b_h_160, %b_h_166 : tensor<128x64x!tt.ptr<bf16>> loc(#loc113)
      %b_o_168 = tt.trans %b_h_167 {order = array<i32: 1, 0>} : tensor<128x64xbf16> -> tensor<64x128xbf16> loc(#loc114)
      %b_o_169 = tt.dot %b_q_132, %b_o_168, %b_o_100, inputPrecision = tf32 : tensor<32x64xbf16> * tensor<64x128xbf16> -> tensor<32x128xf32> loc(#loc115)
      %b_A_170 = tt.dot %b_q_132, %b_k_150, %b_A_101, inputPrecision = tf32 : tensor<32x64xbf16> * tensor<64x32xbf16> -> tensor<32x32xf32> loc(#loc116)
      scf.yield %b_o_169, %b_A_170 : tensor<32x128xf32>, tensor<32x32xf32> loc(#loc45)
    } loc(#loc145)
    %g_33 = tt.addptr %g, %v_24 : !tt.ptr<f32>, i32 loc(#loc117)
    %p_g = arith.muli %8, %c32_i32 : i32 loc(#loc118)
    %p_g_34 = arith.extsi %T_16 : i32 to i64 loc(#loc119)
    %p_g_35 = arith.extsi %p_g : i32 to i64 loc(#loc119)
    %b_g_36 = tt.splat %g_33 : !tt.ptr<f32> -> tensor<32x!tt.ptr<f32>> loc(#loc87)
    %b_g_37 = tt.splat %p_g_35 : i64 -> tensor<32xi64> loc(#loc87)
    %b_g_38 = tt.make_range {end = 32 : i32, start = 0 : i32} : tensor<32xi32> loc(#loc87)
    %b_g_39 = arith.extsi %b_g_38 : tensor<32xi32> to tensor<32xi64> loc(#loc87)
    %b_g_40 = arith.addi %b_g_37, %b_g_39 : tensor<32xi64> loc(#loc87)
    %b_g_41 = arith.muli %b_g_40, %b_g_2 : tensor<32xi64> loc(#loc87)
    %b_g_42 = tt.addptr %b_g_36, %b_g_41 : tensor<32x!tt.ptr<f32>>, tensor<32xi64> loc(#loc87)
    %b_g_43 = arith.cmpi sge, %b_g_40, %b_g : tensor<32xi64> loc(#loc87)
    %b_g_44 = tt.splat %p_g_34 : i64 -> tensor<32xi64> loc(#loc87)
    %b_g_45 = arith.cmpi slt, %b_g_40, %b_g_44 : tensor<32xi64> loc(#loc87)
    %b_g_46 = arith.andi %b_g_43, %b_g_45 : tensor<32xi1> loc(#loc87)
    %b_g_47 = tt.load %b_g_42, %b_g_46 : tensor<32x!tt.ptr<f32>> loc(#loc87)
    %b_o = math.exp %b_g_47 : tensor<32xf32> loc(#loc120)
    %b_o_48 = tt.expand_dims %b_o {axis = 1 : i32} : tensor<32xf32> -> tensor<32x1xf32> loc(#loc121)
    %b_o_49 = tt.broadcast %b_o_48 : tensor<32x1xf32> -> tensor<32x128xf32> loc(#loc122)
    %b_o_50 = arith.mulf %b_A#0, %b_o_49 : tensor<32x128xf32> loc(#loc122)
    %b_A_51 = tt.expand_dims %b_g_47 {axis = 1 : i32} : tensor<32xf32> -> tensor<32x1xf32> loc(#loc123)
    %b_A_52 = tt.expand_dims %b_g_47 {axis = 0 : i32} : tensor<32xf32> -> tensor<1x32xf32> loc(#loc124)
    %b_A_53 = tt.broadcast %b_A_51 : tensor<32x1xf32> -> tensor<32x32xf32> loc(#loc125)
    %b_A_54 = tt.broadcast %b_A_52 : tensor<1x32xf32> -> tensor<32x32xf32> loc(#loc125)
    %b_A_55 = arith.subf %b_A_53, %b_A_54 : tensor<32x32xf32> loc(#loc125)
    %b_A_56 = math.exp %b_A_55 : tensor<32x32xf32> loc(#loc126)
    %b_A_57 = arith.mulf %b_A#1, %b_A_56 : tensor<32x32xf32> loc(#loc127)
    %o_t = tt.splat %p_g : i32 -> tensor<32xi32> loc(#loc128)
    %o_t_58 = arith.addi %o_t, %b_g_38 : tensor<32xi32> loc(#loc128)
    %m_t = tt.splat %T_16 : i32 -> tensor<32xi32> loc(#loc129)
    %m_t_59 = arith.cmpi slt, %o_t_58, %m_t : tensor<32xi32> loc(#loc129)
    %m_A = tt.expand_dims %o_t_58 {axis = 1 : i32} : tensor<32xi32> -> tensor<32x1xi32> loc(#loc130)
    %m_A_60 = tt.expand_dims %o_t_58 {axis = 0 : i32} : tensor<32xi32> -> tensor<1x32xi32> loc(#loc131)
    %m_A_61 = tt.broadcast %m_A : tensor<32x1xi32> -> tensor<32x32xi32> loc(#loc132)
    %m_A_62 = tt.broadcast %m_A_60 : tensor<1x32xi32> -> tensor<32x32xi32> loc(#loc132)
    %m_A_63 = arith.cmpi sge, %m_A_61, %m_A_62 : tensor<32x32xi32> loc(#loc132)
    %m_A_64 = tt.expand_dims %m_t_59 {axis = 1 : i32} : tensor<32xi1> -> tensor<32x1xi1> loc(#loc133)
    %m_A_65 = tt.expand_dims %m_t_59 {axis = 0 : i32} : tensor<32xi1> -> tensor<1x32xi1> loc(#loc134)
    %m_A_66 = tt.broadcast %m_A_64 : tensor<32x1xi1> -> tensor<32x32xi1> loc(#loc134)
    %m_A_67 = tt.broadcast %m_A_65 : tensor<1x32xi1> -> tensor<32x32xi1> loc(#loc134)
    %m_A_68 = arith.andi %m_A_66, %m_A_67 : tensor<32x32xi1> loc(#loc134)
    %m_A_69 = arith.andi %m_A_63, %m_A_68 : tensor<32x32xi1> loc(#loc135)
    %b_A_70 = arith.select %m_A_69, %b_A_57, %cst_14 : tensor<32x32xi1>, tensor<32x32xf32> loc(#loc136)
    %p_v = arith.muli %0, %c128_i32 : i32 loc(#loc137)
    %p_v_71 = arith.extsi %p_v : i32 to i64 loc(#loc138)
    %b_v = tt.splat %v_26 : !tt.ptr<bf16> -> tensor<32x128x!tt.ptr<bf16>> loc(#loc139)
    %b_v_72 = tt.expand_dims %b_g_40 {axis = 1 : i32} : tensor<32xi64> -> tensor<32x1xi64> loc(#loc139)
    %b_v_73 = arith.muli %b_v_72, %cst_1 : tensor<32x1xi64> loc(#loc139)
    %b_v_74 = tt.broadcast %b_v_73 : tensor<32x1xi64> -> tensor<32x128xi64> loc(#loc139)
    %b_v_75 = tt.splat %p_v_71 : i64 -> tensor<128xi64> loc(#loc139)
    %b_v_76 = tt.make_range {end = 128 : i32, start = 0 : i32} : tensor<128xi32> loc(#loc139)
    %b_v_77 = arith.extsi %b_v_76 : tensor<128xi32> to tensor<128xi64> loc(#loc139)
    %b_v_78 = arith.addi %b_v_75, %b_v_77 : tensor<128xi64> loc(#loc139)
    %b_v_79 = tt.expand_dims %b_v_78 {axis = 0 : i32} : tensor<128xi64> -> tensor<1x128xi64> loc(#loc139)
    %b_v_80 = tt.broadcast %b_v_79 : tensor<1x128xi64> -> tensor<32x128xi64> loc(#loc139)
    %b_v_81 = arith.addi %b_v_74, %b_v_80 : tensor<32x128xi64> loc(#loc139)
    %b_v_82 = tt.addptr %b_v, %b_v_81 : tensor<32x128x!tt.ptr<bf16>>, tensor<32x128xi64> loc(#loc139)
    %b_v_83 = arith.cmpi sge, %b_v_72, %cst_11 : tensor<32x1xi64> loc(#loc139)
    %b_v_84 = tt.splat %p_g_34 : i64 -> tensor<32x1xi64> loc(#loc139)
    %b_v_85 = arith.cmpi slt, %b_v_72, %b_v_84 : tensor<32x1xi64> loc(#loc139)
    %b_v_86 = arith.andi %b_v_83, %b_v_85 : tensor<32x1xi1> loc(#loc139)
    %b_v_87 = tt.broadcast %b_v_86 : tensor<32x1xi1> -> tensor<32x128xi1> loc(#loc139)
    %b_v_88 = arith.cmpi sge, %b_v_79, %cst_0 : tensor<1x128xi64> loc(#loc139)
    %b_v_89 = arith.cmpi slt, %b_v_79, %cst : tensor<1x128xi64> loc(#loc139)
    %b_v_90 = arith.andi %b_v_88, %b_v_89 : tensor<1x128xi1> loc(#loc139)
    %b_v_91 = tt.broadcast %b_v_90 : tensor<1x128xi1> -> tensor<32x128xi1> loc(#loc139)
    %b_v_92 = arith.andi %b_v_87, %b_v_91 : tensor<32x128xi1> loc(#loc139)
    %b_v_93 = tt.load %b_v_82, %b_v_92 : tensor<32x128x!tt.ptr<bf16>> loc(#loc139)
    %b_o_94 = tt.splat %scale : f32 -> tensor<32x128xf32> loc(#loc140)
    %b_o_95 = arith.mulf %b_o_50, %b_o_94 : tensor<32x128xf32> loc(#loc140)
    %b_o_96 = arith.truncf %b_A_70 : tensor<32x32xf32> to tensor<32x32xbf16> loc(#loc141)
    %b_o_97 = tt.dot %b_o_96, %b_v_93, %cst_15, inputPrecision = tf32 : tensor<32x32xbf16> * tensor<32x128xbf16> -> tensor<32x128xf32> loc(#loc142)
    %b_o_98 = arith.mulf %b_o_97, %b_o_94 : tensor<32x128xf32> loc(#loc143)
    %b_o_99 = arith.addf %b_o_95, %b_o_98 : tensor<32x128xf32> loc(#loc144)
    %13 = arith.truncf %b_o_99 : tensor<32x128xf32> to tensor<32x128xbf16> loc(#loc74)
    %14 = tt.splat %o_27 : !tt.ptr<bf16> -> tensor<32x128x!tt.ptr<bf16>> loc(#loc75)
    %15 = tt.addptr %14, %b_v_81 : tensor<32x128x!tt.ptr<bf16>>, tensor<32x128xi64> loc(#loc75)
    tt.store %15, %13, %b_v_92 : tensor<32x128x!tt.ptr<bf16>> loc(#loc75)
    tt.return loc(#loc76)
  } loc(#loc)
} loc(#loc)
#loc1 = loc(unknown)
#loc2 = loc("/data/conda/envs/or_llm/lib/python3.12/site-packages/vllm/model_executor/layers/fla/ops/chunk_o.py":118:22)
#loc3 = loc("/data/conda/envs/or_llm/lib/python3.12/site-packages/vllm/model_executor/layers/fla/ops/chunk_o.py":93:21)
#loc4 = loc("/data/conda/envs/or_llm/lib/python3.12/site-packages/vllm/model_executor/layers/fla/ops/chunk_o.py":88:45)
#loc5 = loc("/data/conda/envs/or_llm/lib/python3.12/site-packages/vllm/model_executor/layers/fla/ops/chunk_o.py":63:35)
#loc6 = loc("/data/conda/envs/or_llm/lib/python3.12/site-packages/vllm/model_executor/layers/fla/ops/chunk_o.py":63:53)
#loc7 = loc("/data/conda/envs/or_llm/lib/python3.12/site-packages/vllm/model_executor/layers/fla/ops/chunk_o.py":63:71)
#loc8 = loc("/data/conda/envs/or_llm/lib/python3.12/site-packages/vllm/model_executor/layers/fla/ops/chunk_o.py":64:33)
#loc9 = loc("/data/conda/envs/or_llm/lib/python3.12/site-packages/vllm/model_executor/layers/fla/ops/chunk_o.py":69:42)
#loc10 = loc("/data/conda/envs/or_llm/lib/python3.12/site-packages/vllm/model_executor/layers/fla/ops/chunk_o.py":69:36)
#loc11 = loc("/data/conda/envs/or_llm/lib/python3.12/site-packages/vllm/model_executor/layers/fla/ops/chunk_o.py":69:20)
#loc12 = loc("/data/conda/envs/or_llm/lib/python3.12/site-packages/vllm/model_executor/layers/fla/ops/chunk_o.py":70:46)
#loc13 = loc("/data/conda/envs/or_llm/lib/python3.12/site-packages/vllm/model_executor/layers/fla/ops/chunk_o.py":70:20)
#loc14 = loc("/data/conda/envs/or_llm/lib/python3.12/site-packages/vllm/model_executor/layers/fla/ops/chunk_o.py":73:33)
#loc15 = loc("/data/conda/envs/or_llm/lib/python3.12/site-packages/vllm/model_executor/layers/fla/ops/chunk_o.py":73:20)
#loc16 = loc("/data/conda/envs/or_llm/lib/python3.12/site-packages/vllm/model_executor/layers/fla/ops/chunk_o.py":74:39)
#loc17 = loc("/data/conda/envs/or_llm/lib/python3.12/site-packages/vllm/model_executor/layers/fla/ops/chunk_o.py":74:20)
#loc18 = loc("/data/conda/envs/or_llm/lib/python3.12/site-packages/vllm/model_executor/layers/fla/ops/chunk_o.py":76:18)
#loc19 = loc("/data/conda/envs/or_llm/lib/python3.12/site-packages/vllm/model_executor/layers/fla/ops/chunk_o.py":84:16)
#loc20 = loc("/data/conda/envs/or_llm/lib/python3.12/site-packages/vllm/model_executor/layers/fla/ops/chunk_o.py":84:29)
#loc21 = loc("/data/conda/envs/or_llm/lib/python3.12/site-packages/vllm/model_executor/layers/fla/ops/chunk_o.py":84:21)
#loc22 = loc("/data/conda/envs/or_llm/lib/python3.12/site-packages/vllm/model_executor/layers/fla/ops/chunk_o.py":84:41)
#loc23 = loc("/data/conda/envs/or_llm/lib/python3.12/site-packages/vllm/model_executor/layers/fla/ops/chunk_o.py":84:9)
#loc24 = loc("/data/conda/envs/or_llm/lib/python3.12/site-packages/vllm/model_executor/layers/fla/ops/chunk_o.py":85:9)
#loc25 = loc("/data/conda/envs/or_llm/lib/python3.12/site-packages/vllm/model_executor/layers/fla/ops/chunk_o.py":86:16)
#loc26 = loc("/data/conda/envs/or_llm/lib/python3.12/site-packages/vllm/model_executor/layers/fla/ops/chunk_o.py":86:20)
#loc27 = loc("/data/conda/envs/or_llm/lib/python3.12/site-packages/vllm/model_executor/layers/fla/ops/chunk_o.py":86:27)
#loc28 = loc("/data/conda/envs/or_llm/lib/python3.12/site-packages/vllm/model_executor/layers/fla/ops/chunk_o.py":86:9)
#loc29 = loc("/data/conda/envs/or_llm/lib/python3.12/site-packages/vllm/model_executor/layers/fla/ops/chunk_o.py":87:9)
#loc30 = loc("/data/conda/envs/or_llm/lib/python3.12/site-packages/vllm/model_executor/layers/fla/ops/chunk_o.py":88:17)
#loc31 = loc("/data/conda/envs/or_llm/lib/python3.12/site-packages/vllm/model_executor/layers/fla/ops/chunk_o.py":88:21)
#loc32 = loc("/data/conda/envs/or_llm/lib/python3.12/site-packages/vllm/model_executor/layers/fla/ops/chunk_o.py":88:29)
#loc33 = loc("/data/conda/envs/or_llm/lib/python3.12/site-packages/vllm/model_executor/layers/fla/ops/chunk_o.py":88:9)
#loc34 = loc("/data/conda/envs/or_llm/lib/python3.12/site-packages/vllm/model_executor/layers/fla/ops/chunk_o.py":95:43)
#loc35 = loc("/data/conda/envs/or_llm/lib/python3.12/site-packages/vllm/model_executor/layers/fla/ops/chunk_o.py":95:53)
#loc36 = loc("/data/conda/envs/or_llm/lib/python3.12/site-packages/vllm/model_executor/layers/fla/ops/chunk_o.py":95:68)
#loc37 = loc("/data/conda/envs/or_llm/lib/python3.12/site-packages/vllm/model_executor/layers/fla/ops/chunk_o.py":101:38)
#loc38 = loc("/data/conda/envs/or_llm/lib/python3.12/site-packages/vllm/model_executor/layers/fla/ops/chunk_o.py":101:63)
#loc39 = loc("/data/conda/envs/or_llm/lib/python3.12/site-packages/vllm/model_executor/layers/fla/ops/chunk_o.py":104:22)
#loc40 = loc("/data/conda/envs/or_llm/lib/python3.12/site-packages/vllm/model_executor/layers/fla/ops/chunk_o.py":106:22)
#loc41 = loc("/data/conda/envs/or_llm/lib/python3.12/site-packages/vllm/model_executor/layers/fla/ops/chunk_o.py":108:22)
#loc42 = loc("/data/conda/envs/or_llm/lib/python3.12/site-packages/vllm/model_executor/layers/fla/ops/chunk_o.py":111:36)
#loc43 = loc("/data/conda/envs/or_llm/lib/python3.12/site-packages/vllm/model_executor/layers/fla/ops/chunk_o.py":111:27)
#loc44 = loc("/data/conda/envs/or_llm/lib/python3.12/site-packages/vllm/model_executor/layers/fla/ops/chunk_o.py":113:27)
#loc45 = loc("/data/conda/envs/or_llm/lib/python3.12/site-packages/vllm/model_executor/layers/fla/ops/chunk_o.py":113:8)
#loc46 = loc("/data/conda/envs/or_llm/lib/python3.12/site-packages/vllm/model_executor/layers/fla/ops/chunk_o.py":116:13)
#loc47 = loc("/data/conda/envs/or_llm/lib/python3.12/site-packages/vllm/model_executor/layers/fla/ops/chunk_o.py":117:54)
#loc48 = loc("/data/conda/envs/or_llm/lib/python3.12/site-packages/vllm/model_executor/layers/fla/ops/chunk_o.py":117:67)
#loc49 = loc("/data/conda/envs/or_llm/lib/python3.12/site-packages/vllm/model_executor/layers/fla/ops/chunk_o.py":119:24)
#loc50 = loc("/data/conda/envs/or_llm/lib/python3.12/site-packages/vllm/model_executor/layers/fla/ops/chunk_o.py":119:29)
#loc51 = loc("/data/conda/envs/or_llm/lib/python3.12/site-packages/vllm/model_executor/layers/fla/ops/chunk_o.py":119:20)
#loc52 = loc("/data/conda/envs/or_llm/lib/python3.12/site-packages/vllm/model_executor/layers/fla/ops/chunk_o.py":120:28)
#loc53 = loc("/data/conda/envs/or_llm/lib/python3.12/site-packages/vllm/model_executor/layers/fla/ops/chunk_o.py":120:43)
#loc54 = loc("/data/conda/envs/or_llm/lib/python3.12/site-packages/vllm/model_executor/layers/fla/ops/chunk_o.py":120:39)
#loc55 = loc("/data/conda/envs/or_llm/lib/python3.12/site-packages/vllm/model_executor/layers/fla/ops/chunk_o.py":120:24)
#loc56 = loc("/data/conda/envs/or_llm/lib/python3.12/site-packages/vllm/model_executor/layers/fla/ops/chunk_o.py":120:20)
#loc57 = loc("/data/conda/envs/or_llm/lib/python3.12/site-packages/vllm/model_executor/layers/fla/ops/chunk_o.py":122:21)
#loc58 = loc("/data/conda/envs/or_llm/lib/python3.12/site-packages/vllm/model_executor/layers/fla/ops/chunk_o.py":123:16)
#loc59 = loc("/data/conda/envs/or_llm/lib/python3.12/site-packages/vllm/model_executor/layers/fla/ops/chunk_o.py":124:15)
#loc60 = loc("/data/conda/envs/or_llm/lib/python3.12/site-packages/vllm/model_executor/layers/fla/ops/chunk_o.py":124:31)
#loc61 = loc("/data/conda/envs/or_llm/lib/python3.12/site-packages/vllm/model_executor/layers/fla/ops/chunk_o.py":124:27)
#loc62 = loc("/data/conda/envs/or_llm/lib/python3.12/site-packages/vllm/model_executor/layers/fla/ops/chunk_o.py":124:48)
#loc63 = loc("/data/conda/envs/or_llm/lib/python3.12/site-packages/vllm/model_executor/layers/fla/ops/chunk_o.py":124:59)
#loc64 = loc("/data/conda/envs/or_llm/lib/python3.12/site-packages/vllm/model_executor/layers/fla/ops/chunk_o.py":124:44)
#loc65 = loc("/data/conda/envs/or_llm/lib/python3.12/site-packages/vllm/model_executor/layers/fla/ops/chunk_o.py":125:29)
#loc66 = loc("/data/conda/envs/or_llm/lib/python3.12/site-packages/vllm/model_executor/layers/fla/ops/chunk_o.py":128:48)
#loc67 = loc("/data/conda/envs/or_llm/lib/python3.12/site-packages/vllm/model_executor/layers/fla/ops/chunk_o.py":128:63)
#loc68 = loc("/data/conda/envs/or_llm/lib/python3.12/site-packages/vllm/model_executor/layers/fla/ops/chunk_o.py":133:18)
#loc69 = loc("/data/conda/envs/or_llm/lib/python3.12/site-packages/vllm/model_executor/layers/fla/ops/chunk_o.py":137:16)
#loc70 = loc("/data/conda/envs/or_llm/lib/python3.12/site-packages/vllm/model_executor/layers/fla/ops/chunk_o.py":137:38)
#loc71 = loc("/data/conda/envs/or_llm/lib/python3.12/site-packages/vllm/model_executor/layers/fla/ops/chunk_o.py":137:50)
#loc72 = loc("/data/conda/envs/or_llm/lib/python3.12/site-packages/vllm/model_executor/layers/fla/ops/chunk_o.py":137:57)
#loc73 = loc("/data/conda/envs/or_llm/lib/python3.12/site-packages/vllm/model_executor/layers/fla/ops/chunk_o.py":137:24)
#loc74 = loc("/data/conda/envs/or_llm/lib/python3.12/site-packages/vllm/model_executor/layers/fla/ops/chunk_o.py":138:25)
#loc75 = loc("/data/conda/envs/or_llm/lib/python3.12/site-packages/vllm/model_executor/layers/fla/ops/chunk_o.py":138:18)
#loc76 = loc("/data/conda/envs/or_llm/lib/python3.12/site-packages/vllm/model_executor/layers/fla/ops/chunk_o.py":138:4)
#loc87 = loc("b_g"(#loc2))
#loc88 = loc("h"(#loc4))
#loc89 = loc("T"(#loc18))
#loc90 = loc("q"(#loc19))
#loc91 = loc("q"(#loc20))
#loc92 = loc("q"(#loc21))
#loc93 = loc("q"(#loc22))
#loc94 = loc("q"(#loc23))
#loc95 = loc("k"(#loc24))
#loc96 = loc("v"(#loc25))
#loc97 = loc("v"(#loc26))
#loc98 = loc("v"(#loc27))
#loc99 = loc("v"(#loc28))
#loc100 = loc("o"(#loc29))
#loc101 = loc("h"(#loc30))
#loc102 = loc("h"(#loc31))
#loc103 = loc("h"(#loc32))
#loc104 = loc("h"(#loc33))
#loc105 = loc("b_o"(#loc3))
#loc106 = loc("p_q"(#loc34))
#loc107 = loc("p_q"(#loc35))
#loc108 = loc("p_q"(#loc36))
#loc109 = loc("p_h"(#loc37))
#loc110 = loc("p_h"(#loc38))
#loc111 = loc("b_q"(#loc39))
#loc112 = loc("b_k"(#loc40))
#loc113 = loc("b_h"(#loc41))
#loc114 = loc("b_o"(#loc42))
#loc115 = loc("b_o"(#loc43))
#loc116 = loc("b_A"(#loc44))
#loc117 = loc("g"(#loc46))
#loc118 = loc("p_g"(#loc47))
#loc119 = loc("p_g"(#loc48))
#loc120 = loc("b_o"(#loc49))
#loc121 = loc("b_o"(#loc50))
#loc122 = loc("b_o"(#loc51))
#loc123 = loc("b_A"(#loc52))
#loc124 = loc("b_A"(#loc53))
#loc125 = loc("b_A"(#loc54))
#loc126 = loc("b_A"(#loc55))
#loc127 = loc("b_A"(#loc56))
#loc128 = loc("o_t"(#loc57))
#loc129 = loc("m_t"(#loc58))
#loc130 = loc("m_A"(#loc59))
#loc131 = loc("m_A"(#loc60))
#loc132 = loc("m_A"(#loc61))
#loc133 = loc("m_A"(#loc62))
#loc134 = loc("m_A"(#loc63))
#loc135 = loc("m_A"(#loc64))
#loc136 = loc("b_A"(#loc65))
#loc137 = loc("p_v"(#loc66))
#loc138 = loc("p_v"(#loc67))
#loc139 = loc("b_v"(#loc68))
#loc140 = loc("b_o"(#loc69))
#loc141 = loc("b_o"(#loc70))
#loc142 = loc("b_o"(#loc71))
#loc143 = loc("b_o"(#loc72))
#loc144 = loc("b_o"(#loc73))
#loc145 = loc("b_A"(#loc105))
