#loc = loc("/data/conda/envs/or_llm/lib/python3.12/site-packages/vllm/model_executor/layers/fla/ops/chunk_delta_h.py":43:0)
#loc100 = loc("k"(#loc))
#loc101 = loc("v"(#loc))
#loc102 = loc("w"(#loc))
#loc103 = loc("v_new"(#loc))
#loc104 = loc("g"(#loc))
#loc105 = loc("h"(#loc))
#loc106 = loc("h0"(#loc))
#loc107 = loc("ht"(#loc))
#loc108 = loc("cu_seqlens"(#loc))
#loc109 = loc("chunk_offsets"(#loc))
#loc110 = loc("T"(#loc))
module {
  tt.func public @chunk_gated_delta_rule_fwd_kernel_h_blockdim64(%k: !tt.ptr<bf16> {tt.divisibility = 16 : i32} loc("k"(#loc)), %v: !tt.ptr<bf16> {tt.divisibility = 16 : i32} loc("v"(#loc)), %w: !tt.ptr<bf16> {tt.divisibility = 16 : i32} loc("w"(#loc)), %v_new: !tt.ptr<bf16> {tt.divisibility = 16 : i32} loc("v_new"(#loc)), %g: !tt.ptr<f32> {tt.divisibility = 16 : i32} loc("g"(#loc)), %h: !tt.ptr<bf16> {tt.divisibility = 16 : i32} loc("h"(#loc)), %h0: !tt.ptr<f32> {tt.divisibility = 16 : i32} loc("h0"(#loc)), %ht: !tt.ptr<f32> {tt.divisibility = 16 : i32} loc("ht"(#loc)), %cu_seqlens: !tt.ptr<i32> {tt.divisibility = 16 : i32} loc("cu_seqlens"(#loc)), %chunk_offsets: !tt.ptr<i64> {tt.divisibility = 16 : i32} loc("chunk_offsets"(#loc)), %T: i32 loc("T"(#loc))) attributes {noinline = false} {
    %cst = arith.constant dense<128> : tensor<64x1xi64> loc(#loc1)
    %cst_0 = arith.constant dense<2048> : tensor<1x64xi64> loc(#loc1)
    %cst_1 = arith.constant dense<0> : tensor<64xi64> loc(#loc1)
    %cst_2 = arith.constant dense<32> : tensor<64xi64> loc(#loc1)
    %cst_3 = arith.constant dense<128> : tensor<1x32xi64> loc(#loc1)
    %cst_4 = arith.constant dense<0> : tensor<1x32xi64> loc(#loc1)
    %cst_5 = arith.constant dense<0> : tensor<64x1xi64> loc(#loc1)
    %cst_6 = arith.constant dense<4096> : tensor<64x1xi64> loc(#loc1)
    %cst_7 = arith.constant dense<64> : tensor<64xi64> loc(#loc1)
    %cst_8 = arith.constant dense<128> : tensor<1x64xi64> loc(#loc1)
    %cst_9 = arith.constant dense<0> : tensor<1x64xi64> loc(#loc1)
    %cst_10 = arith.constant dense<0> : tensor<32x1xi64> loc(#loc1)
    %cst_11 = arith.constant dense<128> : tensor<32x1xi64> loc(#loc1)
    %cst_12 = arith.constant dense<0.000000e+00> : tensor<32x64xf32> loc(#loc1)
    %NT = arith.constant 63 : i32 loc(#loc189)
    %c16384_i32 = arith.constant 16384 : i32 loc(#loc1)
    %cst_13 = arith.constant dense<0.000000e+00> : tensor<64xf32> loc(#loc1)
    %cst_14 = arith.constant dense<0.000000e+00> : tensor<64x32xf32> loc(#loc1)
    %c64_i32 = arith.constant 64 : i32 loc(#loc1)
    %c0_i32 = arith.constant 0 : i32 loc(#loc1)
    %stride_h = arith.constant 524288 : i32 loc(#loc112)
    %c2_i32 = arith.constant 2 : i32 loc(#loc1)
    %c16_i32 = arith.constant 16 : i32 loc(#loc1)
    %c128_i32 = arith.constant 128 : i32 loc(#loc1)
    %c1_i32 = arith.constant 1 : i32 loc(#loc1)
    %c32_i32 = arith.constant 32 : i32 loc(#loc1)
    %0 = tt.get_program_id x : i32 loc(#loc4)
    %1 = tt.get_program_id y : i32 loc(#loc5)
    %2 = arith.divsi %1, %c32_i32 : i32 loc(#loc6)
    %3 = arith.remsi %1, %c32_i32 : i32 loc(#loc7)
    %4 = tt.addptr %cu_seqlens, %2 : !tt.ptr<i32>, i32 loc(#loc8)
    %5 = tt.load %4 : !tt.ptr<i32> loc(#loc9)
    %6 = tt.addptr %4, %c1_i32 : !tt.ptr<i32>, i32 loc(#loc10)
    %7 = tt.load %6 : !tt.ptr<i32> loc(#loc11)
    %T_15 = arith.subi %7, %5 : i32 loc(#loc113)
    %NT_16 = arith.addi %T_15, %NT : i32 loc(#loc190)
    %NT_17 = arith.divsi %NT_16, %c64_i32 : i32 loc(#loc191)
    %boh = tt.addptr %chunk_offsets, %2 : !tt.ptr<i64>, i32 loc(#loc114)
    %boh_18 = tt.load %boh : !tt.ptr<i64> loc(#loc115)
    %boh_19 = arith.trunci %boh_18 : i64 to i32 loc(#loc116)
    %h_20 = arith.muli %boh_19, %c32_i32 : i32 loc(#loc117)
    %h_21 = arith.addi %h_20, %3 : i32 loc(#loc118)
    %h_22 = arith.muli %h_21, %c16384_i32 : i32 loc(#loc119)
    %h_23 = arith.extsi %h_22 : i32 to i64 loc(#loc120)
    %h_24 = tt.addptr %h, %h_23 : !tt.ptr<bf16>, i64 loc(#loc121)
    %v_25 = arith.muli %5, %c32_i32 : i32 loc(#loc122)
    %v_26 = arith.addi %v_25, %3 : i32 loc(#loc123)
    %v_27 = arith.muli %v_26, %c128_i32 : i32 loc(#loc124)
    %v_28 = arith.extsi %v_27 : i32 to i64 loc(#loc125)
    %v_29 = tt.addptr %v, %v_28 : !tt.ptr<bf16>, i64 loc(#loc126)
    %k_30 = arith.muli %5, %c16_i32 : i32 loc(#loc127)
    %k_31 = arith.divsi %3, %c2_i32 : i32 loc(#loc128)
    %k_32 = arith.addi %k_30, %k_31 : i32 loc(#loc129)
    %k_33 = arith.muli %k_32, %c128_i32 : i32 loc(#loc130)
    %k_34 = arith.extsi %k_33 : i32 to i64 loc(#loc131)
    %k_35 = tt.addptr %k, %k_34 : !tt.ptr<bf16>, i64 loc(#loc132)
    %w_36 = tt.addptr %w, %v_28 : !tt.ptr<bf16>, i64 loc(#loc133)
    %v_new_37 = tt.addptr %v_new, %v_28 : !tt.ptr<bf16>, i64 loc(#loc134)
    %h0_38 = arith.muli %1, %c16384_i32 : i32 loc(#loc135)
    %h0_39 = tt.addptr %h0, %h0_38 : !tt.ptr<f32>, i32 loc(#loc136)
    %ht_40 = tt.addptr %ht, %h0_38 : !tt.ptr<f32>, i32 loc(#loc137)
    %p_h0_1 = arith.muli %0, %c32_i32 : i32 loc(#loc138)
    %p_h0_1_41 = arith.extsi %p_h0_1 : i32 to i64 loc(#loc139)
    %b_h1 = tt.splat %h0_39 : !tt.ptr<f32> -> tensor<32x64x!tt.ptr<f32>> loc(#loc140)
    %b_h1_42 = tt.splat %p_h0_1_41 : i64 -> tensor<32xi64> loc(#loc140)
    %b_h1_43 = tt.make_range {end = 32 : i32, start = 0 : i32} : tensor<32xi32> loc(#loc140)
    %b_h1_44 = arith.extsi %b_h1_43 : tensor<32xi32> to tensor<32xi64> loc(#loc140)
    %b_h1_45 = arith.addi %b_h1_42, %b_h1_44 : tensor<32xi64> loc(#loc140)
    %b_h1_46 = tt.expand_dims %b_h1_45 {axis = 1 : i32} : tensor<32xi64> -> tensor<32x1xi64> loc(#loc140)
    %b_h1_47 = arith.muli %b_h1_46, %cst_11 : tensor<32x1xi64> loc(#loc140)
    %b_h1_48 = tt.broadcast %b_h1_47 : tensor<32x1xi64> -> tensor<32x64xi64> loc(#loc140)
    %b_h1_49 = tt.make_range {end = 64 : i32, start = 0 : i32} : tensor<64xi32> loc(#loc140)
    %b_h1_50 = arith.extsi %b_h1_49 : tensor<64xi32> to tensor<64xi64> loc(#loc140)
    %b_h1_51 = tt.expand_dims %b_h1_50 {axis = 0 : i32} : tensor<64xi64> -> tensor<1x64xi64> loc(#loc140)
    %b_h1_52 = tt.broadcast %b_h1_51 : tensor<1x64xi64> -> tensor<32x64xi64> loc(#loc140)
    %b_h1_53 = arith.addi %b_h1_48, %b_h1_52 : tensor<32x64xi64> loc(#loc140)
    %b_h1_54 = tt.addptr %b_h1, %b_h1_53 : tensor<32x64x!tt.ptr<f32>>, tensor<32x64xi64> loc(#loc140)
    %b_h1_55 = arith.cmpi sge, %b_h1_46, %cst_10 : tensor<32x1xi64> loc(#loc140)
    %b_h1_56 = arith.cmpi slt, %b_h1_46, %cst_11 : tensor<32x1xi64> loc(#loc140)
    %b_h1_57 = arith.andi %b_h1_55, %b_h1_56 : tensor<32x1xi1> loc(#loc140)
    %b_h1_58 = tt.broadcast %b_h1_57 : tensor<32x1xi1> -> tensor<32x64xi1> loc(#loc140)
    %b_h1_59 = arith.cmpi sge, %b_h1_51, %cst_9 : tensor<1x64xi64> loc(#loc140)
    %b_h1_60 = arith.cmpi slt, %b_h1_51, %cst_8 : tensor<1x64xi64> loc(#loc140)
    %b_h1_61 = arith.andi %b_h1_59, %b_h1_60 : tensor<1x64xi1> loc(#loc140)
    %b_h1_62 = tt.broadcast %b_h1_61 : tensor<1x64xi1> -> tensor<32x64xi1> loc(#loc140)
    %b_h1_63 = arith.andi %b_h1_58, %b_h1_62 : tensor<32x64xi1> loc(#loc140)
    %b_h1_64 = tt.load %b_h1_54, %b_h1_63 : tensor<32x64x!tt.ptr<f32>> loc(#loc140)
    %b_h1_65 = arith.addf %b_h1_64, %cst_12 : tensor<32x64xf32> loc(#loc141)
    %b_h2 = arith.addi %b_h1_50, %cst_7 : tensor<64xi64> loc(#loc142)
    %b_h2_66 = tt.expand_dims %b_h2 {axis = 0 : i32} : tensor<64xi64> -> tensor<1x64xi64> loc(#loc142)
    %b_h2_67 = tt.broadcast %b_h2_66 : tensor<1x64xi64> -> tensor<32x64xi64> loc(#loc142)
    %b_h2_68 = arith.addi %b_h1_48, %b_h2_67 : tensor<32x64xi64> loc(#loc142)
    %b_h2_69 = tt.addptr %b_h1, %b_h2_68 : tensor<32x64x!tt.ptr<f32>>, tensor<32x64xi64> loc(#loc142)
    %b_h2_70 = arith.cmpi sge, %b_h2_66, %cst_9 : tensor<1x64xi64> loc(#loc142)
    %b_h2_71 = arith.cmpi slt, %b_h2_66, %cst_8 : tensor<1x64xi64> loc(#loc142)
    %b_h2_72 = arith.andi %b_h2_70, %b_h2_71 : tensor<1x64xi1> loc(#loc142)
    %b_h2_73 = tt.broadcast %b_h2_72 : tensor<1x64xi1> -> tensor<32x64xi1> loc(#loc142)
    %b_h2_74 = arith.andi %b_h1_58, %b_h2_73 : tensor<32x64xi1> loc(#loc142)
    %b_h2_75 = tt.load %b_h2_69, %b_h2_74 : tensor<32x64x!tt.ptr<f32>> loc(#loc142)
    %b_h2_76 = arith.addf %b_h2_75, %cst_12 : tensor<32x64xf32> loc(#loc143)
    %b_h2_77:2 = scf.for %i_t = %c0_i32 to %NT_17 step %c1_i32 iter_args(%b_h1_78 = %b_h1_65, %b_h2_79 = %b_h2_76) -> (tensor<32x64xf32>, tensor<32x64xf32>)  : i32 {
      %p_h1 = arith.muli %i_t, %stride_h : i32 loc(#loc145)
      %p_h1_80 = tt.addptr %h_24, %p_h1 : !tt.ptr<bf16>, i32 loc(#loc146)
      %11 = arith.truncf %b_h1_78 : tensor<32x64xf32> to tensor<32x64xbf16> loc(#loc48)
      %12 = tt.splat %p_h1_80 : !tt.ptr<bf16> -> tensor<32x64x!tt.ptr<bf16>> loc(#loc49)
      %13 = tt.addptr %12, %b_h1_53 : tensor<32x64x!tt.ptr<bf16>>, tensor<32x64xi64> loc(#loc49)
      tt.store %13, %11, %b_h1_63 : tensor<32x64x!tt.ptr<bf16>> loc(#loc49)
      %14 = arith.truncf %b_h2_79 : tensor<32x64xf32> to tensor<32x64xbf16> loc(#loc50)
      %15 = tt.addptr %12, %b_h2_68 : tensor<32x64x!tt.ptr<bf16>>, tensor<32x64xi64> loc(#loc51)
      tt.store %15, %14, %b_h2_74 : tensor<32x64x!tt.ptr<bf16>> loc(#loc51)
      %p_w = arith.muli %i_t, %c64_i32 : i32 loc(#loc147)
      %p_w_81 = arith.extsi %T_15 : i32 to i64 loc(#loc148)
      %p_w_82 = arith.extsi %p_w : i32 to i64 loc(#loc148)
      %b_w = tt.splat %w_36 : !tt.ptr<bf16> -> tensor<64x64x!tt.ptr<bf16>> loc(#loc149)
      %b_w_83 = tt.splat %p_w_82 : i64 -> tensor<64xi64> loc(#loc149)
      %b_w_84 = arith.addi %b_w_83, %b_h1_50 : tensor<64xi64> loc(#loc149)
      %b_w_85 = tt.expand_dims %b_w_84 {axis = 1 : i32} : tensor<64xi64> -> tensor<64x1xi64> loc(#loc149)
      %b_w_86 = arith.muli %b_w_85, %cst_6 : tensor<64x1xi64> loc(#loc149)
      %b_w_87 = tt.broadcast %b_w_86 : tensor<64x1xi64> -> tensor<64x64xi64> loc(#loc149)
      %b_w_88 = tt.broadcast %b_h1_51 : tensor<1x64xi64> -> tensor<64x64xi64> loc(#loc149)
      %b_w_89 = arith.addi %b_w_87, %b_w_88 : tensor<64x64xi64> loc(#loc149)
      %b_w_90 = tt.addptr %b_w, %b_w_89 : tensor<64x64x!tt.ptr<bf16>>, tensor<64x64xi64> loc(#loc149)
      %b_w_91 = arith.cmpi sge, %b_w_85, %cst_5 : tensor<64x1xi64> loc(#loc149)
      %b_w_92 = tt.splat %p_w_81 : i64 -> tensor<64x1xi64> loc(#loc149)
      %b_w_93 = arith.cmpi slt, %b_w_85, %b_w_92 : tensor<64x1xi64> loc(#loc149)
      %b_w_94 = arith.andi %b_w_91, %b_w_93 : tensor<64x1xi1> loc(#loc149)
      %b_w_95 = tt.broadcast %b_w_94 : tensor<64x1xi1> -> tensor<64x64xi1> loc(#loc149)
      %b_w_96 = tt.broadcast %b_h1_61 : tensor<1x64xi1> -> tensor<64x64xi1> loc(#loc149)
      %b_w_97 = arith.andi %b_w_95, %b_w_96 : tensor<64x64xi1> loc(#loc149)
      %b_w_98 = tt.load %b_w_90, %b_w_97 : tensor<64x64x!tt.ptr<bf16>> loc(#loc149)
      %b_v = tt.trans %b_h1_78 {order = array<i32: 1, 0>} : tensor<32x64xf32> -> tensor<64x32xf32> loc(#loc150)
      %b_v_99 = arith.truncf %b_v : tensor<64x32xf32> to tensor<64x32xbf16> loc(#loc151)
      %b_v_100 = tt.dot %b_w_98, %b_v_99, %cst_14, inputPrecision = tf32 : tensor<64x64xbf16> * tensor<64x32xbf16> -> tensor<64x32xf32> loc(#loc152)
      %b_w_101 = tt.broadcast %b_h2_66 : tensor<1x64xi64> -> tensor<64x64xi64> loc(#loc153)
      %b_w_102 = arith.addi %b_w_87, %b_w_101 : tensor<64x64xi64> loc(#loc153)
      %b_w_103 = tt.addptr %b_w, %b_w_102 : tensor<64x64x!tt.ptr<bf16>>, tensor<64x64xi64> loc(#loc153)
      %b_w_104 = tt.broadcast %b_h2_72 : tensor<1x64xi1> -> tensor<64x64xi1> loc(#loc153)
      %b_w_105 = arith.andi %b_w_95, %b_w_104 : tensor<64x64xi1> loc(#loc153)
      %b_w_106 = tt.load %b_w_103, %b_w_105 : tensor<64x64x!tt.ptr<bf16>> loc(#loc153)
      %b_v_107 = tt.trans %b_h2_79 {order = array<i32: 1, 0>} : tensor<32x64xf32> -> tensor<64x32xf32> loc(#loc154)
      %b_v_108 = arith.truncf %b_v_107 : tensor<64x32xf32> to tensor<64x32xbf16> loc(#loc155)
      %b_v_109 = tt.dot %b_w_106, %b_v_108, %b_v_100, inputPrecision = tf32 : tensor<64x64xbf16> * tensor<64x32xbf16> -> tensor<64x32xf32> loc(#loc156)
      %b_v_110 = tt.splat %v_29 : !tt.ptr<bf16> -> tensor<64x32x!tt.ptr<bf16>> loc(#loc157)
      %b_v_111 = tt.broadcast %b_w_86 : tensor<64x1xi64> -> tensor<64x32xi64> loc(#loc157)
      %b_v_112 = tt.expand_dims %b_h1_45 {axis = 0 : i32} : tensor<32xi64> -> tensor<1x32xi64> loc(#loc157)
      %b_v_113 = tt.broadcast %b_v_112 : tensor<1x32xi64> -> tensor<64x32xi64> loc(#loc157)
      %b_v_114 = arith.addi %b_v_111, %b_v_113 : tensor<64x32xi64> loc(#loc157)
      %b_v_115 = tt.addptr %b_v_110, %b_v_114 : tensor<64x32x!tt.ptr<bf16>>, tensor<64x32xi64> loc(#loc157)
      %b_v_116 = tt.broadcast %b_w_94 : tensor<64x1xi1> -> tensor<64x32xi1> loc(#loc157)
      %b_v_117 = arith.cmpi sge, %b_v_112, %cst_4 : tensor<1x32xi64> loc(#loc157)
      %b_v_118 = arith.cmpi slt, %b_v_112, %cst_3 : tensor<1x32xi64> loc(#loc157)
      %b_v_119 = arith.andi %b_v_117, %b_v_118 : tensor<1x32xi1> loc(#loc157)
      %b_v_120 = tt.broadcast %b_v_119 : tensor<1x32xi1> -> tensor<64x32xi1> loc(#loc157)
      %b_v_121 = arith.andi %b_v_116, %b_v_120 : tensor<64x32xi1> loc(#loc157)
      %b_v_122 = tt.load %b_v_115, %b_v_121 : tensor<64x32x!tt.ptr<bf16>> loc(#loc157)
      %b_v_123 = arith.extf %b_v_122 : tensor<64x32xbf16> to tensor<64x32xf32> loc(#loc158)
      %b_v_124 = arith.subf %b_v_123, %b_v_109 : tensor<64x32xf32> loc(#loc158)
      %16 = arith.truncf %b_v_124 : tensor<64x32xf32> to tensor<64x32xbf16> loc(#loc64)
      %17 = tt.splat %v_new_37 : !tt.ptr<bf16> -> tensor<64x32x!tt.ptr<bf16>> loc(#loc65)
      %18 = tt.addptr %17, %b_v_114 : tensor<64x32x!tt.ptr<bf16>>, tensor<64x32xi64> loc(#loc65)
      tt.store %18, %16, %b_v_121 : tensor<64x32x!tt.ptr<bf16>> loc(#loc65)
      %last_idx = arith.addi %i_t, %c1_i32 : i32 loc(#loc159)
      %last_idx_125 = arith.muli %last_idx, %c64_i32 : i32 loc(#loc160)
      %last_idx_126 = arith.minsi %last_idx_125, %T_15 : i32 loc(#loc161)
      %last_idx_127 = arith.subi %last_idx_126, %c1_i32 : i32 loc(#loc162)
      %m_t = tt.splat %p_w : i32 -> tensor<64xi32> loc(#loc163)
      %m_t_128 = arith.addi %m_t, %b_h1_49 : tensor<64xi32> loc(#loc163)
      %m_t_129 = tt.splat %T_15 : i32 -> tensor<64xi32> loc(#loc164)
      %m_t_130 = arith.cmpi slt, %m_t_128, %m_t_129 : tensor<64xi32> loc(#loc164)
      %b_g_last = tt.addptr %g, %v_25 : !tt.ptr<f32>, i32 loc(#loc165)
      %b_g_last_131 = arith.muli %last_idx_127, %c32_i32 : i32 loc(#loc166)
      %b_g_last_132 = tt.addptr %b_g_last, %b_g_last_131 : !tt.ptr<f32>, i32 loc(#loc167)
      %b_g_last_133 = tt.addptr %b_g_last_132, %3 : !tt.ptr<f32>, i32 loc(#loc168)
      %b_g_last_134 = tt.load %b_g_last_133 : !tt.ptr<f32> loc(#loc169)
      %p_g = tt.addptr %b_g_last, %3 : !tt.ptr<f32>, i32 loc(#loc170)
      %b_g = tt.splat %p_g : !tt.ptr<f32> -> tensor<64x!tt.ptr<f32>> loc(#loc171)
      %b_g_135 = arith.muli %b_w_84, %cst_2 : tensor<64xi64> loc(#loc171)
      %b_g_136 = tt.addptr %b_g, %b_g_135 : tensor<64x!tt.ptr<f32>>, tensor<64xi64> loc(#loc171)
      %b_g_137 = arith.cmpi sge, %b_w_84, %cst_1 : tensor<64xi64> loc(#loc171)
      %b_g_138 = tt.splat %p_w_81 : i64 -> tensor<64xi64> loc(#loc171)
      %b_g_139 = arith.cmpi slt, %b_w_84, %b_g_138 : tensor<64xi64> loc(#loc171)
      %b_g_140 = arith.andi %b_g_137, %b_g_139 : tensor<64xi1> loc(#loc171)
      %b_g_141 = tt.load %b_g_136, %b_g_140 : tensor<64x!tt.ptr<f32>> loc(#loc171)
      %b_v_142 = tt.splat %b_g_last_134 : f32 -> tensor<64xf32> loc(#loc172)
      %b_v_143 = arith.subf %b_v_142, %b_g_141 : tensor<64xf32> loc(#loc172)
      %b_v_144 = math.exp %b_v_143 : tensor<64xf32> loc(#loc173)
      %b_v_145 = arith.select %m_t_130, %b_v_144, %cst_13 : tensor<64xi1>, tensor<64xf32> loc(#loc174)
      %b_v_146 = tt.expand_dims %b_v_145 {axis = 1 : i32} : tensor<64xf32> -> tensor<64x1xf32> loc(#loc175)
      %b_v_147 = tt.broadcast %b_v_146 : tensor<64x1xf32> -> tensor<64x32xf32> loc(#loc176)
      %b_v_148 = arith.mulf %b_v_124, %b_v_147 : tensor<64x32xf32> loc(#loc176)
      %b_g_last_149 = math.exp %b_g_last_134 : f32 loc(#loc177)
      %b_h1_150 = tt.splat %b_g_last_149 : f32 -> tensor<32x64xf32> loc(#loc178)
      %b_h1_151 = arith.mulf %b_h1_78, %b_h1_150 : tensor<32x64xf32> loc(#loc178)
      %b_h2_152 = arith.mulf %b_h2_79, %b_h1_150 : tensor<32x64xf32> loc(#loc179)
      %b_v_153 = arith.truncf %b_v_148 : tensor<64x32xf32> to tensor<64x32xbf16> loc(#loc180)
      %b_k = tt.splat %k_35 : !tt.ptr<bf16> -> tensor<64x64x!tt.ptr<bf16>> loc(#loc181)
      %b_k_154 = tt.expand_dims %b_h1_50 {axis = 1 : i32} : tensor<64xi64> -> tensor<64x1xi64> loc(#loc181)
      %b_k_155 = tt.broadcast %b_k_154 : tensor<64x1xi64> -> tensor<64x64xi64> loc(#loc181)
      %b_k_156 = tt.expand_dims %b_w_84 {axis = 0 : i32} : tensor<64xi64> -> tensor<1x64xi64> loc(#loc181)
      %b_k_157 = arith.muli %b_k_156, %cst_0 : tensor<1x64xi64> loc(#loc181)
      %b_k_158 = tt.broadcast %b_k_157 : tensor<1x64xi64> -> tensor<64x64xi64> loc(#loc181)
      %b_k_159 = arith.addi %b_k_155, %b_k_158 : tensor<64x64xi64> loc(#loc181)
      %b_k_160 = tt.addptr %b_k, %b_k_159 : tensor<64x64x!tt.ptr<bf16>>, tensor<64x64xi64> loc(#loc181)
      %b_k_161 = arith.cmpi sge, %b_k_154, %cst_5 : tensor<64x1xi64> loc(#loc181)
      %b_k_162 = arith.cmpi slt, %b_k_154, %cst : tensor<64x1xi64> loc(#loc181)
      %b_k_163 = arith.andi %b_k_161, %b_k_162 : tensor<64x1xi1> loc(#loc181)
      %b_k_164 = tt.broadcast %b_k_163 : tensor<64x1xi1> -> tensor<64x64xi1> loc(#loc181)
      %b_k_165 = arith.cmpi sge, %b_k_156, %cst_9 : tensor<1x64xi64> loc(#loc181)
      %b_k_166 = tt.splat %p_w_81 : i64 -> tensor<1x64xi64> loc(#loc181)
      %b_k_167 = arith.cmpi slt, %b_k_156, %b_k_166 : tensor<1x64xi64> loc(#loc181)
      %b_k_168 = arith.andi %b_k_165, %b_k_167 : tensor<1x64xi1> loc(#loc181)
      %b_k_169 = tt.broadcast %b_k_168 : tensor<1x64xi1> -> tensor<64x64xi1> loc(#loc181)
      %b_k_170 = arith.andi %b_k_164, %b_k_169 : tensor<64x64xi1> loc(#loc181)
      %b_k_171 = tt.load %b_k_160, %b_k_170 : tensor<64x64x!tt.ptr<bf16>> loc(#loc181)
      %b_h1_172 = tt.dot %b_k_171, %b_v_153, %cst_14, inputPrecision = tf32 : tensor<64x64xbf16> * tensor<64x32xbf16> -> tensor<64x32xf32> loc(#loc182)
      %b_h1_173 = tt.trans %b_h1_172 {order = array<i32: 1, 0>} : tensor<64x32xf32> -> tensor<32x64xf32> loc(#loc183)
      %b_h1_174 = arith.addf %b_h1_151, %b_h1_173 : tensor<32x64xf32> loc(#loc184)
      %b_k_175 = tt.expand_dims %b_h2 {axis = 1 : i32} : tensor<64xi64> -> tensor<64x1xi64> loc(#loc185)
      %b_k_176 = tt.broadcast %b_k_175 : tensor<64x1xi64> -> tensor<64x64xi64> loc(#loc185)
      %b_k_177 = arith.addi %b_k_176, %b_k_158 : tensor<64x64xi64> loc(#loc185)
      %b_k_178 = tt.addptr %b_k, %b_k_177 : tensor<64x64x!tt.ptr<bf16>>, tensor<64x64xi64> loc(#loc185)
      %b_k_179 = arith.cmpi sge, %b_k_175, %cst_5 : tensor<64x1xi64> loc(#loc185)
      %b_k_180 = arith.cmpi slt, %b_k_175, %cst : tensor<64x1xi64> loc(#loc185)
      %b_k_181 = arith.andi %b_k_179, %b_k_180 : tensor<64x1xi1> loc(#loc185)
      %b_k_182 = tt.broadcast %b_k_181 : tensor<64x1xi1> -> tensor<64x64xi1> loc(#loc185)
      %b_k_183 = arith.andi %b_k_182, %b_k_169 : tensor<64x64xi1> loc(#loc185)
      %b_k_184 = tt.load %b_k_178, %b_k_183 : tensor<64x64x!tt.ptr<bf16>> loc(#loc185)
      %b_h2_185 = tt.dot %b_k_184, %b_v_153, %cst_14, inputPrecision = tf32 : tensor<64x64xbf16> * tensor<64x32xbf16> -> tensor<64x32xf32> loc(#loc186)
      %b_h2_186 = tt.trans %b_h2_185 {order = array<i32: 1, 0>} : tensor<64x32xf32> -> tensor<32x64xf32> loc(#loc187)
      %b_h2_187 = arith.addf %b_h2_152, %b_h2_186 : tensor<32x64xf32> loc(#loc188)
      scf.yield %b_h1_174, %b_h2_187 : tensor<32x64xf32>, tensor<32x64xf32> loc(#loc96)
    } loc(#loc192)
    %8 = tt.splat %ht_40 : !tt.ptr<f32> -> tensor<32x64x!tt.ptr<f32>> loc(#loc97)
    %9 = tt.addptr %8, %b_h1_53 : tensor<32x64x!tt.ptr<f32>>, tensor<32x64xi64> loc(#loc97)
    tt.store %9, %b_h2_77#0, %b_h1_63 : tensor<32x64x!tt.ptr<f32>> loc(#loc97)
    %10 = tt.addptr %8, %b_h2_68 : tensor<32x64x!tt.ptr<f32>>, tensor<32x64xi64> loc(#loc98)
    tt.store %10, %b_h2_77#1, %b_h2_74 : tensor<32x64x!tt.ptr<f32>> loc(#loc98)
    tt.return loc(#loc99)
  } loc(#loc)
} loc(#loc)
#loc1 = loc(unknown)
#loc2 = loc("/data/conda/envs/or_llm/lib/python3.12/site-packages/vllm/model_executor/layers/fla/ops/chunk_delta_h.py":77:24)
#loc3 = loc("/data/conda/envs/or_llm/lib/python3.12/site-packages/vllm/model_executor/layers/fla/ops/chunk_delta_h.py":101:15)
#loc4 = loc("/data/conda/envs/or_llm/lib/python3.12/site-packages/vllm/model_executor/layers/fla/ops/chunk_delta_h.py":69:30)
#loc5 = loc("/data/conda/envs/or_llm/lib/python3.12/site-packages/vllm/model_executor/layers/fla/ops/chunk_delta_h.py":69:48)
#loc6 = loc("/data/conda/envs/or_llm/lib/python3.12/site-packages/vllm/model_executor/layers/fla/ops/chunk_delta_h.py":70:23)
#loc7 = loc("/data/conda/envs/or_llm/lib/python3.12/site-packages/vllm/model_executor/layers/fla/ops/chunk_delta_h.py":70:33)
#loc8 = loc("/data/conda/envs/or_llm/lib/python3.12/site-packages/vllm/model_executor/layers/fla/ops/chunk_delta_h.py":73:33)
#loc9 = loc("/data/conda/envs/or_llm/lib/python3.12/site-packages/vllm/model_executor/layers/fla/ops/chunk_delta_h.py":73:20)
#loc10 = loc("/data/conda/envs/or_llm/lib/python3.12/site-packages/vllm/model_executor/layers/fla/ops/chunk_delta_h.py":74:39)
#loc11 = loc("/data/conda/envs/or_llm/lib/python3.12/site-packages/vllm/model_executor/layers/fla/ops/chunk_delta_h.py":74:20)
#loc12 = loc("/data/conda/envs/or_llm/lib/python3.12/site-packages/vllm/model_executor/layers/fla/ops/chunk_delta_h.py":76:18)
#loc13 = loc("/data/conda/envs/or_llm/lib/python3.12/site-packages/triton/language/standard.py":43:17)
#loc14 = loc("/data/conda/envs/or_llm/lib/python3.12/site-packages/triton/language/standard.py":43:30)
#loc15 = loc("/data/conda/envs/or_llm/lib/python3.12/site-packages/vllm/model_executor/layers/fla/ops/chunk_delta_h.py":78:38)
#loc16 = loc("/data/conda/envs/or_llm/lib/python3.12/site-packages/vllm/model_executor/layers/fla/ops/chunk_delta_h.py":78:22)
#loc17 = loc("/data/conda/envs/or_llm/lib/python3.12/site-packages/vllm/model_executor/layers/fla/ops/chunk_delta_h.py":78:46)
#loc18 = loc("/data/conda/envs/or_llm/lib/python3.12/site-packages/vllm/model_executor/layers/fla/ops/chunk_delta_h.py":94:17)
#loc19 = loc("/data/conda/envs/or_llm/lib/python3.12/site-packages/vllm/model_executor/layers/fla/ops/chunk_delta_h.py":94:21)
#loc20 = loc("/data/conda/envs/or_llm/lib/python3.12/site-packages/vllm/model_executor/layers/fla/ops/chunk_delta_h.py":94:32)
#loc21 = loc("/data/conda/envs/or_llm/lib/python3.12/site-packages/vllm/model_executor/layers/fla/ops/chunk_delta_h.py":94:38)
#loc22 = loc("/data/conda/envs/or_llm/lib/python3.12/site-packages/vllm/model_executor/layers/fla/ops/chunk_delta_h.py":94:9)
#loc23 = loc("/data/conda/envs/or_llm/lib/python3.12/site-packages/vllm/model_executor/layers/fla/ops/chunk_delta_h.py":95:17)
#loc24 = loc("/data/conda/envs/or_llm/lib/python3.12/site-packages/vllm/model_executor/layers/fla/ops/chunk_delta_h.py":95:21)
#loc25 = loc("/data/conda/envs/or_llm/lib/python3.12/site-packages/vllm/model_executor/layers/fla/ops/chunk_delta_h.py":95:28)
#loc26 = loc("/data/conda/envs/or_llm/lib/python3.12/site-packages/vllm/model_executor/layers/fla/ops/chunk_delta_h.py":95:34)
#loc27 = loc("/data/conda/envs/or_llm/lib/python3.12/site-packages/vllm/model_executor/layers/fla/ops/chunk_delta_h.py":95:9)
#loc28 = loc("/data/conda/envs/or_llm/lib/python3.12/site-packages/vllm/model_executor/layers/fla/ops/chunk_delta_h.py":96:17)
#loc29 = loc("/data/conda/envs/or_llm/lib/python3.12/site-packages/vllm/model_executor/layers/fla/ops/chunk_delta_h.py":96:30)
#loc30 = loc("/data/conda/envs/or_llm/lib/python3.12/site-packages/vllm/model_executor/layers/fla/ops/chunk_delta_h.py":96:22)
#loc31 = loc("/data/conda/envs/or_llm/lib/python3.12/site-packages/vllm/model_executor/layers/fla/ops/chunk_delta_h.py":96:42)
#loc32 = loc("/data/conda/envs/or_llm/lib/python3.12/site-packages/vllm/model_executor/layers/fla/ops/chunk_delta_h.py":96:48)
#loc33 = loc("/data/conda/envs/or_llm/lib/python3.12/site-packages/vllm/model_executor/layers/fla/ops/chunk_delta_h.py":96:9)
#loc34 = loc("/data/conda/envs/or_llm/lib/python3.12/site-packages/vllm/model_executor/layers/fla/ops/chunk_delta_h.py":97:9)
#loc35 = loc("/data/conda/envs/or_llm/lib/python3.12/site-packages/vllm/model_executor/layers/fla/ops/chunk_delta_h.py":99:17)
#loc36 = loc("/data/conda/envs/or_llm/lib/python3.12/site-packages/vllm/model_executor/layers/fla/ops/chunk_delta_h.py":105:29)
#loc37 = loc("/data/conda/envs/or_llm/lib/python3.12/site-packages/vllm/model_executor/layers/fla/ops/chunk_delta_h.py":105:18)
#loc38 = loc("/data/conda/envs/or_llm/lib/python3.12/site-packages/vllm/model_executor/layers/fla/ops/chunk_delta_h.py":107:18)
#loc39 = loc("/data/conda/envs/or_llm/lib/python3.12/site-packages/vllm/model_executor/layers/fla/ops/chunk_delta_h.py":111:62)
#loc40 = loc("/data/conda/envs/or_llm/lib/python3.12/site-packages/vllm/model_executor/layers/fla/ops/chunk_delta_h.py":111:80)
#loc41 = loc("/data/conda/envs/or_llm/lib/python3.12/site-packages/vllm/model_executor/layers/fla/ops/chunk_delta_h.py":112:24)
#loc42 = loc("/data/conda/envs/or_llm/lib/python3.12/site-packages/vllm/model_executor/layers/fla/ops/chunk_delta_h.py":112:16)
#loc43 = loc("/data/conda/envs/or_llm/lib/python3.12/site-packages/vllm/model_executor/layers/fla/ops/chunk_delta_h.py":117:28)
#loc44 = loc("/data/conda/envs/or_llm/lib/python3.12/site-packages/vllm/model_executor/layers/fla/ops/chunk_delta_h.py":117:20)
#loc45 = loc("/data/conda/envs/or_llm/lib/python3.12/site-packages/vllm/model_executor/layers/fla/ops/chunk_delta_h.py":130:21)
#loc46 = loc("/data/conda/envs/or_llm/lib/python3.12/site-packages/vllm/model_executor/layers/fla/ops/chunk_delta_h.py":132:22)
#loc47 = loc("/data/conda/envs/or_llm/lib/python3.12/site-packages/vllm/model_executor/layers/fla/ops/chunk_delta_h.py":132:16)
#loc48 = loc("/data/conda/envs/or_llm/lib/python3.12/site-packages/vllm/model_executor/layers/fla/ops/chunk_delta_h.py":134:31)
#loc49 = loc("/data/conda/envs/or_llm/lib/python3.12/site-packages/vllm/model_executor/layers/fla/ops/chunk_delta_h.py":134:23)
#loc50 = loc("/data/conda/envs/or_llm/lib/python3.12/site-packages/vllm/model_executor/layers/fla/ops/chunk_delta_h.py":139:35)
#loc51 = loc("/data/conda/envs/or_llm/lib/python3.12/site-packages/vllm/model_executor/layers/fla/ops/chunk_delta_h.py":139:27)
#loc52 = loc("/data/conda/envs/or_llm/lib/python3.12/site-packages/vllm/model_executor/layers/fla/ops/chunk_delta_h.py":152:45)
#loc53 = loc("/data/conda/envs/or_llm/lib/python3.12/site-packages/vllm/model_executor/layers/fla/ops/chunk_delta_h.py":152:63)
#loc54 = loc("/data/conda/envs/or_llm/lib/python3.12/site-packages/vllm/model_executor/layers/fla/ops/chunk_delta_h.py":154:22)
#loc55 = loc("/data/conda/envs/or_llm/lib/python3.12/site-packages/vllm/model_executor/layers/fla/ops/chunk_delta_h.py":155:35)
#loc56 = loc("/data/conda/envs/or_llm/lib/python3.12/site-packages/vllm/model_executor/layers/fla/ops/chunk_delta_h.py":155:44)
#loc57 = loc("/data/conda/envs/or_llm/lib/python3.12/site-packages/vllm/model_executor/layers/fla/ops/chunk_delta_h.py":155:26)
#loc58 = loc("/data/conda/envs/or_llm/lib/python3.12/site-packages/vllm/model_executor/layers/fla/ops/chunk_delta_h.py":160:26)
#loc59 = loc("/data/conda/envs/or_llm/lib/python3.12/site-packages/vllm/model_executor/layers/fla/ops/chunk_delta_h.py":161:40)
#loc60 = loc("/data/conda/envs/or_llm/lib/python3.12/site-packages/vllm/model_executor/layers/fla/ops/chunk_delta_h.py":161:49)
#loc61 = loc("/data/conda/envs/or_llm/lib/python3.12/site-packages/vllm/model_executor/layers/fla/ops/chunk_delta_h.py":161:31)
#loc62 = loc("/data/conda/envs/or_llm/lib/python3.12/site-packages/vllm/model_executor/layers/fla/ops/chunk_delta_h.py":177:22)
#loc63 = loc("/data/conda/envs/or_llm/lib/python3.12/site-packages/vllm/model_executor/layers/fla/ops/chunk_delta_h.py":177:52)
#loc64 = loc("/data/conda/envs/or_llm/lib/python3.12/site-packages/vllm/model_executor/layers/fla/ops/chunk_delta_h.py":183:33)
#loc65 = loc("/data/conda/envs/or_llm/lib/python3.12/site-packages/vllm/model_executor/layers/fla/ops/chunk_delta_h.py":183:26)
#loc66 = loc("/data/conda/envs/or_llm/lib/python3.12/site-packages/vllm/model_executor/layers/fla/ops/chunk_delta_h.py":185:30)
#loc67 = loc("/data/conda/envs/or_llm/lib/python3.12/site-packages/vllm/model_executor/layers/fla/ops/chunk_delta_h.py":185:35)
#loc68 = loc("/data/conda/envs/or_llm/lib/python3.12/site-packages/vllm/model_executor/layers/fla/ops/chunk_delta_h.py":185:39)
#loc69 = loc("/data/conda/envs/or_llm/lib/python3.12/site-packages/vllm/model_executor/layers/fla/ops/chunk_delta_h.py":185:44)
#loc70 = loc("/data/conda/envs/or_llm/lib/python3.12/site-packages/vllm/model_executor/layers/fla/ops/chunk_delta_h.py":187:30)
#loc71 = loc("/data/conda/envs/or_llm/lib/python3.12/site-packages/vllm/model_executor/layers/fla/ops/chunk_delta_h.py":187:50)
#loc72 = loc("/data/conda/envs/or_llm/lib/python3.12/site-packages/vllm/model_executor/layers/fla/ops/chunk_delta_h.py":188:35)
#loc73 = loc("/data/conda/envs/or_llm/lib/python3.12/site-packages/vllm/model_executor/layers/fla/ops/chunk_delta_h.py":188:56)
#loc74 = loc("/data/conda/envs/or_llm/lib/python3.12/site-packages/vllm/model_executor/layers/fla/ops/chunk_delta_h.py":188:45)
#loc75 = loc("/data/conda/envs/or_llm/lib/python3.12/site-packages/vllm/model_executor/layers/fla/ops/chunk_delta_h.py":188:60)
#loc76 = loc("/data/conda/envs/or_llm/lib/python3.12/site-packages/vllm/model_executor/layers/fla/ops/chunk_delta_h.py":188:31)
#loc77 = loc("/data/conda/envs/or_llm/lib/python3.12/site-packages/vllm/model_executor/layers/fla/ops/chunk_delta_h.py":190:30)
#loc78 = loc("/data/conda/envs/or_llm/lib/python3.12/site-packages/vllm/model_executor/layers/fla/ops/chunk_delta_h.py":192:26)
#loc79 = loc("/data/conda/envs/or_llm/lib/python3.12/site-packages/vllm/model_executor/layers/fla/ops/chunk_delta_h.py":193:53)
#loc80 = loc("/data/conda/envs/or_llm/lib/python3.12/site-packages/vllm/model_executor/layers/fla/ops/chunk_delta_h.py":193:42)
#loc81 = loc("/data/conda/envs/or_llm/lib/python3.12/site-packages/vllm/model_executor/layers/fla/ops/chunk_delta_h.py":193:59)
#loc82 = loc("/data/conda/envs/or_llm/lib/python3.12/site-packages/vllm/model_executor/layers/fla/ops/chunk_delta_h.py":193:62)
#loc83 = loc("/data/conda/envs/or_llm/lib/python3.12/site-packages/vllm/model_executor/layers/fla/ops/chunk_delta_h.py":193:24)
#loc84 = loc("/data/conda/envs/or_llm/lib/python3.12/site-packages/vllm/model_executor/layers/fla/ops/chunk_delta_h.py":194:27)
#loc85 = loc("/data/conda/envs/or_llm/lib/python3.12/site-packages/vllm/model_executor/layers/fla/ops/chunk_delta_h.py":195:20)
#loc86 = loc("/data/conda/envs/or_llm/lib/python3.12/site-packages/vllm/model_executor/layers/fla/ops/chunk_delta_h.py":197:24)
#loc87 = loc("/data/conda/envs/or_llm/lib/python3.12/site-packages/vllm/model_executor/layers/fla/ops/chunk_delta_h.py":235:21)
#loc88 = loc("/data/conda/envs/or_llm/lib/python3.12/site-packages/vllm/model_executor/layers/fla/ops/chunk_delta_h.py":240:22)
#loc89 = loc("/data/conda/envs/or_llm/lib/python3.12/site-packages/vllm/model_executor/layers/fla/ops/chunk_delta_h.py":241:37)
#loc90 = loc("/data/conda/envs/or_llm/lib/python3.12/site-packages/vllm/model_executor/layers/fla/ops/chunk_delta_h.py":241:25)
#loc91 = loc("/data/conda/envs/or_llm/lib/python3.12/site-packages/vllm/model_executor/layers/fla/ops/chunk_delta_h.py":241:16)
#loc92 = loc("/data/conda/envs/or_llm/lib/python3.12/site-packages/vllm/model_executor/layers/fla/ops/chunk_delta_h.py":246:26)
#loc93 = loc("/data/conda/envs/or_llm/lib/python3.12/site-packages/vllm/model_executor/layers/fla/ops/chunk_delta_h.py":247:41)
#loc94 = loc("/data/conda/envs/or_llm/lib/python3.12/site-packages/vllm/model_executor/layers/fla/ops/chunk_delta_h.py":247:29)
#loc95 = loc("/data/conda/envs/or_llm/lib/python3.12/site-packages/vllm/model_executor/layers/fla/ops/chunk_delta_h.py":247:20)
#loc96 = loc("/data/conda/envs/or_llm/lib/python3.12/site-packages/vllm/model_executor/layers/fla/ops/chunk_delta_h.py":254:8)
#loc97 = loc("/data/conda/envs/or_llm/lib/python3.12/site-packages/vllm/model_executor/layers/fla/ops/chunk_delta_h.py":263:23)
#loc98 = loc("/data/conda/envs/or_llm/lib/python3.12/site-packages/vllm/model_executor/layers/fla/ops/chunk_delta_h.py":268:27)
#loc99 = loc("/data/conda/envs/or_llm/lib/python3.12/site-packages/vllm/model_executor/layers/fla/ops/chunk_delta_h.py":261:4)
#loc111 = loc("NT"(#loc2))
#loc112 = loc("stride_h"(#loc3))
#loc113 = loc("T"(#loc12))
#loc114 = loc("boh"(#loc15))
#loc115 = loc("boh"(#loc16))
#loc116 = loc("boh"(#loc17))
#loc117 = loc("h"(#loc18))
#loc118 = loc("h"(#loc19))
#loc119 = loc("h"(#loc20))
#loc120 = loc("h"(#loc21))
#loc121 = loc("h"(#loc22))
#loc122 = loc("v"(#loc23))
#loc123 = loc("v"(#loc24))
#loc124 = loc("v"(#loc25))
#loc125 = loc("v"(#loc26))
#loc126 = loc("v"(#loc27))
#loc127 = loc("k"(#loc28))
#loc128 = loc("k"(#loc29))
#loc129 = loc("k"(#loc30))
#loc130 = loc("k"(#loc31))
#loc131 = loc("k"(#loc32))
#loc132 = loc("k"(#loc33))
#loc133 = loc("w"(#loc34))
#loc134 = loc("v_new"(#loc35))
#loc135 = loc("h0"(#loc36))
#loc136 = loc("h0"(#loc37))
#loc137 = loc("ht"(#loc38))
#loc138 = loc("p_h0_1"(#loc39))
#loc139 = loc("p_h0_1"(#loc40))
#loc140 = loc("b_h1"(#loc41))
#loc141 = loc("b_h1"(#loc42))
#loc142 = loc("b_h2"(#loc43))
#loc143 = loc("b_h2"(#loc44))
#loc144 = loc("b_h1"(#loc45))
#loc145 = loc("p_h1"(#loc46))
#loc146 = loc("p_h1"(#loc47))
#loc147 = loc("p_w"(#loc52))
#loc148 = loc("p_w"(#loc53))
#loc149 = loc("b_w"(#loc54))
#loc150 = loc("b_v"(#loc55))
#loc151 = loc("b_v"(#loc56))
#loc152 = loc("b_v"(#loc57))
#loc153 = loc("b_w"(#loc58))
#loc154 = loc("b_v"(#loc59))
#loc155 = loc("b_v"(#loc60))
#loc156 = loc("b_v"(#loc61))
#loc157 = loc("b_v"(#loc62))
#loc158 = loc("b_v"(#loc63))
#loc159 = loc("last_idx"(#loc66))
#loc160 = loc("last_idx"(#loc67))
#loc161 = loc("last_idx"(#loc68))
#loc162 = loc("last_idx"(#loc69))
#loc163 = loc("m_t"(#loc70))
#loc164 = loc("m_t"(#loc71))
#loc165 = loc("b_g_last"(#loc72))
#loc166 = loc("b_g_last"(#loc73))
#loc167 = loc("b_g_last"(#loc74))
#loc168 = loc("b_g_last"(#loc75))
#loc169 = loc("b_g_last"(#loc76))
#loc170 = loc("p_g"(#loc77))
#loc171 = loc("b_g"(#loc78))
#loc172 = loc("b_v"(#loc79))
#loc173 = loc("b_v"(#loc80))
#loc174 = loc("b_v"(#loc81))
#loc175 = loc("b_v"(#loc82))
#loc176 = loc("b_v"(#loc83))
#loc177 = loc("b_g_last"(#loc84))
#loc178 = loc("b_h1"(#loc85))
#loc179 = loc("b_h2"(#loc86))
#loc180 = loc("b_v"(#loc87))
#loc181 = loc("b_k"(#loc88))
#loc182 = loc("b_h1"(#loc89))
#loc183 = loc("b_h1"(#loc90))
#loc184 = loc("b_h1"(#loc91))
#loc185 = loc("b_k"(#loc92))
#loc186 = loc("b_h2"(#loc93))
#loc187 = loc("b_h2"(#loc94))
#loc188 = loc("b_h2"(#loc95))
#loc189 = loc(callsite(#loc1 at #loc111))
#loc190 = loc(callsite(#loc13 at #loc111))
#loc191 = loc(callsite(#loc14 at #loc111))
#loc192 = loc("b_h2"(#loc144))
