#loc = loc("/data/jcy/zzs/zijinhua/.vllm_cache_reflection/torch_compile/wi/cwigbvdug3jkiuufwx65jfjeyvr2movgpkfrj6p6ixnuvjzupxks.py":18:0)
#loc1 = loc(unknown)
#loc20 = loc("/data/jcy/zzs/zijinhua/.vllm_cache_reflection/torch_compile/wi/cwigbvdug3jkiuufwx65jfjeyvr2movgpkfrj6p6ixnuvjzupxks.py":40:25)
#loc45 = loc("in_ptr0"(#loc))
#loc46 = loc("in_ptr1"(#loc))
#loc47 = loc("out_ptr1"(#loc))
#loc48 = loc("ks0"(#loc))
#loc49 = loc("xnumel"(#loc))
#loc50 = loc("r0_numel"(#loc))
#loc67 = loc("tmp4"(#loc20))
#loc90 = loc(callsite(#loc1 at #loc67))
module {
  tt.func public @triton_red_fused__to_copy_add_mean_mul_pow_rsqrt_0(%in_ptr0: !tt.ptr<bf16> {tt.divisibility = 16 : i32} loc("in_ptr0"(#loc)), %in_ptr1: !tt.ptr<bf16> {tt.divisibility = 16 : i32} loc("in_ptr1"(#loc)), %out_ptr1: !tt.ptr<bf16> {tt.divisibility = 16 : i32} loc("out_ptr1"(#loc)), %ks0: i64 loc("ks0"(#loc)), %xnumel: i32 loc("xnumel"(#loc)), %r0_numel: i32 loc("r0_numel"(#loc))) attributes {noinline = false} {
    %cst = arith.constant dense<0.000000e+00> : tensor<1x2048xbf16> loc(#loc1)
    %c2048_i32 = arith.constant 2048 : i32 loc(#loc1)
    %c0_i32 = arith.constant 0 : i32 loc(#loc1)
    %cst_0 = arith.constant dense<1.000000e+00> : tensor<1x2048xf32> loc(#loc1)
    %cst_1 = arith.constant dense<9.99999997E-7> : tensor<1x1xf32> loc(#loc1)
    %cst_2 = arith.constant dense<0.000000e+00> : tensor<1x2048xf32> loc(#loc1)
    %xoffset = tt.get_program_id x : i32 loc(#loc51)
    %xmask = arith.cmpi slt, %xoffset, %xnumel : i32 loc(#loc52)
    %r0_base = tt.make_range {end = 2048 : i32, start = 0 : i32} : tensor<2048xi32> loc(#loc53)
    %r0_base_3 = tt.expand_dims %r0_base {axis = 0 : i32} : tensor<2048xi32> -> tensor<1x2048xi32> loc(#loc54)
    %_tmp4 = scf.for %r0_offset = %c0_i32 to %r0_numel step %c2048_i32 iter_args(%_tmp4_5 = %cst_2) -> (tensor<1x2048xf32>)  : i32 {
      %r0_index = tt.splat %r0_offset : i32 -> tensor<1x2048xi32> loc(#loc56)
      %r0_index_6 = arith.addi %r0_index, %r0_base_3 : tensor<1x2048xi32> loc(#loc56)
      %r0_mask = tt.splat %r0_numel : i32 -> tensor<1x2048xi32> loc(#loc57)
      %r0_mask_7 = arith.cmpi slt, %r0_index_6, %r0_mask : tensor<1x2048xi32> loc(#loc57)
      %tmp0 = arith.extsi %xoffset : i32 to i64 loc(#loc58)
      %tmp0_8 = arith.muli %ks0, %tmp0 : i64 loc(#loc58)
      %tmp0_9 = arith.extsi %r0_index_6 : tensor<1x2048xi32> to tensor<1x2048xi64> loc(#loc59)
      %tmp0_10 = tt.splat %tmp0_8 : i64 -> tensor<1x2048xi64> loc(#loc87)
      %tmp0_11 = arith.addi %tmp0_9, %tmp0_10 : tensor<1x2048xi64> loc(#loc59)
      %tmp0_12 = tt.splat %in_ptr0 : !tt.ptr<bf16> -> tensor<1x2048x!tt.ptr<bf16>> loc(#loc60)
      %tmp0_13 = tt.addptr %tmp0_12, %tmp0_11 : tensor<1x2048x!tt.ptr<bf16>>, tensor<1x2048xi64> loc(#loc60)
      %tmp0_14 = tt.splat %xmask : i1 -> tensor<1x2048xi1> loc(#loc88)
      %tmp0_15 = arith.andi %r0_mask_7, %tmp0_14 : tensor<1x2048xi1> loc(#loc61)
      %tmp0_16 = tt.load %tmp0_13, %tmp0_15, %cst evictionPolicy = evict_last : tensor<1x2048x!tt.ptr<bf16>> loc(#loc62)
      %tmp0_17 = arith.extf %tmp0_16 : tensor<1x2048xbf16> to tensor<1x2048xf32> loc(#loc63)
      %tmp2 = arith.mulf %tmp0_17, %tmp0_17 : tensor<1x2048xf32> loc(#loc64)
      %tmp5 = arith.addf %_tmp4_5, %tmp2 : tensor<1x2048xf32> loc(#loc65)
      %_tmp4_18 = arith.select %tmp0_15, %tmp5, %_tmp4_5 : tensor<1x2048xi1>, tensor<1x2048xf32> loc(#loc66)
      scf.yield %_tmp4_18 : tensor<1x2048xf32> loc(#loc18)
    } loc(#loc55)
    %tmp4 = "tt.reduce"(%_tmp4) <{axis = 1 : i32}> ({
    ^bb0(%tmp4_5: f32 loc(callsite(#loc1 at #loc67)), %tmp4_6: f32 loc(callsite(#loc1 at #loc67))):
      %tmp4_7 = arith.addf %tmp4_5, %tmp4_6 : f32 loc(#loc93)
      tt.reduce.return %tmp4_7 : f32 loc(#loc89)
    }) : (tensor<1x2048xf32>) -> tensor<1xf32> loc(#loc89)
    %tmp4_4 = tt.expand_dims %tmp4 {axis = 1 : i32} : tensor<1xf32> -> tensor<1x1xf32> loc(#loc68)
    scf.for %r0_offset = %c0_i32 to %r0_numel step %c2048_i32  : i32 {
      %r0_index = tt.splat %r0_offset : i32 -> tensor<1x2048xi32> loc(#loc69)
      %r0_index_5 = arith.addi %r0_index, %r0_base_3 : tensor<1x2048xi32> loc(#loc69)
      %r0_mask = tt.splat %r0_numel : i32 -> tensor<1x2048xi32> loc(#loc70)
      %r0_mask_6 = arith.cmpi slt, %r0_index_5, %r0_mask : tensor<1x2048xi32> loc(#loc70)
      %tmp6 = arith.extsi %xoffset : i32 to i64 loc(#loc71)
      %tmp6_7 = arith.muli %ks0, %tmp6 : i64 loc(#loc71)
      %tmp6_8 = arith.extsi %r0_index_5 : tensor<1x2048xi32> to tensor<1x2048xi64> loc(#loc72)
      %tmp6_9 = tt.splat %tmp6_7 : i64 -> tensor<1x2048xi64> loc(#loc91)
      %tmp6_10 = arith.addi %tmp6_8, %tmp6_9 : tensor<1x2048xi64> loc(#loc72)
      %tmp6_11 = tt.splat %in_ptr0 : !tt.ptr<bf16> -> tensor<1x2048x!tt.ptr<bf16>> loc(#loc73)
      %tmp6_12 = tt.addptr %tmp6_11, %tmp6_10 : tensor<1x2048x!tt.ptr<bf16>>, tensor<1x2048xi64> loc(#loc73)
      %tmp6_13 = tt.splat %xmask : i1 -> tensor<1x2048xi1> loc(#loc92)
      %tmp6_14 = arith.andi %r0_mask_6, %tmp6_13 : tensor<1x2048xi1> loc(#loc74)
      %tmp6_15 = tt.load %tmp6_12, %tmp6_14, %cst evictionPolicy = evict_first : tensor<1x2048x!tt.ptr<bf16>> loc(#loc75)
      %tmp6_16 = arith.extf %tmp6_15 : tensor<1x2048xbf16> to tensor<1x2048xf32> loc(#loc76)
      %tmp15 = tt.splat %in_ptr1 : !tt.ptr<bf16> -> tensor<1x2048x!tt.ptr<bf16>> loc(#loc77)
      %tmp15_17 = tt.addptr %tmp15, %r0_index_5 : tensor<1x2048x!tt.ptr<bf16>>, tensor<1x2048xi32> loc(#loc77)
      %tmp15_18 = tt.load %tmp15_17, %r0_mask_6, %cst evictionPolicy = evict_last : tensor<1x2048x!tt.ptr<bf16>> loc(#loc78)
      %tmp15_19 = arith.extf %tmp15_18 : tensor<1x2048xbf16> to tensor<1x2048xf32> loc(#loc79)
      %tmp9 = arith.sitofp %ks0 : i64 to f32 loc(#loc80)
      %tmp10 = tt.splat %tmp9 : f32 -> tensor<1x1xf32> loc(#loc81)
      %tmp10_20 = arith.divf %tmp4_4, %tmp10 : tensor<1x1xf32> loc(#loc81)
      %tmp12 = arith.addf %tmp10_20, %cst_1 : tensor<1x1xf32> loc(#loc82)
      %tmp13 = tt.extern_elementwise %tmp12 {libname = "", libpath = "", pure = true, symbol = "__nv_rsqrtf"} : (tensor<1x1xf32>) -> tensor<1x1xf32> loc(#loc83)
      %tmp14 = tt.broadcast %tmp13 : tensor<1x1xf32> -> tensor<1x2048xf32> loc(#loc84)
      %tmp14_21 = arith.mulf %tmp6_16, %tmp14 : tensor<1x2048xf32> loc(#loc84)
      %tmp18 = arith.addf %tmp15_19, %cst_0 : tensor<1x2048xf32> loc(#loc85)
      %tmp19 = arith.mulf %tmp14_21, %tmp18 : tensor<1x2048xf32> loc(#loc86)
      %0 = tt.splat %out_ptr1 : !tt.ptr<bf16> -> tensor<1x2048x!tt.ptr<bf16>> loc(#loc42)
      %1 = tt.addptr %0, %tmp6_10 : tensor<1x2048x!tt.ptr<bf16>>, tensor<1x2048xi64> loc(#loc42)
      %2 = arith.truncf %tmp19 : tensor<1x2048xf32> to tensor<1x2048xbf16> loc(#loc43)
      tt.store %1, %2, %tmp6_14 : tensor<1x2048x!tt.ptr<bf16>> loc(#loc43)
    } loc(#loc23)
    tt.return loc(#loc44)
  } loc(#loc)
} loc(#loc)
#loc2 = loc("/data/jcy/zzs/zijinhua/.vllm_cache_reflection/torch_compile/wi/cwigbvdug3jkiuufwx65jfjeyvr2movgpkfrj6p6ixnuvjzupxks.py":21:28)
#loc3 = loc("/data/jcy/zzs/zijinhua/.vllm_cache_reflection/torch_compile/wi/cwigbvdug3jkiuufwx65jfjeyvr2movgpkfrj6p6ixnuvjzupxks.py":23:21)
#loc4 = loc("/data/jcy/zzs/zijinhua/.vllm_cache_reflection/torch_compile/wi/cwigbvdug3jkiuufwx65jfjeyvr2movgpkfrj6p6ixnuvjzupxks.py":24:27)
#loc5 = loc("/data/jcy/zzs/zijinhua/.vllm_cache_reflection/torch_compile/wi/cwigbvdug3jkiuufwx65jfjeyvr2movgpkfrj6p6ixnuvjzupxks.py":24:37)
#loc6 = loc("/data/jcy/zzs/zijinhua/.vllm_cache_reflection/torch_compile/wi/cwigbvdug3jkiuufwx65jfjeyvr2movgpkfrj6p6ixnuvjzupxks.py":28:40)
#loc7 = loc("/data/jcy/zzs/zijinhua/.vllm_cache_reflection/torch_compile/wi/cwigbvdug3jkiuufwx65jfjeyvr2movgpkfrj6p6ixnuvjzupxks.py":29:31)
#loc8 = loc("/data/jcy/zzs/zijinhua/.vllm_cache_reflection/torch_compile/wi/cwigbvdug3jkiuufwx65jfjeyvr2movgpkfrj6p6ixnuvjzupxks.py":30:29)
#loc9 = loc("/data/jcy/zzs/zijinhua/.vllm_cache_reflection/torch_compile/wi/cwigbvdug3jkiuufwx65jfjeyvr2movgpkfrj6p6ixnuvjzupxks.py":34:45)
#loc10 = loc("/data/jcy/zzs/zijinhua/.vllm_cache_reflection/torch_compile/wi/cwigbvdug3jkiuufwx65jfjeyvr2movgpkfrj6p6ixnuvjzupxks.py":34:41)
#loc11 = loc("/data/jcy/zzs/zijinhua/.vllm_cache_reflection/torch_compile/wi/cwigbvdug3jkiuufwx65jfjeyvr2movgpkfrj6p6ixnuvjzupxks.py":34:34)
#loc12 = loc("/data/jcy/zzs/zijinhua/.vllm_cache_reflection/torch_compile/wi/cwigbvdug3jkiuufwx65jfjeyvr2movgpkfrj6p6ixnuvjzupxks.py":34:60)
#loc13 = loc("/data/jcy/zzs/zijinhua/.vllm_cache_reflection/torch_compile/wi/cwigbvdug3jkiuufwx65jfjeyvr2movgpkfrj6p6ixnuvjzupxks.py":34:50)
#loc14 = loc("/data/jcy/zzs/zijinhua/.vllm_cache_reflection/torch_compile/wi/cwigbvdug3jkiuufwx65jfjeyvr2movgpkfrj6p6ixnuvjzupxks.py":34:111)
#loc15 = loc("/data/jcy/zzs/zijinhua/.vllm_cache_reflection/torch_compile/wi/cwigbvdug3jkiuufwx65jfjeyvr2movgpkfrj6p6ixnuvjzupxks.py":36:22)
#loc16 = loc("/data/jcy/zzs/zijinhua/.vllm_cache_reflection/torch_compile/wi/cwigbvdug3jkiuufwx65jfjeyvr2movgpkfrj6p6ixnuvjzupxks.py":38:23)
#loc17 = loc("/data/jcy/zzs/zijinhua/.vllm_cache_reflection/torch_compile/wi/cwigbvdug3jkiuufwx65jfjeyvr2movgpkfrj6p6ixnuvjzupxks.py":39:48)
#loc18 = loc("/data/jcy/zzs/zijinhua/.vllm_cache_reflection/torch_compile/wi/cwigbvdug3jkiuufwx65jfjeyvr2movgpkfrj6p6ixnuvjzupxks.py":39:8)
#loc19 = loc("/data/conda/envs/or_llm/lib/python3.12/site-packages/triton/language/standard.py":293:36)
#loc21 = loc("/data/conda/envs/or_llm/lib/python3.12/site-packages/triton/language/standard.py":263:15)
#loc22 = loc("/data/jcy/zzs/zijinhua/.vllm_cache_reflection/torch_compile/wi/cwigbvdug3jkiuufwx65jfjeyvr2movgpkfrj6p6ixnuvjzupxks.py":40:28)
#loc23 = loc("/data/jcy/zzs/zijinhua/.vllm_cache_reflection/torch_compile/wi/cwigbvdug3jkiuufwx65jfjeyvr2movgpkfrj6p6ixnuvjzupxks.py":41:40)
#loc24 = loc("/data/jcy/zzs/zijinhua/.vllm_cache_reflection/torch_compile/wi/cwigbvdug3jkiuufwx65jfjeyvr2movgpkfrj6p6ixnuvjzupxks.py":42:31)
#loc25 = loc("/data/jcy/zzs/zijinhua/.vllm_cache_reflection/torch_compile/wi/cwigbvdug3jkiuufwx65jfjeyvr2movgpkfrj6p6ixnuvjzupxks.py":43:29)
#loc26 = loc("/data/jcy/zzs/zijinhua/.vllm_cache_reflection/torch_compile/wi/cwigbvdug3jkiuufwx65jfjeyvr2movgpkfrj6p6ixnuvjzupxks.py":47:45)
#loc27 = loc("/data/jcy/zzs/zijinhua/.vllm_cache_reflection/torch_compile/wi/cwigbvdug3jkiuufwx65jfjeyvr2movgpkfrj6p6ixnuvjzupxks.py":47:41)
#loc28 = loc("/data/jcy/zzs/zijinhua/.vllm_cache_reflection/torch_compile/wi/cwigbvdug3jkiuufwx65jfjeyvr2movgpkfrj6p6ixnuvjzupxks.py":47:34)
#loc29 = loc("/data/jcy/zzs/zijinhua/.vllm_cache_reflection/torch_compile/wi/cwigbvdug3jkiuufwx65jfjeyvr2movgpkfrj6p6ixnuvjzupxks.py":47:60)
#loc30 = loc("/data/jcy/zzs/zijinhua/.vllm_cache_reflection/torch_compile/wi/cwigbvdug3jkiuufwx65jfjeyvr2movgpkfrj6p6ixnuvjzupxks.py":47:50)
#loc31 = loc("/data/jcy/zzs/zijinhua/.vllm_cache_reflection/torch_compile/wi/cwigbvdug3jkiuufwx65jfjeyvr2movgpkfrj6p6ixnuvjzupxks.py":47:112)
#loc32 = loc("/data/jcy/zzs/zijinhua/.vllm_cache_reflection/torch_compile/wi/cwigbvdug3jkiuufwx65jfjeyvr2movgpkfrj6p6ixnuvjzupxks.py":48:35)
#loc33 = loc("/data/jcy/zzs/zijinhua/.vllm_cache_reflection/torch_compile/wi/cwigbvdug3jkiuufwx65jfjeyvr2movgpkfrj6p6ixnuvjzupxks.py":48:42)
#loc34 = loc("/data/jcy/zzs/zijinhua/.vllm_cache_reflection/torch_compile/wi/cwigbvdug3jkiuufwx65jfjeyvr2movgpkfrj6p6ixnuvjzupxks.py":48:95)
#loc35 = loc("/data/jcy/zzs/zijinhua/.vllm_cache_reflection/torch_compile/wi/cwigbvdug3jkiuufwx65jfjeyvr2movgpkfrj6p6ixnuvjzupxks.py":51:23)
#loc36 = loc("/data/jcy/zzs/zijinhua/.vllm_cache_reflection/torch_compile/wi/cwigbvdug3jkiuufwx65jfjeyvr2movgpkfrj6p6ixnuvjzupxks.py":52:24)
#loc37 = loc("/data/jcy/zzs/zijinhua/.vllm_cache_reflection/torch_compile/wi/cwigbvdug3jkiuufwx65jfjeyvr2movgpkfrj6p6ixnuvjzupxks.py":54:24)
#loc38 = loc("/data/jcy/zzs/zijinhua/.vllm_cache_reflection/torch_compile/wi/cwigbvdug3jkiuufwx65jfjeyvr2movgpkfrj6p6ixnuvjzupxks.py":55:32)
#loc39 = loc("/data/jcy/zzs/zijinhua/.vllm_cache_reflection/torch_compile/wi/cwigbvdug3jkiuufwx65jfjeyvr2movgpkfrj6p6ixnuvjzupxks.py":56:23)
#loc40 = loc("/data/jcy/zzs/zijinhua/.vllm_cache_reflection/torch_compile/wi/cwigbvdug3jkiuufwx65jfjeyvr2movgpkfrj6p6ixnuvjzupxks.py":59:24)
#loc41 = loc("/data/jcy/zzs/zijinhua/.vllm_cache_reflection/torch_compile/wi/cwigbvdug3jkiuufwx65jfjeyvr2movgpkfrj6p6ixnuvjzupxks.py":60:24)
#loc42 = loc("/data/jcy/zzs/zijinhua/.vllm_cache_reflection/torch_compile/wi/cwigbvdug3jkiuufwx65jfjeyvr2movgpkfrj6p6ixnuvjzupxks.py":62:29)
#loc43 = loc("/data/jcy/zzs/zijinhua/.vllm_cache_reflection/torch_compile/wi/cwigbvdug3jkiuufwx65jfjeyvr2movgpkfrj6p6ixnuvjzupxks.py":62:52)
#loc44 = loc("/data/jcy/zzs/zijinhua/.vllm_cache_reflection/torch_compile/wi/cwigbvdug3jkiuufwx65jfjeyvr2movgpkfrj6p6ixnuvjzupxks.py":41:4)
#loc51 = loc("xoffset"(#loc2))
#loc52 = loc("xmask"(#loc3))
#loc53 = loc("r0_base"(#loc4))
#loc54 = loc("r0_base"(#loc5))
#loc55 = loc("_tmp4"(#loc6))
#loc56 = loc("r0_index"(#loc7))
#loc57 = loc("r0_mask"(#loc8))
#loc58 = loc("tmp0"(#loc9))
#loc59 = loc("tmp0"(#loc10))
#loc60 = loc("tmp0"(#loc11))
#loc61 = loc("tmp0"(#loc12))
#loc62 = loc("tmp0"(#loc13))
#loc63 = loc("tmp0"(#loc14))
#loc64 = loc("tmp2"(#loc15))
#loc65 = loc("tmp5"(#loc16))
#loc66 = loc("_tmp4"(#loc17))
#loc68 = loc("tmp4"(#loc22))
#loc69 = loc("r0_index"(#loc24))
#loc70 = loc("r0_mask"(#loc25))
#loc71 = loc("tmp6"(#loc26))
#loc72 = loc("tmp6"(#loc27))
#loc73 = loc("tmp6"(#loc28))
#loc74 = loc("tmp6"(#loc29))
#loc75 = loc("tmp6"(#loc30))
#loc76 = loc("tmp6"(#loc31))
#loc77 = loc("tmp15"(#loc32))
#loc78 = loc("tmp15"(#loc33))
#loc79 = loc("tmp15"(#loc34))
#loc80 = loc("tmp9"(#loc35))
#loc81 = loc("tmp10"(#loc36))
#loc82 = loc("tmp12"(#loc37))
#loc83 = loc("tmp13"(#loc38))
#loc84 = loc("tmp14"(#loc39))
#loc85 = loc("tmp18"(#loc40))
#loc86 = loc("tmp19"(#loc41))
#loc87 = loc(fused[#loc59, #loc58])
#loc88 = loc(fused[#loc61, #loc52])
#loc89 = loc(callsite(#loc19 at #loc67))
#loc91 = loc(fused[#loc72, #loc71])
#loc92 = loc(fused[#loc74, #loc52])
#loc93 = loc(callsite(#loc21 at #loc89))
