#loc = loc("/data/conda/envs/or_llm/lib/python3.12/site-packages/vllm/model_executor/layers/mamba/ops/causal_conv1d.py":749:0)
#loc136 = loc("x_ptr"(#loc))
#loc137 = loc("w_ptr"(#loc))
#loc138 = loc("conv_state_ptr"(#loc))
#loc139 = loc("conv_state_indices_ptr"(#loc))
#loc140 = loc("o_ptr"(#loc))
#loc141 = loc("batch"(#loc))
module {
  tt.func public @_causal_conv1d_update_kernel(%x_ptr: !tt.ptr<bf16> {tt.divisibility = 16 : i32} loc("x_ptr"(#loc)), %w_ptr: !tt.ptr<bf16> {tt.divisibility = 16 : i32} loc("w_ptr"(#loc)), %conv_state_ptr: !tt.ptr<bf16> {tt.divisibility = 16 : i32} loc("conv_state_ptr"(#loc)), %conv_state_indices_ptr: !tt.ptr<i32> {tt.divisibility = 16 : i32} loc("conv_state_indices_ptr"(#loc)), %o_ptr: !tt.ptr<bf16> {tt.divisibility = 16 : i32} loc("o_ptr"(#loc)), %batch: i32 loc("batch"(#loc))) attributes {noinline = false} {
    %idx_seq = tt.get_program_id x : i32 loc(#loc142)
    %0 = arith.cmpi sge, %idx_seq, %batch : i32 loc(#loc2)
    cf.cond_br %0, ^bb1, ^bb2 loc(#loc2)
  ^bb1:  // pred: ^bb0
    tt.return loc(#loc3)
  ^bb2:  // pred: ^bb0
    cf.br ^bb4 loc(#loc)
  ^bb3:  // no predecessors
    cf.br ^bb4 loc(#loc)
  ^bb4:  // 2 preds: ^bb2, ^bb3
    %idx_feats = tt.get_program_id y : i32 loc(#loc143)
    %idx_feats_0 = arith.constant 256 : i32 loc(#loc144)
    %idx_feats_1 = arith.constant 256 : i32 loc(#loc144)
    %idx_feats_2 = arith.extsi %idx_feats : i32 to i64 loc(#loc144)
    %idx_feats_3 = arith.extsi %idx_feats_1 : i32 to i64 loc(#loc144)
    %idx_feats_4 = arith.muli %idx_feats_2, %idx_feats_3 : i64 loc(#loc144)
    %idx_feats_5 = arith.constant 2147483647 : i64 loc(#loc144)
    %idx_feats_6 = arith.constant -2147483648 : i64 loc(#loc144)
    %idx_feats_7 = arith.cmpi sle, %idx_feats_4, %idx_feats_5 : i64 loc(#loc144)
    %idx_feats_8 = arith.cmpi sge, %idx_feats_4, %idx_feats_6 : i64 loc(#loc144)
    %idx_feats_9 = arith.andi %idx_feats_7, %idx_feats_8 : i1 loc(#loc144)
    %idx_feats_10 = arith.muli %idx_feats, %idx_feats_1 : i32 loc(#loc144)
    %idx_feats_11 = tt.make_range {end = 256 : i32, start = 0 : i32} : tensor<256xi32> loc(#loc145)
    %idx_feats_12 = tt.splat %idx_feats_10 : i32 -> tensor<256xi32> loc(#loc146)
    %idx_feats_13 = arith.extsi %idx_feats_12 : tensor<256xi32> to tensor<256xi64> loc(#loc146)
    %idx_feats_14 = arith.extsi %idx_feats_11 : tensor<256xi32> to tensor<256xi64> loc(#loc146)
    %idx_feats_15 = arith.addi %idx_feats_13, %idx_feats_14 : tensor<256xi64> loc(#loc146)
    %idx_feats_16 = arith.constant 2147483647 : i64 loc(#loc146)
    %idx_feats_17 = arith.constant -2147483648 : i64 loc(#loc146)
    %idx_feats_18 = arith.constant dense<2147483647> : tensor<256xi64> loc(#loc146)
    %idx_feats_19 = arith.cmpi sle, %idx_feats_15, %idx_feats_18 : tensor<256xi64> loc(#loc146)
    %idx_feats_20 = arith.constant dense<-2147483648> : tensor<256xi64> loc(#loc146)
    %idx_feats_21 = arith.cmpi sge, %idx_feats_15, %idx_feats_20 : tensor<256xi64> loc(#loc146)
    %idx_feats_22 = arith.andi %idx_feats_19, %idx_feats_21 : tensor<256xi1> loc(#loc146)
    %idx_feats_23 = arith.addi %idx_feats_12, %idx_feats_11 : tensor<256xi32> loc(#loc146)
    %conv_state_init = arith.constant 0 : i32 loc(#loc147)
    %current_last_index = arith.constant 0 : i32 loc(#loc148)
    %conv_states_input_coord = arith.constant 1 : i32 loc(#loc149)
    %conv_states_input_coord_24 = arith.constant 1 : i32 loc(#loc149)
    %conv_states_input_coord_25 = arith.extsi %idx_seq : i32 to i64 loc(#loc149)
    %conv_states_input_coord_26 = arith.extsi %conv_states_input_coord_24 : i32 to i64 loc(#loc149)
    %conv_states_input_coord_27 = arith.muli %conv_states_input_coord_25, %conv_states_input_coord_26 : i64 loc(#loc149)
    %conv_states_input_coord_28 = arith.constant 2147483647 : i64 loc(#loc149)
    %conv_states_input_coord_29 = arith.constant -2147483648 : i64 loc(#loc149)
    %conv_states_input_coord_30 = arith.cmpi sle, %conv_states_input_coord_27, %conv_states_input_coord_28 : i64 loc(#loc149)
    %conv_states_input_coord_31 = arith.cmpi sge, %conv_states_input_coord_27, %conv_states_input_coord_29 : i64 loc(#loc149)
    %conv_states_input_coord_32 = arith.andi %conv_states_input_coord_30, %conv_states_input_coord_31 : i1 loc(#loc149)
    %conv_states_input_coord_33 = arith.muli %idx_seq, %conv_states_input_coord_24 : i32 loc(#loc149)
    %conv_states_input_coord_34 = tt.addptr %conv_state_indices_ptr, %conv_states_input_coord_33 : !tt.ptr<i32>, i32 loc(#loc150)
    %conv_states_input_coord_35 = tt.addptr %conv_states_input_coord_34, %conv_state_init : !tt.ptr<i32>, i32 loc(#loc151)
    %conv_states_input_coord_36 = tt.load %conv_states_input_coord_35 : !tt.ptr<i32> loc(#loc152)
    %conv_states_input_coord_37 = arith.extsi %conv_states_input_coord_36 : i32 to i64 loc(#loc153)
    %c-1_i32 = arith.constant -1 : i32 loc(#loc15)
    %1 = arith.extsi %c-1_i32 : i32 to i64 loc(#loc15)
    %2 = arith.cmpi eq, %conv_states_input_coord_37, %1 : i64 loc(#loc15)
    cf.cond_br %2, ^bb5, ^bb6 loc(#loc15)
  ^bb5:  // pred: ^bb4
    tt.return loc(#loc16)
  ^bb6:  // pred: ^bb4
    cf.br ^bb8 loc(#loc)
  ^bb7:  // no predecessors
    cf.br ^bb8 loc(#loc)
  ^bb8:  // 2 preds: ^bb6, ^bb7
    %query_start_index = arith.constant 1 : i32 loc(#loc154)
    %query_start_index_38 = arith.constant 1 : i32 loc(#loc154)
    %query_start_index_39 = arith.extsi %idx_seq : i32 to i64 loc(#loc154)
    %query_start_index_40 = arith.extsi %query_start_index_38 : i32 to i64 loc(#loc154)
    %query_start_index_41 = arith.muli %query_start_index_39, %query_start_index_40 : i64 loc(#loc154)
    %query_start_index_42 = arith.constant 2147483647 : i64 loc(#loc154)
    %query_start_index_43 = arith.constant -2147483648 : i64 loc(#loc154)
    %query_start_index_44 = arith.cmpi sle, %query_start_index_41, %query_start_index_42 : i64 loc(#loc154)
    %query_start_index_45 = arith.cmpi sge, %query_start_index_41, %query_start_index_43 : i64 loc(#loc154)
    %query_start_index_46 = arith.andi %query_start_index_44, %query_start_index_45 : i1 loc(#loc154)
    %query_start_index_47 = arith.muli %idx_seq, %query_start_index_38 : i32 loc(#loc154)
    %query_end_index = arith.constant 1 : i32 loc(#loc155)
    %query_end_index_48 = arith.constant 1 : i32 loc(#loc155)
    %query_end_index_49 = arith.extsi %query_start_index_47 : i32 to i64 loc(#loc155)
    %query_end_index_50 = arith.extsi %query_end_index_48 : i32 to i64 loc(#loc155)
    %query_end_index_51 = arith.addi %query_end_index_49, %query_end_index_50 : i64 loc(#loc155)
    %query_end_index_52 = arith.constant 2147483647 : i64 loc(#loc155)
    %query_end_index_53 = arith.constant -2147483648 : i64 loc(#loc155)
    %query_end_index_54 = arith.cmpi sle, %query_end_index_51, %query_end_index_52 : i64 loc(#loc155)
    %query_end_index_55 = arith.cmpi sge, %query_end_index_51, %query_end_index_53 : i64 loc(#loc155)
    %query_end_index_56 = arith.andi %query_end_index_54, %query_end_index_55 : i1 loc(#loc155)
    %query_end_index_57 = arith.addi %query_start_index_47, %query_end_index_48 : i32 loc(#loc155)
    %x_offset = arith.constant 12288 : i32 loc(#loc156)
    %x_offset_58 = arith.constant 12288 : i32 loc(#loc156)
    %x_offset_59 = arith.extsi %idx_seq : i32 to i64 loc(#loc156)
    %x_offset_60 = arith.extsi %x_offset_58 : i32 to i64 loc(#loc156)
    %x_offset_61 = arith.muli %x_offset_59, %x_offset_60 : i64 loc(#loc156)
    %x_offset_62 = arith.constant 2147483647 : i64 loc(#loc156)
    %x_offset_63 = arith.constant -2147483648 : i64 loc(#loc156)
    %x_offset_64 = arith.cmpi sle, %x_offset_61, %x_offset_62 : i64 loc(#loc156)
    %x_offset_65 = arith.cmpi sge, %x_offset_61, %x_offset_63 : i64 loc(#loc156)
    %x_offset_66 = arith.andi %x_offset_64, %x_offset_65 : i1 loc(#loc156)
    %x_offset_67 = arith.muli %idx_seq, %x_offset_58 : i32 loc(#loc156)
    %o_offset = arith.constant 12288 : i32 loc(#loc157)
    %o_offset_68 = arith.constant 12288 : i32 loc(#loc157)
    %o_offset_69 = arith.extsi %idx_seq : i32 to i64 loc(#loc157)
    %o_offset_70 = arith.extsi %o_offset_68 : i32 to i64 loc(#loc157)
    %o_offset_71 = arith.muli %o_offset_69, %o_offset_70 : i64 loc(#loc157)
    %o_offset_72 = arith.constant 2147483647 : i64 loc(#loc157)
    %o_offset_73 = arith.constant -2147483648 : i64 loc(#loc157)
    %o_offset_74 = arith.cmpi sle, %o_offset_71, %o_offset_72 : i64 loc(#loc157)
    %o_offset_75 = arith.cmpi sge, %o_offset_71, %o_offset_73 : i64 loc(#loc157)
    %o_offset_76 = arith.andi %o_offset_74, %o_offset_75 : i1 loc(#loc157)
    %o_offset_77 = arith.muli %idx_seq, %o_offset_68 : i32 loc(#loc157)
    %3 = arith.cmpi eq, %query_start_index_47, %query_end_index_57 : i32 loc(#loc21)
    cf.cond_br %3, ^bb9, ^bb10 loc(#loc21)
  ^bb9:  // pred: ^bb8
    tt.return loc(#loc22)
  ^bb10:  // pred: ^bb8
    cf.br ^bb12 loc(#loc)
  ^bb11:  // no predecessors
    cf.br ^bb12 loc(#loc)
  ^bb12:  // 2 preds: ^bb10, ^bb11
    %conv_state_token_offset = arith.constant 0 : i32 loc(#loc158)
    %conv_states_base = arith.constant 1081344 : i32 loc(#loc159)
    %conv_states_base_78 = arith.constant 1081344 : i64 loc(#loc159)
    %conv_states_base_79 = arith.muli %conv_states_input_coord_37, %conv_states_base_78 : i64 loc(#loc159)
    %conv_states_base_80 = tt.addptr %conv_state_ptr, %conv_states_base_79 : !tt.ptr<bf16>, i64 loc(#loc160)
    %conv_states_base_81 = arith.constant 1 : i32 loc(#loc161)
    %conv_states_base_82 = arith.constant 1 : i32 loc(#loc161)
    %conv_states_base_83 = arith.constant dense<1> : tensor<256xi32> loc(#loc161)
    %conv_states_base_84 = arith.extsi %idx_feats_23 : tensor<256xi32> to tensor<256xi64> loc(#loc161)
    %conv_states_base_85 = arith.extsi %conv_states_base_83 : tensor<256xi32> to tensor<256xi64> loc(#loc161)
    %conv_states_base_86 = arith.muli %conv_states_base_84, %conv_states_base_85 : tensor<256xi64> loc(#loc161)
    %conv_states_base_87 = arith.constant 2147483647 : i64 loc(#loc161)
    %conv_states_base_88 = arith.constant -2147483648 : i64 loc(#loc161)
    %conv_states_base_89 = arith.constant dense<2147483647> : tensor<256xi64> loc(#loc161)
    %conv_states_base_90 = arith.cmpi sle, %conv_states_base_86, %conv_states_base_89 : tensor<256xi64> loc(#loc161)
    %conv_states_base_91 = arith.constant dense<-2147483648> : tensor<256xi64> loc(#loc161)
    %conv_states_base_92 = arith.cmpi sge, %conv_states_base_86, %conv_states_base_91 : tensor<256xi64> loc(#loc161)
    %conv_states_base_93 = arith.andi %conv_states_base_90, %conv_states_base_92 : tensor<256xi1> loc(#loc161)
    %conv_states_base_94 = arith.muli %idx_feats_23, %conv_states_base_83 : tensor<256xi32> loc(#loc161)
    %conv_states_base_95 = tt.splat %conv_states_base_80 : !tt.ptr<bf16> -> tensor<256x!tt.ptr<bf16>> loc(#loc162)
    %conv_states_base_96 = tt.addptr %conv_states_base_95, %conv_states_base_94 : tensor<256x!tt.ptr<bf16>>, tensor<256xi32> loc(#loc162)
    %mask_w = arith.constant 8192 : i32 loc(#loc163)
    %mask_w_97 = arith.constant dense<8192> : tensor<256xi32> loc(#loc163)
    %mask_w_98 = arith.cmpi slt, %idx_feats_23, %mask_w_97 : tensor<256xi32> loc(#loc163)
    %prior_tokens = arith.constant 8192 : i32 loc(#loc164)
    %prior_tokens_99 = arith.constant 8192 : i32 loc(#loc164)
    %prior_tokens_100 = arith.extsi %conv_state_token_offset : i32 to i64 loc(#loc164)
    %prior_tokens_101 = arith.extsi %prior_tokens_99 : i32 to i64 loc(#loc164)
    %prior_tokens_102 = arith.muli %prior_tokens_100, %prior_tokens_101 : i64 loc(#loc164)
    %prior_tokens_103 = arith.constant 2147483647 : i64 loc(#loc164)
    %prior_tokens_104 = arith.constant -2147483648 : i64 loc(#loc164)
    %prior_tokens_105 = arith.cmpi sle, %prior_tokens_102, %prior_tokens_103 : i64 loc(#loc164)
    %prior_tokens_106 = arith.cmpi sge, %prior_tokens_102, %prior_tokens_104 : i64 loc(#loc164)
    %prior_tokens_107 = arith.andi %prior_tokens_105, %prior_tokens_106 : i1 loc(#loc164)
    %prior_tokens_108 = arith.muli %conv_state_token_offset, %prior_tokens_99 : i32 loc(#loc164)
    %prior_tokens_109 = tt.splat %prior_tokens_108 : i32 -> tensor<256xi32> loc(#loc165)
    %prior_tokens_110 = tt.addptr %conv_states_base_96, %prior_tokens_109 : tensor<256x!tt.ptr<bf16>>, tensor<256xi32> loc(#loc165)
    %col0 = arith.constant 0.000000e+00 : f32 loc(#loc166)
    %col0_111 = arith.constant dense<0.000000e+00> : tensor<256xf32> loc(#loc166)
    %col0_112 = arith.truncf %col0_111 : tensor<256xf32> to tensor<256xbf16> loc(#loc166)
    %col0_113 = tt.load %prior_tokens_110, %mask_w_98, %col0_112 : tensor<256x!tt.ptr<bf16>> loc(#loc166)
    %conv_states_ptrs = arith.constant 8192 : i32 loc(#loc167)
    %conv_states_ptrs_114 = arith.constant dense<8192> : tensor<256xi32> loc(#loc167)
    %conv_states_ptrs_115 = tt.addptr %prior_tokens_110, %conv_states_ptrs_114 : tensor<256x!tt.ptr<bf16>>, tensor<256xi32> loc(#loc167)
    %col1 = arith.constant 0.000000e+00 : f32 loc(#loc168)
    %col1_116 = arith.constant dense<0.000000e+00> : tensor<256xf32> loc(#loc168)
    %col1_117 = arith.truncf %col1_116 : tensor<256xf32> to tensor<256xbf16> loc(#loc168)
    %col1_118 = tt.load %conv_states_ptrs_115, %mask_w_98, %col1_117 : tensor<256x!tt.ptr<bf16>> loc(#loc168)
    %conv_states_ptrs_119 = arith.constant 16384 : i32 loc(#loc169)
    %conv_states_ptrs_120 = arith.constant dense<16384> : tensor<256xi32> loc(#loc169)
    %conv_states_ptrs_121 = tt.addptr %prior_tokens_110, %conv_states_ptrs_120 : tensor<256x!tt.ptr<bf16>>, tensor<256xi32> loc(#loc169)
    %col2 = arith.constant 0.000000e+00 : f32 loc(#loc170)
    %col2_122 = arith.constant dense<0.000000e+00> : tensor<256xf32> loc(#loc170)
    %col2_123 = arith.truncf %col2_122 : tensor<256xf32> to tensor<256xbf16> loc(#loc170)
    %col2_124 = tt.load %conv_states_ptrs_121, %mask_w_98, %col2_123 : tensor<256x!tt.ptr<bf16>> loc(#loc170)
    %idx_tokens = tt.make_range {end = 4 : i32, start = 0 : i32} : tensor<4xi32> loc(#loc171)
    %conv_state_ptrs_source = arith.constant 1081344 : i32 loc(#loc172)
    %conv_state_ptrs_source_125 = arith.constant 1081344 : i64 loc(#loc172)
    %conv_state_ptrs_source_126 = arith.muli %conv_states_input_coord_37, %conv_state_ptrs_source_125 : i64 loc(#loc172)
    %conv_state_ptrs_source_127 = tt.addptr %conv_state_ptr, %conv_state_ptrs_source_126 : !tt.ptr<bf16>, i64 loc(#loc173)
    %conv_state_ptrs_source_128 = arith.constant 8192 : i32 loc(#loc174)
    %conv_state_ptrs_source_129 = arith.constant 8192 : i32 loc(#loc174)
    %conv_state_ptrs_source_130 = arith.extsi %conv_state_token_offset : i32 to i64 loc(#loc174)
    %conv_state_ptrs_source_131 = arith.extsi %conv_state_ptrs_source_129 : i32 to i64 loc(#loc174)
    %conv_state_ptrs_source_132 = arith.muli %conv_state_ptrs_source_130, %conv_state_ptrs_source_131 : i64 loc(#loc174)
    %conv_state_ptrs_source_133 = arith.constant 2147483647 : i64 loc(#loc174)
    %conv_state_ptrs_source_134 = arith.constant -2147483648 : i64 loc(#loc174)
    %conv_state_ptrs_source_135 = arith.cmpi sle, %conv_state_ptrs_source_132, %conv_state_ptrs_source_133 : i64 loc(#loc174)
    %conv_state_ptrs_source_136 = arith.cmpi sge, %conv_state_ptrs_source_132, %conv_state_ptrs_source_134 : i64 loc(#loc174)
    %conv_state_ptrs_source_137 = arith.andi %conv_state_ptrs_source_135, %conv_state_ptrs_source_136 : i1 loc(#loc174)
    %conv_state_ptrs_source_138 = arith.muli %conv_state_token_offset, %conv_state_ptrs_source_129 : i32 loc(#loc174)
    %conv_state_ptrs_source_139 = tt.addptr %conv_state_ptrs_source_127, %conv_state_ptrs_source_138 : !tt.ptr<bf16>, i32 loc(#loc175)
    %conv_state_ptrs_source_140 = arith.constant 1 : i32 loc(#loc176)
    %conv_state_ptrs_source_141 = arith.constant 1 : i32 loc(#loc176)
    %conv_state_ptrs_source_142 = arith.constant dense<1> : tensor<256xi32> loc(#loc176)
    %conv_state_ptrs_source_143 = arith.extsi %idx_feats_23 : tensor<256xi32> to tensor<256xi64> loc(#loc176)
    %conv_state_ptrs_source_144 = arith.extsi %conv_state_ptrs_source_142 : tensor<256xi32> to tensor<256xi64> loc(#loc176)
    %conv_state_ptrs_source_145 = arith.muli %conv_state_ptrs_source_143, %conv_state_ptrs_source_144 : tensor<256xi64> loc(#loc176)
    %conv_state_ptrs_source_146 = arith.constant 2147483647 : i64 loc(#loc176)
    %conv_state_ptrs_source_147 = arith.constant -2147483648 : i64 loc(#loc176)
    %conv_state_ptrs_source_148 = arith.constant dense<2147483647> : tensor<256xi64> loc(#loc176)
    %conv_state_ptrs_source_149 = arith.cmpi sle, %conv_state_ptrs_source_145, %conv_state_ptrs_source_148 : tensor<256xi64> loc(#loc176)
    %conv_state_ptrs_source_150 = arith.constant dense<-2147483648> : tensor<256xi64> loc(#loc176)
    %conv_state_ptrs_source_151 = arith.cmpi sge, %conv_state_ptrs_source_145, %conv_state_ptrs_source_150 : tensor<256xi64> loc(#loc176)
    %conv_state_ptrs_source_152 = arith.andi %conv_state_ptrs_source_149, %conv_state_ptrs_source_151 : tensor<256xi1> loc(#loc176)
    %conv_state_ptrs_source_153 = arith.muli %idx_feats_23, %conv_state_ptrs_source_142 : tensor<256xi32> loc(#loc176)
    %conv_state_ptrs_source_154 = tt.expand_dims %conv_state_ptrs_source_153 {axis = 0 : i32} : tensor<256xi32> -> tensor<1x256xi32> loc(#loc177)
    %conv_state_ptrs_source_155 = tt.splat %conv_state_ptrs_source_139 : !tt.ptr<bf16> -> tensor<1x256x!tt.ptr<bf16>> loc(#loc178)
    %conv_state_ptrs_source_156 = tt.addptr %conv_state_ptrs_source_155, %conv_state_ptrs_source_154 : tensor<1x256x!tt.ptr<bf16>>, tensor<1x256xi32> loc(#loc178)
    %conv_state_ptrs_source_157 = arith.constant 1 : i32 loc(#loc179)
    %conv_state_ptrs_source_158 = arith.constant 1 : i32 loc(#loc179)
    %conv_state_ptrs_source_159 = arith.constant dense<1> : tensor<4xi32> loc(#loc179)
    %conv_state_ptrs_source_160 = arith.extsi %idx_tokens : tensor<4xi32> to tensor<4xi64> loc(#loc179)
    %conv_state_ptrs_source_161 = arith.extsi %conv_state_ptrs_source_159 : tensor<4xi32> to tensor<4xi64> loc(#loc179)
    %conv_state_ptrs_source_162 = arith.addi %conv_state_ptrs_source_160, %conv_state_ptrs_source_161 : tensor<4xi64> loc(#loc179)
    %conv_state_ptrs_source_163 = arith.constant 2147483647 : i64 loc(#loc179)
    %conv_state_ptrs_source_164 = arith.constant -2147483648 : i64 loc(#loc179)
    %conv_state_ptrs_source_165 = arith.constant dense<2147483647> : tensor<4xi64> loc(#loc179)
    %conv_state_ptrs_source_166 = arith.cmpi sle, %conv_state_ptrs_source_162, %conv_state_ptrs_source_165 : tensor<4xi64> loc(#loc179)
    %conv_state_ptrs_source_167 = arith.constant dense<-2147483648> : tensor<4xi64> loc(#loc179)
    %conv_state_ptrs_source_168 = arith.cmpi sge, %conv_state_ptrs_source_162, %conv_state_ptrs_source_167 : tensor<4xi64> loc(#loc179)
    %conv_state_ptrs_source_169 = arith.andi %conv_state_ptrs_source_166, %conv_state_ptrs_source_168 : tensor<4xi1> loc(#loc179)
    %conv_state_ptrs_source_170 = arith.addi %idx_tokens, %conv_state_ptrs_source_159 : tensor<4xi32> loc(#loc179)
    %conv_state_ptrs_source_171 = arith.constant 8192 : i32 loc(#loc180)
    %conv_state_ptrs_source_172 = arith.constant 8192 : i32 loc(#loc180)
    %conv_state_ptrs_source_173 = arith.constant dense<8192> : tensor<4xi32> loc(#loc180)
    %conv_state_ptrs_source_174 = arith.extsi %conv_state_ptrs_source_170 : tensor<4xi32> to tensor<4xi64> loc(#loc180)
    %conv_state_ptrs_source_175 = arith.extsi %conv_state_ptrs_source_173 : tensor<4xi32> to tensor<4xi64> loc(#loc180)
    %conv_state_ptrs_source_176 = arith.muli %conv_state_ptrs_source_174, %conv_state_ptrs_source_175 : tensor<4xi64> loc(#loc180)
    %conv_state_ptrs_source_177 = arith.constant 2147483647 : i64 loc(#loc180)
    %conv_state_ptrs_source_178 = arith.constant -2147483648 : i64 loc(#loc180)
    %conv_state_ptrs_source_179 = arith.constant dense<2147483647> : tensor<4xi64> loc(#loc180)
    %conv_state_ptrs_source_180 = arith.cmpi sle, %conv_state_ptrs_source_176, %conv_state_ptrs_source_179 : tensor<4xi64> loc(#loc180)
    %conv_state_ptrs_source_181 = arith.constant dense<-2147483648> : tensor<4xi64> loc(#loc180)
    %conv_state_ptrs_source_182 = arith.cmpi sge, %conv_state_ptrs_source_176, %conv_state_ptrs_source_181 : tensor<4xi64> loc(#loc180)
    %conv_state_ptrs_source_183 = arith.andi %conv_state_ptrs_source_180, %conv_state_ptrs_source_182 : tensor<4xi1> loc(#loc180)
    %conv_state_ptrs_source_184 = arith.muli %conv_state_ptrs_source_170, %conv_state_ptrs_source_173 : tensor<4xi32> loc(#loc180)
    %conv_state_ptrs_source_185 = tt.expand_dims %conv_state_ptrs_source_184 {axis = 1 : i32} : tensor<4xi32> -> tensor<4x1xi32> loc(#loc181)
    %conv_state_ptrs_source_186 = tt.broadcast %conv_state_ptrs_source_156 : tensor<1x256x!tt.ptr<bf16>> -> tensor<4x256x!tt.ptr<bf16>> loc(#loc182)
    %conv_state_ptrs_source_187 = tt.broadcast %conv_state_ptrs_source_185 : tensor<4x1xi32> -> tensor<4x256xi32> loc(#loc182)
    %conv_state_ptrs_source_188 = tt.addptr %conv_state_ptrs_source_186, %conv_state_ptrs_source_187 : tensor<4x256x!tt.ptr<bf16>>, tensor<4x256xi32> loc(#loc182)
    %mask = arith.constant 3223 : i32 loc(#loc183)
    %mask_189 = arith.extsi %mask : i32 to i64 loc(#loc183)
    %mask_190 = arith.cmpi slt, %conv_states_input_coord_37, %mask_189 : i64 loc(#loc183)
    %mask_191 = arith.constant 1 : i32 loc(#loc184)
    %mask_192 = arith.constant 1 : i32 loc(#loc184)
    %mask_193 = arith.constant dense<1> : tensor<4xi32> loc(#loc184)
    %mask_194 = arith.extsi %idx_tokens : tensor<4xi32> to tensor<4xi64> loc(#loc184)
    %mask_195 = arith.extsi %mask_193 : tensor<4xi32> to tensor<4xi64> loc(#loc184)
    %mask_196 = arith.addi %mask_194, %mask_195 : tensor<4xi64> loc(#loc184)
    %mask_197 = arith.constant 2147483647 : i64 loc(#loc184)
    %mask_198 = arith.constant -2147483648 : i64 loc(#loc184)
    %mask_199 = arith.constant dense<2147483647> : tensor<4xi64> loc(#loc184)
    %mask_200 = arith.cmpi sle, %mask_196, %mask_199 : tensor<4xi64> loc(#loc184)
    %mask_201 = arith.constant dense<-2147483648> : tensor<4xi64> loc(#loc184)
    %mask_202 = arith.cmpi sge, %mask_196, %mask_201 : tensor<4xi64> loc(#loc184)
    %mask_203 = arith.andi %mask_200, %mask_202 : tensor<4xi1> loc(#loc184)
    %mask_204 = arith.addi %idx_tokens, %mask_193 : tensor<4xi32> loc(#loc184)
    %mask_205 = arith.constant 3 : i32 loc(#loc185)
    %mask_206 = arith.constant dense<3> : tensor<4xi32> loc(#loc185)
    %mask_207 = arith.cmpi slt, %mask_204, %mask_206 : tensor<4xi32> loc(#loc185)
    %mask_208 = tt.expand_dims %mask_207 {axis = 1 : i32} : tensor<4xi1> -> tensor<4x1xi1> loc(#loc186)
    %mask_209 = tt.splat %mask_190 : i1 -> tensor<4x1xi1> loc(#loc187)
    %mask_210 = arith.andi %mask_209, %mask_208 : tensor<4x1xi1> loc(#loc187)
    %mask_211 = arith.constant 8192 : i32 loc(#loc188)
    %mask_212 = arith.constant dense<8192> : tensor<256xi32> loc(#loc188)
    %mask_213 = arith.cmpi slt, %idx_feats_23, %mask_212 : tensor<256xi32> loc(#loc188)
    %mask_214 = tt.expand_dims %mask_213 {axis = 0 : i32} : tensor<256xi1> -> tensor<1x256xi1> loc(#loc189)
    %mask_215 = tt.broadcast %mask_210 : tensor<4x1xi1> -> tensor<4x256xi1> loc(#loc190)
    %mask_216 = tt.broadcast %mask_214 : tensor<1x256xi1> -> tensor<4x256xi1> loc(#loc190)
    %mask_217 = arith.andi %mask_215, %mask_216 : tensor<4x256xi1> loc(#loc190)
    %conv_state = arith.constant 0.000000e+00 : f32 loc(#loc191)
    %conv_state_218 = arith.constant dense<0.000000e+00> : tensor<4x256xf32> loc(#loc191)
    %conv_state_219 = arith.truncf %conv_state_218 : tensor<4x256xf32> to tensor<4x256xbf16> loc(#loc191)
    %conv_state_220 = tt.load %conv_state_ptrs_source_188, %mask_217, %conv_state_219 : tensor<4x256x!tt.ptr<bf16>> loc(#loc191)
    %VAL = arith.constant 2 : i32 loc(#loc192)
    %x_base = tt.addptr %x_ptr, %x_offset_67 : !tt.ptr<bf16>, i32 loc(#loc193)
    %x_base_221 = arith.constant 1 : i32 loc(#loc194)
    %x_base_222 = arith.constant 1 : i32 loc(#loc194)
    %x_base_223 = arith.constant dense<1> : tensor<256xi32> loc(#loc194)
    %x_base_224 = arith.extsi %idx_feats_23 : tensor<256xi32> to tensor<256xi64> loc(#loc194)
    %x_base_225 = arith.extsi %x_base_223 : tensor<256xi32> to tensor<256xi64> loc(#loc194)
    %x_base_226 = arith.muli %x_base_224, %x_base_225 : tensor<256xi64> loc(#loc194)
    %x_base_227 = arith.constant 2147483647 : i64 loc(#loc194)
    %x_base_228 = arith.constant -2147483648 : i64 loc(#loc194)
    %x_base_229 = arith.constant dense<2147483647> : tensor<256xi64> loc(#loc194)
    %x_base_230 = arith.cmpi sle, %x_base_226, %x_base_229 : tensor<256xi64> loc(#loc194)
    %x_base_231 = arith.constant dense<-2147483648> : tensor<256xi64> loc(#loc194)
    %x_base_232 = arith.cmpi sge, %x_base_226, %x_base_231 : tensor<256xi64> loc(#loc194)
    %x_base_233 = arith.andi %x_base_230, %x_base_232 : tensor<256xi1> loc(#loc194)
    %x_base_234 = arith.muli %idx_feats_23, %x_base_223 : tensor<256xi32> loc(#loc194)
    %x_base_235 = tt.splat %x_base : !tt.ptr<bf16> -> tensor<256x!tt.ptr<bf16>> loc(#loc195)
    %x_base_236 = tt.addptr %x_base_235, %x_base_234 : tensor<256x!tt.ptr<bf16>>, tensor<256xi32> loc(#loc195)
    %x_ptrs = tt.expand_dims %x_base_236 {axis = 0 : i32} : tensor<256x!tt.ptr<bf16>> -> tensor<1x256x!tt.ptr<bf16>> loc(#loc196)
    %x_ptrs_237 = arith.constant dense<2> : tensor<4xi32> loc(#loc197)
    %x_ptrs_238 = arith.extsi %idx_tokens : tensor<4xi32> to tensor<4xi64> loc(#loc197)
    %x_ptrs_239 = arith.extsi %x_ptrs_237 : tensor<4xi32> to tensor<4xi64> loc(#loc197)
    %x_ptrs_240 = arith.subi %x_ptrs_238, %x_ptrs_239 : tensor<4xi64> loc(#loc197)
    %x_ptrs_241 = arith.constant 2147483647 : i64 loc(#loc197)
    %x_ptrs_242 = arith.constant -2147483648 : i64 loc(#loc197)
    %x_ptrs_243 = arith.constant dense<2147483647> : tensor<4xi64> loc(#loc197)
    %x_ptrs_244 = arith.cmpi sle, %x_ptrs_240, %x_ptrs_243 : tensor<4xi64> loc(#loc197)
    %x_ptrs_245 = arith.constant dense<-2147483648> : tensor<4xi64> loc(#loc197)
    %x_ptrs_246 = arith.cmpi sge, %x_ptrs_240, %x_ptrs_245 : tensor<4xi64> loc(#loc197)
    %x_ptrs_247 = arith.andi %x_ptrs_244, %x_ptrs_246 : tensor<4xi1> loc(#loc197)
    %x_ptrs_248 = arith.subi %idx_tokens, %x_ptrs_237 : tensor<4xi32> loc(#loc197)
    %x_ptrs_249 = arith.constant 1 : i32 loc(#loc198)
    %x_ptrs_250 = arith.constant 1 : i32 loc(#loc198)
    %x_ptrs_251 = arith.constant dense<1> : tensor<4xi32> loc(#loc198)
    %x_ptrs_252 = arith.extsi %x_ptrs_248 : tensor<4xi32> to tensor<4xi64> loc(#loc198)
    %x_ptrs_253 = arith.extsi %x_ptrs_251 : tensor<4xi32> to tensor<4xi64> loc(#loc198)
    %x_ptrs_254 = arith.muli %x_ptrs_252, %x_ptrs_253 : tensor<4xi64> loc(#loc198)
    %x_ptrs_255 = arith.constant 2147483647 : i64 loc(#loc198)
    %x_ptrs_256 = arith.constant -2147483648 : i64 loc(#loc198)
    %x_ptrs_257 = arith.constant dense<2147483647> : tensor<4xi64> loc(#loc198)
    %x_ptrs_258 = arith.cmpi sle, %x_ptrs_254, %x_ptrs_257 : tensor<4xi64> loc(#loc198)
    %x_ptrs_259 = arith.constant dense<-2147483648> : tensor<4xi64> loc(#loc198)
    %x_ptrs_260 = arith.cmpi sge, %x_ptrs_254, %x_ptrs_259 : tensor<4xi64> loc(#loc198)
    %x_ptrs_261 = arith.andi %x_ptrs_258, %x_ptrs_260 : tensor<4xi1> loc(#loc198)
    %x_ptrs_262 = arith.muli %x_ptrs_248, %x_ptrs_251 : tensor<4xi32> loc(#loc198)
    %x_ptrs_263 = tt.expand_dims %x_ptrs_262 {axis = 1 : i32} : tensor<4xi32> -> tensor<4x1xi32> loc(#loc199)
    %x_ptrs_264 = tt.broadcast %x_ptrs : tensor<1x256x!tt.ptr<bf16>> -> tensor<4x256x!tt.ptr<bf16>> loc(#loc200)
    %x_ptrs_265 = tt.broadcast %x_ptrs_263 : tensor<4x1xi32> -> tensor<4x256xi32> loc(#loc200)
    %x_ptrs_266 = tt.addptr %x_ptrs_264, %x_ptrs_265 : tensor<4x256x!tt.ptr<bf16>>, tensor<4x256xi32> loc(#loc200)
    %mask_x = arith.constant dense<2> : tensor<4xi32> loc(#loc201)
    %mask_x_267 = arith.extsi %idx_tokens : tensor<4xi32> to tensor<4xi64> loc(#loc201)
    %mask_x_268 = arith.extsi %mask_x : tensor<4xi32> to tensor<4xi64> loc(#loc201)
    %mask_x_269 = arith.subi %mask_x_267, %mask_x_268 : tensor<4xi64> loc(#loc201)
    %mask_x_270 = arith.constant 2147483647 : i64 loc(#loc201)
    %mask_x_271 = arith.constant -2147483648 : i64 loc(#loc201)
    %mask_x_272 = arith.constant dense<2147483647> : tensor<4xi64> loc(#loc201)
    %mask_x_273 = arith.cmpi sle, %mask_x_269, %mask_x_272 : tensor<4xi64> loc(#loc201)
    %mask_x_274 = arith.constant dense<-2147483648> : tensor<4xi64> loc(#loc201)
    %mask_x_275 = arith.cmpi sge, %mask_x_269, %mask_x_274 : tensor<4xi64> loc(#loc201)
    %mask_x_276 = arith.andi %mask_x_273, %mask_x_275 : tensor<4xi1> loc(#loc201)
    %mask_x_277 = arith.subi %idx_tokens, %mask_x : tensor<4xi32> loc(#loc201)
    %mask_x_278 = arith.constant 0 : i32 loc(#loc202)
    %mask_x_279 = arith.constant dense<0> : tensor<4xi32> loc(#loc202)
    %mask_x_280 = arith.cmpi sge, %mask_x_277, %mask_x_279 : tensor<4xi32> loc(#loc202)
    %mask_x_281 = tt.expand_dims %mask_x_280 {axis = 1 : i32} : tensor<4xi1> -> tensor<4x1xi1> loc(#loc203)
    %mask_x_282 = arith.constant dense<2> : tensor<4xi32> loc(#loc204)
    %mask_x_283 = arith.extsi %idx_tokens : tensor<4xi32> to tensor<4xi64> loc(#loc204)
    %mask_x_284 = arith.extsi %mask_x_282 : tensor<4xi32> to tensor<4xi64> loc(#loc204)
    %mask_x_285 = arith.subi %mask_x_283, %mask_x_284 : tensor<4xi64> loc(#loc204)
    %mask_x_286 = arith.constant 2147483647 : i64 loc(#loc204)
    %mask_x_287 = arith.constant -2147483648 : i64 loc(#loc204)
    %mask_x_288 = arith.constant dense<2147483647> : tensor<4xi64> loc(#loc204)
    %mask_x_289 = arith.cmpi sle, %mask_x_285, %mask_x_288 : tensor<4xi64> loc(#loc204)
    %mask_x_290 = arith.constant dense<-2147483648> : tensor<4xi64> loc(#loc204)
    %mask_x_291 = arith.cmpi sge, %mask_x_285, %mask_x_290 : tensor<4xi64> loc(#loc204)
    %mask_x_292 = arith.andi %mask_x_289, %mask_x_291 : tensor<4xi1> loc(#loc204)
    %mask_x_293 = arith.subi %idx_tokens, %mask_x_282 : tensor<4xi32> loc(#loc204)
    %mask_x_294 = arith.constant 1 : i32 loc(#loc205)
    %mask_x_295 = arith.constant dense<1> : tensor<4xi32> loc(#loc205)
    %mask_x_296 = arith.cmpi slt, %mask_x_293, %mask_x_295 : tensor<4xi32> loc(#loc205)
    %mask_x_297 = tt.expand_dims %mask_x_296 {axis = 1 : i32} : tensor<4xi1> -> tensor<4x1xi1> loc(#loc206)
    %mask_x_298 = arith.andi %mask_x_281, %mask_x_297 : tensor<4x1xi1> loc(#loc207)
    %mask_x_299 = arith.constant 8192 : i32 loc(#loc208)
    %mask_x_300 = arith.constant dense<8192> : tensor<256xi32> loc(#loc208)
    %mask_x_301 = arith.cmpi slt, %idx_feats_23, %mask_x_300 : tensor<256xi32> loc(#loc208)
    %mask_x_302 = tt.expand_dims %mask_x_301 {axis = 0 : i32} : tensor<256xi1> -> tensor<1x256xi1> loc(#loc209)
    %mask_x_303 = tt.broadcast %mask_x_298 : tensor<4x1xi1> -> tensor<4x256xi1> loc(#loc210)
    %mask_x_304 = tt.broadcast %mask_x_302 : tensor<1x256xi1> -> tensor<4x256xi1> loc(#loc210)
    %mask_x_305 = arith.andi %mask_x_303, %mask_x_304 : tensor<4x256xi1> loc(#loc210)
    %loaded_x = arith.constant 0.000000e+00 : f32 loc(#loc211)
    %loaded_x_306 = arith.constant dense<0.000000e+00> : tensor<4x256xf32> loc(#loc211)
    %loaded_x_307 = arith.truncf %loaded_x_306 : tensor<4x256xf32> to tensor<4x256xbf16> loc(#loc211)
    %loaded_x_308 = tt.load %x_ptrs_266, %mask_x_305, %loaded_x_307 : tensor<4x256x!tt.ptr<bf16>> loc(#loc211)
    gpu.barrier loc(#loc77)
    %new_conv_state = arith.select %mask_217, %conv_state_220, %loaded_x_308 : tensor<4x256xi1>, tensor<4x256xbf16> loc(#loc212)
    %conv_states_offset = arith.constant 1 : i32 loc(#loc213)
    %conv_states_offset_309 = arith.constant 1 : i32 loc(#loc213)
    %conv_states_offset_310 = arith.extsi %idx_seq : i32 to i64 loc(#loc213)
    %conv_states_offset_311 = arith.extsi %conv_states_offset_309 : i32 to i64 loc(#loc213)
    %conv_states_offset_312 = arith.muli %conv_states_offset_310, %conv_states_offset_311 : i64 loc(#loc213)
    %conv_states_offset_313 = arith.constant 2147483647 : i64 loc(#loc213)
    %conv_states_offset_314 = arith.constant -2147483648 : i64 loc(#loc213)
    %conv_states_offset_315 = arith.cmpi sle, %conv_states_offset_312, %conv_states_offset_313 : i64 loc(#loc213)
    %conv_states_offset_316 = arith.cmpi sge, %conv_states_offset_312, %conv_states_offset_314 : i64 loc(#loc213)
    %conv_states_offset_317 = arith.andi %conv_states_offset_315, %conv_states_offset_316 : i1 loc(#loc213)
    %conv_states_offset_318 = arith.muli %idx_seq, %conv_states_offset_309 : i32 loc(#loc213)
    %conv_states_offset_319 = tt.addptr %conv_state_indices_ptr, %conv_states_offset_318 : !tt.ptr<i32>, i32 loc(#loc214)
    %conv_states_offset_320 = tt.addptr %conv_states_offset_319, %current_last_index : !tt.ptr<i32>, i32 loc(#loc215)
    %conv_states_offset_321 = tt.load %conv_states_offset_320 : !tt.ptr<i32> loc(#loc216)
    %conv_states_offset_322 = arith.extsi %conv_states_offset_321 : i32 to i64 loc(#loc217)
    %conv_state_ptrs_target = arith.constant 1081344 : i32 loc(#loc218)
    %conv_state_ptrs_target_323 = arith.constant 1081344 : i64 loc(#loc218)
    %conv_state_ptrs_target_324 = arith.muli %conv_states_offset_322, %conv_state_ptrs_target_323 : i64 loc(#loc218)
    %conv_state_ptrs_target_325 = tt.addptr %conv_state_ptr, %conv_state_ptrs_target_324 : !tt.ptr<bf16>, i64 loc(#loc219)
    %conv_state_ptrs_target_326 = arith.constant 1 : i32 loc(#loc220)
    %conv_state_ptrs_target_327 = arith.constant 1 : i32 loc(#loc220)
    %conv_state_ptrs_target_328 = arith.constant dense<1> : tensor<256xi32> loc(#loc220)
    %conv_state_ptrs_target_329 = arith.extsi %idx_feats_23 : tensor<256xi32> to tensor<256xi64> loc(#loc220)
    %conv_state_ptrs_target_330 = arith.extsi %conv_state_ptrs_target_328 : tensor<256xi32> to tensor<256xi64> loc(#loc220)
    %conv_state_ptrs_target_331 = arith.muli %conv_state_ptrs_target_329, %conv_state_ptrs_target_330 : tensor<256xi64> loc(#loc220)
    %conv_state_ptrs_target_332 = arith.constant 2147483647 : i64 loc(#loc220)
    %conv_state_ptrs_target_333 = arith.constant -2147483648 : i64 loc(#loc220)
    %conv_state_ptrs_target_334 = arith.constant dense<2147483647> : tensor<256xi64> loc(#loc220)
    %conv_state_ptrs_target_335 = arith.cmpi sle, %conv_state_ptrs_target_331, %conv_state_ptrs_target_334 : tensor<256xi64> loc(#loc220)
    %conv_state_ptrs_target_336 = arith.constant dense<-2147483648> : tensor<256xi64> loc(#loc220)
    %conv_state_ptrs_target_337 = arith.cmpi sge, %conv_state_ptrs_target_331, %conv_state_ptrs_target_336 : tensor<256xi64> loc(#loc220)
    %conv_state_ptrs_target_338 = arith.andi %conv_state_ptrs_target_335, %conv_state_ptrs_target_337 : tensor<256xi1> loc(#loc220)
    %conv_state_ptrs_target_339 = arith.muli %idx_feats_23, %conv_state_ptrs_target_328 : tensor<256xi32> loc(#loc220)
    %conv_state_ptrs_target_340 = tt.splat %conv_state_ptrs_target_325 : !tt.ptr<bf16> -> tensor<256x!tt.ptr<bf16>> loc(#loc221)
    %conv_state_ptrs_target_341 = tt.addptr %conv_state_ptrs_target_340, %conv_state_ptrs_target_339 : tensor<256x!tt.ptr<bf16>>, tensor<256xi32> loc(#loc221)
    %conv_state_ptrs_target_342 = tt.expand_dims %conv_state_ptrs_target_341 {axis = 0 : i32} : tensor<256x!tt.ptr<bf16>> -> tensor<1x256x!tt.ptr<bf16>> loc(#loc222)
    %conv_state_ptrs_target_343 = arith.constant 8192 : i32 loc(#loc223)
    %conv_state_ptrs_target_344 = arith.constant 8192 : i32 loc(#loc223)
    %conv_state_ptrs_target_345 = arith.constant dense<8192> : tensor<4xi32> loc(#loc223)
    %conv_state_ptrs_target_346 = arith.extsi %idx_tokens : tensor<4xi32> to tensor<4xi64> loc(#loc223)
    %conv_state_ptrs_target_347 = arith.extsi %conv_state_ptrs_target_345 : tensor<4xi32> to tensor<4xi64> loc(#loc223)
    %conv_state_ptrs_target_348 = arith.muli %conv_state_ptrs_target_346, %conv_state_ptrs_target_347 : tensor<4xi64> loc(#loc223)
    %conv_state_ptrs_target_349 = arith.constant 2147483647 : i64 loc(#loc223)
    %conv_state_ptrs_target_350 = arith.constant -2147483648 : i64 loc(#loc223)
    %conv_state_ptrs_target_351 = arith.constant dense<2147483647> : tensor<4xi64> loc(#loc223)
    %conv_state_ptrs_target_352 = arith.cmpi sle, %conv_state_ptrs_target_348, %conv_state_ptrs_target_351 : tensor<4xi64> loc(#loc223)
    %conv_state_ptrs_target_353 = arith.constant dense<-2147483648> : tensor<4xi64> loc(#loc223)
    %conv_state_ptrs_target_354 = arith.cmpi sge, %conv_state_ptrs_target_348, %conv_state_ptrs_target_353 : tensor<4xi64> loc(#loc223)
    %conv_state_ptrs_target_355 = arith.andi %conv_state_ptrs_target_352, %conv_state_ptrs_target_354 : tensor<4xi1> loc(#loc223)
    %conv_state_ptrs_target_356 = arith.muli %idx_tokens, %conv_state_ptrs_target_345 : tensor<4xi32> loc(#loc223)
    %conv_state_ptrs_target_357 = tt.expand_dims %conv_state_ptrs_target_356 {axis = 1 : i32} : tensor<4xi32> -> tensor<4x1xi32> loc(#loc224)
    %conv_state_ptrs_target_358 = tt.broadcast %conv_state_ptrs_target_342 : tensor<1x256x!tt.ptr<bf16>> -> tensor<4x256x!tt.ptr<bf16>> loc(#loc225)
    %conv_state_ptrs_target_359 = tt.broadcast %conv_state_ptrs_target_357 : tensor<4x1xi32> -> tensor<4x256xi32> loc(#loc225)
    %conv_state_ptrs_target_360 = tt.addptr %conv_state_ptrs_target_358, %conv_state_ptrs_target_359 : tensor<4x256x!tt.ptr<bf16>>, tensor<4x256xi32> loc(#loc225)
    %mask_361 = arith.constant 3 : i32 loc(#loc226)
    %mask_362 = arith.constant dense<3> : tensor<4xi32> loc(#loc226)
    %mask_363 = arith.cmpi slt, %idx_tokens, %mask_362 : tensor<4xi32> loc(#loc226)
    %mask_364 = tt.expand_dims %mask_363 {axis = 1 : i32} : tensor<4xi1> -> tensor<4x1xi1> loc(#loc227)
    %mask_365 = arith.constant 8192 : i32 loc(#loc228)
    %mask_366 = arith.constant dense<8192> : tensor<256xi32> loc(#loc228)
    %mask_367 = arith.cmpi slt, %idx_feats_23, %mask_366 : tensor<256xi32> loc(#loc228)
    %mask_368 = tt.expand_dims %mask_367 {axis = 0 : i32} : tensor<256xi1> -> tensor<1x256xi1> loc(#loc229)
    %mask_369 = tt.broadcast %mask_364 : tensor<4x1xi1> -> tensor<4x256xi1> loc(#loc230)
    %mask_370 = tt.broadcast %mask_368 : tensor<1x256xi1> -> tensor<4x256xi1> loc(#loc230)
    %mask_371 = arith.andi %mask_369, %mask_370 : tensor<4x256xi1> loc(#loc230)
    tt.store %conv_state_ptrs_target_360, %new_conv_state, %mask_371 : tensor<4x256x!tt.ptr<bf16>> loc(#loc97)
    %acc_preload = tt.call @"triton.language.standard.zeros____(0, 0)cconstexpr_256__(1,)cconstexpr_fp32_"() : () -> tensor<256xf32> loc(#loc231)
    %w_base = arith.constant 4 : i32 loc(#loc232)
    %w_base_372 = arith.constant 4 : i32 loc(#loc232)
    %w_base_373 = arith.constant dense<4> : tensor<256xi32> loc(#loc232)
    %w_base_374 = arith.extsi %idx_feats_23 : tensor<256xi32> to tensor<256xi64> loc(#loc232)
    %w_base_375 = arith.extsi %w_base_373 : tensor<256xi32> to tensor<256xi64> loc(#loc232)
    %w_base_376 = arith.muli %w_base_374, %w_base_375 : tensor<256xi64> loc(#loc232)
    %w_base_377 = arith.constant 2147483647 : i64 loc(#loc232)
    %w_base_378 = arith.constant -2147483648 : i64 loc(#loc232)
    %w_base_379 = arith.constant dense<2147483647> : tensor<256xi64> loc(#loc232)
    %w_base_380 = arith.cmpi sle, %w_base_376, %w_base_379 : tensor<256xi64> loc(#loc232)
    %w_base_381 = arith.constant dense<-2147483648> : tensor<256xi64> loc(#loc232)
    %w_base_382 = arith.cmpi sge, %w_base_376, %w_base_381 : tensor<256xi64> loc(#loc232)
    %w_base_383 = arith.andi %w_base_380, %w_base_382 : tensor<256xi1> loc(#loc232)
    %w_base_384 = arith.muli %idx_feats_23, %w_base_373 : tensor<256xi32> loc(#loc232)
    %w_base_385 = tt.splat %w_ptr : !tt.ptr<bf16> -> tensor<256x!tt.ptr<bf16>> loc(#loc233)
    %w_base_386 = tt.addptr %w_base_385, %w_base_384 : tensor<256x!tt.ptr<bf16>>, tensor<256xi32> loc(#loc233)
    %mask_w_387 = arith.constant 8192 : i32 loc(#loc234)
    %mask_w_388 = arith.constant dense<8192> : tensor<256xi32> loc(#loc234)
    %mask_w_389 = arith.cmpi slt, %idx_feats_23, %mask_w_388 : tensor<256xi32> loc(#loc234)
    %w_ptrs = arith.constant 0 : i32 loc(#loc235)
    %w_ptrs_390 = arith.constant dense<0> : tensor<256xi32> loc(#loc235)
    %w_ptrs_391 = tt.addptr %w_base_386, %w_ptrs_390 : tensor<256x!tt.ptr<bf16>>, tensor<256xi32> loc(#loc235)
    %w_col0 = arith.constant 0.000000e+00 : f32 loc(#loc236)
    %w_col0_392 = arith.constant dense<0.000000e+00> : tensor<256xf32> loc(#loc236)
    %w_col0_393 = arith.truncf %w_col0_392 : tensor<256xf32> to tensor<256xbf16> loc(#loc236)
    %w_col0_394 = tt.load %w_ptrs_391, %mask_w_389, %w_col0_393 : tensor<256x!tt.ptr<bf16>> loc(#loc236)
    %w_ptrs_395 = arith.constant 1 : i32 loc(#loc237)
    %w_ptrs_396 = arith.constant dense<1> : tensor<256xi32> loc(#loc237)
    %w_ptrs_397 = tt.addptr %w_base_386, %w_ptrs_396 : tensor<256x!tt.ptr<bf16>>, tensor<256xi32> loc(#loc237)
    %w_col1 = arith.constant 0.000000e+00 : f32 loc(#loc238)
    %w_col1_398 = arith.constant dense<0.000000e+00> : tensor<256xf32> loc(#loc238)
    %w_col1_399 = arith.truncf %w_col1_398 : tensor<256xf32> to tensor<256xbf16> loc(#loc238)
    %w_col1_400 = tt.load %w_ptrs_397, %mask_w_389, %w_col1_399 : tensor<256x!tt.ptr<bf16>> loc(#loc238)
    %w_ptrs_401 = arith.constant 2 : i32 loc(#loc239)
    %w_ptrs_402 = arith.constant dense<2> : tensor<256xi32> loc(#loc239)
    %w_ptrs_403 = tt.addptr %w_base_386, %w_ptrs_402 : tensor<256x!tt.ptr<bf16>>, tensor<256xi32> loc(#loc239)
    %w_col2 = arith.constant 0.000000e+00 : f32 loc(#loc240)
    %w_col2_404 = arith.constant dense<0.000000e+00> : tensor<256xf32> loc(#loc240)
    %w_col2_405 = arith.truncf %w_col2_404 : tensor<256xf32> to tensor<256xbf16> loc(#loc240)
    %w_col2_406 = tt.load %w_ptrs_403, %mask_w_389, %w_col2_405 : tensor<256x!tt.ptr<bf16>> loc(#loc240)
    %w_ptrs_407 = arith.constant 3 : i32 loc(#loc241)
    %w_ptrs_408 = arith.constant dense<3> : tensor<256xi32> loc(#loc241)
    %w_ptrs_409 = tt.addptr %w_base_386, %w_ptrs_408 : tensor<256x!tt.ptr<bf16>>, tensor<256xi32> loc(#loc241)
    %w_col3 = arith.constant 0.000000e+00 : f32 loc(#loc242)
    %w_col3_410 = arith.constant dense<0.000000e+00> : tensor<256xf32> loc(#loc242)
    %w_col3_411 = arith.truncf %w_col3_410 : tensor<256xf32> to tensor<256xbf16> loc(#loc242)
    %w_col3_412 = tt.load %w_ptrs_409, %mask_w_389, %w_col3_411 : tensor<256x!tt.ptr<bf16>> loc(#loc242)
    %mask_x_1d = arith.constant 8192 : i32 loc(#loc243)
    %mask_x_1d_413 = arith.constant dense<8192> : tensor<256xi32> loc(#loc243)
    %mask_x_1d_414 = arith.cmpi slt, %idx_feats_23, %mask_x_1d_413 : tensor<256xi32> loc(#loc243)
    %c0_i32 = arith.constant 0 : i32 loc(#loc111)
    %c1_i32 = arith.constant 1 : i32 loc(#loc111)
    %c1_i32_415 = arith.constant 1 : i32 loc(#loc111)
    %4 = arith.bitcast %c0_i32 : i32 to i32 loc(#loc111)
    %5 = arith.bitcast %c1_i32 : i32 to i32 loc(#loc111)
    %6 = arith.bitcast %c1_i32_415 : i32 to i32 loc(#loc111)
    %7 = ub.poison : i32 loc(#loc111)
    %col2_416:3 = scf.for %idx_token = %4 to %5 step %6 iter_args(%col0_417 = %col0_113, %col1_418 = %col1_118, %col2_419 = %col2_124) -> (tensor<256xbf16>, tensor<256xbf16>, tensor<256xbf16>)  : i32 {
      %acc = arith.mulf %col0_417, %w_col0_394 : tensor<256xbf16> loc(#loc245)
      %acc_420 = arith.extf %acc : tensor<256xbf16> to tensor<256xf32> loc(#loc246)
      %acc_421 = arith.addf %acc_preload, %acc_420 : tensor<256xf32> loc(#loc246)
      %acc_422 = arith.mulf %col1_418, %w_col1_400 : tensor<256xbf16> loc(#loc245)
      %acc_423 = arith.extf %acc_422 : tensor<256xbf16> to tensor<256xf32> loc(#loc246)
      %acc_424 = arith.addf %acc_421, %acc_423 : tensor<256xf32> loc(#loc246)
      %acc_425 = arith.mulf %col2_419, %w_col2_406 : tensor<256xbf16> loc(#loc245)
      %acc_426 = arith.extf %acc_425 : tensor<256xbf16> to tensor<256xf32> loc(#loc246)
      %acc_427 = arith.addf %acc_424, %acc_426 : tensor<256xf32> loc(#loc246)
      %x_ptrs_1d = arith.constant 1 : i32 loc(#loc247)
      %x_ptrs_1d_428 = arith.constant 1 : i32 loc(#loc247)
      %x_ptrs_1d_429 = arith.extsi %idx_token : i32 to i64 loc(#loc247)
      %x_ptrs_1d_430 = arith.extsi %x_ptrs_1d_428 : i32 to i64 loc(#loc247)
      %x_ptrs_1d_431 = arith.muli %x_ptrs_1d_429, %x_ptrs_1d_430 : i64 loc(#loc247)
      %x_ptrs_1d_432 = arith.constant 2147483647 : i64 loc(#loc247)
      %x_ptrs_1d_433 = arith.constant -2147483648 : i64 loc(#loc247)
      %x_ptrs_1d_434 = arith.cmpi sle, %x_ptrs_1d_431, %x_ptrs_1d_432 : i64 loc(#loc247)
      %x_ptrs_1d_435 = arith.cmpi sge, %x_ptrs_1d_431, %x_ptrs_1d_433 : i64 loc(#loc247)
      %x_ptrs_1d_436 = arith.andi %x_ptrs_1d_434, %x_ptrs_1d_435 : i1 loc(#loc247)
      %x_ptrs_1d_437 = arith.muli %idx_token, %x_ptrs_1d_428 : i32 loc(#loc247)
      %x_ptrs_1d_438 = tt.splat %x_ptrs_1d_437 : i32 -> tensor<256xi32> loc(#loc248)
      %x_ptrs_1d_439 = tt.addptr %x_base_236, %x_ptrs_1d_438 : tensor<256x!tt.ptr<bf16>>, tensor<256xi32> loc(#loc248)
      %matrix_x = tt.load %x_ptrs_1d_439, %mask_x_1d_414 : tensor<256x!tt.ptr<bf16>> loc(#loc249)
      %acc_440 = arith.mulf %matrix_x, %w_col3_412 : tensor<256xbf16> loc(#loc245)
      %acc_441 = arith.extf %acc_440 : tensor<256xbf16> to tensor<256xf32> loc(#loc246)
      %acc_442 = arith.addf %acc_427, %acc_441 : tensor<256xf32> loc(#loc246)
      %acc_443 = arith.constant 0.000000e+00 : f32 loc(#loc250)
      %acc_444 = arith.constant dense<0.000000e+00> : tensor<256xf32> loc(#loc250)
      %acc_445 = arith.subf %acc_444, %acc_442 : tensor<256xf32> loc(#loc250)
      %acc_446 = math.exp %acc_445 : tensor<256xf32> loc(#loc251)
      %acc_447 = arith.constant 1 : i32 loc(#loc252)
      %acc_448 = arith.constant 1.000000e+00 : f32 loc(#loc252)
      %acc_449 = arith.constant dense<1.000000e+00> : tensor<256xf32> loc(#loc252)
      %acc_450 = arith.addf %acc_449, %acc_446 : tensor<256xf32> loc(#loc252)
      %acc_451 = arith.divf %acc_442, %acc_450 : tensor<256xf32> loc(#loc253)
      %mask_1d = arith.constant 1 : i32 loc(#loc254)
      %mask_1d_452 = arith.cmpi slt, %idx_token, %mask_1d : i32 loc(#loc254)
      %mask_1d_453 = arith.constant 8192 : i32 loc(#loc255)
      %mask_1d_454 = arith.constant dense<8192> : tensor<256xi32> loc(#loc255)
      %mask_1d_455 = arith.cmpi slt, %idx_feats_23, %mask_1d_454 : tensor<256xi32> loc(#loc255)
      %mask_1d_456 = tt.splat %mask_1d_452 : i1 -> tensor<256xi1> loc(#loc256)
      %mask_1d_457 = arith.andi %mask_1d_456, %mask_1d_455 : tensor<256xi1> loc(#loc256)
      %o_ptrs = tt.addptr %o_ptr, %o_offset_77 : !tt.ptr<bf16>, i32 loc(#loc257)
      %o_ptrs_458 = arith.constant 1 : i32 loc(#loc258)
      %o_ptrs_459 = arith.constant 1 : i32 loc(#loc258)
      %o_ptrs_460 = arith.extsi %idx_token : i32 to i64 loc(#loc258)
      %o_ptrs_461 = arith.extsi %o_ptrs_459 : i32 to i64 loc(#loc258)
      %o_ptrs_462 = arith.muli %o_ptrs_460, %o_ptrs_461 : i64 loc(#loc258)
      %o_ptrs_463 = arith.constant 2147483647 : i64 loc(#loc258)
      %o_ptrs_464 = arith.constant -2147483648 : i64 loc(#loc258)
      %o_ptrs_465 = arith.cmpi sle, %o_ptrs_462, %o_ptrs_463 : i64 loc(#loc258)
      %o_ptrs_466 = arith.cmpi sge, %o_ptrs_462, %o_ptrs_464 : i64 loc(#loc258)
      %o_ptrs_467 = arith.andi %o_ptrs_465, %o_ptrs_466 : i1 loc(#loc258)
      %o_ptrs_468 = arith.muli %idx_token, %o_ptrs_459 : i32 loc(#loc258)
      %o_ptrs_469 = tt.addptr %o_ptrs, %o_ptrs_468 : !tt.ptr<bf16>, i32 loc(#loc259)
      %o_ptrs_470 = arith.constant 1 : i32 loc(#loc260)
      %o_ptrs_471 = arith.constant 1 : i32 loc(#loc260)
      %o_ptrs_472 = arith.constant dense<1> : tensor<256xi32> loc(#loc260)
      %o_ptrs_473 = arith.extsi %idx_feats_23 : tensor<256xi32> to tensor<256xi64> loc(#loc260)
      %o_ptrs_474 = arith.extsi %o_ptrs_472 : tensor<256xi32> to tensor<256xi64> loc(#loc260)
      %o_ptrs_475 = arith.muli %o_ptrs_473, %o_ptrs_474 : tensor<256xi64> loc(#loc260)
      %o_ptrs_476 = arith.constant 2147483647 : i64 loc(#loc260)
      %o_ptrs_477 = arith.constant -2147483648 : i64 loc(#loc260)
      %o_ptrs_478 = arith.constant dense<2147483647> : tensor<256xi64> loc(#loc260)
      %o_ptrs_479 = arith.cmpi sle, %o_ptrs_475, %o_ptrs_478 : tensor<256xi64> loc(#loc260)
      %o_ptrs_480 = arith.constant dense<-2147483648> : tensor<256xi64> loc(#loc260)
      %o_ptrs_481 = arith.cmpi sge, %o_ptrs_475, %o_ptrs_480 : tensor<256xi64> loc(#loc260)
      %o_ptrs_482 = arith.andi %o_ptrs_479, %o_ptrs_481 : tensor<256xi1> loc(#loc260)
      %o_ptrs_483 = arith.muli %idx_feats_23, %o_ptrs_472 : tensor<256xi32> loc(#loc260)
      %o_ptrs_484 = tt.splat %o_ptrs_469 : !tt.ptr<bf16> -> tensor<256x!tt.ptr<bf16>> loc(#loc261)
      %o_ptrs_485 = tt.addptr %o_ptrs_484, %o_ptrs_483 : tensor<256x!tt.ptr<bf16>>, tensor<256xi32> loc(#loc261)
      %8 = arith.truncf %acc_451 : tensor<256xf32> to tensor<256xbf16> loc(#loc129)
      tt.store %o_ptrs_485, %8, %mask_1d_457 : tensor<256x!tt.ptr<bf16>> loc(#loc129)
      scf.yield %col1_418, %col2_419, %matrix_x : tensor<256xbf16>, tensor<256xbf16>, tensor<256xbf16> loc(#loc130)
    } loc(#loc263)
    tt.return loc(#loc131)
  } loc(#loc)
  tt.func private @"triton.language.standard.zeros____(0, 0)cconstexpr_256__(1,)cconstexpr_fp32_"() -> tensor<256xf32> attributes {noinline = false} {
    %cst = arith.constant 0.000000e+00 : f32 loc(#loc133)
    %cst_0 = arith.constant dense<0.000000e+00> : tensor<256xf32> loc(#loc133)
    tt.return %cst_0 : tensor<256xf32> loc(#loc134)
  ^bb1:  // no predecessors
    %0 = ub.poison : tensor<256xf32> loc(#loc135)
    tt.return %0 : tensor<256xf32> loc(#loc135)
  } loc(#loc132)
} loc(#loc)
#loc1 = loc("/data/conda/envs/or_llm/lib/python3.12/site-packages/vllm/model_executor/layers/mamba/ops/causal_conv1d.py":794:28)
#loc2 = loc("/data/conda/envs/or_llm/lib/python3.12/site-packages/vllm/model_executor/layers/mamba/ops/causal_conv1d.py":795:18)
#loc3 = loc("/data/conda/envs/or_llm/lib/python3.12/site-packages/vllm/model_executor/layers/mamba/ops/causal_conv1d.py":796:8)
#loc4 = loc("/data/conda/envs/or_llm/lib/python3.12/site-packages/vllm/model_executor/layers/mamba/ops/causal_conv1d.py":799:30)
#loc5 = loc("/data/conda/envs/or_llm/lib/python3.12/site-packages/vllm/model_executor/layers/mamba/ops/causal_conv1d.py":799:35)
#loc6 = loc("/data/conda/envs/or_llm/lib/python3.12/site-packages/vllm/model_executor/layers/mamba/ops/causal_conv1d.py":799:58)
#loc7 = loc("/data/conda/envs/or_llm/lib/python3.12/site-packages/vllm/model_executor/layers/mamba/ops/causal_conv1d.py":799:45)
#loc8 = loc("/data/conda/envs/or_llm/lib/python3.12/site-packages/vllm/model_executor/layers/mamba/ops/causal_conv1d.py":806:26)
#loc9 = loc("/data/conda/envs/or_llm/lib/python3.12/site-packages/vllm/model_executor/layers/mamba/ops/causal_conv1d.py":807:29)
#loc10 = loc("/data/conda/envs/or_llm/lib/python3.12/site-packages/vllm/model_executor/layers/mamba/ops/causal_conv1d.py":811:43)
#loc11 = loc("/data/conda/envs/or_llm/lib/python3.12/site-packages/vllm/model_executor/layers/mamba/ops/causal_conv1d.py":811:33)
#loc12 = loc("/data/conda/envs/or_llm/lib/python3.12/site-packages/vllm/model_executor/layers/mamba/ops/causal_conv1d.py":811:66)
#loc13 = loc("/data/conda/envs/or_llm/lib/python3.12/site-packages/vllm/model_executor/layers/mamba/ops/causal_conv1d.py":811:8)
#loc14 = loc("/data/conda/envs/or_llm/lib/python3.12/site-packages/vllm/model_executor/layers/mamba/ops/causal_conv1d.py":812:9)
#loc15 = loc("/data/conda/envs/or_llm/lib/python3.12/site-packages/vllm/model_executor/layers/mamba/ops/causal_conv1d.py":815:38)
#loc16 = loc("/data/conda/envs/or_llm/lib/python3.12/site-packages/vllm/model_executor/layers/mamba/ops/causal_conv1d.py":817:12)
#loc17 = loc("/data/conda/envs/or_llm/lib/python3.12/site-packages/vllm/model_executor/layers/mamba/ops/causal_conv1d.py":828:38)
#loc18 = loc("/data/conda/envs/or_llm/lib/python3.12/site-packages/vllm/model_executor/layers/mamba/ops/causal_conv1d.py":829:46)
#loc19 = loc("/data/conda/envs/or_llm/lib/python3.12/site-packages/vllm/model_executor/layers/mamba/ops/causal_conv1d.py":830:29)
#loc20 = loc("/data/conda/envs/or_llm/lib/python3.12/site-packages/vllm/model_executor/layers/mamba/ops/causal_conv1d.py":831:29)
#loc21 = loc("/data/conda/envs/or_llm/lib/python3.12/site-packages/vllm/model_executor/layers/mamba/ops/causal_conv1d.py":833:28)
#loc22 = loc("/data/conda/envs/or_llm/lib/python3.12/site-packages/vllm/model_executor/layers/mamba/ops/causal_conv1d.py":834:8)
#loc23 = loc("/data/conda/envs/or_llm/lib/python3.12/site-packages/vllm/model_executor/layers/mamba/ops/causal_conv1d.py":854:34)
#loc24 = loc("/data/conda/envs/or_llm/lib/python3.12/site-packages/vllm/model_executor/layers/mamba/ops/causal_conv1d.py":859:37)
#loc25 = loc("/data/conda/envs/or_llm/lib/python3.12/site-packages/vllm/model_executor/layers/mamba/ops/causal_conv1d.py":859:11)
#loc26 = loc("/data/conda/envs/or_llm/lib/python3.12/site-packages/vllm/model_executor/layers/mamba/ops/causal_conv1d.py":860:23)
#loc27 = loc("/data/conda/envs/or_llm/lib/python3.12/site-packages/vllm/model_executor/layers/mamba/ops/causal_conv1d.py":860:11)
#loc28 = loc("/data/conda/envs/or_llm/lib/python3.12/site-packages/vllm/model_executor/layers/mamba/ops/causal_conv1d.py":862:25)
#loc29 = loc("/data/conda/envs/or_llm/lib/python3.12/site-packages/vllm/model_executor/layers/mamba/ops/causal_conv1d.py":864:64)
#loc30 = loc("/data/conda/envs/or_llm/lib/python3.12/site-packages/vllm/model_executor/layers/mamba/ops/causal_conv1d.py":864:38)
#loc31 = loc("/data/conda/envs/or_llm/lib/python3.12/site-packages/vllm/model_executor/layers/mamba/ops/causal_conv1d.py":867:49)
#loc32 = loc("/data/conda/envs/or_llm/lib/python3.12/site-packages/vllm/model_executor/layers/mamba/ops/causal_conv1d.py":869:42)
#loc33 = loc("/data/conda/envs/or_llm/lib/python3.12/site-packages/vllm/model_executor/layers/mamba/ops/causal_conv1d.py":870:49)
#loc34 = loc("/data/conda/envs/or_llm/lib/python3.12/site-packages/vllm/model_executor/layers/mamba/ops/causal_conv1d.py":872:42)
#loc35 = loc("/data/conda/envs/or_llm/lib/python3.12/site-packages/vllm/model_executor/layers/mamba/ops/causal_conv1d.py":873:49)
#loc36 = loc("/data/conda/envs/or_llm/lib/python3.12/site-packages/vllm/model_executor/layers/mamba/ops/causal_conv1d.py":882:30)
#loc37 = loc("/data/conda/envs/or_llm/lib/python3.12/site-packages/vllm/model_executor/layers/mamba/ops/causal_conv1d.py":889:37)
#loc38 = loc("/data/conda/envs/or_llm/lib/python3.12/site-packages/vllm/model_executor/layers/mamba/ops/causal_conv1d.py":889:11)
#loc39 = loc("/data/conda/envs/or_llm/lib/python3.12/site-packages/vllm/model_executor/layers/mamba/ops/causal_conv1d.py":890:36)
#loc40 = loc("/data/conda/envs/or_llm/lib/python3.12/site-packages/vllm/model_executor/layers/mamba/ops/causal_conv1d.py":890:10)
#loc41 = loc("/data/conda/envs/or_llm/lib/python3.12/site-packages/vllm/model_executor/layers/mamba/ops/causal_conv1d.py":891:23)
#loc42 = loc("/data/conda/envs/or_llm/lib/python3.12/site-packages/vllm/model_executor/layers/mamba/ops/causal_conv1d.py":891:46)
#loc43 = loc("/data/conda/envs/or_llm/lib/python3.12/site-packages/vllm/model_executor/layers/mamba/ops/causal_conv1d.py":891:10)
#loc44 = loc("/data/conda/envs/or_llm/lib/python3.12/site-packages/vllm/model_executor/layers/mamba/ops/causal_conv1d.py":892:26)
#loc45 = loc("/data/conda/envs/or_llm/lib/python3.12/site-packages/vllm/model_executor/layers/mamba/ops/causal_conv1d.py":892:64)
#loc46 = loc("/data/conda/envs/or_llm/lib/python3.12/site-packages/vllm/model_executor/layers/mamba/ops/causal_conv1d.py":893:12)
#loc47 = loc("/data/conda/envs/or_llm/lib/python3.12/site-packages/vllm/model_executor/layers/mamba/ops/causal_conv1d.py":892:10)
#loc48 = loc("/data/conda/envs/or_llm/lib/python3.12/site-packages/vllm/model_executor/layers/mamba/ops/causal_conv1d.py":897:35)
#loc49 = loc("/data/conda/envs/or_llm/lib/python3.12/site-packages/vllm/model_executor/layers/mamba/ops/causal_conv1d.py":898:25)
#loc50 = loc("/data/conda/envs/or_llm/lib/python3.12/site-packages/vllm/model_executor/layers/mamba/ops/causal_conv1d.py":898:35)
#loc51 = loc("/data/conda/envs/or_llm/lib/python3.12/site-packages/vllm/model_executor/layers/mamba/ops/causal_conv1d.py":898:46)
#loc52 = loc("/data/conda/envs/or_llm/lib/python3.12/site-packages/vllm/model_executor/layers/mamba/ops/causal_conv1d.py":898:10)
#loc53 = loc("/data/conda/envs/or_llm/lib/python3.12/site-packages/vllm/model_executor/layers/mamba/ops/causal_conv1d.py":899:23)
#loc54 = loc("/data/conda/envs/or_llm/lib/python3.12/site-packages/vllm/model_executor/layers/mamba/ops/causal_conv1d.py":899:28)
#loc55 = loc("/data/conda/envs/or_llm/lib/python3.12/site-packages/vllm/model_executor/layers/mamba/ops/causal_conv1d.py":899:10)
#loc56 = loc("/data/conda/envs/or_llm/lib/python3.12/site-packages/vllm/model_executor/layers/mamba/ops/causal_conv1d.py":901:49)
#loc57 = loc("/data/conda/envs/or_llm/lib/python3.12/site-packages/vllm/model_executor/layers/mamba/ops/causal_conv1d.py":903:10)
#loc58 = loc("/data/conda/envs/or_llm/lib/python3.12/site-packages/vllm/model_executor/layers/mamba/ops/causal_conv1d.py":904:21)
#loc59 = loc("/data/conda/envs/or_llm/lib/python3.12/site-packages/vllm/model_executor/layers/mamba/ops/causal_conv1d.py":904:45)
#loc60 = loc("/data/conda/envs/or_llm/lib/python3.12/site-packages/vllm/model_executor/layers/mamba/ops/causal_conv1d.py":904:33)
#loc61 = loc("/data/conda/envs/or_llm/lib/python3.12/site-packages/vllm/model_executor/layers/mamba/ops/causal_conv1d.py":907:15)
#loc62 = loc("/data/conda/envs/or_llm/lib/python3.12/site-packages/vllm/model_executor/layers/mamba/ops/causal_conv1d.py":907:41)
#loc63 = loc("/data/conda/envs/or_llm/lib/python3.12/site-packages/vllm/model_executor/layers/mamba/ops/causal_conv1d.py":907:48)
#loc64 = loc("/data/conda/envs/or_llm/lib/python3.12/site-packages/vllm/model_executor/layers/mamba/ops/causal_conv1d.py":907:64)
#loc65 = loc("/data/conda/envs/or_llm/lib/python3.12/site-packages/vllm/model_executor/layers/mamba/ops/causal_conv1d.py":907:26)
#loc66 = loc("/data/conda/envs/or_llm/lib/python3.12/site-packages/vllm/model_executor/layers/mamba/ops/causal_conv1d.py":911:22)
#loc67 = loc("/data/conda/envs/or_llm/lib/python3.12/site-packages/vllm/model_executor/layers/mamba/ops/causal_conv1d.py":911:29)
#loc68 = loc("/data/conda/envs/or_llm/lib/python3.12/site-packages/vllm/model_executor/layers/mamba/ops/causal_conv1d.py":911:32)
#loc69 = loc("/data/conda/envs/or_llm/lib/python3.12/site-packages/vllm/model_executor/layers/mamba/ops/causal_conv1d.py":912:24)
#loc70 = loc("/data/conda/envs/or_llm/lib/python3.12/site-packages/vllm/model_executor/layers/mamba/ops/causal_conv1d.py":912:30)
#loc71 = loc("/data/conda/envs/or_llm/lib/python3.12/site-packages/vllm/model_executor/layers/mamba/ops/causal_conv1d.py":912:38)
#loc72 = loc("/data/conda/envs/or_llm/lib/python3.12/site-packages/vllm/model_executor/layers/mamba/ops/causal_conv1d.py":912:10)
#loc73 = loc("/data/conda/envs/or_llm/lib/python3.12/site-packages/vllm/model_executor/layers/mamba/ops/causal_conv1d.py":913:23)
#loc74 = loc("/data/conda/envs/or_llm/lib/python3.12/site-packages/vllm/model_executor/layers/mamba/ops/causal_conv1d.py":913:28)
#loc75 = loc("/data/conda/envs/or_llm/lib/python3.12/site-packages/vllm/model_executor/layers/mamba/ops/causal_conv1d.py":913:10)
#loc76 = loc("/data/conda/envs/or_llm/lib/python3.12/site-packages/vllm/model_executor/layers/mamba/ops/causal_conv1d.py":915:39)
#loc77 = loc("/data/conda/envs/or_llm/lib/python3.12/site-packages/vllm/model_executor/layers/mamba/ops/causal_conv1d.py":916:4)
#loc78 = loc("/data/conda/envs/or_llm/lib/python3.12/site-packages/vllm/model_executor/layers/mamba/ops/causal_conv1d.py":918:48)
#loc79 = loc("/data/conda/envs/or_llm/lib/python3.12/site-packages/vllm/model_executor/layers/mamba/ops/causal_conv1d.py":923:43)
#loc80 = loc("/data/conda/envs/or_llm/lib/python3.12/site-packages/vllm/model_executor/layers/mamba/ops/causal_conv1d.py":923:33)
#loc81 = loc("/data/conda/envs/or_llm/lib/python3.12/site-packages/vllm/model_executor/layers/mamba/ops/causal_conv1d.py":923:66)
#loc82 = loc("/data/conda/envs/or_llm/lib/python3.12/site-packages/vllm/model_executor/layers/mamba/ops/causal_conv1d.py":923:8)
#loc83 = loc("/data/conda/envs/or_llm/lib/python3.12/site-packages/vllm/model_executor/layers/mamba/ops/causal_conv1d.py":924:9)
#loc84 = loc("/data/conda/envs/or_llm/lib/python3.12/site-packages/vllm/model_executor/layers/mamba/ops/causal_conv1d.py":927:32)
#loc85 = loc("/data/conda/envs/or_llm/lib/python3.12/site-packages/vllm/model_executor/layers/mamba/ops/causal_conv1d.py":927:11)
#loc86 = loc("/data/conda/envs/or_llm/lib/python3.12/site-packages/vllm/model_executor/layers/mamba/ops/causal_conv1d.py":928:23)
#loc87 = loc("/data/conda/envs/or_llm/lib/python3.12/site-packages/vllm/model_executor/layers/mamba/ops/causal_conv1d.py":928:11)
#loc88 = loc("/data/conda/envs/or_llm/lib/python3.12/site-packages/vllm/model_executor/layers/mamba/ops/causal_conv1d.py":929:6)
#loc89 = loc("/data/conda/envs/or_llm/lib/python3.12/site-packages/vllm/model_executor/layers/mamba/ops/causal_conv1d.py":930:21)
#loc90 = loc("/data/conda/envs/or_llm/lib/python3.12/site-packages/vllm/model_executor/layers/mamba/ops/causal_conv1d.py":931:6)
#loc91 = loc("/data/conda/envs/or_llm/lib/python3.12/site-packages/vllm/model_executor/layers/mamba/ops/causal_conv1d.py":929:17)
#loc92 = loc("/data/conda/envs/or_llm/lib/python3.12/site-packages/vllm/model_executor/layers/mamba/ops/causal_conv1d.py":932:25)
#loc93 = loc("/data/conda/envs/or_llm/lib/python3.12/site-packages/vllm/model_executor/layers/mamba/ops/causal_conv1d.py":932:36)
#loc94 = loc("/data/conda/envs/or_llm/lib/python3.12/site-packages/vllm/model_executor/layers/mamba/ops/causal_conv1d.py":932:60)
#loc95 = loc("/data/conda/envs/or_llm/lib/python3.12/site-packages/vllm/model_executor/layers/mamba/ops/causal_conv1d.py":932:65)
#loc96 = loc("/data/conda/envs/or_llm/lib/python3.12/site-packages/vllm/model_executor/layers/mamba/ops/causal_conv1d.py":932:47)
#loc97 = loc("/data/conda/envs/or_llm/lib/python3.12/site-packages/vllm/model_executor/layers/mamba/ops/causal_conv1d.py":933:53)
#loc98 = loc("/data/conda/envs/or_llm/lib/python3.12/site-packages/vllm/model_executor/layers/mamba/ops/causal_conv1d.py":943:31)
#loc99 = loc("/data/conda/envs/or_llm/lib/python3.12/site-packages/vllm/model_executor/layers/mamba/ops/causal_conv1d.py":948:34)
#loc100 = loc("/data/conda/envs/or_llm/lib/python3.12/site-packages/vllm/model_executor/layers/mamba/ops/causal_conv1d.py":948:22)
#loc101 = loc("/data/conda/envs/or_llm/lib/python3.12/site-packages/vllm/model_executor/layers/mamba/ops/causal_conv1d.py":949:25)
#loc102 = loc("/data/conda/envs/or_llm/lib/python3.12/site-packages/vllm/model_executor/layers/mamba/ops/causal_conv1d.py":951:27)
#loc103 = loc("/data/conda/envs/or_llm/lib/python3.12/site-packages/vllm/model_executor/layers/mamba/ops/causal_conv1d.py":952:33)
#loc104 = loc("/data/conda/envs/or_llm/lib/python3.12/site-packages/vllm/model_executor/layers/mamba/ops/causal_conv1d.py":953:27)
#loc105 = loc("/data/conda/envs/or_llm/lib/python3.12/site-packages/vllm/model_executor/layers/mamba/ops/causal_conv1d.py":954:33)
#loc106 = loc("/data/conda/envs/or_llm/lib/python3.12/site-packages/vllm/model_executor/layers/mamba/ops/causal_conv1d.py":956:27)
#loc107 = loc("/data/conda/envs/or_llm/lib/python3.12/site-packages/vllm/model_executor/layers/mamba/ops/causal_conv1d.py":957:33)
#loc108 = loc("/data/conda/envs/or_llm/lib/python3.12/site-packages/vllm/model_executor/layers/mamba/ops/causal_conv1d.py":959:27)
#loc109 = loc("/data/conda/envs/or_llm/lib/python3.12/site-packages/vllm/model_executor/layers/mamba/ops/causal_conv1d.py":960:33)
#loc110 = loc("/data/conda/envs/or_llm/lib/python3.12/site-packages/vllm/model_executor/layers/mamba/ops/causal_conv1d.py":969:28)
#loc111 = loc("/data/conda/envs/or_llm/lib/python3.12/site-packages/vllm/model_executor/layers/mamba/ops/causal_conv1d.py":972:30)
#loc112 = loc("/data/conda/envs/or_llm/lib/python3.12/site-packages/vllm/model_executor/layers/mamba/ops/causal_conv1d.py":1034:30)
#loc113 = loc("/data/conda/envs/or_llm/lib/python3.12/site-packages/vllm/model_executor/layers/mamba/ops/causal_conv1d.py":1034:19)
#loc114 = loc("/data/conda/envs/or_llm/lib/python3.12/site-packages/vllm/model_executor/layers/mamba/ops/causal_conv1d.py":1000:56)
#loc115 = loc("/data/conda/envs/or_llm/lib/python3.12/site-packages/vllm/model_executor/layers/mamba/ops/causal_conv1d.py":1000:44)
#loc116 = loc("/data/conda/envs/or_llm/lib/python3.12/site-packages/vllm/model_executor/layers/mamba/ops/causal_conv1d.py":1001:39)
#loc117 = loc("/data/conda/envs/or_llm/lib/python3.12/site-packages/vllm/model_executor/layers/mamba/ops/causal_conv1d.py":1058:37)
#loc118 = loc("/data/conda/envs/or_llm/lib/python3.12/site-packages/vllm/model_executor/layers/mamba/ops/causal_conv1d.py":1058:36)
#loc119 = loc("/data/conda/envs/or_llm/lib/python3.12/site-packages/vllm/model_executor/layers/mamba/ops/causal_conv1d.py":1058:29)
#loc120 = loc("/data/conda/envs/or_llm/lib/python3.12/site-packages/vllm/model_executor/layers/mamba/ops/causal_conv1d.py":1058:25)
#loc121 = loc("/data/conda/envs/or_llm/lib/python3.12/site-packages/vllm/model_executor/layers/mamba/ops/causal_conv1d.py":1059:31)
#loc122 = loc("/data/conda/envs/or_llm/lib/python3.12/site-packages/vllm/model_executor/layers/mamba/ops/causal_conv1d.py":1060:24)
#loc123 = loc("/data/conda/envs/or_llm/lib/python3.12/site-packages/vllm/model_executor/layers/mamba/ops/causal_conv1d.py":1060:12)
#loc124 = loc("/data/conda/envs/or_llm/lib/python3.12/site-packages/vllm/model_executor/layers/mamba/ops/causal_conv1d.py":1063:20)
#loc125 = loc("/data/conda/envs/or_llm/lib/python3.12/site-packages/vllm/model_executor/layers/mamba/ops/causal_conv1d.py":1063:43)
#loc126 = loc("/data/conda/envs/or_llm/lib/python3.12/site-packages/vllm/model_executor/layers/mamba/ops/causal_conv1d.py":1063:31)
#loc127 = loc("/data/conda/envs/or_llm/lib/python3.12/site-packages/vllm/model_executor/layers/mamba/ops/causal_conv1d.py":1063:73)
#loc128 = loc("/data/conda/envs/or_llm/lib/python3.12/site-packages/vllm/model_executor/layers/mamba/ops/causal_conv1d.py":1063:61)
#loc129 = loc("/data/conda/envs/or_llm/lib/python3.12/site-packages/vllm/model_executor/layers/mamba/ops/causal_conv1d.py":1066:25)
#loc130 = loc("/data/conda/envs/or_llm/lib/python3.12/site-packages/vllm/model_executor/layers/mamba/ops/causal_conv1d.py":1066:8)
#loc131 = loc("/data/conda/envs/or_llm/lib/python3.12/site-packages/vllm/model_executor/layers/mamba/ops/causal_conv1d.py":972:4)
#loc132 = loc("/data/conda/envs/or_llm/lib/python3.12/site-packages/triton/language/standard.py":120:0)
#loc133 = loc("/data/conda/envs/or_llm/lib/python3.12/site-packages/triton/language/standard.py":129:31)
#loc134 = loc("/data/conda/envs/or_llm/lib/python3.12/site-packages/triton/language/standard.py":129:11)
#loc135 = loc("/data/conda/envs/or_llm/lib/python3.12/site-packages/triton/language/standard.py":129:4)
#loc142 = loc("idx_seq"(#loc1))
#loc143 = loc("idx_feats"(#loc4))
#loc144 = loc("idx_feats"(#loc5))
#loc145 = loc("idx_feats"(#loc6))
#loc146 = loc("idx_feats"(#loc7))
#loc147 = loc("conv_state_init"(#loc8))
#loc148 = loc("current_last_index"(#loc9))
#loc149 = loc("conv_states_input_coord"(#loc10))
#loc150 = loc("conv_states_input_coord"(#loc11))
#loc151 = loc("conv_states_input_coord"(#loc12))
#loc152 = loc("conv_states_input_coord"(#loc13))
#loc153 = loc("conv_states_input_coord"(#loc14))
#loc154 = loc("query_start_index"(#loc17))
#loc155 = loc("query_end_index"(#loc18))
#loc156 = loc("x_offset"(#loc19))
#loc157 = loc("o_offset"(#loc20))
#loc158 = loc("conv_state_token_offset"(#loc23))
#loc159 = loc("conv_states_base"(#loc24))
#loc160 = loc("conv_states_base"(#loc25))
#loc161 = loc("conv_states_base"(#loc26))
#loc162 = loc("conv_states_base"(#loc27))
#loc163 = loc("mask_w"(#loc28))
#loc164 = loc("prior_tokens"(#loc29))
#loc165 = loc("prior_tokens"(#loc30))
#loc166 = loc("col0"(#loc31))
#loc167 = loc("conv_states_ptrs"(#loc32))
#loc168 = loc("col1"(#loc33))
#loc169 = loc("conv_states_ptrs"(#loc34))
#loc170 = loc("col2"(#loc35))
#loc171 = loc("idx_tokens"(#loc36))
#loc172 = loc("conv_state_ptrs_source"(#loc37))
#loc173 = loc("conv_state_ptrs_source"(#loc38))
#loc174 = loc("conv_state_ptrs_source"(#loc39))
#loc175 = loc("conv_state_ptrs_source"(#loc40))
#loc176 = loc("conv_state_ptrs_source"(#loc41))
#loc177 = loc("conv_state_ptrs_source"(#loc42))
#loc178 = loc("conv_state_ptrs_source"(#loc43))
#loc179 = loc("conv_state_ptrs_source"(#loc44))
#loc180 = loc("conv_state_ptrs_source"(#loc45))
#loc181 = loc("conv_state_ptrs_source"(#loc46))
#loc182 = loc("conv_state_ptrs_source"(#loc47))
#loc183 = loc("mask"(#loc48))
#loc184 = loc("mask"(#loc49))
#loc185 = loc("mask"(#loc50))
#loc186 = loc("mask"(#loc51))
#loc187 = loc("mask"(#loc52))
#loc188 = loc("mask"(#loc53))
#loc189 = loc("mask"(#loc54))
#loc190 = loc("mask"(#loc55))
#loc191 = loc("conv_state"(#loc56))
#loc192 = loc("VAL"(#loc57))
#loc193 = loc("x_base"(#loc58))
#loc194 = loc("x_base"(#loc59))
#loc195 = loc("x_base"(#loc60))
#loc196 = loc("x_ptrs"(#loc61))
#loc197 = loc("x_ptrs"(#loc62))
#loc198 = loc("x_ptrs"(#loc63))
#loc199 = loc("x_ptrs"(#loc64))
#loc200 = loc("x_ptrs"(#loc65))
#loc201 = loc("mask_x"(#loc66))
#loc202 = loc("mask_x"(#loc67))
#loc203 = loc("mask_x"(#loc68))
#loc204 = loc("mask_x"(#loc69))
#loc205 = loc("mask_x"(#loc70))
#loc206 = loc("mask_x"(#loc71))
#loc207 = loc("mask_x"(#loc72))
#loc208 = loc("mask_x"(#loc73))
#loc209 = loc("mask_x"(#loc74))
#loc210 = loc("mask_x"(#loc75))
#loc211 = loc("loaded_x"(#loc76))
#loc212 = loc("new_conv_state"(#loc78))
#loc213 = loc("conv_states_offset"(#loc79))
#loc214 = loc("conv_states_offset"(#loc80))
#loc215 = loc("conv_states_offset"(#loc81))
#loc216 = loc("conv_states_offset"(#loc82))
#loc217 = loc("conv_states_offset"(#loc83))
#loc218 = loc("conv_state_ptrs_target"(#loc84))
#loc219 = loc("conv_state_ptrs_target"(#loc85))
#loc220 = loc("conv_state_ptrs_target"(#loc86))
#loc221 = loc("conv_state_ptrs_target"(#loc87))
#loc222 = loc("conv_state_ptrs_target"(#loc88))
#loc223 = loc("conv_state_ptrs_target"(#loc89))
#loc224 = loc("conv_state_ptrs_target"(#loc90))
#loc225 = loc("conv_state_ptrs_target"(#loc91))
#loc226 = loc("mask"(#loc92))
#loc227 = loc("mask"(#loc93))
#loc228 = loc("mask"(#loc94))
#loc229 = loc("mask"(#loc95))
#loc230 = loc("mask"(#loc96))
#loc231 = loc("acc_preload"(#loc98))
#loc232 = loc("w_base"(#loc99))
#loc233 = loc("w_base"(#loc100))
#loc234 = loc("mask_w"(#loc101))
#loc235 = loc("w_ptrs"(#loc102))
#loc236 = loc("w_col0"(#loc103))
#loc237 = loc("w_ptrs"(#loc104))
#loc238 = loc("w_col1"(#loc105))
#loc239 = loc("w_ptrs"(#loc106))
#loc240 = loc("w_col2"(#loc107))
#loc241 = loc("w_ptrs"(#loc108))
#loc242 = loc("w_col3"(#loc109))
#loc243 = loc("mask_x_1d"(#loc110))
#loc244 = loc("col0"(#loc111))
#loc245 = loc("acc"(#loc112))
#loc246 = loc("acc"(#loc113))
#loc247 = loc("x_ptrs_1d"(#loc114))
#loc248 = loc("x_ptrs_1d"(#loc115))
#loc249 = loc("matrix_x"(#loc116))
#loc250 = loc("acc"(#loc117))
#loc251 = loc("acc"(#loc118))
#loc252 = loc("acc"(#loc119))
#loc253 = loc("acc"(#loc120))
#loc254 = loc("mask_1d"(#loc121))
#loc255 = loc("mask_1d"(#loc122))
#loc256 = loc("mask_1d"(#loc123))
#loc257 = loc("o_ptrs"(#loc124))
#loc258 = loc("o_ptrs"(#loc125))
#loc259 = loc("o_ptrs"(#loc126))
#loc260 = loc("o_ptrs"(#loc127))
#loc261 = loc("o_ptrs"(#loc128))
#loc262 = loc("col1"(#loc244))
#loc263 = loc("col2"(#loc262))
