#loc = loc("/data/jcy/zzs/zijinhua/.vllm_cache_simplevqa/torch_compile/vg/cvg2zvnqd45uwg752xbxuftng4ghicceg4evf33axi6eieqgewk2.py":18:0)
#loc1 = loc(unknown)
#loc18 = loc("/data/jcy/zzs/zijinhua/.vllm_cache_simplevqa/torch_compile/vg/cvg2zvnqd45uwg752xbxuftng4ghicceg4evf33axi6eieqgewk2.py":42:25)
#loc41 = loc("in_ptr0"(#loc))
#loc42 = loc("in_ptr1"(#loc))
#loc43 = loc("out_ptr1"(#loc))
#loc44 = loc("xnumel"(#loc))
#loc45 = loc("r0_numel"(#loc))
#loc60 = loc("tmp4"(#loc18))
#loc80 = loc(callsite(#loc1 at #loc60))
module {
  tt.func public @triton_red_fused__to_copy_add_mean_mul_pow_rsqrt_0(%in_ptr0: !tt.ptr<bf16> {tt.divisibility = 16 : i32} loc("in_ptr0"(#loc)), %in_ptr1: !tt.ptr<bf16> {tt.divisibility = 16 : i32} loc("in_ptr1"(#loc)), %out_ptr1: !tt.ptr<bf16> {tt.divisibility = 16 : i32} loc("out_ptr1"(#loc)), %xnumel: i32 {tt.divisibility = 16 : i32} loc("xnumel"(#loc)), %r0_numel: i32 {tt.divisibility = 16 : i32} loc("r0_numel"(#loc))) attributes {noinline = false} {
    %cst = arith.constant dense<0.000000e+00> : tensor<1x2048xbf16> loc(#loc1)
    %c2048_i32 = arith.constant 2048 : i32 loc(#loc1)
    %c4096_i32 = arith.constant 4096 : i32 loc(#loc1)
    %c0_i32 = arith.constant 0 : i32 loc(#loc1)
    %cst_0 = arith.constant dense<1.000000e+00> : tensor<1x2048xf32> loc(#loc1)
    %cst_1 = arith.constant dense<9.99999997E-7> : tensor<1x1xf32> loc(#loc1)
    %cst_2 = arith.constant dense<4.096000e+03> : tensor<1x1xf32> loc(#loc1)
    %cst_3 = arith.constant dense<4096> : tensor<1x2048xi32> loc(#loc1)
    %cst_4 = arith.constant dense<0.000000e+00> : tensor<1x2048xf32> loc(#loc1)
    %xoffset = tt.get_program_id x : i32 loc(#loc46)
    %r0_base = tt.make_range {end = 2048 : i32, start = 0 : i32} : tensor<2048xi32> loc(#loc47)
    %r0_base_5 = tt.expand_dims %r0_base {axis = 0 : i32} : tensor<2048xi32> -> tensor<1x2048xi32> loc(#loc48)
    %_tmp4 = scf.for %r0_offset = %c0_i32 to %c4096_i32 step %c2048_i32 iter_args(%_tmp4_7 = %cst_4) -> (tensor<1x2048xf32>)  : i32 {
      %r0_index = tt.splat %r0_offset : i32 -> tensor<1x2048xi32> loc(#loc50)
      %r0_index_8 = arith.addi %r0_index, %r0_base_5 : tensor<1x2048xi32> loc(#loc50)
      %r0_mask = arith.cmpi slt, %r0_index_8, %cst_3 : tensor<1x2048xi32> loc(#loc51)
      %tmp0 = arith.muli %xoffset, %c4096_i32 : i32 loc(#loc52)
      %tmp0_9 = tt.splat %tmp0 : i32 -> tensor<1x2048xi32> loc(#loc78)
      %tmp0_10 = arith.addi %r0_index_8, %tmp0_9 : tensor<1x2048xi32> loc(#loc53)
      %tmp0_11 = tt.splat %in_ptr0 : !tt.ptr<bf16> -> tensor<1x2048x!tt.ptr<bf16>> loc(#loc54)
      %tmp0_12 = tt.addptr %tmp0_11, %tmp0_10 : tensor<1x2048x!tt.ptr<bf16>>, tensor<1x2048xi32> loc(#loc54)
      %tmp0_13 = tt.load %tmp0_12, %r0_mask, %cst evictionPolicy = evict_last : tensor<1x2048x!tt.ptr<bf16>> loc(#loc55)
      %tmp0_14 = arith.extf %tmp0_13 : tensor<1x2048xbf16> to tensor<1x2048xf32> loc(#loc56)
      %tmp2 = arith.mulf %tmp0_14, %tmp0_14 : tensor<1x2048xf32> loc(#loc57)
      %tmp5 = arith.addf %_tmp4_7, %tmp2 : tensor<1x2048xf32> loc(#loc58)
      %_tmp4_15 = arith.select %r0_mask, %tmp5, %_tmp4_7 : tensor<1x2048xi1>, tensor<1x2048xf32> loc(#loc59)
      scf.yield %_tmp4_15 : tensor<1x2048xf32> loc(#loc16)
    } loc(#loc49)
    %tmp4 = "tt.reduce"(%_tmp4) <{axis = 1 : i32}> ({
    ^bb0(%tmp4_7: f32 loc(callsite(#loc1 at #loc60)), %tmp4_8: f32 loc(callsite(#loc1 at #loc60))):
      %tmp4_9 = arith.addf %tmp4_7, %tmp4_8 : f32 loc(#loc82)
      tt.reduce.return %tmp4_9 : f32 loc(#loc79)
    }) : (tensor<1x2048xf32>) -> tensor<1xf32> loc(#loc79)
    %tmp4_6 = tt.expand_dims %tmp4 {axis = 1 : i32} : tensor<1xf32> -> tensor<1x1xf32> loc(#loc61)
    scf.for %r0_offset = %c0_i32 to %c4096_i32 step %c2048_i32  : i32 {
      %r0_index = tt.splat %r0_offset : i32 -> tensor<1x2048xi32> loc(#loc62)
      %r0_index_7 = arith.addi %r0_index, %r0_base_5 : tensor<1x2048xi32> loc(#loc62)
      %r0_mask = arith.cmpi slt, %r0_index_7, %cst_3 : tensor<1x2048xi32> loc(#loc63)
      %tmp6 = arith.muli %xoffset, %c4096_i32 : i32 loc(#loc64)
      %tmp6_8 = tt.splat %tmp6 : i32 -> tensor<1x2048xi32> loc(#loc81)
      %tmp6_9 = arith.addi %r0_index_7, %tmp6_8 : tensor<1x2048xi32> loc(#loc65)
      %tmp6_10 = tt.splat %in_ptr0 : !tt.ptr<bf16> -> tensor<1x2048x!tt.ptr<bf16>> loc(#loc66)
      %tmp6_11 = tt.addptr %tmp6_10, %tmp6_9 : tensor<1x2048x!tt.ptr<bf16>>, tensor<1x2048xi32> loc(#loc66)
      %tmp6_12 = tt.load %tmp6_11, %r0_mask, %cst evictionPolicy = evict_first : tensor<1x2048x!tt.ptr<bf16>> loc(#loc67)
      %tmp6_13 = arith.extf %tmp6_12 : tensor<1x2048xbf16> to tensor<1x2048xf32> loc(#loc68)
      %tmp14 = tt.splat %in_ptr1 : !tt.ptr<bf16> -> tensor<1x2048x!tt.ptr<bf16>> loc(#loc69)
      %tmp14_14 = tt.addptr %tmp14, %r0_index_7 : tensor<1x2048x!tt.ptr<bf16>>, tensor<1x2048xi32> loc(#loc69)
      %tmp14_15 = tt.load %tmp14_14, %r0_mask, %cst evictionPolicy = evict_last : tensor<1x2048x!tt.ptr<bf16>> loc(#loc70)
      %tmp14_16 = arith.extf %tmp14_15 : tensor<1x2048xbf16> to tensor<1x2048xf32> loc(#loc71)
      %tmp9 = arith.divf %tmp4_6, %cst_2 : tensor<1x1xf32> loc(#loc72)
      %tmp11 = arith.addf %tmp9, %cst_1 : tensor<1x1xf32> loc(#loc73)
      %tmp12 = tt.extern_elementwise %tmp11 {libname = "", libpath = "", pure = true, symbol = "__nv_rsqrtf"} : (tensor<1x1xf32>) -> tensor<1x1xf32> loc(#loc74)
      %tmp13 = tt.broadcast %tmp12 : tensor<1x1xf32> -> tensor<1x2048xf32> loc(#loc75)
      %tmp13_17 = arith.mulf %tmp6_13, %tmp13 : tensor<1x2048xf32> loc(#loc75)
      %tmp17 = arith.addf %tmp14_16, %cst_0 : tensor<1x2048xf32> loc(#loc76)
      %tmp18 = arith.mulf %tmp13_17, %tmp17 : tensor<1x2048xf32> loc(#loc77)
      %0 = tt.splat %out_ptr1 : !tt.ptr<bf16> -> tensor<1x2048x!tt.ptr<bf16>> loc(#loc38)
      %1 = tt.addptr %0, %tmp6_9 : tensor<1x2048x!tt.ptr<bf16>>, tensor<1x2048xi32> loc(#loc38)
      %2 = arith.truncf %tmp18 : tensor<1x2048xf32> to tensor<1x2048xbf16> loc(#loc39)
      tt.store %1, %2, %r0_mask : tensor<1x2048x!tt.ptr<bf16>> loc(#loc39)
    } loc(#loc21)
    tt.return loc(#loc40)
  } loc(#loc)
} loc(#loc)
#loc2 = loc("/data/jcy/zzs/zijinhua/.vllm_cache_simplevqa/torch_compile/vg/cvg2zvnqd45uwg752xbxuftng4ghicceg4evf33axi6eieqgewk2.py":23:28)
#loc3 = loc("/data/jcy/zzs/zijinhua/.vllm_cache_simplevqa/torch_compile/vg/cvg2zvnqd45uwg752xbxuftng4ghicceg4evf33axi6eieqgewk2.py":26:27)
#loc4 = loc("/data/jcy/zzs/zijinhua/.vllm_cache_simplevqa/torch_compile/vg/cvg2zvnqd45uwg752xbxuftng4ghicceg4evf33axi6eieqgewk2.py":26:37)
#loc5 = loc("/data/jcy/zzs/zijinhua/.vllm_cache_simplevqa/torch_compile/vg/cvg2zvnqd45uwg752xbxuftng4ghicceg4evf33axi6eieqgewk2.py":30:40)
#loc6 = loc("/data/jcy/zzs/zijinhua/.vllm_cache_simplevqa/torch_compile/vg/cvg2zvnqd45uwg752xbxuftng4ghicceg4evf33axi6eieqgewk2.py":31:31)
#loc7 = loc("/data/jcy/zzs/zijinhua/.vllm_cache_simplevqa/torch_compile/vg/cvg2zvnqd45uwg752xbxuftng4ghicceg4evf33axi6eieqgewk2.py":32:29)
#loc8 = loc("/data/jcy/zzs/zijinhua/.vllm_cache_simplevqa/torch_compile/vg/cvg2zvnqd45uwg752xbxuftng4ghicceg4evf33axi6eieqgewk2.py":36:46)
#loc9 = loc("/data/jcy/zzs/zijinhua/.vllm_cache_simplevqa/torch_compile/vg/cvg2zvnqd45uwg752xbxuftng4ghicceg4evf33axi6eieqgewk2.py":36:41)
#loc10 = loc("/data/jcy/zzs/zijinhua/.vllm_cache_simplevqa/torch_compile/vg/cvg2zvnqd45uwg752xbxuftng4ghicceg4evf33axi6eieqgewk2.py":36:34)
#loc11 = loc("/data/jcy/zzs/zijinhua/.vllm_cache_simplevqa/torch_compile/vg/cvg2zvnqd45uwg752xbxuftng4ghicceg4evf33axi6eieqgewk2.py":36:51)
#loc12 = loc("/data/jcy/zzs/zijinhua/.vllm_cache_simplevqa/torch_compile/vg/cvg2zvnqd45uwg752xbxuftng4ghicceg4evf33axi6eieqgewk2.py":36:104)
#loc13 = loc("/data/jcy/zzs/zijinhua/.vllm_cache_simplevqa/torch_compile/vg/cvg2zvnqd45uwg752xbxuftng4ghicceg4evf33axi6eieqgewk2.py":38:22)
#loc14 = loc("/data/jcy/zzs/zijinhua/.vllm_cache_simplevqa/torch_compile/vg/cvg2zvnqd45uwg752xbxuftng4ghicceg4evf33axi6eieqgewk2.py":40:23)
#loc15 = loc("/data/jcy/zzs/zijinhua/.vllm_cache_simplevqa/torch_compile/vg/cvg2zvnqd45uwg752xbxuftng4ghicceg4evf33axi6eieqgewk2.py":41:40)
#loc16 = loc("/data/jcy/zzs/zijinhua/.vllm_cache_simplevqa/torch_compile/vg/cvg2zvnqd45uwg752xbxuftng4ghicceg4evf33axi6eieqgewk2.py":41:8)
#loc17 = loc("/data/conda/envs/or_llm/lib/python3.12/site-packages/triton/language/standard.py":293:36)
#loc19 = loc("/data/conda/envs/or_llm/lib/python3.12/site-packages/triton/language/standard.py":263:15)
#loc20 = loc("/data/jcy/zzs/zijinhua/.vllm_cache_simplevqa/torch_compile/vg/cvg2zvnqd45uwg752xbxuftng4ghicceg4evf33axi6eieqgewk2.py":42:28)
#loc21 = loc("/data/jcy/zzs/zijinhua/.vllm_cache_simplevqa/torch_compile/vg/cvg2zvnqd45uwg752xbxuftng4ghicceg4evf33axi6eieqgewk2.py":43:40)
#loc22 = loc("/data/jcy/zzs/zijinhua/.vllm_cache_simplevqa/torch_compile/vg/cvg2zvnqd45uwg752xbxuftng4ghicceg4evf33axi6eieqgewk2.py":44:31)
#loc23 = loc("/data/jcy/zzs/zijinhua/.vllm_cache_simplevqa/torch_compile/vg/cvg2zvnqd45uwg752xbxuftng4ghicceg4evf33axi6eieqgewk2.py":45:29)
#loc24 = loc("/data/jcy/zzs/zijinhua/.vllm_cache_simplevqa/torch_compile/vg/cvg2zvnqd45uwg752xbxuftng4ghicceg4evf33axi6eieqgewk2.py":49:46)
#loc25 = loc("/data/jcy/zzs/zijinhua/.vllm_cache_simplevqa/torch_compile/vg/cvg2zvnqd45uwg752xbxuftng4ghicceg4evf33axi6eieqgewk2.py":49:41)
#loc26 = loc("/data/jcy/zzs/zijinhua/.vllm_cache_simplevqa/torch_compile/vg/cvg2zvnqd45uwg752xbxuftng4ghicceg4evf33axi6eieqgewk2.py":49:34)
#loc27 = loc("/data/jcy/zzs/zijinhua/.vllm_cache_simplevqa/torch_compile/vg/cvg2zvnqd45uwg752xbxuftng4ghicceg4evf33axi6eieqgewk2.py":49:51)
#loc28 = loc("/data/jcy/zzs/zijinhua/.vllm_cache_simplevqa/torch_compile/vg/cvg2zvnqd45uwg752xbxuftng4ghicceg4evf33axi6eieqgewk2.py":49:105)
#loc29 = loc("/data/jcy/zzs/zijinhua/.vllm_cache_simplevqa/torch_compile/vg/cvg2zvnqd45uwg752xbxuftng4ghicceg4evf33axi6eieqgewk2.py":50:35)
#loc30 = loc("/data/jcy/zzs/zijinhua/.vllm_cache_simplevqa/torch_compile/vg/cvg2zvnqd45uwg752xbxuftng4ghicceg4evf33axi6eieqgewk2.py":50:42)
#loc31 = loc("/data/jcy/zzs/zijinhua/.vllm_cache_simplevqa/torch_compile/vg/cvg2zvnqd45uwg752xbxuftng4ghicceg4evf33axi6eieqgewk2.py":50:95)
#loc32 = loc("/data/jcy/zzs/zijinhua/.vllm_cache_simplevqa/torch_compile/vg/cvg2zvnqd45uwg752xbxuftng4ghicceg4evf33axi6eieqgewk2.py":53:23)
#loc33 = loc("/data/jcy/zzs/zijinhua/.vllm_cache_simplevqa/torch_compile/vg/cvg2zvnqd45uwg752xbxuftng4ghicceg4evf33axi6eieqgewk2.py":55:23)
#loc34 = loc("/data/jcy/zzs/zijinhua/.vllm_cache_simplevqa/torch_compile/vg/cvg2zvnqd45uwg752xbxuftng4ghicceg4evf33axi6eieqgewk2.py":56:32)
#loc35 = loc("/data/jcy/zzs/zijinhua/.vllm_cache_simplevqa/torch_compile/vg/cvg2zvnqd45uwg752xbxuftng4ghicceg4evf33axi6eieqgewk2.py":57:23)
#loc36 = loc("/data/jcy/zzs/zijinhua/.vllm_cache_simplevqa/torch_compile/vg/cvg2zvnqd45uwg752xbxuftng4ghicceg4evf33axi6eieqgewk2.py":60:24)
#loc37 = loc("/data/jcy/zzs/zijinhua/.vllm_cache_simplevqa/torch_compile/vg/cvg2zvnqd45uwg752xbxuftng4ghicceg4evf33axi6eieqgewk2.py":61:24)
#loc38 = loc("/data/jcy/zzs/zijinhua/.vllm_cache_simplevqa/torch_compile/vg/cvg2zvnqd45uwg752xbxuftng4ghicceg4evf33axi6eieqgewk2.py":63:29)
#loc39 = loc("/data/jcy/zzs/zijinhua/.vllm_cache_simplevqa/torch_compile/vg/cvg2zvnqd45uwg752xbxuftng4ghicceg4evf33axi6eieqgewk2.py":63:53)
#loc40 = loc("/data/jcy/zzs/zijinhua/.vllm_cache_simplevqa/torch_compile/vg/cvg2zvnqd45uwg752xbxuftng4ghicceg4evf33axi6eieqgewk2.py":43:4)
#loc46 = loc("xoffset"(#loc2))
#loc47 = loc("r0_base"(#loc3))
#loc48 = loc("r0_base"(#loc4))
#loc49 = loc("_tmp4"(#loc5))
#loc50 = loc("r0_index"(#loc6))
#loc51 = loc("r0_mask"(#loc7))
#loc52 = loc("tmp0"(#loc8))
#loc53 = loc("tmp0"(#loc9))
#loc54 = loc("tmp0"(#loc10))
#loc55 = loc("tmp0"(#loc11))
#loc56 = loc("tmp0"(#loc12))
#loc57 = loc("tmp2"(#loc13))
#loc58 = loc("tmp5"(#loc14))
#loc59 = loc("_tmp4"(#loc15))
#loc61 = loc("tmp4"(#loc20))
#loc62 = loc("r0_index"(#loc22))
#loc63 = loc("r0_mask"(#loc23))
#loc64 = loc("tmp6"(#loc24))
#loc65 = loc("tmp6"(#loc25))
#loc66 = loc("tmp6"(#loc26))
#loc67 = loc("tmp6"(#loc27))
#loc68 = loc("tmp6"(#loc28))
#loc69 = loc("tmp14"(#loc29))
#loc70 = loc("tmp14"(#loc30))
#loc71 = loc("tmp14"(#loc31))
#loc72 = loc("tmp9"(#loc32))
#loc73 = loc("tmp11"(#loc33))
#loc74 = loc("tmp12"(#loc34))
#loc75 = loc("tmp13"(#loc35))
#loc76 = loc("tmp17"(#loc36))
#loc77 = loc("tmp18"(#loc37))
#loc78 = loc(fused[#loc53, #loc52])
#loc79 = loc(callsite(#loc17 at #loc60))
#loc81 = loc(fused[#loc65, #loc64])
#loc82 = loc(callsite(#loc19 at #loc79))
