#loc = loc("/data/conda/envs/or_llm/lib/python3.12/site-packages/vllm/model_executor/layers/mamba/ops/causal_conv1d.py":16:0)
#loc210 = loc("x_ptr"(#loc))
#loc211 = loc("w_ptr"(#loc))
#loc212 = loc("initial_states_ptr"(#loc))
#loc213 = loc("cache_indices_ptr"(#loc))
#loc214 = loc("has_initial_states_ptr"(#loc))
#loc215 = loc("query_start_loc_ptr"(#loc))
#loc216 = loc("batch_ptr"(#loc))
#loc217 = loc("token_chunk_offset_ptr"(#loc))
#loc218 = loc("o_ptr"(#loc))
#loc219 = loc("seqlen"(#loc))
module {
  tt.func public @_causal_conv1d_fwd_kernel(%x_ptr: !tt.ptr<bf16> {tt.divisibility = 16 : i32} loc("x_ptr"(#loc)), %w_ptr: !tt.ptr<bf16> {tt.divisibility = 16 : i32} loc("w_ptr"(#loc)), %initial_states_ptr: !tt.ptr<bf16> {tt.divisibility = 16 : i32} loc("initial_states_ptr"(#loc)), %cache_indices_ptr: !tt.ptr<i32> {tt.divisibility = 16 : i32} loc("cache_indices_ptr"(#loc)), %has_initial_states_ptr: !tt.ptr<i1> {tt.divisibility = 16 : i32} loc("has_initial_states_ptr"(#loc)), %query_start_loc_ptr: !tt.ptr<i32> {tt.divisibility = 16 : i32} loc("query_start_loc_ptr"(#loc)), %batch_ptr: !tt.ptr<i32> {tt.divisibility = 16 : i32} loc("batch_ptr"(#loc)), %token_chunk_offset_ptr: !tt.ptr<i32> {tt.divisibility = 16 : i32} loc("token_chunk_offset_ptr"(#loc)), %o_ptr: !tt.ptr<bf16> {tt.divisibility = 16 : i32} loc("o_ptr"(#loc)), %seqlen: i32 loc("seqlen"(#loc))) attributes {noinline = false} {
    %c98304_i32 = arith.constant 98304 : i32 loc(#loc1)
    %cst = arith.constant dense<-3> : tensor<4xi32> loc(#loc1)
    %cst_0 = arith.constant dense<-24576> : tensor<256xi32> loc(#loc1)
    %cst_1 = arith.constant dense<-12288> : tensor<256xi32> loc(#loc1)
    %c3223_i64 = arith.constant 3223 : i64 loc(#loc1)
    %cst_2 = arith.constant dense<0.000000e+00> : tensor<4x256xbf16> loc(#loc1)
    %cst_3 = arith.constant dense<0.000000e+00> : tensor<256xbf16> loc(#loc1)
    %cst_4 = arith.constant dense<16384> : tensor<256xi32> loc(#loc1)
    %c1081344_i64 = arith.constant 1081344 : i64 loc(#loc1)
    %c-1_i64 = arith.constant -1 : i64 loc(#loc1)
    %cst_5 = arith.constant dense<1.000000e+00> : tensor<256xf32> loc(#loc1)
    %cst_6 = arith.constant dense<3> : tensor<256xi32> loc(#loc1)
    %cst_7 = arith.constant dense<2> : tensor<256xi32> loc(#loc1)
    %cst_8 = arith.constant dense<3> : tensor<4xi32> loc(#loc1)
    %cst_9 = arith.constant dense<8192> : tensor<4xi32> loc(#loc1)
    %cst_10 = arith.constant dense<0> : tensor<4xi32> loc(#loc1)
    %cst_11 = arith.constant dense<12288> : tensor<4xi32> loc(#loc1)
    %cst_12 = arith.constant dense<0.000000e+00> : tensor<256xf32> loc(#loc1)
    %cst_13 = arith.constant dense<8192> : tensor<256xi32> loc(#loc1)
    %c0_i8 = arith.constant 0 : i8 loc(#loc1)
    %cst_14 = arith.constant dense<4> : tensor<256xi32> loc(#loc1)
    %cst_15 = arith.constant dense<1> : tensor<256xi32> loc(#loc1)
    %c12288_i32 = arith.constant 12288 : i32 loc(#loc1)
    %c8_i32 = arith.constant 8 : i32 loc(#loc1)
    %c0_i32 = arith.constant 0 : i32 loc(#loc1)
    %c256_i32 = arith.constant 256 : i32 loc(#loc1)
    %c1_i32 = arith.constant 1 : i32 loc(#loc1)
    %c8192_i32 = arith.constant 8192 : i32 loc(#loc1)
    %c3_i32 = arith.constant 3 : i32 loc(#loc1)
    %idx_seq = tt.get_program_id x : i32 loc(#loc220)
    %idx_seq_16 = tt.addptr %batch_ptr, %idx_seq : !tt.ptr<i32>, i32 loc(#loc221)
    %idx_seq_17 = tt.load %idx_seq_16 : !tt.ptr<i32> loc(#loc222)
    %idx_seq_18 = arith.extsi %idx_seq_17 : i32 to i64 loc(#loc223)
    %chunk_offset = tt.addptr %token_chunk_offset_ptr, %idx_seq : !tt.ptr<i32>, i32 loc(#loc224)
    %chunk_offset_19 = tt.load %chunk_offset : !tt.ptr<i32> loc(#loc225)
    %idx_feats = tt.get_program_id y : i32 loc(#loc226)
    %idx_feats_20 = arith.muli %idx_feats, %c256_i32 : i32 loc(#loc227)
    %idx_feats_21 = tt.make_range {end = 256 : i32, start = 0 : i32} : tensor<256xi32> loc(#loc228)
    %idx_feats_22 = tt.splat %idx_feats_20 : i32 -> tensor<256xi32> loc(#loc229)
    %idx_feats_23 = arith.addi %idx_feats_22, %idx_feats_21 : tensor<256xi32> loc(#loc229)
    %0 = arith.cmpi eq, %idx_seq_18, %c-1_i64 : i64 loc(#loc12)
    cf.cond_br %0, ^bb1, ^bb2 loc(#loc12)
  ^bb1:  // 2 preds: ^bb0, ^bb2
    tt.return loc(#loc13)
  ^bb2:  // pred: ^bb0
    %sequence_start_index = tt.addptr %query_start_loc_ptr, %idx_seq_18 : !tt.ptr<i32>, i64 loc(#loc230)
    %sequence_start_index_24 = tt.load %sequence_start_index : !tt.ptr<i32> loc(#loc231)
    %sequence_end_index = tt.addptr %sequence_start_index, %c1_i32 : !tt.ptr<i32>, i32 loc(#loc232)
    %sequence_end_index_25 = tt.load %sequence_end_index : !tt.ptr<i32> loc(#loc233)
    %seqlen_26 = arith.subi %sequence_end_index_25, %sequence_start_index_24 : i32 loc(#loc234)
    %token_offset = arith.muli %chunk_offset_19, %c8_i32 : i32 loc(#loc235)
    %segment_len = arith.subi %seqlen_26, %token_offset : i32 loc(#loc236)
    %segment_len_27 = arith.minsi %segment_len, %c8_i32 : i32 loc(#loc237)
    %x_base = arith.muli %sequence_start_index_24, %c12288_i32 : i32 loc(#loc238)
    %x_base_28 = tt.addptr %x_ptr, %x_base : !tt.ptr<bf16>, i32 loc(#loc239)
    %x_base_29 = tt.splat %x_base_28 : !tt.ptr<bf16> -> tensor<256x!tt.ptr<bf16>> loc(#loc240)
    %x_base_30 = tt.addptr %x_base_29, %idx_feats_23 : tensor<256x!tt.ptr<bf16>>, tensor<256xi32> loc(#loc240)
    %conv_states_input_coord = tt.addptr %cache_indices_ptr, %idx_seq_18 : !tt.ptr<i32>, i64 loc(#loc241)
    %conv_states_input_coord_31 = tt.load %conv_states_input_coord : !tt.ptr<i32> loc(#loc242)
    %conv_states_input_coord_32 = arith.extsi %conv_states_input_coord_31 : i32 to i64 loc(#loc243)
    %1 = arith.cmpi eq, %conv_states_input_coord_32, %c-1_i64 : i64 loc(#loc28)
    cf.cond_br %1, ^bb1, ^bb3 loc(#loc28)
  ^bb3:  // pred: ^bb2
    %conv_states_base = arith.muli %conv_states_input_coord_32, %c1081344_i64 : i64 loc(#loc244)
    %conv_states_base_33 = tt.addptr %initial_states_ptr, %conv_states_base : !tt.ptr<bf16>, i64 loc(#loc245)
    %conv_states_base_34 = tt.splat %conv_states_base_33 : !tt.ptr<bf16> -> tensor<256x!tt.ptr<bf16>> loc(#loc246)
    %conv_states_base_35 = tt.addptr %conv_states_base_34, %idx_feats_23 : tensor<256x!tt.ptr<bf16>>, tensor<256xi32> loc(#loc246)
    %w_base = arith.muli %idx_feats_23, %cst_14 : tensor<256xi32> loc(#loc247)
    %w_base_36 = tt.splat %w_ptr : !tt.ptr<bf16> -> tensor<256x!tt.ptr<bf16>> loc(#loc248)
    %w_base_37 = tt.addptr %w_base_36, %w_base : tensor<256x!tt.ptr<bf16>>, tensor<256xi32> loc(#loc248)
    %2 = arith.cmpi eq, %chunk_offset_19, %c0_i32 : i32 loc(#loc34)
    %3:3 = scf.if %2 -> (tensor<256xbf16>, tensor<256xbf16>, tensor<256xbf16>) {
      %load_init_state = tt.addptr %has_initial_states_ptr, %idx_seq_18 : !tt.ptr<i1>, i64 loc(#loc249)
      %load_init_state_42 = tt.bitcast %load_init_state : !tt.ptr<i1> -> !tt.ptr<i8> loc(#loc250)
      %load_init_state_43 = tt.load %load_init_state_42 : !tt.ptr<i8> loc(#loc250)
      %load_init_state_44 = arith.cmpi ne, %load_init_state_43, %c0_i8 : i8 loc(#loc408)
      %col2_45:3 = scf.if %load_init_state_44 -> (tensor<256xbf16>, tensor<256xbf16>, tensor<256xbf16>) {
        %prior_tokens = tt.addptr %conv_states_base_35, %cst_4 : tensor<256x!tt.ptr<bf16>>, tensor<256xi32> loc(#loc252)
        %mask_w_46 = arith.cmpi slt, %idx_feats_23, %cst_13 : tensor<256xi32> loc(#loc253)
        %col2_47 = tt.load %prior_tokens, %mask_w_46, %cst_3 : tensor<256x!tt.ptr<bf16>> loc(#loc410)
        %conv_states_ptrs = tt.addptr %conv_states_base_35, %cst_13 : tensor<256x!tt.ptr<bf16>>, tensor<256xi32> loc(#loc411)
        %col1 = tt.load %conv_states_ptrs, %mask_w_46, %cst_3 : tensor<256x!tt.ptr<bf16>> loc(#loc412)
        %col0 = tt.load %conv_states_base_35, %mask_w_46, %cst_3 : tensor<256x!tt.ptr<bf16>> loc(#loc413)
        scf.yield %col0, %col1, %col2_47 : tensor<256xbf16>, tensor<256xbf16>, tensor<256xbf16> loc(#loc413)
      } else {
        scf.yield %cst_3, %cst_3, %cst_3 : tensor<256xbf16>, tensor<256xbf16>, tensor<256xbf16> loc(#loc258)
      } loc(#loc437)
      %4 = arith.cmpi sge, %seqlen_26, %c3_i32 : i32 loc(#loc46)
      scf.if %4 {
        %idx_tokens_last = arith.subi %seqlen_26, %c3_i32 : i32 loc(#loc259)
        %idx_tokens_last_46 = tt.make_range {end = 4 : i32, start = 0 : i32} : tensor<4xi32> loc(#loc260)
        %idx_tokens_last_47 = tt.splat %idx_tokens_last : i32 -> tensor<4xi32> loc(#loc261)
        %idx_tokens_last_48 = arith.addi %idx_tokens_last_47, %idx_tokens_last_46 : tensor<4xi32> loc(#loc261)
        %x_ptrs = tt.splat %sequence_start_index_24 : i32 -> tensor<4xi32> loc(#loc262)
        %x_ptrs_49 = arith.addi %x_ptrs, %idx_tokens_last_48 : tensor<4xi32> loc(#loc262)
        %x_ptrs_50 = arith.muli %x_ptrs_49, %cst_11 : tensor<4xi32> loc(#loc263)
        %x_ptrs_51 = tt.expand_dims %x_ptrs_50 {axis = 1 : i32} : tensor<4xi32> -> tensor<4x1xi32> loc(#loc264)
        %x_ptrs_52 = tt.splat %x_ptr : !tt.ptr<bf16> -> tensor<4x1x!tt.ptr<bf16>> loc(#loc265)
        %x_ptrs_53 = tt.addptr %x_ptrs_52, %x_ptrs_51 : tensor<4x1x!tt.ptr<bf16>>, tensor<4x1xi32> loc(#loc265)
        %x_ptrs_54 = tt.expand_dims %idx_feats_23 {axis = 0 : i32} : tensor<256xi32> -> tensor<1x256xi32> loc(#loc266)
        %x_ptrs_55 = tt.broadcast %x_ptrs_53 : tensor<4x1x!tt.ptr<bf16>> -> tensor<4x256x!tt.ptr<bf16>> loc(#loc267)
        %x_ptrs_56 = tt.broadcast %x_ptrs_54 : tensor<1x256xi32> -> tensor<4x256xi32> loc(#loc267)
        %x_ptrs_57 = tt.addptr %x_ptrs_55, %x_ptrs_56 : tensor<4x256x!tt.ptr<bf16>>, tensor<4x256xi32> loc(#loc414)
        %mask_x = arith.cmpi sge, %idx_tokens_last_48, %cst_10 : tensor<4xi32> loc(#loc268)
        %mask_x_58 = tt.expand_dims %mask_x {axis = 1 : i32} : tensor<4xi1> -> tensor<4x1xi1> loc(#loc269)
        %mask_x_59 = tt.splat %seqlen_26 : i32 -> tensor<4xi32> loc(#loc270)
        %mask_x_60 = arith.cmpi slt, %idx_tokens_last_48, %mask_x_59 : tensor<4xi32> loc(#loc270)
        %mask_x_61 = tt.expand_dims %mask_x_60 {axis = 1 : i32} : tensor<4xi1> -> tensor<4x1xi1> loc(#loc271)
        %mask_x_62 = arith.andi %mask_x_58, %mask_x_61 : tensor<4x1xi1> loc(#loc272)
        %mask_x_63 = arith.cmpi slt, %idx_feats_23, %cst_13 : tensor<256xi32> loc(#loc273)
        %mask_x_64 = tt.expand_dims %mask_x_63 {axis = 0 : i32} : tensor<256xi1> -> tensor<1x256xi1> loc(#loc274)
        %mask_x_65 = tt.broadcast %mask_x_62 : tensor<4x1xi1> -> tensor<4x256xi1> loc(#loc275)
        %mask_x_66 = tt.broadcast %mask_x_64 : tensor<1x256xi1> -> tensor<4x256xi1> loc(#loc275)
        %mask_x_67 = arith.andi %mask_x_65, %mask_x_66 : tensor<4x256xi1> loc(#loc415)
        %loaded_x = tt.load %x_ptrs_57, %mask_x_67, %cst_2 : tensor<4x256x!tt.ptr<bf16>> loc(#loc276)
        %conv_states_output_coord = tt.load %conv_states_input_coord : !tt.ptr<i32> loc(#loc277)
        %conv_states_output_coord_68 = arith.extsi %conv_states_output_coord : i32 to i64 loc(#loc278)
        %conv_states_ptrs_target = arith.muli %conv_states_output_coord_68, %c1081344_i64 : i64 loc(#loc279)
        %conv_states_ptrs_target_69 = tt.addptr %initial_states_ptr, %conv_states_ptrs_target : !tt.ptr<bf16>, i64 loc(#loc280)
        %conv_states_ptrs_target_70 = tt.splat %conv_states_ptrs_target_69 : !tt.ptr<bf16> -> tensor<256x!tt.ptr<bf16>> loc(#loc281)
        %conv_states_ptrs_target_71 = tt.addptr %conv_states_ptrs_target_70, %idx_feats_23 : tensor<256x!tt.ptr<bf16>>, tensor<256xi32> loc(#loc281)
        %conv_states_ptrs_target_72 = tt.expand_dims %conv_states_ptrs_target_71 {axis = 0 : i32} : tensor<256x!tt.ptr<bf16>> -> tensor<1x256x!tt.ptr<bf16>> loc(#loc282)
        %conv_states_ptrs_target_73 = arith.muli %idx_tokens_last_46, %cst_9 : tensor<4xi32> loc(#loc283)
        %conv_states_ptrs_target_74 = tt.expand_dims %conv_states_ptrs_target_73 {axis = 1 : i32} : tensor<4xi32> -> tensor<4x1xi32> loc(#loc284)
        %conv_states_ptrs_target_75 = tt.broadcast %conv_states_ptrs_target_72 : tensor<1x256x!tt.ptr<bf16>> -> tensor<4x256x!tt.ptr<bf16>> loc(#loc285)
        %conv_states_ptrs_target_76 = tt.broadcast %conv_states_ptrs_target_74 : tensor<4x1xi32> -> tensor<4x256xi32> loc(#loc285)
        %conv_states_ptrs_target_77 = tt.addptr %conv_states_ptrs_target_75, %conv_states_ptrs_target_76 : tensor<4x256x!tt.ptr<bf16>>, tensor<4x256xi32> loc(#loc416)
        %mask = arith.cmpi slt, %idx_tokens_last_46, %cst_8 : tensor<4xi32> loc(#loc286)
        %mask_78 = tt.expand_dims %mask {axis = 1 : i32} : tensor<4xi1> -> tensor<4x1xi1> loc(#loc287)
        %mask_79 = tt.broadcast %mask_78 : tensor<4x1xi1> -> tensor<4x256xi1> loc(#loc288)
        %mask_80 = arith.andi %mask_79, %mask_x_66 : tensor<4x256xi1> loc(#loc417)
        gpu.barrier loc(#loc78)
        tt.store %conv_states_ptrs_target_77, %loaded_x, %mask_80 : tensor<4x256x!tt.ptr<bf16>> loc(#loc79)
      } else {
        scf.if %load_init_state_44 {
          %idx_tokens_conv = tt.make_range {end = 4 : i32, start = 0 : i32} : tensor<4xi32> loc(#loc419)
          %conv_states_ptrs_source = tt.expand_dims %idx_feats_23 {axis = 0 : i32} : tensor<256xi32> -> tensor<1x256xi32> loc(#loc291)
          %conv_states_ptrs_source_46 = tt.splat %conv_states_base_33 : !tt.ptr<bf16> -> tensor<1x256x!tt.ptr<bf16>> loc(#loc292)
          %conv_states_ptrs_source_47 = tt.addptr %conv_states_ptrs_source_46, %conv_states_ptrs_source : tensor<1x256x!tt.ptr<bf16>>, tensor<1x256xi32> loc(#loc292)
          %conv_states_ptrs_source_48 = tt.splat %seqlen_26 : i32 -> tensor<4xi32> loc(#loc293)
          %conv_states_ptrs_source_49 = arith.addi %idx_tokens_conv, %conv_states_ptrs_source_48 : tensor<4xi32> loc(#loc293)
          %conv_states_ptrs_source_50 = arith.muli %conv_states_ptrs_source_49, %cst_9 : tensor<4xi32> loc(#loc294)
          %conv_states_ptrs_source_51 = tt.expand_dims %conv_states_ptrs_source_50 {axis = 1 : i32} : tensor<4xi32> -> tensor<4x1xi32> loc(#loc295)
          %conv_states_ptrs_source_52 = tt.broadcast %conv_states_ptrs_source_47 : tensor<1x256x!tt.ptr<bf16>> -> tensor<4x256x!tt.ptr<bf16>> loc(#loc296)
          %conv_states_ptrs_source_53 = tt.broadcast %conv_states_ptrs_source_51 : tensor<4x1xi32> -> tensor<4x256xi32> loc(#loc296)
          %conv_states_ptrs_source_54 = tt.addptr %conv_states_ptrs_source_52, %conv_states_ptrs_source_53 : tensor<4x256x!tt.ptr<bf16>>, tensor<4x256xi32> loc(#loc296)
          %mask = arith.cmpi slt, %conv_states_input_coord_32, %c3223_i64 : i64 loc(#loc297)
          %mask_55 = arith.cmpi slt, %conv_states_ptrs_source_49, %cst_8 : tensor<4xi32> loc(#loc298)
          %mask_56 = tt.expand_dims %mask_55 {axis = 1 : i32} : tensor<4xi1> -> tensor<4x1xi1> loc(#loc299)
          %mask_57 = tt.splat %mask : i1 -> tensor<4x1xi1> loc(#loc300)
          %mask_58 = arith.andi %mask_57, %mask_56 : tensor<4x1xi1> loc(#loc300)
          %mask_59 = arith.cmpi slt, %idx_feats_23, %cst_13 : tensor<256xi32> loc(#loc301)
          %mask_60 = tt.expand_dims %mask_59 {axis = 0 : i32} : tensor<256xi1> -> tensor<1x256xi1> loc(#loc302)
          %mask_61 = tt.broadcast %mask_58 : tensor<4x1xi1> -> tensor<4x256xi1> loc(#loc303)
          %mask_62 = tt.broadcast %mask_60 : tensor<1x256xi1> -> tensor<4x256xi1> loc(#loc303)
          %mask_63 = arith.andi %mask_61, %mask_62 : tensor<4x256xi1> loc(#loc303)
          %conv_state = tt.load %conv_states_ptrs_source_54, %mask_63, %cst_2 : tensor<4x256x!tt.ptr<bf16>> loc(#loc304)
          %VAL = arith.subi %c3_i32, %seqlen_26 : i32 loc(#loc420)
          %x_ptrs = tt.expand_dims %x_base_30 {axis = 0 : i32} : tensor<256x!tt.ptr<bf16>> -> tensor<1x256x!tt.ptr<bf16>> loc(#loc306)
          %x_ptrs_64 = tt.splat %VAL : i32 -> tensor<4xi32> loc(#loc307)
          %x_ptrs_65 = arith.subi %idx_tokens_conv, %x_ptrs_64 : tensor<4xi32> loc(#loc307)
          %x_ptrs_66 = arith.muli %x_ptrs_65, %cst_11 : tensor<4xi32> loc(#loc308)
          %x_ptrs_67 = tt.expand_dims %x_ptrs_66 {axis = 1 : i32} : tensor<4xi32> -> tensor<4x1xi32> loc(#loc309)
          %x_ptrs_68 = tt.broadcast %x_ptrs : tensor<1x256x!tt.ptr<bf16>> -> tensor<4x256x!tt.ptr<bf16>> loc(#loc310)
          %x_ptrs_69 = tt.broadcast %x_ptrs_67 : tensor<4x1xi32> -> tensor<4x256xi32> loc(#loc310)
          %x_ptrs_70 = tt.addptr %x_ptrs_68, %x_ptrs_69 : tensor<4x256x!tt.ptr<bf16>>, tensor<4x256xi32> loc(#loc421)
          %mask_x = arith.cmpi sge, %x_ptrs_65, %cst_10 : tensor<4xi32> loc(#loc311)
          %mask_x_71 = tt.expand_dims %mask_x {axis = 1 : i32} : tensor<4xi1> -> tensor<4x1xi1> loc(#loc312)
          %mask_x_72 = arith.cmpi slt, %x_ptrs_65, %conv_states_ptrs_source_48 : tensor<4xi32> loc(#loc313)
          %mask_x_73 = tt.expand_dims %mask_x_72 {axis = 1 : i32} : tensor<4xi1> -> tensor<4x1xi1> loc(#loc314)
          %mask_x_74 = arith.andi %mask_x_71, %mask_x_73 : tensor<4x1xi1> loc(#loc315)
          %mask_x_75 = tt.broadcast %mask_x_74 : tensor<4x1xi1> -> tensor<4x256xi1> loc(#loc316)
          %mask_x_76 = arith.andi %mask_x_75, %mask_62 : tensor<4x256xi1> loc(#loc422)
          %loaded_x = tt.load %x_ptrs_70, %mask_x_76, %cst_2 : tensor<4x256x!tt.ptr<bf16>> loc(#loc317)
          gpu.barrier loc(#loc109)
          %new_conv_state = arith.select %mask_63, %conv_state, %loaded_x : tensor<4x256xi1>, tensor<4x256xbf16> loc(#loc423)
          %conv_states_ptrs_target = arith.muli %idx_tokens_conv, %cst_9 : tensor<4xi32> loc(#loc319)
          %conv_states_ptrs_target_77 = tt.expand_dims %conv_states_ptrs_target {axis = 1 : i32} : tensor<4xi32> -> tensor<4x1xi32> loc(#loc320)
          %conv_states_ptrs_target_78 = tt.expand_dims %conv_states_base_35 {axis = 0 : i32} : tensor<256x!tt.ptr<bf16>> -> tensor<1x256x!tt.ptr<bf16>> loc(#loc321)
          %conv_states_ptrs_target_79 = tt.broadcast %conv_states_ptrs_target_78 : tensor<1x256x!tt.ptr<bf16>> -> tensor<4x256x!tt.ptr<bf16>> loc(#loc321)
          %conv_states_ptrs_target_80 = tt.broadcast %conv_states_ptrs_target_77 : tensor<4x1xi32> -> tensor<4x256xi32> loc(#loc321)
          %conv_states_ptrs_target_81 = tt.addptr %conv_states_ptrs_target_79, %conv_states_ptrs_target_80 : tensor<4x256x!tt.ptr<bf16>>, tensor<4x256xi32> loc(#loc424)
          %mask_82 = arith.cmpi slt, %idx_tokens_conv, %cst_8 : tensor<4xi32> loc(#loc322)
          %mask_83 = tt.expand_dims %mask_82 {axis = 1 : i32} : tensor<4xi1> -> tensor<4x1xi1> loc(#loc323)
          %mask_84 = tt.broadcast %mask_83 : tensor<4x1xi1> -> tensor<4x256xi1> loc(#loc324)
          %mask_85 = arith.andi %mask_84, %mask_62 : tensor<4x256xi1> loc(#loc425)
          tt.store %conv_states_ptrs_target_81, %new_conv_state, %mask_85 : tensor<4x256x!tt.ptr<bf16>> loc(#loc117)
        } else {
          %idx_tokens_conv = tt.make_range {end = 4 : i32, start = 0 : i32} : tensor<4xi32> loc(#loc426)
          %VAL = arith.subi %c3_i32, %seqlen_26 : i32 loc(#loc427)
          %x_ptrs = tt.expand_dims %x_base_30 {axis = 0 : i32} : tensor<256x!tt.ptr<bf16>> -> tensor<1x256x!tt.ptr<bf16>> loc(#loc327)
          %x_ptrs_46 = tt.splat %VAL : i32 -> tensor<4xi32> loc(#loc328)
          %x_ptrs_47 = arith.subi %idx_tokens_conv, %x_ptrs_46 : tensor<4xi32> loc(#loc328)
          %x_ptrs_48 = arith.muli %x_ptrs_47, %cst_11 : tensor<4xi32> loc(#loc329)
          %x_ptrs_49 = tt.expand_dims %x_ptrs_48 {axis = 1 : i32} : tensor<4xi32> -> tensor<4x1xi32> loc(#loc330)
          %x_ptrs_50 = tt.broadcast %x_ptrs : tensor<1x256x!tt.ptr<bf16>> -> tensor<4x256x!tt.ptr<bf16>> loc(#loc331)
          %x_ptrs_51 = tt.broadcast %x_ptrs_49 : tensor<4x1xi32> -> tensor<4x256xi32> loc(#loc331)
          %x_ptrs_52 = tt.addptr %x_ptrs_50, %x_ptrs_51 : tensor<4x256x!tt.ptr<bf16>>, tensor<4x256xi32> loc(#loc428)
          %mask_x = arith.cmpi sge, %x_ptrs_47, %cst_10 : tensor<4xi32> loc(#loc332)
          %mask_x_53 = tt.expand_dims %mask_x {axis = 1 : i32} : tensor<4xi1> -> tensor<4x1xi1> loc(#loc333)
          %mask_x_54 = tt.splat %seqlen_26 : i32 -> tensor<4xi32> loc(#loc334)
          %mask_x_55 = arith.cmpi slt, %x_ptrs_47, %mask_x_54 : tensor<4xi32> loc(#loc334)
          %mask_x_56 = tt.expand_dims %mask_x_55 {axis = 1 : i32} : tensor<4xi1> -> tensor<4x1xi1> loc(#loc335)
          %mask_x_57 = arith.andi %mask_x_53, %mask_x_56 : tensor<4x1xi1> loc(#loc336)
          %mask_x_58 = arith.cmpi slt, %idx_feats_23, %cst_13 : tensor<256xi32> loc(#loc337)
          %mask_x_59 = tt.expand_dims %mask_x_58 {axis = 0 : i32} : tensor<256xi1> -> tensor<1x256xi1> loc(#loc338)
          %mask_x_60 = tt.broadcast %mask_x_57 : tensor<4x1xi1> -> tensor<4x256xi1> loc(#loc339)
          %mask_x_61 = tt.broadcast %mask_x_59 : tensor<1x256xi1> -> tensor<4x256xi1> loc(#loc339)
          %mask_x_62 = arith.andi %mask_x_60, %mask_x_61 : tensor<4x256xi1> loc(#loc429)
          %new_conv_state = tt.load %x_ptrs_52, %mask_x_62, %cst_2 : tensor<4x256x!tt.ptr<bf16>> loc(#loc430)
          %conv_states_ptrs_target = arith.muli %idx_tokens_conv, %cst_9 : tensor<4xi32> loc(#loc341)
          %conv_states_ptrs_target_63 = tt.expand_dims %conv_states_ptrs_target {axis = 1 : i32} : tensor<4xi32> -> tensor<4x1xi32> loc(#loc342)
          %conv_states_ptrs_target_64 = tt.expand_dims %conv_states_base_35 {axis = 0 : i32} : tensor<256x!tt.ptr<bf16>> -> tensor<1x256x!tt.ptr<bf16>> loc(#loc343)
          %conv_states_ptrs_target_65 = tt.broadcast %conv_states_ptrs_target_64 : tensor<1x256x!tt.ptr<bf16>> -> tensor<4x256x!tt.ptr<bf16>> loc(#loc343)
          %conv_states_ptrs_target_66 = tt.broadcast %conv_states_ptrs_target_63 : tensor<4x1xi32> -> tensor<4x256xi32> loc(#loc343)
          %conv_states_ptrs_target_67 = tt.addptr %conv_states_ptrs_target_65, %conv_states_ptrs_target_66 : tensor<4x256x!tt.ptr<bf16>>, tensor<4x256xi32> loc(#loc431)
          %mask = arith.cmpi slt, %idx_tokens_conv, %cst_8 : tensor<4xi32> loc(#loc344)
          %mask_68 = tt.expand_dims %mask {axis = 1 : i32} : tensor<4xi1> -> tensor<4x1xi1> loc(#loc345)
          %mask_69 = tt.broadcast %mask_68 : tensor<4x1xi1> -> tensor<4x256xi1> loc(#loc346)
          %mask_70 = arith.andi %mask_69, %mask_x_61 : tensor<4x256xi1> loc(#loc432)
          tt.store %conv_states_ptrs_target_67, %new_conv_state, %mask_70 : tensor<4x256x!tt.ptr<bf16>> loc(#loc140)
        } loc(#loc441)
      } loc(#loc47)
      scf.yield %col2_45#0, %col2_45#1, %col2_45#2 : tensor<256xbf16>, tensor<256xbf16>, tensor<256xbf16> loc(#loc47)
    } else {
      %prior_tokens = arith.subi %token_offset, %c1_i32 : i32 loc(#loc347)
      %prior_tokens_42 = arith.muli %prior_tokens, %c12288_i32 : i32 loc(#loc348)
      %prior_tokens_43 = tt.splat %prior_tokens_42 : i32 -> tensor<256xi32> loc(#loc349)
      %prior_tokens_44 = tt.addptr %x_base_30, %prior_tokens_43 : tensor<256x!tt.ptr<bf16>>, tensor<256xi32> loc(#loc349)
      %mask_w_45 = arith.cmpi slt, %idx_feats_23, %cst_13 : tensor<256xi32> loc(#loc350)
      %col2_46 = tt.load %prior_tokens_44, %mask_w_45, %cst_3 cacheModifier = ca : tensor<256x!tt.ptr<bf16>> loc(#loc433)
      %conv_states_ptrs = tt.addptr %prior_tokens_44, %cst_1 : tensor<256x!tt.ptr<bf16>>, tensor<256xi32> loc(#loc352)
      %col1 = tt.load %conv_states_ptrs, %mask_w_45, %cst_3 cacheModifier = ca : tensor<256x!tt.ptr<bf16>> loc(#loc434)
      %conv_states_ptrs_47 = tt.addptr %prior_tokens_44, %cst_0 : tensor<256x!tt.ptr<bf16>>, tensor<256xi32> loc(#loc354)
      %col0 = tt.load %conv_states_ptrs_47, %mask_w_45, %cst_3 cacheModifier = ca : tensor<256x!tt.ptr<bf16>> loc(#loc435)
      %4 = arith.subi %chunk_offset_19, %c1_i32 : i32 loc(#loc150)
      %5 = arith.cmpi slt, %4, %c0_i32 : i32 loc(#loc151)
      scf.if %5 {
        %idx_tokens_last = tt.make_range {end = 4 : i32, start = 0 : i32} : tensor<4xi32> loc(#loc356)
        %idx_tokens_last_48 = arith.addi %idx_tokens_last, %cst : tensor<4xi32> loc(#loc357)
        %x_ptrs = arith.muli %idx_tokens_last_48, %cst_11 : tensor<4xi32> loc(#loc358)
        %x_ptrs_49 = tt.expand_dims %x_ptrs {axis = 1 : i32} : tensor<4xi32> -> tensor<4x1xi32> loc(#loc359)
        %x_ptrs_50 = tt.splat %x_ptr : !tt.ptr<bf16> -> tensor<4x1x!tt.ptr<bf16>> loc(#loc360)
        %x_ptrs_51 = tt.addptr %x_ptrs_50, %x_ptrs_49 : tensor<4x1x!tt.ptr<bf16>>, tensor<4x1xi32> loc(#loc360)
        %x_ptrs_52 = tt.expand_dims %idx_feats_23 {axis = 0 : i32} : tensor<256xi32> -> tensor<1x256xi32> loc(#loc361)
        %x_ptrs_53 = tt.broadcast %x_ptrs_51 : tensor<4x1x!tt.ptr<bf16>> -> tensor<4x256x!tt.ptr<bf16>> loc(#loc362)
        %x_ptrs_54 = tt.broadcast %x_ptrs_52 : tensor<1x256xi32> -> tensor<4x256xi32> loc(#loc362)
        %x_ptrs_55 = tt.addptr %x_ptrs_53, %x_ptrs_54 : tensor<4x256x!tt.ptr<bf16>>, tensor<4x256xi32> loc(#loc362)
        %mask_x = arith.cmpi sge, %idx_tokens_last_48, %cst_10 : tensor<4xi32> loc(#loc363)
        %mask_x_56 = tt.expand_dims %mask_x {axis = 1 : i32} : tensor<4xi1> -> tensor<4x1xi1> loc(#loc364)
        %mask_x_57 = tt.expand_dims %mask_w_45 {axis = 0 : i32} : tensor<256xi1> -> tensor<1x256xi1> loc(#loc365)
        %mask_x_58 = tt.broadcast %mask_x_56 : tensor<4x1xi1> -> tensor<4x256xi1> loc(#loc366)
        %mask_x_59 = tt.broadcast %mask_x_57 : tensor<1x256xi1> -> tensor<4x256xi1> loc(#loc366)
        %mask_x_60 = arith.andi %mask_x_58, %mask_x_59 : tensor<4x256xi1> loc(#loc366)
        %loaded_x = tt.load %x_ptrs_55, %mask_x_60, %cst_2 : tensor<4x256x!tt.ptr<bf16>> loc(#loc367)
        %conv_states_output_coord = tt.addptr %conv_states_input_coord, %4 : !tt.ptr<i32>, i32 loc(#loc368)
        %conv_states_output_coord_61 = tt.load %conv_states_output_coord : !tt.ptr<i32> loc(#loc369)
        %conv_states_output_coord_62 = arith.extsi %conv_states_output_coord_61 : i32 to i64 loc(#loc370)
        %conv_states_ptrs_target = arith.muli %conv_states_output_coord_62, %c1081344_i64 : i64 loc(#loc371)
        %conv_states_ptrs_target_63 = tt.addptr %initial_states_ptr, %conv_states_ptrs_target : !tt.ptr<bf16>, i64 loc(#loc372)
        %conv_states_ptrs_target_64 = tt.splat %conv_states_ptrs_target_63 : !tt.ptr<bf16> -> tensor<256x!tt.ptr<bf16>> loc(#loc373)
        %conv_states_ptrs_target_65 = tt.addptr %conv_states_ptrs_target_64, %idx_feats_23 : tensor<256x!tt.ptr<bf16>>, tensor<256xi32> loc(#loc373)
        %conv_states_ptrs_target_66 = tt.expand_dims %conv_states_ptrs_target_65 {axis = 0 : i32} : tensor<256x!tt.ptr<bf16>> -> tensor<1x256x!tt.ptr<bf16>> loc(#loc374)
        %conv_states_ptrs_target_67 = arith.muli %idx_tokens_last, %cst_9 : tensor<4xi32> loc(#loc375)
        %conv_states_ptrs_target_68 = tt.expand_dims %conv_states_ptrs_target_67 {axis = 1 : i32} : tensor<4xi32> -> tensor<4x1xi32> loc(#loc376)
        %conv_states_ptrs_target_69 = tt.broadcast %conv_states_ptrs_target_66 : tensor<1x256x!tt.ptr<bf16>> -> tensor<4x256x!tt.ptr<bf16>> loc(#loc377)
        %conv_states_ptrs_target_70 = tt.broadcast %conv_states_ptrs_target_68 : tensor<4x1xi32> -> tensor<4x256xi32> loc(#loc377)
        %conv_states_ptrs_target_71 = tt.addptr %conv_states_ptrs_target_69, %conv_states_ptrs_target_70 : tensor<4x256x!tt.ptr<bf16>>, tensor<4x256xi32> loc(#loc377)
        %mask = arith.cmpi slt, %idx_tokens_last, %cst_8 : tensor<4xi32> loc(#loc378)
        %mask_72 = tt.expand_dims %mask {axis = 1 : i32} : tensor<4xi1> -> tensor<4x1xi1> loc(#loc379)
        %mask_73 = tt.broadcast %mask_72 : tensor<4x1xi1> -> tensor<4x256xi1> loc(#loc380)
        %mask_74 = arith.andi %mask_73, %mask_x_59 : tensor<4x256xi1> loc(#loc380)
        gpu.barrier loc(#loc178)
        tt.store %conv_states_ptrs_target_71, %loaded_x, %mask_74 : tensor<4x256x!tt.ptr<bf16>> loc(#loc179)
      } loc(#loc152)
      scf.yield %col0, %col1, %col2_46 : tensor<256xbf16>, tensor<256xbf16>, tensor<256xbf16> loc(#loc152)
    } loc(#loc35)
    %x_base_1d = arith.muli %chunk_offset_19, %c98304_i32 : i32 loc(#loc381)
    %x_base_1d_38 = tt.splat %x_base_1d : i32 -> tensor<256xi32> loc(#loc382)
    %x_base_1d_39 = tt.addptr %x_base_30, %x_base_1d_38 : tensor<256x!tt.ptr<bf16>>, tensor<256xi32> loc(#loc382)
    %mask_w = arith.cmpi slt, %idx_feats_23, %cst_13 : tensor<256xi32> loc(#loc383)
    %w_col0 = tt.load %w_base_37, %mask_w, %cst_3 : tensor<256x!tt.ptr<bf16>> loc(#loc384)
    %w_ptrs = tt.addptr %w_base_37, %cst_15 : tensor<256x!tt.ptr<bf16>>, tensor<256xi32> loc(#loc385)
    %w_col1 = tt.load %w_ptrs, %mask_w, %cst_3 : tensor<256x!tt.ptr<bf16>> loc(#loc386)
    %w_ptrs_40 = tt.addptr %w_base_37, %cst_7 : tensor<256x!tt.ptr<bf16>>, tensor<256xi32> loc(#loc387)
    %w_col2 = tt.load %w_ptrs_40, %mask_w, %cst_3 : tensor<256x!tt.ptr<bf16>> loc(#loc388)
    %w_ptrs_41 = tt.addptr %w_base_37, %cst_6 : tensor<256x!tt.ptr<bf16>>, tensor<256xi32> loc(#loc389)
    %w_col3 = tt.load %w_ptrs_41, %mask_w, %cst_3 : tensor<256x!tt.ptr<bf16>> loc(#loc390)
    %col2:3 = scf.for %idx_token = %c0_i32 to %segment_len_27 step %c1_i32 iter_args(%col0 = %3#0, %col1 = %3#1, %col2_42 = %3#2) -> (tensor<256xbf16>, tensor<256xbf16>, tensor<256xbf16>)  : i32 {
      %acc = arith.mulf %col0, %w_col0 : tensor<256xbf16> loc(#loc392)
      %acc_43 = arith.extf %acc : tensor<256xbf16> to tensor<256xf32> loc(#loc393)
      %acc_44 = arith.addf %acc_43, %cst_12 : tensor<256xf32> loc(#loc393)
      %acc_45 = arith.mulf %col1, %w_col1 : tensor<256xbf16> loc(#loc392)
      %acc_46 = arith.extf %acc_45 : tensor<256xbf16> to tensor<256xf32> loc(#loc393)
      %acc_47 = arith.addf %acc_44, %acc_46 : tensor<256xf32> loc(#loc393)
      %acc_48 = arith.mulf %col2_42, %w_col2 : tensor<256xbf16> loc(#loc392)
      %acc_49 = arith.extf %acc_48 : tensor<256xbf16> to tensor<256xf32> loc(#loc393)
      %acc_50 = arith.addf %acc_47, %acc_49 : tensor<256xf32> loc(#loc393)
      %x_ptrs_1d = arith.muli %idx_token, %c12288_i32 : i32 loc(#loc394)
      %x_ptrs_1d_51 = tt.splat %x_ptrs_1d : i32 -> tensor<256xi32> loc(#loc395)
      %x_ptrs_1d_52 = tt.addptr %x_base_1d_39, %x_ptrs_1d_51 : tensor<256x!tt.ptr<bf16>>, tensor<256xi32> loc(#loc395)
      %matrix_x = tt.load %x_ptrs_1d_52, %mask_w : tensor<256x!tt.ptr<bf16>> loc(#loc396)
      %acc_53 = arith.mulf %matrix_x, %w_col3 : tensor<256xbf16> loc(#loc392)
      %acc_54 = arith.extf %acc_53 : tensor<256xbf16> to tensor<256xf32> loc(#loc393)
      %acc_55 = arith.addf %acc_50, %acc_54 : tensor<256xf32> loc(#loc393)
      %acc_56 = arith.subf %cst_12, %acc_55 : tensor<256xf32> loc(#loc397)
      %acc_57 = math.exp %acc_56 : tensor<256xf32> loc(#loc398)
      %acc_58 = arith.addf %acc_57, %cst_5 : tensor<256xf32> loc(#loc399)
      %acc_59 = arith.divf %acc_55, %acc_58 : tensor<256xf32> loc(#loc400)
      %mask_1d = arith.cmpi slt, %idx_token, %segment_len_27 : i32 loc(#loc401)
      %mask_1d_60 = tt.splat %mask_1d : i1 -> tensor<256xi1> loc(#loc402)
      %mask_1d_61 = arith.andi %mask_1d_60, %mask_w : tensor<256xi1> loc(#loc402)
      %o_ptrs = arith.addi %sequence_start_index_24, %token_offset : i32 loc(#loc403)
      %o_ptrs_62 = arith.addi %o_ptrs, %idx_token : i32 loc(#loc404)
      %o_ptrs_63 = arith.muli %o_ptrs_62, %c8192_i32 : i32 loc(#loc405)
      %o_ptrs_64 = tt.addptr %o_ptr, %o_ptrs_63 : !tt.ptr<bf16>, i32 loc(#loc406)
      %o_ptrs_65 = tt.splat %o_ptrs_64 : !tt.ptr<bf16> -> tensor<256x!tt.ptr<bf16>> loc(#loc407)
      %o_ptrs_66 = tt.addptr %o_ptrs_65, %idx_feats_23 : tensor<256x!tt.ptr<bf16>>, tensor<256xi32> loc(#loc407)
      %4 = arith.truncf %acc_59 : tensor<256xf32> to tensor<256xbf16> loc(#loc207)
      tt.store %o_ptrs_66, %4, %mask_1d_61 : tensor<256x!tt.ptr<bf16>> loc(#loc207)
      scf.yield %col1, %col2_42, %matrix_x : tensor<256xbf16>, tensor<256xbf16>, tensor<256xbf16> loc(#loc208)
    } loc(#loc439)
    tt.return loc(#loc209)
  } loc(#loc)
} loc(#loc)
#loc1 = loc(unknown)
#loc2 = loc("/data/conda/envs/or_llm/lib/python3.12/site-packages/vllm/model_executor/layers/mamba/ops/causal_conv1d.py":75:48)
#loc3 = loc("/data/conda/envs/or_llm/lib/python3.12/site-packages/vllm/model_executor/layers/mamba/ops/causal_conv1d.py":75:34)
#loc4 = loc("/data/conda/envs/or_llm/lib/python3.12/site-packages/vllm/model_executor/layers/mamba/ops/causal_conv1d.py":75:22)
#loc5 = loc("/data/conda/envs/or_llm/lib/python3.12/site-packages/vllm/model_executor/layers/mamba/ops/causal_conv1d.py":75:55)
#loc6 = loc("/data/conda/envs/or_llm/lib/python3.12/site-packages/vllm/model_executor/layers/mamba/ops/causal_conv1d.py":76:52)
#loc7 = loc("/data/conda/envs/or_llm/lib/python3.12/site-packages/vllm/model_executor/layers/mamba/ops/causal_conv1d.py":76:27)
#loc8 = loc("/data/conda/envs/or_llm/lib/python3.12/site-packages/vllm/model_executor/layers/mamba/ops/causal_conv1d.py":79:30)
#loc9 = loc("/data/conda/envs/or_llm/lib/python3.12/site-packages/vllm/model_executor/layers/mamba/ops/causal_conv1d.py":79:35)
#loc10 = loc("/data/conda/envs/or_llm/lib/python3.12/site-packages/vllm/model_executor/layers/mamba/ops/causal_conv1d.py":79:58)
#loc11 = loc("/data/conda/envs/or_llm/lib/python3.12/site-packages/vllm/model_executor/layers/mamba/ops/causal_conv1d.py":79:45)
#loc12 = loc("/data/conda/envs/or_llm/lib/python3.12/site-packages/vllm/model_executor/layers/mamba/ops/causal_conv1d.py":81:18)
#loc13 = loc("/data/conda/envs/or_llm/lib/python3.12/site-packages/vllm/model_executor/layers/mamba/ops/causal_conv1d.py":82:8)
#loc14 = loc("/data/conda/envs/or_llm/lib/python3.12/site-packages/vllm/model_executor/layers/mamba/ops/causal_conv1d.py":84:57)
#loc15 = loc("/data/conda/envs/or_llm/lib/python3.12/site-packages/vllm/model_executor/layers/mamba/ops/causal_conv1d.py":84:35)
#loc16 = loc("/data/conda/envs/or_llm/lib/python3.12/site-packages/vllm/model_executor/layers/mamba/ops/causal_conv1d.py":85:65)
#loc17 = loc("/data/conda/envs/or_llm/lib/python3.12/site-packages/vllm/model_executor/layers/mamba/ops/causal_conv1d.py":85:33)
#loc18 = loc("/data/conda/envs/or_llm/lib/python3.12/site-packages/vllm/model_executor/layers/mamba/ops/causal_conv1d.py":87:34)
#loc19 = loc("/data/conda/envs/or_llm/lib/python3.12/site-packages/vllm/model_executor/layers/mamba/ops/causal_conv1d.py":123:29)
#loc20 = loc("/data/conda/envs/or_llm/lib/python3.12/site-packages/vllm/model_executor/layers/mamba/ops/causal_conv1d.py":124:40)
#loc21 = loc("/data/conda/envs/or_llm/lib/python3.12/site-packages/vllm/model_executor/layers/mamba/ops/causal_conv1d.py":124:31)
#loc22 = loc("/data/conda/envs/or_llm/lib/python3.12/site-packages/vllm/model_executor/layers/mamba/ops/causal_conv1d.py":128:39)
#loc23 = loc("/data/conda/envs/or_llm/lib/python3.12/site-packages/vllm/model_executor/layers/mamba/ops/causal_conv1d.py":128:16)
#loc24 = loc("/data/conda/envs/or_llm/lib/python3.12/site-packages/vllm/model_executor/layers/mamba/ops/causal_conv1d.py":128:56)
#loc25 = loc("/data/conda/envs/or_llm/lib/python3.12/site-packages/vllm/model_executor/layers/mamba/ops/causal_conv1d.py":133:33)
#loc26 = loc("/data/conda/envs/or_llm/lib/python3.12/site-packages/vllm/model_executor/layers/mamba/ops/causal_conv1d.py":133:8)
#loc27 = loc("/data/conda/envs/or_llm/lib/python3.12/site-packages/vllm/model_executor/layers/mamba/ops/causal_conv1d.py":134:9)
#loc28 = loc("/data/conda/envs/or_llm/lib/python3.12/site-packages/vllm/model_executor/layers/mamba/ops/causal_conv1d.py":137:38)
#loc29 = loc("/data/conda/envs/or_llm/lib/python3.12/site-packages/vllm/model_executor/layers/mamba/ops/causal_conv1d.py":142:37)
#loc30 = loc("/data/conda/envs/or_llm/lib/python3.12/site-packages/vllm/model_executor/layers/mamba/ops/causal_conv1d.py":142:11)
#loc31 = loc("/data/conda/envs/or_llm/lib/python3.12/site-packages/vllm/model_executor/layers/mamba/ops/causal_conv1d.py":143:11)
#loc32 = loc("/data/conda/envs/or_llm/lib/python3.12/site-packages/vllm/model_executor/layers/mamba/ops/causal_conv1d.py":146:34)
#loc33 = loc("/data/conda/envs/or_llm/lib/python3.12/site-packages/vllm/model_executor/layers/mamba/ops/causal_conv1d.py":146:22)
#loc34 = loc("/data/conda/envs/or_llm/lib/python3.12/site-packages/vllm/model_executor/layers/mamba/ops/causal_conv1d.py":151:23)
#loc35 = loc("/data/conda/envs/or_llm/lib/python3.12/site-packages/vllm/model_executor/layers/mamba/ops/causal_conv1d.py":151:7)
#loc36 = loc("/data/conda/envs/or_llm/lib/python3.12/site-packages/vllm/model_executor/layers/mamba/ops/causal_conv1d.py":153:59)
#loc37 = loc("/data/conda/envs/or_llm/lib/python3.12/site-packages/vllm/model_executor/layers/mamba/ops/causal_conv1d.py":153:34)
#loc38 = loc("/data/conda/envs/or_llm/lib/python3.12/site-packages/vllm/model_executor/layers/mamba/ops/causal_conv1d.py":154:11)
#loc39 = loc("/data/conda/envs/or_llm/lib/python3.12/site-packages/vllm/model_executor/layers/mamba/ops/causal_conv1d.py":156:46)
#loc40 = loc("/data/conda/envs/or_llm/lib/python3.12/site-packages/vllm/model_executor/layers/mamba/ops/causal_conv1d.py":157:33)
#loc41 = loc("/data/conda/envs/or_llm/lib/python3.12/site-packages/vllm/model_executor/layers/mamba/ops/causal_conv1d.py":168:57)
#loc42 = loc("/data/conda/envs/or_llm/lib/python3.12/site-packages/vllm/model_executor/layers/mamba/ops/causal_conv1d.py":169:50)
#loc43 = loc("/data/conda/envs/or_llm/lib/python3.12/site-packages/vllm/model_executor/layers/mamba/ops/causal_conv1d.py":170:57)
#loc44 = loc("/data/conda/envs/or_llm/lib/python3.12/site-packages/vllm/model_executor/layers/mamba/ops/causal_conv1d.py":172:57)
#loc45 = loc("/data/conda/envs/or_llm/lib/python3.12/site-packages/vllm/model_executor/layers/mamba/ops/causal_conv1d.py":190:32)
#loc46 = loc("/data/conda/envs/or_llm/lib/python3.12/site-packages/vllm/model_executor/layers/mamba/ops/causal_conv1d.py":197:25)
#loc47 = loc("/data/conda/envs/or_llm/lib/python3.12/site-packages/vllm/model_executor/layers/mamba/ops/causal_conv1d.py":197:12)
#loc48 = loc("/data/conda/envs/or_llm/lib/python3.12/site-packages/vllm/model_executor/layers/mamba/ops/causal_conv1d.py":202:40)
#loc49 = loc("/data/conda/envs/or_llm/lib/python3.12/site-packages/vllm/model_executor/layers/mamba/ops/causal_conv1d.py":203:19)
#loc50 = loc("/data/conda/envs/or_llm/lib/python3.12/site-packages/vllm/model_executor/layers/mamba/ops/causal_conv1d.py":202:53)
#loc51 = loc("/data/conda/envs/or_llm/lib/python3.12/site-packages/vllm/model_executor/layers/mamba/ops/causal_conv1d.py":207:43)
#loc52 = loc("/data/conda/envs/or_llm/lib/python3.12/site-packages/vllm/model_executor/layers/mamba/ops/causal_conv1d.py":207:62)
#loc53 = loc("/data/conda/envs/or_llm/lib/python3.12/site-packages/vllm/model_executor/layers/mamba/ops/causal_conv1d.py":207:78)
#loc54 = loc("/data/conda/envs/or_llm/lib/python3.12/site-packages/vllm/model_executor/layers/mamba/ops/causal_conv1d.py":207:18)
#loc55 = loc("/data/conda/envs/or_llm/lib/python3.12/site-packages/vllm/model_executor/layers/mamba/ops/causal_conv1d.py":208:45)
#loc56 = loc("/data/conda/envs/or_llm/lib/python3.12/site-packages/vllm/model_executor/layers/mamba/ops/causal_conv1d.py":208:18)
#loc57 = loc("/data/conda/envs/or_llm/lib/python3.12/site-packages/vllm/model_executor/layers/mamba/ops/causal_conv1d.py":211:36)
#loc58 = loc("/data/conda/envs/or_llm/lib/python3.12/site-packages/vllm/model_executor/layers/mamba/ops/causal_conv1d.py":211:39)
#loc59 = loc("/data/conda/envs/or_llm/lib/python3.12/site-packages/vllm/model_executor/layers/mamba/ops/causal_conv1d.py":212:37)
#loc60 = loc("/data/conda/envs/or_llm/lib/python3.12/site-packages/vllm/model_executor/layers/mamba/ops/causal_conv1d.py":212:45)
#loc61 = loc("/data/conda/envs/or_llm/lib/python3.12/site-packages/vllm/model_executor/layers/mamba/ops/causal_conv1d.py":212:18)
#loc62 = loc("/data/conda/envs/or_llm/lib/python3.12/site-packages/vllm/model_executor/layers/mamba/ops/causal_conv1d.py":213:31)
#loc63 = loc("/data/conda/envs/or_llm/lib/python3.12/site-packages/vllm/model_executor/layers/mamba/ops/causal_conv1d.py":213:36)
#loc64 = loc("/data/conda/envs/or_llm/lib/python3.12/site-packages/vllm/model_executor/layers/mamba/ops/causal_conv1d.py":213:18)
#loc65 = loc("/data/conda/envs/or_llm/lib/python3.12/site-packages/vllm/model_executor/layers/mamba/ops/causal_conv1d.py":215:47)
#loc66 = loc("/data/conda/envs/or_llm/lib/python3.12/site-packages/vllm/model_executor/layers/mamba/ops/causal_conv1d.py":220:16)
#loc67 = loc("/data/conda/envs/or_llm/lib/python3.12/site-packages/vllm/model_executor/layers/mamba/ops/causal_conv1d.py":223:17)
#loc68 = loc("/data/conda/envs/or_llm/lib/python3.12/site-packages/vllm/model_executor/layers/mamba/ops/causal_conv1d.py":227:46)
#loc69 = loc("/data/conda/envs/or_llm/lib/python3.12/site-packages/vllm/model_executor/layers/mamba/ops/causal_conv1d.py":227:19)
#loc70 = loc("/data/conda/envs/or_llm/lib/python3.12/site-packages/vllm/model_executor/layers/mamba/ops/causal_conv1d.py":228:19)
#loc71 = loc("/data/conda/envs/or_llm/lib/python3.12/site-packages/vllm/model_executor/layers/mamba/ops/causal_conv1d.py":229:14)
#loc72 = loc("/data/conda/envs/or_llm/lib/python3.12/site-packages/vllm/model_executor/layers/mamba/ops/causal_conv1d.py":230:34)
#loc73 = loc("/data/conda/envs/or_llm/lib/python3.12/site-packages/vllm/model_executor/layers/mamba/ops/causal_conv1d.py":231:14)
#loc74 = loc("/data/conda/envs/or_llm/lib/python3.12/site-packages/vllm/model_executor/layers/mamba/ops/causal_conv1d.py":229:25)
#loc75 = loc("/data/conda/envs/or_llm/lib/python3.12/site-packages/vllm/model_executor/layers/mamba/ops/causal_conv1d.py":233:38)
#loc76 = loc("/data/conda/envs/or_llm/lib/python3.12/site-packages/vllm/model_executor/layers/mamba/ops/causal_conv1d.py":233:49)
#loc77 = loc("/data/conda/envs/or_llm/lib/python3.12/site-packages/vllm/model_executor/layers/mamba/ops/causal_conv1d.py":233:60)
#loc78 = loc("/data/conda/envs/or_llm/lib/python3.12/site-packages/vllm/model_executor/layers/mamba/ops/causal_conv1d.py":234:12)
#loc79 = loc("/data/conda/envs/or_llm/lib/python3.12/site-packages/vllm/model_executor/layers/mamba/ops/causal_conv1d.py":235:56)
#loc80 = loc("/data/conda/envs/or_llm/lib/python3.12/site-packages/vllm/model_executor/layers/mamba/ops/causal_conv1d.py":238:15)
#loc81 = loc("/data/conda/envs/or_llm/lib/python3.12/site-packages/vllm/model_executor/layers/mamba/ops/causal_conv1d.py":240:47)
#loc82 = loc("/data/conda/envs/or_llm/lib/python3.12/site-packages/vllm/model_executor/layers/mamba/ops/causal_conv1d.py":245:58)
#loc83 = loc("/data/conda/envs/or_llm/lib/python3.12/site-packages/vllm/model_executor/layers/mamba/ops/causal_conv1d.py":245:22)
#loc84 = loc("/data/conda/envs/or_llm/lib/python3.12/site-packages/vllm/model_executor/layers/mamba/ops/causal_conv1d.py":246:42)
#loc85 = loc("/data/conda/envs/or_llm/lib/python3.12/site-packages/vllm/model_executor/layers/mamba/ops/causal_conv1d.py":246:52)
#loc86 = loc("/data/conda/envs/or_llm/lib/python3.12/site-packages/vllm/model_executor/layers/mamba/ops/causal_conv1d.py":246:75)
#loc87 = loc("/data/conda/envs/or_llm/lib/python3.12/site-packages/vllm/model_executor/layers/mamba/ops/causal_conv1d.py":246:22)
#loc88 = loc("/data/conda/envs/or_llm/lib/python3.12/site-packages/vllm/model_executor/layers/mamba/ops/causal_conv1d.py":249:47)
#loc89 = loc("/data/conda/envs/or_llm/lib/python3.12/site-packages/vllm/model_executor/layers/mamba/ops/causal_conv1d.py":250:52)
#loc90 = loc("/data/conda/envs/or_llm/lib/python3.12/site-packages/vllm/model_executor/layers/mamba/ops/causal_conv1d.py":250:63)
#loc91 = loc("/data/conda/envs/or_llm/lib/python3.12/site-packages/vllm/model_executor/layers/mamba/ops/causal_conv1d.py":250:22)
#loc92 = loc("/data/conda/envs/or_llm/lib/python3.12/site-packages/vllm/model_executor/layers/mamba/ops/causal_conv1d.py":251:35)
#loc93 = loc("/data/conda/envs/or_llm/lib/python3.12/site-packages/vllm/model_executor/layers/mamba/ops/causal_conv1d.py":251:40)
#loc94 = loc("/data/conda/envs/or_llm/lib/python3.12/site-packages/vllm/model_executor/layers/mamba/ops/causal_conv1d.py":251:22)
#loc95 = loc("/data/conda/envs/or_llm/lib/python3.12/site-packages/vllm/model_executor/layers/mamba/ops/causal_conv1d.py":253:62)
#loc96 = loc("/data/conda/envs/or_llm/lib/python3.12/site-packages/vllm/model_executor/layers/mamba/ops/causal_conv1d.py":255:34)
#loc97 = loc("/data/conda/envs/or_llm/lib/python3.12/site-packages/vllm/model_executor/layers/mamba/ops/causal_conv1d.py":258:27)
#loc98 = loc("/data/conda/envs/or_llm/lib/python3.12/site-packages/vllm/model_executor/layers/mamba/ops/causal_conv1d.py":259:42)
#loc99 = loc("/data/conda/envs/or_llm/lib/python3.12/site-packages/vllm/model_executor/layers/mamba/ops/causal_conv1d.py":259:49)
#loc100 = loc("/data/conda/envs/or_llm/lib/python3.12/site-packages/vllm/model_executor/layers/mamba/ops/causal_conv1d.py":259:65)
#loc101 = loc("/data/conda/envs/or_llm/lib/python3.12/site-packages/vllm/model_executor/layers/mamba/ops/causal_conv1d.py":259:22)
#loc102 = loc("/data/conda/envs/or_llm/lib/python3.12/site-packages/vllm/model_executor/layers/mamba/ops/causal_conv1d.py":263:46)
#loc103 = loc("/data/conda/envs/or_llm/lib/python3.12/site-packages/vllm/model_executor/layers/mamba/ops/causal_conv1d.py":263:49)
#loc104 = loc("/data/conda/envs/or_llm/lib/python3.12/site-packages/vllm/model_executor/layers/mamba/ops/causal_conv1d.py":264:47)
#loc105 = loc("/data/conda/envs/or_llm/lib/python3.12/site-packages/vllm/model_executor/layers/mamba/ops/causal_conv1d.py":264:55)
#loc106 = loc("/data/conda/envs/or_llm/lib/python3.12/site-packages/vllm/model_executor/layers/mamba/ops/causal_conv1d.py":264:22)
#loc107 = loc("/data/conda/envs/or_llm/lib/python3.12/site-packages/vllm/model_executor/layers/mamba/ops/causal_conv1d.py":265:22)
#loc108 = loc("/data/conda/envs/or_llm/lib/python3.12/site-packages/vllm/model_executor/layers/mamba/ops/causal_conv1d.py":267:51)
#loc109 = loc("/data/conda/envs/or_llm/lib/python3.12/site-packages/vllm/model_executor/layers/mamba/ops/causal_conv1d.py":269:16)
#loc110 = loc("/data/conda/envs/or_llm/lib/python3.12/site-packages/vllm/model_executor/layers/mamba/ops/causal_conv1d.py":271:38)
#loc111 = loc("/data/conda/envs/or_llm/lib/python3.12/site-packages/vllm/model_executor/layers/mamba/ops/causal_conv1d.py":275:41)
#loc112 = loc("/data/conda/envs/or_llm/lib/python3.12/site-packages/vllm/model_executor/layers/mamba/ops/causal_conv1d.py":275:64)
#loc113 = loc("/data/conda/envs/or_llm/lib/python3.12/site-packages/vllm/model_executor/layers/mamba/ops/causal_conv1d.py":275:22)
#loc114 = loc("/data/conda/envs/or_llm/lib/python3.12/site-packages/vllm/model_executor/layers/mamba/ops/causal_conv1d.py":277:42)
#loc115 = loc("/data/conda/envs/or_llm/lib/python3.12/site-packages/vllm/model_executor/layers/mamba/ops/causal_conv1d.py":277:53)
#loc116 = loc("/data/conda/envs/or_llm/lib/python3.12/site-packages/vllm/model_executor/layers/mamba/ops/causal_conv1d.py":277:64)
#loc117 = loc("/data/conda/envs/or_llm/lib/python3.12/site-packages/vllm/model_executor/layers/mamba/ops/causal_conv1d.py":280:66)
#loc118 = loc("/data/conda/envs/or_llm/lib/python3.12/site-packages/vllm/model_executor/layers/mamba/ops/causal_conv1d.py":284:47)
#loc119 = loc("/data/conda/envs/or_llm/lib/python3.12/site-packages/vllm/model_executor/layers/mamba/ops/causal_conv1d.py":286:34)
#loc120 = loc("/data/conda/envs/or_llm/lib/python3.12/site-packages/vllm/model_executor/layers/mamba/ops/causal_conv1d.py":289:27)
#loc121 = loc("/data/conda/envs/or_llm/lib/python3.12/site-packages/vllm/model_executor/layers/mamba/ops/causal_conv1d.py":290:42)
#loc122 = loc("/data/conda/envs/or_llm/lib/python3.12/site-packages/vllm/model_executor/layers/mamba/ops/causal_conv1d.py":290:49)
#loc123 = loc("/data/conda/envs/or_llm/lib/python3.12/site-packages/vllm/model_executor/layers/mamba/ops/causal_conv1d.py":290:65)
#loc124 = loc("/data/conda/envs/or_llm/lib/python3.12/site-packages/vllm/model_executor/layers/mamba/ops/causal_conv1d.py":290:22)
#loc125 = loc("/data/conda/envs/or_llm/lib/python3.12/site-packages/vllm/model_executor/layers/mamba/ops/causal_conv1d.py":294:46)
#loc126 = loc("/data/conda/envs/or_llm/lib/python3.12/site-packages/vllm/model_executor/layers/mamba/ops/causal_conv1d.py":294:49)
#loc127 = loc("/data/conda/envs/or_llm/lib/python3.12/site-packages/vllm/model_executor/layers/mamba/ops/causal_conv1d.py":295:47)
#loc128 = loc("/data/conda/envs/or_llm/lib/python3.12/site-packages/vllm/model_executor/layers/mamba/ops/causal_conv1d.py":295:55)
#loc129 = loc("/data/conda/envs/or_llm/lib/python3.12/site-packages/vllm/model_executor/layers/mamba/ops/causal_conv1d.py":295:22)
#loc130 = loc("/data/conda/envs/or_llm/lib/python3.12/site-packages/vllm/model_executor/layers/mamba/ops/causal_conv1d.py":296:35)
#loc131 = loc("/data/conda/envs/or_llm/lib/python3.12/site-packages/vllm/model_executor/layers/mamba/ops/causal_conv1d.py":296:40)
#loc132 = loc("/data/conda/envs/or_llm/lib/python3.12/site-packages/vllm/model_executor/layers/mamba/ops/causal_conv1d.py":296:22)
#loc133 = loc("/data/conda/envs/or_llm/lib/python3.12/site-packages/vllm/model_executor/layers/mamba/ops/causal_conv1d.py":298:57)
#loc134 = loc("/data/conda/envs/or_llm/lib/python3.12/site-packages/vllm/model_executor/layers/mamba/ops/causal_conv1d.py":302:41)
#loc135 = loc("/data/conda/envs/or_llm/lib/python3.12/site-packages/vllm/model_executor/layers/mamba/ops/causal_conv1d.py":302:64)
#loc136 = loc("/data/conda/envs/or_llm/lib/python3.12/site-packages/vllm/model_executor/layers/mamba/ops/causal_conv1d.py":302:22)
#loc137 = loc("/data/conda/envs/or_llm/lib/python3.12/site-packages/vllm/model_executor/layers/mamba/ops/causal_conv1d.py":304:42)
#loc138 = loc("/data/conda/envs/or_llm/lib/python3.12/site-packages/vllm/model_executor/layers/mamba/ops/causal_conv1d.py":304:53)
#loc139 = loc("/data/conda/envs/or_llm/lib/python3.12/site-packages/vllm/model_executor/layers/mamba/ops/causal_conv1d.py":304:64)
#loc140 = loc("/data/conda/envs/or_llm/lib/python3.12/site-packages/vllm/model_executor/layers/mamba/ops/causal_conv1d.py":307:66)
#loc141 = loc("/data/conda/envs/or_llm/lib/python3.12/site-packages/vllm/model_executor/layers/mamba/ops/causal_conv1d.py":312:48)
#loc142 = loc("/data/conda/envs/or_llm/lib/python3.12/site-packages/vllm/model_executor/layers/mamba/ops/causal_conv1d.py":312:53)
#loc143 = loc("/data/conda/envs/or_llm/lib/python3.12/site-packages/vllm/model_executor/layers/mamba/ops/causal_conv1d.py":312:32)
#loc144 = loc("/data/conda/envs/or_llm/lib/python3.12/site-packages/vllm/model_executor/layers/mamba/ops/causal_conv1d.py":313:29)
#loc145 = loc("/data/conda/envs/or_llm/lib/python3.12/site-packages/vllm/model_executor/layers/mamba/ops/causal_conv1d.py":324:53)
#loc146 = loc("/data/conda/envs/or_llm/lib/python3.12/site-packages/vllm/model_executor/layers/mamba/ops/causal_conv1d.py":325:46)
#loc147 = loc("/data/conda/envs/or_llm/lib/python3.12/site-packages/vllm/model_executor/layers/mamba/ops/causal_conv1d.py":326:53)
#loc148 = loc("/data/conda/envs/or_llm/lib/python3.12/site-packages/vllm/model_executor/layers/mamba/ops/causal_conv1d.py":327:46)
#loc149 = loc("/data/conda/envs/or_llm/lib/python3.12/site-packages/vllm/model_executor/layers/mamba/ops/causal_conv1d.py":328:53)
#loc150 = loc("/data/conda/envs/or_llm/lib/python3.12/site-packages/vllm/model_executor/layers/mamba/ops/causal_conv1d.py":347:27)
#loc151 = loc("/data/conda/envs/or_llm/lib/python3.12/site-packages/vllm/model_executor/layers/mamba/ops/causal_conv1d.py":347:32)
#loc152 = loc("/data/conda/envs/or_llm/lib/python3.12/site-packages/vllm/model_executor/layers/mamba/ops/causal_conv1d.py":347:11)
#loc153 = loc("/data/conda/envs/or_llm/lib/python3.12/site-packages/vllm/model_executor/layers/mamba/ops/causal_conv1d.py":353:29)
#loc154 = loc("/data/conda/envs/or_llm/lib/python3.12/site-packages/vllm/model_executor/layers/mamba/ops/causal_conv1d.py":353:16)
#loc155 = loc("/data/conda/envs/or_llm/lib/python3.12/site-packages/vllm/model_executor/layers/mamba/ops/causal_conv1d.py":356:37)
#loc156 = loc("/data/conda/envs/or_llm/lib/python3.12/site-packages/vllm/model_executor/layers/mamba/ops/causal_conv1d.py":356:53)
#loc157 = loc("/data/conda/envs/or_llm/lib/python3.12/site-packages/vllm/model_executor/layers/mamba/ops/causal_conv1d.py":356:18)
#loc158 = loc("/data/conda/envs/or_llm/lib/python3.12/site-packages/vllm/model_executor/layers/mamba/ops/causal_conv1d.py":357:45)
#loc159 = loc("/data/conda/envs/or_llm/lib/python3.12/site-packages/vllm/model_executor/layers/mamba/ops/causal_conv1d.py":357:18)
#loc160 = loc("/data/conda/envs/or_llm/lib/python3.12/site-packages/vllm/model_executor/layers/mamba/ops/causal_conv1d.py":360:41)
#loc161 = loc("/data/conda/envs/or_llm/lib/python3.12/site-packages/vllm/model_executor/layers/mamba/ops/causal_conv1d.py":360:44)
#loc162 = loc("/data/conda/envs/or_llm/lib/python3.12/site-packages/vllm/model_executor/layers/mamba/ops/causal_conv1d.py":361:16)
#loc163 = loc("/data/conda/envs/or_llm/lib/python3.12/site-packages/vllm/model_executor/layers/mamba/ops/causal_conv1d.py":360:55)
#loc164 = loc("/data/conda/envs/or_llm/lib/python3.12/site-packages/vllm/model_executor/layers/mamba/ops/causal_conv1d.py":363:47)
#loc165 = loc("/data/conda/envs/or_llm/lib/python3.12/site-packages/vllm/model_executor/layers/mamba/ops/causal_conv1d.py":371:19)
#loc166 = loc("/data/conda/envs/or_llm/lib/python3.12/site-packages/vllm/model_executor/layers/mamba/ops/causal_conv1d.py":368:16)
#loc167 = loc("/data/conda/envs/or_llm/lib/python3.12/site-packages/vllm/model_executor/layers/mamba/ops/causal_conv1d.py":372:17)
#loc168 = loc("/data/conda/envs/or_llm/lib/python3.12/site-packages/vllm/model_executor/layers/mamba/ops/causal_conv1d.py":376:46)
#loc169 = loc("/data/conda/envs/or_llm/lib/python3.12/site-packages/vllm/model_executor/layers/mamba/ops/causal_conv1d.py":376:19)
#loc170 = loc("/data/conda/envs/or_llm/lib/python3.12/site-packages/vllm/model_executor/layers/mamba/ops/causal_conv1d.py":377:19)
#loc171 = loc("/data/conda/envs/or_llm/lib/python3.12/site-packages/vllm/model_executor/layers/mamba/ops/causal_conv1d.py":378:14)
#loc172 = loc("/data/conda/envs/or_llm/lib/python3.12/site-packages/vllm/model_executor/layers/mamba/ops/causal_conv1d.py":379:34)
#loc173 = loc("/data/conda/envs/or_llm/lib/python3.12/site-packages/vllm/model_executor/layers/mamba/ops/causal_conv1d.py":380:14)
#loc174 = loc("/data/conda/envs/or_llm/lib/python3.12/site-packages/vllm/model_executor/layers/mamba/ops/causal_conv1d.py":378:25)
#loc175 = loc("/data/conda/envs/or_llm/lib/python3.12/site-packages/vllm/model_executor/layers/mamba/ops/causal_conv1d.py":382:38)
#loc176 = loc("/data/conda/envs/or_llm/lib/python3.12/site-packages/vllm/model_executor/layers/mamba/ops/causal_conv1d.py":382:49)
#loc177 = loc("/data/conda/envs/or_llm/lib/python3.12/site-packages/vllm/model_executor/layers/mamba/ops/causal_conv1d.py":382:60)
#loc178 = loc("/data/conda/envs/or_llm/lib/python3.12/site-packages/vllm/model_executor/layers/mamba/ops/causal_conv1d.py":383:12)
#loc179 = loc("/data/conda/envs/or_llm/lib/python3.12/site-packages/vllm/model_executor/layers/mamba/ops/causal_conv1d.py":384:56)
#loc180 = loc("/data/conda/envs/or_llm/lib/python3.12/site-packages/vllm/model_executor/layers/mamba/ops/causal_conv1d.py":395:40)
#loc181 = loc("/data/conda/envs/or_llm/lib/python3.12/site-packages/vllm/model_executor/layers/mamba/ops/causal_conv1d.py":395:25)
#loc182 = loc("/data/conda/envs/or_llm/lib/python3.12/site-packages/vllm/model_executor/layers/mamba/ops/causal_conv1d.py":398:25)
#loc183 = loc("/data/conda/envs/or_llm/lib/python3.12/site-packages/vllm/model_executor/layers/mamba/ops/causal_conv1d.py":401:33)
#loc184 = loc("/data/conda/envs/or_llm/lib/python3.12/site-packages/vllm/model_executor/layers/mamba/ops/causal_conv1d.py":402:27)
#loc185 = loc("/data/conda/envs/or_llm/lib/python3.12/site-packages/vllm/model_executor/layers/mamba/ops/causal_conv1d.py":403:33)
#loc186 = loc("/data/conda/envs/or_llm/lib/python3.12/site-packages/vllm/model_executor/layers/mamba/ops/causal_conv1d.py":405:27)
#loc187 = loc("/data/conda/envs/or_llm/lib/python3.12/site-packages/vllm/model_executor/layers/mamba/ops/causal_conv1d.py":406:33)
#loc188 = loc("/data/conda/envs/or_llm/lib/python3.12/site-packages/vllm/model_executor/layers/mamba/ops/causal_conv1d.py":408:27)
#loc189 = loc("/data/conda/envs/or_llm/lib/python3.12/site-packages/vllm/model_executor/layers/mamba/ops/causal_conv1d.py":409:33)
#loc190 = loc("/data/conda/envs/or_llm/lib/python3.12/site-packages/vllm/model_executor/layers/mamba/ops/causal_conv1d.py":411:27)
#loc191 = loc("/data/conda/envs/or_llm/lib/python3.12/site-packages/vllm/model_executor/layers/mamba/ops/causal_conv1d.py":442:30)
#loc192 = loc("/data/conda/envs/or_llm/lib/python3.12/site-packages/vllm/model_executor/layers/mamba/ops/causal_conv1d.py":442:19)
#loc193 = loc("/data/conda/envs/or_llm/lib/python3.12/site-packages/vllm/model_executor/layers/mamba/ops/causal_conv1d.py":439:56)
#loc194 = loc("/data/conda/envs/or_llm/lib/python3.12/site-packages/vllm/model_executor/layers/mamba/ops/causal_conv1d.py":439:44)
#loc195 = loc("/data/conda/envs/or_llm/lib/python3.12/site-packages/vllm/model_executor/layers/mamba/ops/causal_conv1d.py":440:39)
#loc196 = loc("/data/conda/envs/or_llm/lib/python3.12/site-packages/vllm/model_executor/layers/mamba/ops/causal_conv1d.py":455:37)
#loc197 = loc("/data/conda/envs/or_llm/lib/python3.12/site-packages/vllm/model_executor/layers/mamba/ops/causal_conv1d.py":455:36)
#loc198 = loc("/data/conda/envs/or_llm/lib/python3.12/site-packages/vllm/model_executor/layers/mamba/ops/causal_conv1d.py":455:29)
#loc199 = loc("/data/conda/envs/or_llm/lib/python3.12/site-packages/vllm/model_executor/layers/mamba/ops/causal_conv1d.py":455:25)
#loc200 = loc("/data/conda/envs/or_llm/lib/python3.12/site-packages/vllm/model_executor/layers/mamba/ops/causal_conv1d.py":456:31)
#loc201 = loc("/data/conda/envs/or_llm/lib/python3.12/site-packages/vllm/model_executor/layers/mamba/ops/causal_conv1d.py":457:12)
#loc202 = loc("/data/conda/envs/or_llm/lib/python3.12/site-packages/vllm/model_executor/layers/mamba/ops/causal_conv1d.py":461:38)
#loc203 = loc("/data/conda/envs/or_llm/lib/python3.12/site-packages/vllm/model_executor/layers/mamba/ops/causal_conv1d.py":461:53)
#loc204 = loc("/data/conda/envs/or_llm/lib/python3.12/site-packages/vllm/model_executor/layers/mamba/ops/causal_conv1d.py":461:66)
#loc205 = loc("/data/conda/envs/or_llm/lib/python3.12/site-packages/vllm/model_executor/layers/mamba/ops/causal_conv1d.py":461:14)
#loc206 = loc("/data/conda/envs/or_llm/lib/python3.12/site-packages/vllm/model_executor/layers/mamba/ops/causal_conv1d.py":462:15)
#loc207 = loc("/data/conda/envs/or_llm/lib/python3.12/site-packages/vllm/model_executor/layers/mamba/ops/causal_conv1d.py":465:25)
#loc208 = loc("/data/conda/envs/or_llm/lib/python3.12/site-packages/vllm/model_executor/layers/mamba/ops/causal_conv1d.py":465:8)
#loc209 = loc("/data/conda/envs/or_llm/lib/python3.12/site-packages/vllm/model_executor/layers/mamba/ops/causal_conv1d.py":411:4)
#loc220 = loc("idx_seq"(#loc2))
#loc221 = loc("idx_seq"(#loc3))
#loc222 = loc("idx_seq"(#loc4))
#loc223 = loc("idx_seq"(#loc5))
#loc224 = loc("chunk_offset"(#loc6))
#loc225 = loc("chunk_offset"(#loc7))
#loc226 = loc("idx_feats"(#loc8))
#loc227 = loc("idx_feats"(#loc9))
#loc228 = loc("idx_feats"(#loc10))
#loc229 = loc("idx_feats"(#loc11))
#loc230 = loc("sequence_start_index"(#loc14))
#loc231 = loc("sequence_start_index"(#loc15))
#loc232 = loc("sequence_end_index"(#loc16))
#loc233 = loc("sequence_end_index"(#loc17))
#loc234 = loc("seqlen"(#loc18))
#loc235 = loc("token_offset"(#loc19))
#loc236 = loc("segment_len"(#loc20))
#loc237 = loc("segment_len"(#loc21))
#loc238 = loc("x_base"(#loc22))
#loc239 = loc("x_base"(#loc23))
#loc240 = loc("x_base"(#loc24))
#loc241 = loc("conv_states_input_coord"(#loc25))
#loc242 = loc("conv_states_input_coord"(#loc26))
#loc243 = loc("conv_states_input_coord"(#loc27))
#loc244 = loc("conv_states_base"(#loc29))
#loc245 = loc("conv_states_base"(#loc30))
#loc246 = loc("conv_states_base"(#loc31))
#loc247 = loc("w_base"(#loc32))
#loc248 = loc("w_base"(#loc33))
#loc249 = loc("load_init_state"(#loc36))
#loc250 = loc("load_init_state"(#loc37))
#loc251 = loc("col0"(#loc38))
#loc252 = loc("prior_tokens"(#loc39))
#loc253 = loc("mask_w"(#loc40))
#loc254 = loc("col2"(#loc41))
#loc255 = loc("conv_states_ptrs"(#loc42))
#loc256 = loc("col1"(#loc43))
#loc257 = loc("col0"(#loc44))
#loc258 = loc("col2"(#loc45))
#loc259 = loc("idx_tokens_last"(#loc48))
#loc260 = loc("idx_tokens_last"(#loc49))
#loc261 = loc("idx_tokens_last"(#loc50))
#loc262 = loc("x_ptrs"(#loc51))
#loc263 = loc("x_ptrs"(#loc52))
#loc264 = loc("x_ptrs"(#loc53))
#loc265 = loc("x_ptrs"(#loc54))
#loc266 = loc("x_ptrs"(#loc55))
#loc267 = loc("x_ptrs"(#loc56))
#loc268 = loc("mask_x"(#loc57))
#loc269 = loc("mask_x"(#loc58))
#loc270 = loc("mask_x"(#loc59))
#loc271 = loc("mask_x"(#loc60))
#loc272 = loc("mask_x"(#loc61))
#loc273 = loc("mask_x"(#loc62))
#loc274 = loc("mask_x"(#loc63))
#loc275 = loc("mask_x"(#loc64))
#loc276 = loc("loaded_x"(#loc65))
#loc277 = loc("conv_states_output_coord"(#loc66))
#loc278 = loc("conv_states_output_coord"(#loc67))
#loc279 = loc("conv_states_ptrs_target"(#loc68))
#loc280 = loc("conv_states_ptrs_target"(#loc69))
#loc281 = loc("conv_states_ptrs_target"(#loc70))
#loc282 = loc("conv_states_ptrs_target"(#loc71))
#loc283 = loc("conv_states_ptrs_target"(#loc72))
#loc284 = loc("conv_states_ptrs_target"(#loc73))
#loc285 = loc("conv_states_ptrs_target"(#loc74))
#loc286 = loc("mask"(#loc75))
#loc287 = loc("mask"(#loc76))
#loc288 = loc("mask"(#loc77))
#loc289 = loc("conv_states_ptrs_target"(#loc80))
#loc290 = loc("idx_tokens_conv"(#loc81))
#loc291 = loc("conv_states_ptrs_source"(#loc82))
#loc292 = loc("conv_states_ptrs_source"(#loc83))
#loc293 = loc("conv_states_ptrs_source"(#loc84))
#loc294 = loc("conv_states_ptrs_source"(#loc85))
#loc295 = loc("conv_states_ptrs_source"(#loc86))
#loc296 = loc("conv_states_ptrs_source"(#loc87))
#loc297 = loc("mask"(#loc88))
#loc298 = loc("mask"(#loc89))
#loc299 = loc("mask"(#loc90))
#loc300 = loc("mask"(#loc91))
#loc301 = loc("mask"(#loc92))
#loc302 = loc("mask"(#loc93))
#loc303 = loc("mask"(#loc94))
#loc304 = loc("conv_state"(#loc95))
#loc305 = loc("VAL"(#loc96))
#loc306 = loc("x_ptrs"(#loc97))
#loc307 = loc("x_ptrs"(#loc98))
#loc308 = loc("x_ptrs"(#loc99))
#loc309 = loc("x_ptrs"(#loc100))
#loc310 = loc("x_ptrs"(#loc101))
#loc311 = loc("mask_x"(#loc102))
#loc312 = loc("mask_x"(#loc103))
#loc313 = loc("mask_x"(#loc104))
#loc314 = loc("mask_x"(#loc105))
#loc315 = loc("mask_x"(#loc106))
#loc316 = loc("mask_x"(#loc107))
#loc317 = loc("loaded_x"(#loc108))
#loc318 = loc("new_conv_state"(#loc110))
#loc319 = loc("conv_states_ptrs_target"(#loc111))
#loc320 = loc("conv_states_ptrs_target"(#loc112))
#loc321 = loc("conv_states_ptrs_target"(#loc113))
#loc322 = loc("mask"(#loc114))
#loc323 = loc("mask"(#loc115))
#loc324 = loc("mask"(#loc116))
#loc325 = loc("idx_tokens_conv"(#loc118))
#loc326 = loc("VAL"(#loc119))
#loc327 = loc("x_ptrs"(#loc120))
#loc328 = loc("x_ptrs"(#loc121))
#loc329 = loc("x_ptrs"(#loc122))
#loc330 = loc("x_ptrs"(#loc123))
#loc331 = loc("x_ptrs"(#loc124))
#loc332 = loc("mask_x"(#loc125))
#loc333 = loc("mask_x"(#loc126))
#loc334 = loc("mask_x"(#loc127))
#loc335 = loc("mask_x"(#loc128))
#loc336 = loc("mask_x"(#loc129))
#loc337 = loc("mask_x"(#loc130))
#loc338 = loc("mask_x"(#loc131))
#loc339 = loc("mask_x"(#loc132))
#loc340 = loc("new_conv_state"(#loc133))
#loc341 = loc("conv_states_ptrs_target"(#loc134))
#loc342 = loc("conv_states_ptrs_target"(#loc135))
#loc343 = loc("conv_states_ptrs_target"(#loc136))
#loc344 = loc("mask"(#loc137))
#loc345 = loc("mask"(#loc138))
#loc346 = loc("mask"(#loc139))
#loc347 = loc("prior_tokens"(#loc141))
#loc348 = loc("prior_tokens"(#loc142))
#loc349 = loc("prior_tokens"(#loc143))
#loc350 = loc("mask_w"(#loc144))
#loc351 = loc("col2"(#loc145))
#loc352 = loc("conv_states_ptrs"(#loc146))
#loc353 = loc("col1"(#loc147))
#loc354 = loc("conv_states_ptrs"(#loc148))
#loc355 = loc("col0"(#loc149))
#loc356 = loc("idx_tokens_last"(#loc153))
#loc357 = loc("idx_tokens_last"(#loc154))
#loc358 = loc("x_ptrs"(#loc155))
#loc359 = loc("x_ptrs"(#loc156))
#loc360 = loc("x_ptrs"(#loc157))
#loc361 = loc("x_ptrs"(#loc158))
#loc362 = loc("x_ptrs"(#loc159))
#loc363 = loc("mask_x"(#loc160))
#loc364 = loc("mask_x"(#loc161))
#loc365 = loc("mask_x"(#loc162))
#loc366 = loc("mask_x"(#loc163))
#loc367 = loc("loaded_x"(#loc164))
#loc368 = loc("conv_states_output_coord"(#loc165))
#loc369 = loc("conv_states_output_coord"(#loc166))
#loc370 = loc("conv_states_output_coord"(#loc167))
#loc371 = loc("conv_states_ptrs_target"(#loc168))
#loc372 = loc("conv_states_ptrs_target"(#loc169))
#loc373 = loc("conv_states_ptrs_target"(#loc170))
#loc374 = loc("conv_states_ptrs_target"(#loc171))
#loc375 = loc("conv_states_ptrs_target"(#loc172))
#loc376 = loc("conv_states_ptrs_target"(#loc173))
#loc377 = loc("conv_states_ptrs_target"(#loc174))
#loc378 = loc("mask"(#loc175))
#loc379 = loc("mask"(#loc176))
#loc380 = loc("mask"(#loc177))
#loc381 = loc("x_base_1d"(#loc180))
#loc382 = loc("x_base_1d"(#loc181))
#loc383 = loc("mask_w"(#loc182))
#loc384 = loc("w_col0"(#loc183))
#loc385 = loc("w_ptrs"(#loc184))
#loc386 = loc("w_col1"(#loc185))
#loc387 = loc("w_ptrs"(#loc186))
#loc388 = loc("w_col2"(#loc187))
#loc389 = loc("w_ptrs"(#loc188))
#loc390 = loc("w_col3"(#loc189))
#loc391 = loc("col0"(#loc190))
#loc392 = loc("acc"(#loc191))
#loc393 = loc("acc"(#loc192))
#loc394 = loc("x_ptrs_1d"(#loc193))
#loc395 = loc("x_ptrs_1d"(#loc194))
#loc396 = loc("matrix_x"(#loc195))
#loc397 = loc("acc"(#loc196))
#loc398 = loc("acc"(#loc197))
#loc399 = loc("acc"(#loc198))
#loc400 = loc("acc"(#loc199))
#loc401 = loc("mask_1d"(#loc200))
#loc402 = loc("mask_1d"(#loc201))
#loc403 = loc("o_ptrs"(#loc202))
#loc404 = loc("o_ptrs"(#loc203))
#loc405 = loc("o_ptrs"(#loc204))
#loc406 = loc("o_ptrs"(#loc205))
#loc407 = loc("o_ptrs"(#loc206))
#loc408 = loc("load_init_state"(#loc250))
#loc409 = loc("col1"(#loc251))
#loc410 = loc("col2"(#loc254))
#loc411 = loc(fused[#loc255, #loc252])
#loc412 = loc("col1"(#loc256))
#loc413 = loc("col0"(#loc257))
#loc414 = loc("x_ptrs"(#loc267))
#loc415 = loc("mask_x"(#loc275))
#loc416 = loc("conv_states_ptrs_target"(#loc285))
#loc417 = loc("mask"(#loc288))
#loc418 = loc("idx_tokens_conv"(#loc289))
#loc419 = loc("idx_tokens_conv"(#loc290))
#loc420 = loc("VAL"(#loc305))
#loc421 = loc("x_ptrs"(#loc310))
#loc422 = loc("mask_x"(#loc316))
#loc423 = loc("new_conv_state"(#loc318))
#loc424 = loc("conv_states_ptrs_target"(#loc321))
#loc425 = loc("mask"(#loc324))
#loc426 = loc("idx_tokens_conv"(#loc325))
#loc427 = loc("VAL"(#loc326))
#loc428 = loc("x_ptrs"(#loc331))
#loc429 = loc("mask_x"(#loc339))
#loc430 = loc("new_conv_state"(#loc340))
#loc431 = loc("conv_states_ptrs_target"(#loc343))
#loc432 = loc("mask"(#loc346))
#loc433 = loc("col2"(#loc351))
#loc434 = loc("col1"(#loc353))
#loc435 = loc("col0"(#loc355))
#loc436 = loc("col1"(#loc391))
#loc437 = loc("col2"(#loc409))
#loc438 = loc("mask"(#loc418))
#loc439 = loc("col2"(#loc436))
#loc440 = loc("mask_x"(#loc438))
#loc441 = loc("x_ptrs"(#loc440))
