#loc = loc("/data/jcy/zzs/zijinhua/.vllm_cache_simplevqa/torch_compile/lx/clxrkkkrblf5hjd4urjeoo4vgkrojg4dgkvbvqgojumbjh5xceia.py":18:0)
#loc53 = loc("/data/conda/envs/or_llm/lib/python3.12/site-packages/triton/language/standard.py":287:0)
#loc55 = loc(unknown)
#loc58 = loc("/data/conda/envs/or_llm/lib/python3.12/site-packages/triton/language/standard.py":262:0)
#loc62 = loc("in_ptr0"(#loc))
#loc63 = loc("in_ptr1"(#loc))
#loc64 = loc("out_ptr1"(#loc))
#loc65 = loc("ks0"(#loc))
#loc66 = loc("xnumel"(#loc))
#loc67 = loc("r0_numel"(#loc))
#loc112 = loc("input"(#loc53))
#loc113 = loc("a"(#loc58))
#loc114 = loc("b"(#loc58))
module {
  tt.func public @triton_red_fused__to_copy_add_mean_mul_pow_rsqrt_0(%in_ptr0: !tt.ptr<bf16> {tt.divisibility = 16 : i32} loc("in_ptr0"(#loc)), %in_ptr1: !tt.ptr<bf16> {tt.divisibility = 16 : i32} loc("in_ptr1"(#loc)), %out_ptr1: !tt.ptr<bf16> {tt.divisibility = 16 : i32} loc("out_ptr1"(#loc)), %ks0: i64 loc("ks0"(#loc)), %xnumel: i32 loc("xnumel"(#loc)), %r0_numel: i32 loc("r0_numel"(#loc))) attributes {noinline = false} {
    %xoffset = tt.get_program_id x : i32 loc(#loc68)
    %xoffset_0 = arith.constant 2 : i32 loc(#loc69)
    %xoffset_1 = arith.constant 2 : i32 loc(#loc69)
    %xoffset_2 = arith.muli %xoffset, %xoffset_1 : i32 loc(#loc69)
    %xindex = tt.make_range {end = 2 : i32, start = 0 : i32} : tensor<2xi32> loc(#loc70)
    %xindex_3 = tt.expand_dims %xindex {axis = 1 : i32} : tensor<2xi32> -> tensor<2x1xi32> loc(#loc71)
    %xindex_4 = tt.splat %xoffset_2 : i32 -> tensor<2x1xi32> loc(#loc72)
    %xindex_5 = arith.addi %xindex_4, %xindex_3 : tensor<2x1xi32> loc(#loc72)
    %xmask = tt.splat %xnumel : i32 -> tensor<2x1xi32> loc(#loc73)
    %xmask_6 = arith.cmpi slt, %xindex_5, %xmask : tensor<2x1xi32> loc(#loc73)
    %r0_base = tt.make_range {end = 128 : i32, start = 0 : i32} : tensor<128xi32> loc(#loc74)
    %r0_base_7 = tt.expand_dims %r0_base {axis = 0 : i32} : tensor<128xi32> -> tensor<1x128xi32> loc(#loc75)
    %_tmp4 = arith.constant 0.000000e+00 : f32 loc(#loc76)
    %_tmp4_8 = arith.constant dense<0.000000e+00> : tensor<2x128xf32> loc(#loc76)
    %c0_i32 = arith.constant 0 : i32 loc(#loc10)
    %c128_i32 = arith.constant 128 : i32 loc(#loc10)
    %0 = arith.bitcast %c0_i32 : i32 to i32 loc(#loc10)
    %1 = arith.bitcast %r0_numel : i32 to i32 loc(#loc10)
    %2 = arith.bitcast %c128_i32 : i32 to i32 loc(#loc10)
    %3 = ub.poison : i32 loc(#loc10)
    %_tmp4_9 = scf.for %r0_offset = %0 to %1 step %2 iter_args(%_tmp4_13 = %_tmp4_8) -> (tensor<2x128xf32>)  : i32 {
      %r0_index = tt.splat %r0_offset : i32 -> tensor<1x128xi32> loc(#loc78)
      %r0_index_14 = arith.addi %r0_index, %r0_base_7 : tensor<1x128xi32> loc(#loc78)
      %r0_mask = tt.splat %r0_numel : i32 -> tensor<1x128xi32> loc(#loc79)
      %r0_mask_15 = arith.cmpi slt, %r0_index_14, %r0_mask : tensor<1x128xi32> loc(#loc79)
      %tmp0 = arith.extsi %xindex_5 : tensor<2x1xi32> to tensor<2x1xi64> loc(#loc80)
      %tmp0_16 = tt.splat %ks0 : i64 -> tensor<2x1xi64> loc(#loc80)
      %tmp0_17 = arith.muli %tmp0_16, %tmp0 : tensor<2x1xi64> loc(#loc80)
      %tmp0_18 = arith.extsi %r0_index_14 : tensor<1x128xi32> to tensor<1x128xi64> loc(#loc81)
      %tmp0_19 = tt.broadcast %tmp0_18 : tensor<1x128xi64> -> tensor<2x128xi64> loc(#loc81)
      %tmp0_20 = tt.broadcast %tmp0_17 : tensor<2x1xi64> -> tensor<2x128xi64> loc(#loc81)
      %tmp0_21 = arith.addi %tmp0_19, %tmp0_20 : tensor<2x128xi64> loc(#loc81)
      %tmp0_22 = tt.splat %in_ptr0 : !tt.ptr<bf16> -> tensor<2x128x!tt.ptr<bf16>> loc(#loc82)
      %tmp0_23 = tt.addptr %tmp0_22, %tmp0_21 : tensor<2x128x!tt.ptr<bf16>>, tensor<2x128xi64> loc(#loc82)
      %tmp0_24 = tt.broadcast %r0_mask_15 : tensor<1x128xi1> -> tensor<2x128xi1> loc(#loc83)
      %tmp0_25 = tt.broadcast %xmask_6 : tensor<2x1xi1> -> tensor<2x128xi1> loc(#loc83)
      %tmp0_26 = arith.andi %tmp0_24, %tmp0_25 : tensor<2x128xi1> loc(#loc83)
      %tmp0_27 = arith.constant 0.000000e+00 : f32 loc(#loc84)
      %tmp0_28 = arith.constant dense<0.000000e+00> : tensor<2x128xf32> loc(#loc84)
      %tmp0_29 = arith.truncf %tmp0_28 : tensor<2x128xf32> to tensor<2x128xbf16> loc(#loc84)
      %tmp0_30 = tt.load %tmp0_23, %tmp0_26, %tmp0_29 evictionPolicy = evict_last : tensor<2x128x!tt.ptr<bf16>> loc(#loc84)
      %tmp0_31 = arith.extf %tmp0_30 : tensor<2x128xbf16> to tensor<2x128xf32> loc(#loc85)
      %tmp2 = arith.mulf %tmp0_31, %tmp0_31 : tensor<2x128xf32> loc(#loc86)
      %tmp5 = arith.addf %_tmp4_13, %tmp2 : tensor<2x128xf32> loc(#loc87)
      %_tmp4_32 = tt.broadcast %r0_mask_15 : tensor<1x128xi1> -> tensor<2x128xi1> loc(#loc88)
      %_tmp4_33 = tt.broadcast %xmask_6 : tensor<2x1xi1> -> tensor<2x128xi1> loc(#loc88)
      %_tmp4_34 = arith.andi %_tmp4_32, %_tmp4_33 : tensor<2x128xi1> loc(#loc88)
      %_tmp4_35 = arith.select %_tmp4_34, %tmp5, %_tmp4_13 : tensor<2x128xi1>, tensor<2x128xf32> loc(#loc89)
      scf.yield %_tmp4_35 : tensor<2x128xf32> loc(#loc23)
    } loc(#loc77)
    %tmp4 = tt.call @"triton.language.standard.sum__fp32S2_128S__(1,)cconstexpr_1__(2,)cconstexpr_False__(3,)cNone"(%_tmp4_9) : (tensor<2x128xf32>) -> tensor<2xf32> loc(#loc90)
    %tmp4_10 = tt.expand_dims %tmp4 {axis = 1 : i32} : tensor<2xf32> -> tensor<2x1xf32> loc(#loc91)
    %c0_i32_11 = arith.constant 0 : i32 loc(#loc26)
    %c128_i32_12 = arith.constant 128 : i32 loc(#loc26)
    %4 = arith.bitcast %c0_i32_11 : i32 to i32 loc(#loc26)
    %5 = arith.bitcast %r0_numel : i32 to i32 loc(#loc26)
    %6 = arith.bitcast %c128_i32_12 : i32 to i32 loc(#loc26)
    %7 = ub.poison : i32 loc(#loc26)
    scf.for %r0_offset = %4 to %5 step %6  : i32 {
      %r0_index = tt.splat %r0_offset : i32 -> tensor<1x128xi32> loc(#loc92)
      %r0_index_13 = arith.addi %r0_index, %r0_base_7 : tensor<1x128xi32> loc(#loc92)
      %r0_mask = tt.splat %r0_numel : i32 -> tensor<1x128xi32> loc(#loc93)
      %r0_mask_14 = arith.cmpi slt, %r0_index_13, %r0_mask : tensor<1x128xi32> loc(#loc93)
      %tmp6 = arith.extsi %xindex_5 : tensor<2x1xi32> to tensor<2x1xi64> loc(#loc94)
      %tmp6_15 = tt.splat %ks0 : i64 -> tensor<2x1xi64> loc(#loc94)
      %tmp6_16 = arith.muli %tmp6_15, %tmp6 : tensor<2x1xi64> loc(#loc94)
      %tmp6_17 = arith.extsi %r0_index_13 : tensor<1x128xi32> to tensor<1x128xi64> loc(#loc95)
      %tmp6_18 = tt.broadcast %tmp6_17 : tensor<1x128xi64> -> tensor<2x128xi64> loc(#loc95)
      %tmp6_19 = tt.broadcast %tmp6_16 : tensor<2x1xi64> -> tensor<2x128xi64> loc(#loc95)
      %tmp6_20 = arith.addi %tmp6_18, %tmp6_19 : tensor<2x128xi64> loc(#loc95)
      %tmp6_21 = tt.splat %in_ptr0 : !tt.ptr<bf16> -> tensor<2x128x!tt.ptr<bf16>> loc(#loc96)
      %tmp6_22 = tt.addptr %tmp6_21, %tmp6_20 : tensor<2x128x!tt.ptr<bf16>>, tensor<2x128xi64> loc(#loc96)
      %tmp6_23 = tt.broadcast %r0_mask_14 : tensor<1x128xi1> -> tensor<2x128xi1> loc(#loc97)
      %tmp6_24 = tt.broadcast %xmask_6 : tensor<2x1xi1> -> tensor<2x128xi1> loc(#loc97)
      %tmp6_25 = arith.andi %tmp6_23, %tmp6_24 : tensor<2x128xi1> loc(#loc97)
      %tmp6_26 = arith.constant 0.000000e+00 : f32 loc(#loc98)
      %tmp6_27 = arith.constant dense<0.000000e+00> : tensor<2x128xf32> loc(#loc98)
      %tmp6_28 = arith.truncf %tmp6_27 : tensor<2x128xf32> to tensor<2x128xbf16> loc(#loc98)
      %tmp6_29 = tt.load %tmp6_22, %tmp6_25, %tmp6_28 evictionPolicy = evict_first : tensor<2x128x!tt.ptr<bf16>> loc(#loc98)
      %tmp6_30 = arith.extf %tmp6_29 : tensor<2x128xbf16> to tensor<2x128xf32> loc(#loc99)
      %tmp15 = tt.splat %in_ptr1 : !tt.ptr<bf16> -> tensor<1x128x!tt.ptr<bf16>> loc(#loc100)
      %tmp15_31 = tt.addptr %tmp15, %r0_index_13 : tensor<1x128x!tt.ptr<bf16>>, tensor<1x128xi32> loc(#loc100)
      %tmp15_32 = arith.constant 0.000000e+00 : f32 loc(#loc101)
      %tmp15_33 = arith.constant dense<0.000000e+00> : tensor<1x128xf32> loc(#loc101)
      %tmp15_34 = arith.truncf %tmp15_33 : tensor<1x128xf32> to tensor<1x128xbf16> loc(#loc101)
      %tmp15_35 = tt.load %tmp15_31, %r0_mask_14, %tmp15_34 evictionPolicy = evict_last : tensor<1x128x!tt.ptr<bf16>> loc(#loc101)
      %tmp15_36 = arith.extf %tmp15_35 : tensor<1x128xbf16> to tensor<1x128xf32> loc(#loc102)
      %tmp9 = arith.sitofp %ks0 : i64 to f32 loc(#loc103)
      %tmp10 = tt.splat %tmp9 : f32 -> tensor<2x1xf32> loc(#loc104)
      %tmp10_37 = arith.divf %tmp4_10, %tmp10 : tensor<2x1xf32> loc(#loc104)
      %tmp11 = arith.constant 9.99999997E-7 : f32 loc(#loc105)
      %tmp12 = arith.constant dense<9.99999997E-7> : tensor<2x1xf32> loc(#loc106)
      %tmp12_38 = arith.addf %tmp10_37, %tmp12 : tensor<2x1xf32> loc(#loc106)
      %tmp13 = tt.extern_elementwise %tmp12_38 {libname = "", libpath = "", pure = true, symbol = "__nv_rsqrtf"} : (tensor<2x1xf32>) -> tensor<2x1xf32> loc(#loc107)
      %tmp14 = tt.broadcast %tmp13 : tensor<2x1xf32> -> tensor<2x128xf32> loc(#loc108)
      %tmp14_39 = arith.mulf %tmp6_30, %tmp14 : tensor<2x128xf32> loc(#loc108)
      %tmp17 = arith.constant 1.000000e+00 : f32 loc(#loc109)
      %tmp18 = arith.constant dense<1.000000e+00> : tensor<1x128xf32> loc(#loc110)
      %tmp18_40 = arith.addf %tmp15_36, %tmp18 : tensor<1x128xf32> loc(#loc110)
      %tmp19 = tt.broadcast %tmp18_40 : tensor<1x128xf32> -> tensor<2x128xf32> loc(#loc111)
      %tmp19_41 = arith.mulf %tmp14_39, %tmp19 : tensor<2x128xf32> loc(#loc111)
      %8 = arith.extsi %xindex_5 : tensor<2x1xi32> to tensor<2x1xi64> loc(#loc47)
      %9 = tt.splat %ks0 : i64 -> tensor<2x1xi64> loc(#loc47)
      %10 = arith.muli %9, %8 : tensor<2x1xi64> loc(#loc47)
      %11 = arith.extsi %r0_index_13 : tensor<1x128xi32> to tensor<1x128xi64> loc(#loc48)
      %12 = tt.broadcast %11 : tensor<1x128xi64> -> tensor<2x128xi64> loc(#loc48)
      %13 = tt.broadcast %10 : tensor<2x1xi64> -> tensor<2x128xi64> loc(#loc48)
      %14 = arith.addi %12, %13 : tensor<2x128xi64> loc(#loc48)
      %15 = tt.splat %out_ptr1 : !tt.ptr<bf16> -> tensor<2x128x!tt.ptr<bf16>> loc(#loc49)
      %16 = tt.addptr %15, %14 : tensor<2x128x!tt.ptr<bf16>>, tensor<2x128xi64> loc(#loc49)
      %17 = tt.broadcast %r0_mask_14 : tensor<1x128xi1> -> tensor<2x128xi1> loc(#loc50)
      %18 = tt.broadcast %xmask_6 : tensor<2x1xi1> -> tensor<2x128xi1> loc(#loc50)
      %19 = arith.andi %17, %18 : tensor<2x128xi1> loc(#loc50)
      %20 = arith.truncf %tmp19_41 : tensor<2x128xf32> to tensor<2x128xbf16> loc(#loc51)
      tt.store %16, %20, %19 : tensor<2x128x!tt.ptr<bf16>> loc(#loc51)
    } loc(#loc26)
    tt.return loc(#loc52)
  } loc(#loc)
  tt.func private @"triton.language.standard.sum__fp32S2_128S__(1,)cconstexpr_1__(2,)cconstexpr_False__(3,)cNone"(%input: tensor<2x128xf32> loc("input"(#loc53))) -> tensor<2xf32> attributes {noinline = false} {
    %0 = "tt.reduce"(%input) <{axis = 1 : i32}> ({
    ^bb0(%arg1: f32 loc(unknown), %arg2: f32 loc(unknown)):
      %2 = tt.call @triton.language.standard._sum_combine__fp32_fp32__(%arg1, %arg2) : (f32, f32) -> f32 loc(#loc54)
      tt.reduce.return %2 : f32 loc(#loc54)
    }) : (tensor<2x128xf32>) -> tensor<2xf32> loc(#loc54)
    tt.return %0 : tensor<2xf32> loc(#loc56)
  ^bb1:  // no predecessors
    %1 = ub.poison : tensor<2xf32> loc(#loc57)
    tt.return %1 : tensor<2xf32> loc(#loc57)
  } loc(#loc53)
  tt.func private @triton.language.standard._sum_combine__fp32_fp32__(%a: f32 loc("a"(#loc58)), %b: f32 loc("b"(#loc58))) -> f32 attributes {noinline = false} {
    %0 = arith.addf %a, %b : f32 loc(#loc59)
    tt.return %0 : f32 loc(#loc60)
  ^bb1:  // no predecessors
    %1 = ub.poison : f32 loc(#loc61)
    tt.return %1 : f32 loc(#loc61)
  } loc(#loc58)
} loc(#loc)
#loc1 = loc("/data/jcy/zzs/zijinhua/.vllm_cache_simplevqa/torch_compile/lx/clxrkkkrblf5hjd4urjeoo4vgkrojg4dgkvbvqgojumbjh5xceia.py":21:28)
#loc2 = loc("/data/jcy/zzs/zijinhua/.vllm_cache_simplevqa/torch_compile/lx/clxrkkkrblf5hjd4urjeoo4vgkrojg4dgkvbvqgojumbjh5xceia.py":21:33)
#loc3 = loc("/data/jcy/zzs/zijinhua/.vllm_cache_simplevqa/torch_compile/lx/clxrkkkrblf5hjd4urjeoo4vgkrojg4dgkvbvqgojumbjh5xceia.py":22:36)
#loc4 = loc("/data/jcy/zzs/zijinhua/.vllm_cache_simplevqa/torch_compile/lx/clxrkkkrblf5hjd4urjeoo4vgkrojg4dgkvbvqgojumbjh5xceia.py":22:44)
#loc5 = loc("/data/jcy/zzs/zijinhua/.vllm_cache_simplevqa/torch_compile/lx/clxrkkkrblf5hjd4urjeoo4vgkrojg4dgkvbvqgojumbjh5xceia.py":22:23)
#loc6 = loc("/data/jcy/zzs/zijinhua/.vllm_cache_simplevqa/torch_compile/lx/clxrkkkrblf5hjd4urjeoo4vgkrojg4dgkvbvqgojumbjh5xceia.py":23:21)
#loc7 = loc("/data/jcy/zzs/zijinhua/.vllm_cache_simplevqa/torch_compile/lx/clxrkkkrblf5hjd4urjeoo4vgkrojg4dgkvbvqgojumbjh5xceia.py":24:27)
#loc8 = loc("/data/jcy/zzs/zijinhua/.vllm_cache_simplevqa/torch_compile/lx/clxrkkkrblf5hjd4urjeoo4vgkrojg4dgkvbvqgojumbjh5xceia.py":24:37)
#loc9 = loc("/data/jcy/zzs/zijinhua/.vllm_cache_simplevqa/torch_compile/lx/clxrkkkrblf5hjd4urjeoo4vgkrojg4dgkvbvqgojumbjh5xceia.py":27:43)
#loc10 = loc("/data/jcy/zzs/zijinhua/.vllm_cache_simplevqa/torch_compile/lx/clxrkkkrblf5hjd4urjeoo4vgkrojg4dgkvbvqgojumbjh5xceia.py":28:40)
#loc11 = loc("/data/jcy/zzs/zijinhua/.vllm_cache_simplevqa/torch_compile/lx/clxrkkkrblf5hjd4urjeoo4vgkrojg4dgkvbvqgojumbjh5xceia.py":29:31)
#loc12 = loc("/data/jcy/zzs/zijinhua/.vllm_cache_simplevqa/torch_compile/lx/clxrkkkrblf5hjd4urjeoo4vgkrojg4dgkvbvqgojumbjh5xceia.py":30:29)
#loc13 = loc("/data/jcy/zzs/zijinhua/.vllm_cache_simplevqa/torch_compile/lx/clxrkkkrblf5hjd4urjeoo4vgkrojg4dgkvbvqgojumbjh5xceia.py":34:45)
#loc14 = loc("/data/jcy/zzs/zijinhua/.vllm_cache_simplevqa/torch_compile/lx/clxrkkkrblf5hjd4urjeoo4vgkrojg4dgkvbvqgojumbjh5xceia.py":34:41)
#loc15 = loc("/data/jcy/zzs/zijinhua/.vllm_cache_simplevqa/torch_compile/lx/clxrkkkrblf5hjd4urjeoo4vgkrojg4dgkvbvqgojumbjh5xceia.py":34:34)
#loc16 = loc("/data/jcy/zzs/zijinhua/.vllm_cache_simplevqa/torch_compile/lx/clxrkkkrblf5hjd4urjeoo4vgkrojg4dgkvbvqgojumbjh5xceia.py":34:60)
#loc17 = loc("/data/jcy/zzs/zijinhua/.vllm_cache_simplevqa/torch_compile/lx/clxrkkkrblf5hjd4urjeoo4vgkrojg4dgkvbvqgojumbjh5xceia.py":34:50)
#loc18 = loc("/data/jcy/zzs/zijinhua/.vllm_cache_simplevqa/torch_compile/lx/clxrkkkrblf5hjd4urjeoo4vgkrojg4dgkvbvqgojumbjh5xceia.py":34:111)
#loc19 = loc("/data/jcy/zzs/zijinhua/.vllm_cache_simplevqa/torch_compile/lx/clxrkkkrblf5hjd4urjeoo4vgkrojg4dgkvbvqgojumbjh5xceia.py":36:22)
#loc20 = loc("/data/jcy/zzs/zijinhua/.vllm_cache_simplevqa/torch_compile/lx/clxrkkkrblf5hjd4urjeoo4vgkrojg4dgkvbvqgojumbjh5xceia.py":38:23)
#loc21 = loc("/data/jcy/zzs/zijinhua/.vllm_cache_simplevqa/torch_compile/lx/clxrkkkrblf5hjd4urjeoo4vgkrojg4dgkvbvqgojumbjh5xceia.py":39:35)
#loc22 = loc("/data/jcy/zzs/zijinhua/.vllm_cache_simplevqa/torch_compile/lx/clxrkkkrblf5hjd4urjeoo4vgkrojg4dgkvbvqgojumbjh5xceia.py":39:48)
#loc23 = loc("/data/jcy/zzs/zijinhua/.vllm_cache_simplevqa/torch_compile/lx/clxrkkkrblf5hjd4urjeoo4vgkrojg4dgkvbvqgojumbjh5xceia.py":39:8)
#loc24 = loc("/data/jcy/zzs/zijinhua/.vllm_cache_simplevqa/torch_compile/lx/clxrkkkrblf5hjd4urjeoo4vgkrojg4dgkvbvqgojumbjh5xceia.py":40:25)
#loc25 = loc("/data/jcy/zzs/zijinhua/.vllm_cache_simplevqa/torch_compile/lx/clxrkkkrblf5hjd4urjeoo4vgkrojg4dgkvbvqgojumbjh5xceia.py":40:28)
#loc26 = loc("/data/jcy/zzs/zijinhua/.vllm_cache_simplevqa/torch_compile/lx/clxrkkkrblf5hjd4urjeoo4vgkrojg4dgkvbvqgojumbjh5xceia.py":41:40)
#loc27 = loc("/data/jcy/zzs/zijinhua/.vllm_cache_simplevqa/torch_compile/lx/clxrkkkrblf5hjd4urjeoo4vgkrojg4dgkvbvqgojumbjh5xceia.py":42:31)
#loc28 = loc("/data/jcy/zzs/zijinhua/.vllm_cache_simplevqa/torch_compile/lx/clxrkkkrblf5hjd4urjeoo4vgkrojg4dgkvbvqgojumbjh5xceia.py":43:29)
#loc29 = loc("/data/jcy/zzs/zijinhua/.vllm_cache_simplevqa/torch_compile/lx/clxrkkkrblf5hjd4urjeoo4vgkrojg4dgkvbvqgojumbjh5xceia.py":47:45)
#loc30 = loc("/data/jcy/zzs/zijinhua/.vllm_cache_simplevqa/torch_compile/lx/clxrkkkrblf5hjd4urjeoo4vgkrojg4dgkvbvqgojumbjh5xceia.py":47:41)
#loc31 = loc("/data/jcy/zzs/zijinhua/.vllm_cache_simplevqa/torch_compile/lx/clxrkkkrblf5hjd4urjeoo4vgkrojg4dgkvbvqgojumbjh5xceia.py":47:34)
#loc32 = loc("/data/jcy/zzs/zijinhua/.vllm_cache_simplevqa/torch_compile/lx/clxrkkkrblf5hjd4urjeoo4vgkrojg4dgkvbvqgojumbjh5xceia.py":47:60)
#loc33 = loc("/data/jcy/zzs/zijinhua/.vllm_cache_simplevqa/torch_compile/lx/clxrkkkrblf5hjd4urjeoo4vgkrojg4dgkvbvqgojumbjh5xceia.py":47:50)
#loc34 = loc("/data/jcy/zzs/zijinhua/.vllm_cache_simplevqa/torch_compile/lx/clxrkkkrblf5hjd4urjeoo4vgkrojg4dgkvbvqgojumbjh5xceia.py":47:112)
#loc35 = loc("/data/jcy/zzs/zijinhua/.vllm_cache_simplevqa/torch_compile/lx/clxrkkkrblf5hjd4urjeoo4vgkrojg4dgkvbvqgojumbjh5xceia.py":48:35)
#loc36 = loc("/data/jcy/zzs/zijinhua/.vllm_cache_simplevqa/torch_compile/lx/clxrkkkrblf5hjd4urjeoo4vgkrojg4dgkvbvqgojumbjh5xceia.py":48:42)
#loc37 = loc("/data/jcy/zzs/zijinhua/.vllm_cache_simplevqa/torch_compile/lx/clxrkkkrblf5hjd4urjeoo4vgkrojg4dgkvbvqgojumbjh5xceia.py":48:95)
#loc38 = loc("/data/jcy/zzs/zijinhua/.vllm_cache_simplevqa/torch_compile/lx/clxrkkkrblf5hjd4urjeoo4vgkrojg4dgkvbvqgojumbjh5xceia.py":51:23)
#loc39 = loc("/data/jcy/zzs/zijinhua/.vllm_cache_simplevqa/torch_compile/lx/clxrkkkrblf5hjd4urjeoo4vgkrojg4dgkvbvqgojumbjh5xceia.py":52:24)
#loc40 = loc("/data/jcy/zzs/zijinhua/.vllm_cache_simplevqa/torch_compile/lx/clxrkkkrblf5hjd4urjeoo4vgkrojg4dgkvbvqgojumbjh5xceia.py":53:16)
#loc41 = loc("/data/jcy/zzs/zijinhua/.vllm_cache_simplevqa/torch_compile/lx/clxrkkkrblf5hjd4urjeoo4vgkrojg4dgkvbvqgojumbjh5xceia.py":54:24)
#loc42 = loc("/data/jcy/zzs/zijinhua/.vllm_cache_simplevqa/torch_compile/lx/clxrkkkrblf5hjd4urjeoo4vgkrojg4dgkvbvqgojumbjh5xceia.py":55:32)
#loc43 = loc("/data/jcy/zzs/zijinhua/.vllm_cache_simplevqa/torch_compile/lx/clxrkkkrblf5hjd4urjeoo4vgkrojg4dgkvbvqgojumbjh5xceia.py":56:23)
#loc44 = loc("/data/jcy/zzs/zijinhua/.vllm_cache_simplevqa/torch_compile/lx/clxrkkkrblf5hjd4urjeoo4vgkrojg4dgkvbvqgojumbjh5xceia.py":58:16)
#loc45 = loc("/data/jcy/zzs/zijinhua/.vllm_cache_simplevqa/torch_compile/lx/clxrkkkrblf5hjd4urjeoo4vgkrojg4dgkvbvqgojumbjh5xceia.py":59:24)
#loc46 = loc("/data/jcy/zzs/zijinhua/.vllm_cache_simplevqa/torch_compile/lx/clxrkkkrblf5hjd4urjeoo4vgkrojg4dgkvbvqgojumbjh5xceia.py":60:24)
#loc47 = loc("/data/jcy/zzs/zijinhua/.vllm_cache_simplevqa/torch_compile/lx/clxrkkkrblf5hjd4urjeoo4vgkrojg4dgkvbvqgojumbjh5xceia.py":62:40)
#loc48 = loc("/data/jcy/zzs/zijinhua/.vllm_cache_simplevqa/torch_compile/lx/clxrkkkrblf5hjd4urjeoo4vgkrojg4dgkvbvqgojumbjh5xceia.py":62:36)
#loc49 = loc("/data/jcy/zzs/zijinhua/.vllm_cache_simplevqa/torch_compile/lx/clxrkkkrblf5hjd4urjeoo4vgkrojg4dgkvbvqgojumbjh5xceia.py":62:29)
#loc50 = loc("/data/jcy/zzs/zijinhua/.vllm_cache_simplevqa/torch_compile/lx/clxrkkkrblf5hjd4urjeoo4vgkrojg4dgkvbvqgojumbjh5xceia.py":62:62)
#loc51 = loc("/data/jcy/zzs/zijinhua/.vllm_cache_simplevqa/torch_compile/lx/clxrkkkrblf5hjd4urjeoo4vgkrojg4dgkvbvqgojumbjh5xceia.py":62:52)
#loc52 = loc("/data/jcy/zzs/zijinhua/.vllm_cache_simplevqa/torch_compile/lx/clxrkkkrblf5hjd4urjeoo4vgkrojg4dgkvbvqgojumbjh5xceia.py":41:4)
#loc54 = loc("/data/conda/envs/or_llm/lib/python3.12/site-packages/triton/language/standard.py":293:36)
#loc56 = loc("/data/conda/envs/or_llm/lib/python3.12/site-packages/triton/language/standard.py":293:11)
#loc57 = loc("/data/conda/envs/or_llm/lib/python3.12/site-packages/triton/language/standard.py":293:4)
#loc59 = loc("/data/conda/envs/or_llm/lib/python3.12/site-packages/triton/language/standard.py":263:15)
#loc60 = loc("/data/conda/envs/or_llm/lib/python3.12/site-packages/triton/language/standard.py":263:11)
#loc61 = loc("/data/conda/envs/or_llm/lib/python3.12/site-packages/triton/language/standard.py":263:4)
#loc68 = loc("xoffset"(#loc1))
#loc69 = loc("xoffset"(#loc2))
#loc70 = loc("xindex"(#loc3))
#loc71 = loc("xindex"(#loc4))
#loc72 = loc("xindex"(#loc5))
#loc73 = loc("xmask"(#loc6))
#loc74 = loc("r0_base"(#loc7))
#loc75 = loc("r0_base"(#loc8))
#loc76 = loc("_tmp4"(#loc9))
#loc77 = loc("_tmp4"(#loc10))
#loc78 = loc("r0_index"(#loc11))
#loc79 = loc("r0_mask"(#loc12))
#loc80 = loc("tmp0"(#loc13))
#loc81 = loc("tmp0"(#loc14))
#loc82 = loc("tmp0"(#loc15))
#loc83 = loc("tmp0"(#loc16))
#loc84 = loc("tmp0"(#loc17))
#loc85 = loc("tmp0"(#loc18))
#loc86 = loc("tmp2"(#loc19))
#loc87 = loc("tmp5"(#loc20))
#loc88 = loc("_tmp4"(#loc21))
#loc89 = loc("_tmp4"(#loc22))
#loc90 = loc("tmp4"(#loc24))
#loc91 = loc("tmp4"(#loc25))
#loc92 = loc("r0_index"(#loc27))
#loc93 = loc("r0_mask"(#loc28))
#loc94 = loc("tmp6"(#loc29))
#loc95 = loc("tmp6"(#loc30))
#loc96 = loc("tmp6"(#loc31))
#loc97 = loc("tmp6"(#loc32))
#loc98 = loc("tmp6"(#loc33))
#loc99 = loc("tmp6"(#loc34))
#loc100 = loc("tmp15"(#loc35))
#loc101 = loc("tmp15"(#loc36))
#loc102 = loc("tmp15"(#loc37))
#loc103 = loc("tmp9"(#loc38))
#loc104 = loc("tmp10"(#loc39))
#loc105 = loc("tmp11"(#loc40))
#loc106 = loc("tmp12"(#loc41))
#loc107 = loc("tmp13"(#loc42))
#loc108 = loc("tmp14"(#loc43))
#loc109 = loc("tmp17"(#loc44))
#loc110 = loc("tmp18"(#loc45))
#loc111 = loc("tmp19"(#loc46))
