#loc = loc("/data/jcy/zzs/zijinhua/.vllm_cache_reflection/torch_compile/sp/cspe7kxsojkvwnis2ucqvxxbq5xkhzoco2xux4mxp57wj2uwifcd.py":18:0)
#loc45 = loc("/data/conda/envs/or_llm/lib/python3.12/site-packages/triton/language/standard.py":287:0)
#loc47 = loc(unknown)
#loc50 = loc("/data/conda/envs/or_llm/lib/python3.12/site-packages/triton/language/standard.py":262:0)
#loc54 = loc("in_ptr0"(#loc))
#loc55 = loc("in_ptr1"(#loc))
#loc56 = loc("out_ptr1"(#loc))
#loc57 = loc("ks0"(#loc))
#loc58 = loc("r0_numel"(#loc))
#loc98 = loc("input"(#loc45))
#loc99 = loc("a"(#loc50))
#loc100 = loc("b"(#loc50))
module {
  tt.func public @triton_red_fused__to_copy_add_mean_mul_pow_rsqrt_0(%in_ptr0: !tt.ptr<bf16> {tt.divisibility = 16 : i32} loc("in_ptr0"(#loc)), %in_ptr1: !tt.ptr<bf16> {tt.divisibility = 16 : i32} loc("in_ptr1"(#loc)), %out_ptr1: !tt.ptr<bf16> {tt.divisibility = 16 : i32} loc("out_ptr1"(#loc)), %ks0: i64 loc("ks0"(#loc)), %r0_numel: i32 loc("r0_numel"(#loc))) attributes {noinline = false} {
    %xnumel = arith.constant 1 : i32 loc(#loc59)
    %xoffset = tt.get_program_id x : i32 loc(#loc60)
    %xoffset_0 = arith.constant 1 : i32 loc(#loc61)
    %xoffset_1 = arith.constant 1 : i32 loc(#loc61)
    %xoffset_2 = arith.muli %xoffset, %xoffset_1 : i32 loc(#loc61)
    %xindex = tt.make_range {end = 1 : i32, start = 0 : i32} : tensor<1xi32> loc(#loc62)
    %xindex_3 = tt.expand_dims %xindex {axis = 1 : i32} : tensor<1xi32> -> tensor<1x1xi32> loc(#loc63)
    %xindex_4 = tt.splat %xoffset_2 : i32 -> tensor<1x1xi32> loc(#loc64)
    %xindex_5 = arith.addi %xindex_4, %xindex_3 : tensor<1x1xi32> loc(#loc64)
    %xmask = arith.constant true loc(#loc65)
    %xmask_6 = arith.constant dense<true> : tensor<1xi1> loc(#loc65)
    %xmask_7 = tt.expand_dims %xmask_6 {axis = 1 : i32} : tensor<1xi1> -> tensor<1x1xi1> loc(#loc66)
    %r0_base = tt.make_range {end = 2048 : i32, start = 0 : i32} : tensor<2048xi32> loc(#loc67)
    %r0_base_8 = tt.expand_dims %r0_base {axis = 0 : i32} : tensor<2048xi32> -> tensor<1x2048xi32> loc(#loc68)
    %_tmp4 = arith.constant 0.000000e+00 : f32 loc(#loc69)
    %_tmp4_9 = arith.constant dense<0.000000e+00> : tensor<1x2048xf32> loc(#loc69)
    %c0_i32 = arith.constant 0 : i32 loc(#loc12)
    %c2048_i32 = arith.constant 2048 : i32 loc(#loc12)
    %0 = arith.bitcast %c0_i32 : i32 to i32 loc(#loc12)
    %1 = arith.bitcast %r0_numel : i32 to i32 loc(#loc12)
    %2 = arith.bitcast %c2048_i32 : i32 to i32 loc(#loc12)
    %3 = ub.poison : i32 loc(#loc12)
    %_tmp4_10 = scf.for %r0_offset = %0 to %1 step %2 iter_args(%_tmp4_14 = %_tmp4_9) -> (tensor<1x2048xf32>)  : i32 {
      %r0_index = tt.splat %r0_offset : i32 -> tensor<1x2048xi32> loc(#loc71)
      %r0_index_15 = arith.addi %r0_index, %r0_base_8 : tensor<1x2048xi32> loc(#loc71)
      %r0_mask = tt.splat %r0_numel : i32 -> tensor<1x2048xi32> loc(#loc72)
      %r0_mask_16 = arith.cmpi slt, %r0_index_15, %r0_mask : tensor<1x2048xi32> loc(#loc72)
      %tmp0 = tt.splat %in_ptr0 : !tt.ptr<bf16> -> tensor<1x2048x!tt.ptr<bf16>> loc(#loc73)
      %tmp0_17 = tt.addptr %tmp0, %r0_index_15 : tensor<1x2048x!tt.ptr<bf16>>, tensor<1x2048xi32> loc(#loc73)
      %tmp0_18 = arith.constant 0.000000e+00 : f32 loc(#loc74)
      %tmp0_19 = arith.constant dense<0.000000e+00> : tensor<1x2048xf32> loc(#loc74)
      %tmp0_20 = arith.truncf %tmp0_19 : tensor<1x2048xf32> to tensor<1x2048xbf16> loc(#loc74)
      %tmp0_21 = tt.load %tmp0_17, %r0_mask_16, %tmp0_20 evictionPolicy = evict_last : tensor<1x2048x!tt.ptr<bf16>> loc(#loc74)
      %tmp0_22 = arith.extf %tmp0_21 : tensor<1x2048xbf16> to tensor<1x2048xf32> loc(#loc75)
      %tmp2 = arith.mulf %tmp0_22, %tmp0_22 : tensor<1x2048xf32> loc(#loc76)
      %tmp5 = arith.addf %_tmp4_14, %tmp2 : tensor<1x2048xf32> loc(#loc77)
      %_tmp4_23 = arith.select %r0_mask_16, %tmp5, %_tmp4_14 : tensor<1x2048xi1>, tensor<1x2048xf32> loc(#loc78)
      scf.yield %_tmp4_23 : tensor<1x2048xf32> loc(#loc21)
    } loc(#loc70)
    %tmp4 = tt.call @"triton.language.standard.sum__fp32S1_2048S__(1,)cconstexpr_1__(2,)cconstexpr_False__(3,)cNone"(%_tmp4_10) : (tensor<1x2048xf32>) -> tensor<1xf32> loc(#loc79)
    %tmp4_11 = tt.expand_dims %tmp4 {axis = 1 : i32} : tensor<1xf32> -> tensor<1x1xf32> loc(#loc80)
    %c0_i32_12 = arith.constant 0 : i32 loc(#loc24)
    %c2048_i32_13 = arith.constant 2048 : i32 loc(#loc24)
    %4 = arith.bitcast %c0_i32_12 : i32 to i32 loc(#loc24)
    %5 = arith.bitcast %r0_numel : i32 to i32 loc(#loc24)
    %6 = arith.bitcast %c2048_i32_13 : i32 to i32 loc(#loc24)
    %7 = ub.poison : i32 loc(#loc24)
    scf.for %r0_offset = %4 to %5 step %6  : i32 {
      %r0_index = tt.splat %r0_offset : i32 -> tensor<1x2048xi32> loc(#loc81)
      %r0_index_14 = arith.addi %r0_index, %r0_base_8 : tensor<1x2048xi32> loc(#loc81)
      %r0_mask = tt.splat %r0_numel : i32 -> tensor<1x2048xi32> loc(#loc82)
      %r0_mask_15 = arith.cmpi slt, %r0_index_14, %r0_mask : tensor<1x2048xi32> loc(#loc82)
      %tmp6 = tt.splat %in_ptr0 : !tt.ptr<bf16> -> tensor<1x2048x!tt.ptr<bf16>> loc(#loc83)
      %tmp6_16 = tt.addptr %tmp6, %r0_index_14 : tensor<1x2048x!tt.ptr<bf16>>, tensor<1x2048xi32> loc(#loc83)
      %tmp6_17 = arith.constant 0.000000e+00 : f32 loc(#loc84)
      %tmp6_18 = arith.constant dense<0.000000e+00> : tensor<1x2048xf32> loc(#loc84)
      %tmp6_19 = arith.truncf %tmp6_18 : tensor<1x2048xf32> to tensor<1x2048xbf16> loc(#loc84)
      %tmp6_20 = tt.load %tmp6_16, %r0_mask_15, %tmp6_19 evictionPolicy = evict_first : tensor<1x2048x!tt.ptr<bf16>> loc(#loc84)
      %tmp6_21 = arith.extf %tmp6_20 : tensor<1x2048xbf16> to tensor<1x2048xf32> loc(#loc85)
      %tmp15 = tt.splat %in_ptr1 : !tt.ptr<bf16> -> tensor<1x2048x!tt.ptr<bf16>> loc(#loc86)
      %tmp15_22 = tt.addptr %tmp15, %r0_index_14 : tensor<1x2048x!tt.ptr<bf16>>, tensor<1x2048xi32> loc(#loc86)
      %tmp15_23 = arith.constant 0.000000e+00 : f32 loc(#loc87)
      %tmp15_24 = arith.constant dense<0.000000e+00> : tensor<1x2048xf32> loc(#loc87)
      %tmp15_25 = arith.truncf %tmp15_24 : tensor<1x2048xf32> to tensor<1x2048xbf16> loc(#loc87)
      %tmp15_26 = tt.load %tmp15_22, %r0_mask_15, %tmp15_25 evictionPolicy = evict_first : tensor<1x2048x!tt.ptr<bf16>> loc(#loc87)
      %tmp15_27 = arith.extf %tmp15_26 : tensor<1x2048xbf16> to tensor<1x2048xf32> loc(#loc88)
      %tmp9 = arith.sitofp %ks0 : i64 to f32 loc(#loc89)
      %tmp10 = tt.splat %tmp9 : f32 -> tensor<1x1xf32> loc(#loc90)
      %tmp10_28 = arith.divf %tmp4_11, %tmp10 : tensor<1x1xf32> loc(#loc90)
      %tmp11 = arith.constant 9.99999997E-7 : f32 loc(#loc91)
      %tmp12 = arith.constant dense<9.99999997E-7> : tensor<1x1xf32> loc(#loc92)
      %tmp12_29 = arith.addf %tmp10_28, %tmp12 : tensor<1x1xf32> loc(#loc92)
      %tmp13 = tt.extern_elementwise %tmp12_29 {libname = "", libpath = "", pure = true, symbol = "__nv_rsqrtf"} : (tensor<1x1xf32>) -> tensor<1x1xf32> loc(#loc93)
      %tmp14 = tt.broadcast %tmp13 : tensor<1x1xf32> -> tensor<1x2048xf32> loc(#loc94)
      %tmp14_30 = arith.mulf %tmp6_21, %tmp14 : tensor<1x2048xf32> loc(#loc94)
      %tmp17 = arith.constant 1.000000e+00 : f32 loc(#loc95)
      %tmp18 = arith.constant dense<1.000000e+00> : tensor<1x2048xf32> loc(#loc96)
      %tmp18_31 = arith.addf %tmp15_27, %tmp18 : tensor<1x2048xf32> loc(#loc96)
      %tmp19 = arith.mulf %tmp14_30, %tmp18_31 : tensor<1x2048xf32> loc(#loc97)
      %8 = tt.splat %out_ptr1 : !tt.ptr<bf16> -> tensor<1x2048x!tt.ptr<bf16>> loc(#loc42)
      %9 = tt.addptr %8, %r0_index_14 : tensor<1x2048x!tt.ptr<bf16>>, tensor<1x2048xi32> loc(#loc42)
      %10 = arith.truncf %tmp19 : tensor<1x2048xf32> to tensor<1x2048xbf16> loc(#loc43)
      tt.store %9, %10, %r0_mask_15 : tensor<1x2048x!tt.ptr<bf16>> loc(#loc43)
    } loc(#loc24)
    tt.return loc(#loc44)
  } loc(#loc)
  tt.func private @"triton.language.standard.sum__fp32S1_2048S__(1,)cconstexpr_1__(2,)cconstexpr_False__(3,)cNone"(%input: tensor<1x2048xf32> loc("input"(#loc45))) -> tensor<1xf32> attributes {noinline = false} {
    %0 = "tt.reduce"(%input) <{axis = 1 : i32}> ({
    ^bb0(%arg1: f32 loc(unknown), %arg2: f32 loc(unknown)):
      %2 = tt.call @triton.language.standard._sum_combine__fp32_fp32__(%arg1, %arg2) : (f32, f32) -> f32 loc(#loc46)
      tt.reduce.return %2 : f32 loc(#loc46)
    }) : (tensor<1x2048xf32>) -> tensor<1xf32> loc(#loc46)
    tt.return %0 : tensor<1xf32> loc(#loc48)
  ^bb1:  // no predecessors
    %1 = ub.poison : tensor<1xf32> loc(#loc49)
    tt.return %1 : tensor<1xf32> loc(#loc49)
  } loc(#loc45)
  tt.func private @triton.language.standard._sum_combine__fp32_fp32__(%a: f32 loc("a"(#loc50)), %b: f32 loc("b"(#loc50))) -> f32 attributes {noinline = false} {
    %0 = arith.addf %a, %b : f32 loc(#loc51)
    tt.return %0 : f32 loc(#loc52)
  ^bb1:  // no predecessors
    %1 = ub.poison : f32 loc(#loc53)
    tt.return %1 : f32 loc(#loc53)
  } loc(#loc50)
} loc(#loc)
#loc1 = loc("/data/jcy/zzs/zijinhua/.vllm_cache_reflection/torch_compile/sp/cspe7kxsojkvwnis2ucqvxxbq5xkhzoco2xux4mxp57wj2uwifcd.py":19:13)
#loc2 = loc("/data/jcy/zzs/zijinhua/.vllm_cache_reflection/torch_compile/sp/cspe7kxsojkvwnis2ucqvxxbq5xkhzoco2xux4mxp57wj2uwifcd.py":22:28)
#loc3 = loc("/data/jcy/zzs/zijinhua/.vllm_cache_reflection/torch_compile/sp/cspe7kxsojkvwnis2ucqvxxbq5xkhzoco2xux4mxp57wj2uwifcd.py":22:33)
#loc4 = loc("/data/jcy/zzs/zijinhua/.vllm_cache_reflection/torch_compile/sp/cspe7kxsojkvwnis2ucqvxxbq5xkhzoco2xux4mxp57wj2uwifcd.py":23:36)
#loc5 = loc("/data/jcy/zzs/zijinhua/.vllm_cache_reflection/torch_compile/sp/cspe7kxsojkvwnis2ucqvxxbq5xkhzoco2xux4mxp57wj2uwifcd.py":23:44)
#loc6 = loc("/data/jcy/zzs/zijinhua/.vllm_cache_reflection/torch_compile/sp/cspe7kxsojkvwnis2ucqvxxbq5xkhzoco2xux4mxp57wj2uwifcd.py":23:23)
#loc7 = loc("/data/jcy/zzs/zijinhua/.vllm_cache_reflection/torch_compile/sp/cspe7kxsojkvwnis2ucqvxxbq5xkhzoco2xux4mxp57wj2uwifcd.py":24:36)
#loc8 = loc("/data/jcy/zzs/zijinhua/.vllm_cache_reflection/torch_compile/sp/cspe7kxsojkvwnis2ucqvxxbq5xkhzoco2xux4mxp57wj2uwifcd.py":24:45)
#loc9 = loc("/data/jcy/zzs/zijinhua/.vllm_cache_reflection/torch_compile/sp/cspe7kxsojkvwnis2ucqvxxbq5xkhzoco2xux4mxp57wj2uwifcd.py":25:27)
#loc10 = loc("/data/jcy/zzs/zijinhua/.vllm_cache_reflection/torch_compile/sp/cspe7kxsojkvwnis2ucqvxxbq5xkhzoco2xux4mxp57wj2uwifcd.py":25:37)
#loc11 = loc("/data/jcy/zzs/zijinhua/.vllm_cache_reflection/torch_compile/sp/cspe7kxsojkvwnis2ucqvxxbq5xkhzoco2xux4mxp57wj2uwifcd.py":27:43)
#loc12 = loc("/data/jcy/zzs/zijinhua/.vllm_cache_reflection/torch_compile/sp/cspe7kxsojkvwnis2ucqvxxbq5xkhzoco2xux4mxp57wj2uwifcd.py":28:40)
#loc13 = loc("/data/jcy/zzs/zijinhua/.vllm_cache_reflection/torch_compile/sp/cspe7kxsojkvwnis2ucqvxxbq5xkhzoco2xux4mxp57wj2uwifcd.py":29:31)
#loc14 = loc("/data/jcy/zzs/zijinhua/.vllm_cache_reflection/torch_compile/sp/cspe7kxsojkvwnis2ucqvxxbq5xkhzoco2xux4mxp57wj2uwifcd.py":30:29)
#loc15 = loc("/data/jcy/zzs/zijinhua/.vllm_cache_reflection/torch_compile/sp/cspe7kxsojkvwnis2ucqvxxbq5xkhzoco2xux4mxp57wj2uwifcd.py":34:34)
#loc16 = loc("/data/jcy/zzs/zijinhua/.vllm_cache_reflection/torch_compile/sp/cspe7kxsojkvwnis2ucqvxxbq5xkhzoco2xux4mxp57wj2uwifcd.py":34:41)
#loc17 = loc("/data/jcy/zzs/zijinhua/.vllm_cache_reflection/torch_compile/sp/cspe7kxsojkvwnis2ucqvxxbq5xkhzoco2xux4mxp57wj2uwifcd.py":34:94)
#loc18 = loc("/data/jcy/zzs/zijinhua/.vllm_cache_reflection/torch_compile/sp/cspe7kxsojkvwnis2ucqvxxbq5xkhzoco2xux4mxp57wj2uwifcd.py":36:22)
#loc19 = loc("/data/jcy/zzs/zijinhua/.vllm_cache_reflection/torch_compile/sp/cspe7kxsojkvwnis2ucqvxxbq5xkhzoco2xux4mxp57wj2uwifcd.py":38:23)
#loc20 = loc("/data/jcy/zzs/zijinhua/.vllm_cache_reflection/torch_compile/sp/cspe7kxsojkvwnis2ucqvxxbq5xkhzoco2xux4mxp57wj2uwifcd.py":39:40)
#loc21 = loc("/data/jcy/zzs/zijinhua/.vllm_cache_reflection/torch_compile/sp/cspe7kxsojkvwnis2ucqvxxbq5xkhzoco2xux4mxp57wj2uwifcd.py":39:8)
#loc22 = loc("/data/jcy/zzs/zijinhua/.vllm_cache_reflection/torch_compile/sp/cspe7kxsojkvwnis2ucqvxxbq5xkhzoco2xux4mxp57wj2uwifcd.py":40:25)
#loc23 = loc("/data/jcy/zzs/zijinhua/.vllm_cache_reflection/torch_compile/sp/cspe7kxsojkvwnis2ucqvxxbq5xkhzoco2xux4mxp57wj2uwifcd.py":40:28)
#loc24 = loc("/data/jcy/zzs/zijinhua/.vllm_cache_reflection/torch_compile/sp/cspe7kxsojkvwnis2ucqvxxbq5xkhzoco2xux4mxp57wj2uwifcd.py":41:40)
#loc25 = loc("/data/jcy/zzs/zijinhua/.vllm_cache_reflection/torch_compile/sp/cspe7kxsojkvwnis2ucqvxxbq5xkhzoco2xux4mxp57wj2uwifcd.py":42:31)
#loc26 = loc("/data/jcy/zzs/zijinhua/.vllm_cache_reflection/torch_compile/sp/cspe7kxsojkvwnis2ucqvxxbq5xkhzoco2xux4mxp57wj2uwifcd.py":43:29)
#loc27 = loc("/data/jcy/zzs/zijinhua/.vllm_cache_reflection/torch_compile/sp/cspe7kxsojkvwnis2ucqvxxbq5xkhzoco2xux4mxp57wj2uwifcd.py":47:34)
#loc28 = loc("/data/jcy/zzs/zijinhua/.vllm_cache_reflection/torch_compile/sp/cspe7kxsojkvwnis2ucqvxxbq5xkhzoco2xux4mxp57wj2uwifcd.py":47:41)
#loc29 = loc("/data/jcy/zzs/zijinhua/.vllm_cache_reflection/torch_compile/sp/cspe7kxsojkvwnis2ucqvxxbq5xkhzoco2xux4mxp57wj2uwifcd.py":47:95)
#loc30 = loc("/data/jcy/zzs/zijinhua/.vllm_cache_reflection/torch_compile/sp/cspe7kxsojkvwnis2ucqvxxbq5xkhzoco2xux4mxp57wj2uwifcd.py":48:35)
#loc31 = loc("/data/jcy/zzs/zijinhua/.vllm_cache_reflection/torch_compile/sp/cspe7kxsojkvwnis2ucqvxxbq5xkhzoco2xux4mxp57wj2uwifcd.py":48:42)
#loc32 = loc("/data/jcy/zzs/zijinhua/.vllm_cache_reflection/torch_compile/sp/cspe7kxsojkvwnis2ucqvxxbq5xkhzoco2xux4mxp57wj2uwifcd.py":48:96)
#loc33 = loc("/data/jcy/zzs/zijinhua/.vllm_cache_reflection/torch_compile/sp/cspe7kxsojkvwnis2ucqvxxbq5xkhzoco2xux4mxp57wj2uwifcd.py":51:23)
#loc34 = loc("/data/jcy/zzs/zijinhua/.vllm_cache_reflection/torch_compile/sp/cspe7kxsojkvwnis2ucqvxxbq5xkhzoco2xux4mxp57wj2uwifcd.py":52:24)
#loc35 = loc("/data/jcy/zzs/zijinhua/.vllm_cache_reflection/torch_compile/sp/cspe7kxsojkvwnis2ucqvxxbq5xkhzoco2xux4mxp57wj2uwifcd.py":53:16)
#loc36 = loc("/data/jcy/zzs/zijinhua/.vllm_cache_reflection/torch_compile/sp/cspe7kxsojkvwnis2ucqvxxbq5xkhzoco2xux4mxp57wj2uwifcd.py":54:24)
#loc37 = loc("/data/jcy/zzs/zijinhua/.vllm_cache_reflection/torch_compile/sp/cspe7kxsojkvwnis2ucqvxxbq5xkhzoco2xux4mxp57wj2uwifcd.py":55:32)
#loc38 = loc("/data/jcy/zzs/zijinhua/.vllm_cache_reflection/torch_compile/sp/cspe7kxsojkvwnis2ucqvxxbq5xkhzoco2xux4mxp57wj2uwifcd.py":56:23)
#loc39 = loc("/data/jcy/zzs/zijinhua/.vllm_cache_reflection/torch_compile/sp/cspe7kxsojkvwnis2ucqvxxbq5xkhzoco2xux4mxp57wj2uwifcd.py":58:16)
#loc40 = loc("/data/jcy/zzs/zijinhua/.vllm_cache_reflection/torch_compile/sp/cspe7kxsojkvwnis2ucqvxxbq5xkhzoco2xux4mxp57wj2uwifcd.py":59:24)
#loc41 = loc("/data/jcy/zzs/zijinhua/.vllm_cache_reflection/torch_compile/sp/cspe7kxsojkvwnis2ucqvxxbq5xkhzoco2xux4mxp57wj2uwifcd.py":60:24)
#loc42 = loc("/data/jcy/zzs/zijinhua/.vllm_cache_reflection/torch_compile/sp/cspe7kxsojkvwnis2ucqvxxbq5xkhzoco2xux4mxp57wj2uwifcd.py":62:29)
#loc43 = loc("/data/jcy/zzs/zijinhua/.vllm_cache_reflection/torch_compile/sp/cspe7kxsojkvwnis2ucqvxxbq5xkhzoco2xux4mxp57wj2uwifcd.py":62:80)
#loc44 = loc("/data/jcy/zzs/zijinhua/.vllm_cache_reflection/torch_compile/sp/cspe7kxsojkvwnis2ucqvxxbq5xkhzoco2xux4mxp57wj2uwifcd.py":41:4)
#loc46 = loc("/data/conda/envs/or_llm/lib/python3.12/site-packages/triton/language/standard.py":293:36)
#loc48 = loc("/data/conda/envs/or_llm/lib/python3.12/site-packages/triton/language/standard.py":293:11)
#loc49 = loc("/data/conda/envs/or_llm/lib/python3.12/site-packages/triton/language/standard.py":293:4)
#loc51 = loc("/data/conda/envs/or_llm/lib/python3.12/site-packages/triton/language/standard.py":263:15)
#loc52 = loc("/data/conda/envs/or_llm/lib/python3.12/site-packages/triton/language/standard.py":263:11)
#loc53 = loc("/data/conda/envs/or_llm/lib/python3.12/site-packages/triton/language/standard.py":263:4)
#loc59 = loc("xnumel"(#loc1))
#loc60 = loc("xoffset"(#loc2))
#loc61 = loc("xoffset"(#loc3))
#loc62 = loc("xindex"(#loc4))
#loc63 = loc("xindex"(#loc5))
#loc64 = loc("xindex"(#loc6))
#loc65 = loc("xmask"(#loc7))
#loc66 = loc("xmask"(#loc8))
#loc67 = loc("r0_base"(#loc9))
#loc68 = loc("r0_base"(#loc10))
#loc69 = loc("_tmp4"(#loc11))
#loc70 = loc("_tmp4"(#loc12))
#loc71 = loc("r0_index"(#loc13))
#loc72 = loc("r0_mask"(#loc14))
#loc73 = loc("tmp0"(#loc15))
#loc74 = loc("tmp0"(#loc16))
#loc75 = loc("tmp0"(#loc17))
#loc76 = loc("tmp2"(#loc18))
#loc77 = loc("tmp5"(#loc19))
#loc78 = loc("_tmp4"(#loc20))
#loc79 = loc("tmp4"(#loc22))
#loc80 = loc("tmp4"(#loc23))
#loc81 = loc("r0_index"(#loc25))
#loc82 = loc("r0_mask"(#loc26))
#loc83 = loc("tmp6"(#loc27))
#loc84 = loc("tmp6"(#loc28))
#loc85 = loc("tmp6"(#loc29))
#loc86 = loc("tmp15"(#loc30))
#loc87 = loc("tmp15"(#loc31))
#loc88 = loc("tmp15"(#loc32))
#loc89 = loc("tmp9"(#loc33))
#loc90 = loc("tmp10"(#loc34))
#loc91 = loc("tmp11"(#loc35))
#loc92 = loc("tmp12"(#loc36))
#loc93 = loc("tmp13"(#loc37))
#loc94 = loc("tmp14"(#loc38))
#loc95 = loc("tmp17"(#loc39))
#loc96 = loc("tmp18"(#loc40))
#loc97 = loc("tmp19"(#loc41))
