#loc = loc("/data/jcy/zzs/zijinhua/.vllm_cache_simplevqa/torch_compile/vg/cvg2zvnqd45uwg752xbxuftng4ghicceg4evf33axi6eieqgewk2.py":18:0)
#loc1 = loc(unknown)
#loc15 = loc("/data/jcy/zzs/zijinhua/.vllm_cache_simplevqa/torch_compile/vg/cvg2zvnqd45uwg752xbxuftng4ghicceg4evf33axi6eieqgewk2.py":42:25)
#loc32 = loc("in_ptr0"(#loc))
#loc33 = loc("in_ptr1"(#loc))
#loc34 = loc("out_ptr1"(#loc))
#loc35 = loc("xnumel"(#loc))
#loc36 = loc("r0_numel"(#loc))
#loc49 = loc("tmp4"(#loc15))
#loc64 = loc(callsite(#loc1 at #loc49))
module {
  tt.func public @triton_red_fused__to_copy_add_mean_mul_pow_rsqrt_0(%in_ptr0: !tt.ptr<bf16> {tt.divisibility = 16 : i32} loc("in_ptr0"(#loc)), %in_ptr1: !tt.ptr<bf16> {tt.divisibility = 16 : i32} loc("in_ptr1"(#loc)), %out_ptr1: !tt.ptr<bf16> {tt.divisibility = 16 : i32} loc("out_ptr1"(#loc)), %xnumel: i32 {tt.divisibility = 16 : i32} loc("xnumel"(#loc)), %r0_numel: i32 {tt.divisibility = 16 : i32} loc("r0_numel"(#loc))) attributes {noinline = false} {
    %c4096_i32 = arith.constant 4096 : i32 loc(#loc1)
    %cst = arith.constant dense<0.000000e+00> : tensor<1x4096xbf16> loc(#loc1)
    %cst_0 = arith.constant dense<1.000000e+00> : tensor<1x4096xf32> loc(#loc1)
    %cst_1 = arith.constant dense<9.99999997E-7> : tensor<1x1xf32> loc(#loc1)
    %cst_2 = arith.constant dense<4.096000e+03> : tensor<1x1xf32> loc(#loc1)
    %cst_3 = arith.constant dense<4096> : tensor<1x4096xi32> loc(#loc1)
    %cst_4 = arith.constant dense<0.000000e+00> : tensor<1x4096xf32> loc(#loc1)
    %xoffset = tt.get_program_id x : i32 loc(#loc37)
    %r0_base = tt.make_range {end = 4096 : i32, start = 0 : i32} : tensor<4096xi32> loc(#loc38)
    %r0_base_5 = tt.expand_dims %r0_base {axis = 0 : i32} : tensor<4096xi32> -> tensor<1x4096xi32> loc(#loc39)
    %r0_mask = arith.cmpi slt, %r0_base_5, %cst_3 : tensor<1x4096xi32> loc(#loc40)
    %tmp0 = arith.muli %xoffset, %c4096_i32 : i32 loc(#loc41)
    %tmp0_6 = tt.splat %tmp0 : i32 -> tensor<1x4096xi32> loc(#loc62)
    %tmp0_7 = arith.addi %r0_base_5, %tmp0_6 : tensor<1x4096xi32> loc(#loc42)
    %tmp0_8 = tt.splat %in_ptr0 : !tt.ptr<bf16> -> tensor<1x4096x!tt.ptr<bf16>> loc(#loc43)
    %tmp0_9 = tt.addptr %tmp0_8, %tmp0_7 : tensor<1x4096x!tt.ptr<bf16>>, tensor<1x4096xi32> loc(#loc43)
    %tmp0_10 = tt.load %tmp0_9, %r0_mask, %cst evictionPolicy = evict_last : tensor<1x4096x!tt.ptr<bf16>> loc(#loc44)
    %tmp0_11 = arith.extf %tmp0_10 : tensor<1x4096xbf16> to tensor<1x4096xf32> loc(#loc45)
    %tmp2 = arith.mulf %tmp0_11, %tmp0_11 : tensor<1x4096xf32> loc(#loc46)
    %tmp5 = arith.addf %tmp2, %cst_4 : tensor<1x4096xf32> loc(#loc47)
    %_tmp4 = arith.select %r0_mask, %tmp5, %cst_4 : tensor<1x4096xi1>, tensor<1x4096xf32> loc(#loc48)
    %tmp4 = "tt.reduce"(%_tmp4) <{axis = 1 : i32}> ({
    ^bb0(%tmp4_18: f32 loc(callsite(#loc1 at #loc49)), %tmp4_19: f32 loc(callsite(#loc1 at #loc49))):
      %tmp4_20 = arith.addf %tmp4_18, %tmp4_19 : f32 loc(#loc65)
      tt.reduce.return %tmp4_20 : f32 loc(#loc63)
    }) : (tensor<1x4096xf32>) -> tensor<1xf32> loc(#loc63)
    %tmp4_12 = tt.expand_dims %tmp4 {axis = 1 : i32} : tensor<1xf32> -> tensor<1x1xf32> loc(#loc50)
    %tmp6 = tt.load %tmp0_9, %r0_mask, %cst evictionPolicy = evict_first : tensor<1x4096x!tt.ptr<bf16>> loc(#loc51)
    %tmp6_13 = arith.extf %tmp6 : tensor<1x4096xbf16> to tensor<1x4096xf32> loc(#loc52)
    %tmp14 = tt.splat %in_ptr1 : !tt.ptr<bf16> -> tensor<1x4096x!tt.ptr<bf16>> loc(#loc53)
    %tmp14_14 = tt.addptr %tmp14, %r0_base_5 : tensor<1x4096x!tt.ptr<bf16>>, tensor<1x4096xi32> loc(#loc53)
    %tmp14_15 = tt.load %tmp14_14, %r0_mask, %cst evictionPolicy = evict_last : tensor<1x4096x!tt.ptr<bf16>> loc(#loc54)
    %tmp14_16 = arith.extf %tmp14_15 : tensor<1x4096xbf16> to tensor<1x4096xf32> loc(#loc55)
    %tmp9 = arith.divf %tmp4_12, %cst_2 : tensor<1x1xf32> loc(#loc56)
    %tmp11 = arith.addf %tmp9, %cst_1 : tensor<1x1xf32> loc(#loc57)
    %tmp12 = tt.extern_elementwise %tmp11 {libname = "", libpath = "", pure = true, symbol = "__nv_rsqrtf"} : (tensor<1x1xf32>) -> tensor<1x1xf32> loc(#loc58)
    %tmp13 = tt.broadcast %tmp12 : tensor<1x1xf32> -> tensor<1x4096xf32> loc(#loc59)
    %tmp13_17 = arith.mulf %tmp6_13, %tmp13 : tensor<1x4096xf32> loc(#loc59)
    %tmp17 = arith.addf %tmp14_16, %cst_0 : tensor<1x4096xf32> loc(#loc60)
    %tmp18 = arith.mulf %tmp13_17, %tmp17 : tensor<1x4096xf32> loc(#loc61)
    %0 = tt.splat %out_ptr1 : !tt.ptr<bf16> -> tensor<1x4096x!tt.ptr<bf16>> loc(#loc29)
    %1 = tt.addptr %0, %tmp0_7 : tensor<1x4096x!tt.ptr<bf16>>, tensor<1x4096xi32> loc(#loc29)
    %2 = arith.truncf %tmp18 : tensor<1x4096xf32> to tensor<1x4096xbf16> loc(#loc30)
    tt.store %1, %2, %r0_mask : tensor<1x4096x!tt.ptr<bf16>> loc(#loc30)
    tt.return loc(#loc31)
  } loc(#loc)
} loc(#loc)
#loc2 = loc("/data/jcy/zzs/zijinhua/.vllm_cache_simplevqa/torch_compile/vg/cvg2zvnqd45uwg752xbxuftng4ghicceg4evf33axi6eieqgewk2.py":23:28)
#loc3 = loc("/data/jcy/zzs/zijinhua/.vllm_cache_simplevqa/torch_compile/vg/cvg2zvnqd45uwg752xbxuftng4ghicceg4evf33axi6eieqgewk2.py":26:27)
#loc4 = loc("/data/jcy/zzs/zijinhua/.vllm_cache_simplevqa/torch_compile/vg/cvg2zvnqd45uwg752xbxuftng4ghicceg4evf33axi6eieqgewk2.py":26:37)
#loc5 = loc("/data/jcy/zzs/zijinhua/.vllm_cache_simplevqa/torch_compile/vg/cvg2zvnqd45uwg752xbxuftng4ghicceg4evf33axi6eieqgewk2.py":32:29)
#loc6 = loc("/data/jcy/zzs/zijinhua/.vllm_cache_simplevqa/torch_compile/vg/cvg2zvnqd45uwg752xbxuftng4ghicceg4evf33axi6eieqgewk2.py":36:46)
#loc7 = loc("/data/jcy/zzs/zijinhua/.vllm_cache_simplevqa/torch_compile/vg/cvg2zvnqd45uwg752xbxuftng4ghicceg4evf33axi6eieqgewk2.py":36:41)
#loc8 = loc("/data/jcy/zzs/zijinhua/.vllm_cache_simplevqa/torch_compile/vg/cvg2zvnqd45uwg752xbxuftng4ghicceg4evf33axi6eieqgewk2.py":36:34)
#loc9 = loc("/data/jcy/zzs/zijinhua/.vllm_cache_simplevqa/torch_compile/vg/cvg2zvnqd45uwg752xbxuftng4ghicceg4evf33axi6eieqgewk2.py":36:51)
#loc10 = loc("/data/jcy/zzs/zijinhua/.vllm_cache_simplevqa/torch_compile/vg/cvg2zvnqd45uwg752xbxuftng4ghicceg4evf33axi6eieqgewk2.py":36:104)
#loc11 = loc("/data/jcy/zzs/zijinhua/.vllm_cache_simplevqa/torch_compile/vg/cvg2zvnqd45uwg752xbxuftng4ghicceg4evf33axi6eieqgewk2.py":38:22)
#loc12 = loc("/data/jcy/zzs/zijinhua/.vllm_cache_simplevqa/torch_compile/vg/cvg2zvnqd45uwg752xbxuftng4ghicceg4evf33axi6eieqgewk2.py":40:23)
#loc13 = loc("/data/jcy/zzs/zijinhua/.vllm_cache_simplevqa/torch_compile/vg/cvg2zvnqd45uwg752xbxuftng4ghicceg4evf33axi6eieqgewk2.py":41:40)
#loc14 = loc("/data/conda/envs/or_llm/lib/python3.12/site-packages/triton/language/standard.py":293:36)
#loc16 = loc("/data/conda/envs/or_llm/lib/python3.12/site-packages/triton/language/standard.py":263:15)
#loc17 = loc("/data/jcy/zzs/zijinhua/.vllm_cache_simplevqa/torch_compile/vg/cvg2zvnqd45uwg752xbxuftng4ghicceg4evf33axi6eieqgewk2.py":42:28)
#loc18 = loc("/data/jcy/zzs/zijinhua/.vllm_cache_simplevqa/torch_compile/vg/cvg2zvnqd45uwg752xbxuftng4ghicceg4evf33axi6eieqgewk2.py":49:51)
#loc19 = loc("/data/jcy/zzs/zijinhua/.vllm_cache_simplevqa/torch_compile/vg/cvg2zvnqd45uwg752xbxuftng4ghicceg4evf33axi6eieqgewk2.py":49:105)
#loc20 = loc("/data/jcy/zzs/zijinhua/.vllm_cache_simplevqa/torch_compile/vg/cvg2zvnqd45uwg752xbxuftng4ghicceg4evf33axi6eieqgewk2.py":50:35)
#loc21 = loc("/data/jcy/zzs/zijinhua/.vllm_cache_simplevqa/torch_compile/vg/cvg2zvnqd45uwg752xbxuftng4ghicceg4evf33axi6eieqgewk2.py":50:42)
#loc22 = loc("/data/jcy/zzs/zijinhua/.vllm_cache_simplevqa/torch_compile/vg/cvg2zvnqd45uwg752xbxuftng4ghicceg4evf33axi6eieqgewk2.py":50:95)
#loc23 = loc("/data/jcy/zzs/zijinhua/.vllm_cache_simplevqa/torch_compile/vg/cvg2zvnqd45uwg752xbxuftng4ghicceg4evf33axi6eieqgewk2.py":53:23)
#loc24 = loc("/data/jcy/zzs/zijinhua/.vllm_cache_simplevqa/torch_compile/vg/cvg2zvnqd45uwg752xbxuftng4ghicceg4evf33axi6eieqgewk2.py":55:23)
#loc25 = loc("/data/jcy/zzs/zijinhua/.vllm_cache_simplevqa/torch_compile/vg/cvg2zvnqd45uwg752xbxuftng4ghicceg4evf33axi6eieqgewk2.py":56:32)
#loc26 = loc("/data/jcy/zzs/zijinhua/.vllm_cache_simplevqa/torch_compile/vg/cvg2zvnqd45uwg752xbxuftng4ghicceg4evf33axi6eieqgewk2.py":57:23)
#loc27 = loc("/data/jcy/zzs/zijinhua/.vllm_cache_simplevqa/torch_compile/vg/cvg2zvnqd45uwg752xbxuftng4ghicceg4evf33axi6eieqgewk2.py":60:24)
#loc28 = loc("/data/jcy/zzs/zijinhua/.vllm_cache_simplevqa/torch_compile/vg/cvg2zvnqd45uwg752xbxuftng4ghicceg4evf33axi6eieqgewk2.py":61:24)
#loc29 = loc("/data/jcy/zzs/zijinhua/.vllm_cache_simplevqa/torch_compile/vg/cvg2zvnqd45uwg752xbxuftng4ghicceg4evf33axi6eieqgewk2.py":63:29)
#loc30 = loc("/data/jcy/zzs/zijinhua/.vllm_cache_simplevqa/torch_compile/vg/cvg2zvnqd45uwg752xbxuftng4ghicceg4evf33axi6eieqgewk2.py":63:53)
#loc31 = loc("/data/jcy/zzs/zijinhua/.vllm_cache_simplevqa/torch_compile/vg/cvg2zvnqd45uwg752xbxuftng4ghicceg4evf33axi6eieqgewk2.py":43:4)
#loc37 = loc("xoffset"(#loc2))
#loc38 = loc("r0_base"(#loc3))
#loc39 = loc("r0_base"(#loc4))
#loc40 = loc("r0_mask"(#loc5))
#loc41 = loc("tmp0"(#loc6))
#loc42 = loc("tmp0"(#loc7))
#loc43 = loc("tmp0"(#loc8))
#loc44 = loc("tmp0"(#loc9))
#loc45 = loc("tmp0"(#loc10))
#loc46 = loc("tmp2"(#loc11))
#loc47 = loc("tmp5"(#loc12))
#loc48 = loc("_tmp4"(#loc13))
#loc50 = loc("tmp4"(#loc17))
#loc51 = loc("tmp6"(#loc18))
#loc52 = loc("tmp6"(#loc19))
#loc53 = loc("tmp14"(#loc20))
#loc54 = loc("tmp14"(#loc21))
#loc55 = loc("tmp14"(#loc22))
#loc56 = loc("tmp9"(#loc23))
#loc57 = loc("tmp11"(#loc24))
#loc58 = loc("tmp12"(#loc25))
#loc59 = loc("tmp13"(#loc26))
#loc60 = loc("tmp17"(#loc27))
#loc61 = loc("tmp18"(#loc28))
#loc62 = loc(fused[#loc42, #loc41])
#loc63 = loc(callsite(#loc14 at #loc49))
#loc65 = loc(callsite(#loc16 at #loc63))
