#loc = loc("/data/jcy/zzs/zijinhua/.vllm_cache_simplevqa/torch_compile/yf/cyfs56zb2suw3tsmosn5l676nggdzxkxtp5fzg2rehjtqrhlho3f.py":18:0)
#loc1 = loc(unknown)
#loc21 = loc("/data/jcy/zzs/zijinhua/.vllm_cache_simplevqa/torch_compile/yf/cyfs56zb2suw3tsmosn5l676nggdzxkxtp5fzg2rehjtqrhlho3f.py":45:25)
#loc38 = loc("in_ptr0"(#loc))
#loc39 = loc("in_ptr1"(#loc))
#loc40 = loc("in_ptr2"(#loc))
#loc41 = loc("out_ptr0"(#loc))
#loc42 = loc("out_ptr2"(#loc))
#loc43 = loc("xnumel"(#loc))
#loc44 = loc("r0_numel"(#loc))
#loc61 = loc("tmp6"(#loc21))
#loc76 = loc(callsite(#loc1 at #loc61))
module {
  tt.func public @triton_red_fused__to_copy_add_mean_mul_pow_rsqrt_0(%in_ptr0: !tt.ptr<bf16> {tt.divisibility = 16 : i32} loc("in_ptr0"(#loc)), %in_ptr1: !tt.ptr<bf16> {tt.divisibility = 16 : i32} loc("in_ptr1"(#loc)), %in_ptr2: !tt.ptr<bf16> {tt.divisibility = 16 : i32} loc("in_ptr2"(#loc)), %out_ptr0: !tt.ptr<bf16> {tt.divisibility = 16 : i32} loc("out_ptr0"(#loc)), %out_ptr2: !tt.ptr<bf16> {tt.divisibility = 16 : i32} loc("out_ptr2"(#loc)), %xnumel: i32 {tt.divisibility = 16 : i32} loc("xnumel"(#loc)), %r0_numel: i32 {tt.divisibility = 16 : i32} loc("r0_numel"(#loc))) attributes {noinline = false} {
    %c4096_i32 = arith.constant 4096 : i32 loc(#loc1)
    %cst = arith.constant dense<0.000000e+00> : tensor<1x4096xbf16> loc(#loc1)
    %cst_0 = arith.constant dense<1.000000e+00> : tensor<1x4096xf32> loc(#loc1)
    %cst_1 = arith.constant dense<9.99999997E-7> : tensor<1x1xf32> loc(#loc1)
    %cst_2 = arith.constant dense<4.096000e+03> : tensor<1x1xf32> loc(#loc1)
    %cst_3 = arith.constant dense<4096> : tensor<1x4096xi32> loc(#loc1)
    %cst_4 = arith.constant dense<0.000000e+00> : tensor<1x4096xf32> loc(#loc1)
    %xoffset = tt.get_program_id x : i32 loc(#loc45)
    %r0_base = tt.make_range {end = 4096 : i32, start = 0 : i32} : tensor<4096xi32> loc(#loc46)
    %r0_base_5 = tt.expand_dims %r0_base {axis = 0 : i32} : tensor<4096xi32> -> tensor<1x4096xi32> loc(#loc47)
    %r0_mask = arith.cmpi slt, %r0_base_5, %cst_3 : tensor<1x4096xi32> loc(#loc48)
    %tmp0 = arith.muli %xoffset, %c4096_i32 : i32 loc(#loc49)
    %tmp0_6 = tt.splat %tmp0 : i32 -> tensor<1x4096xi32> loc(#loc74)
    %tmp0_7 = arith.addi %r0_base_5, %tmp0_6 : tensor<1x4096xi32> loc(#loc50)
    %tmp0_8 = tt.splat %in_ptr0 : !tt.ptr<bf16> -> tensor<1x4096x!tt.ptr<bf16>> loc(#loc51)
    %tmp0_9 = tt.addptr %tmp0_8, %tmp0_7 : tensor<1x4096x!tt.ptr<bf16>>, tensor<1x4096xi32> loc(#loc51)
    %tmp0_10 = tt.load %tmp0_9, %r0_mask, %cst evictionPolicy = evict_first : tensor<1x4096x!tt.ptr<bf16>> loc(#loc52)
    %tmp0_11 = arith.extf %tmp0_10 : tensor<1x4096xbf16> to tensor<1x4096xf32> loc(#loc53)
    %tmp1 = tt.splat %in_ptr1 : !tt.ptr<bf16> -> tensor<1x4096x!tt.ptr<bf16>> loc(#loc54)
    %tmp1_12 = tt.addptr %tmp1, %tmp0_7 : tensor<1x4096x!tt.ptr<bf16>>, tensor<1x4096xi32> loc(#loc54)
    %tmp1_13 = tt.load %tmp1_12, %r0_mask, %cst evictionPolicy = evict_first : tensor<1x4096x!tt.ptr<bf16>> loc(#loc55)
    %tmp1_14 = arith.extf %tmp1_13 : tensor<1x4096xbf16> to tensor<1x4096xf32> loc(#loc56)
    %tmp2 = arith.addf %tmp0_11, %tmp1_14 : tensor<1x4096xf32> loc(#loc57)
    %tmp4 = arith.mulf %tmp2, %tmp2 : tensor<1x4096xf32> loc(#loc58)
    %tmp7 = arith.addf %tmp4, %cst_4 : tensor<1x4096xf32> loc(#loc59)
    %_tmp6 = arith.select %r0_mask, %tmp7, %cst_4 : tensor<1x4096xi1>, tensor<1x4096xf32> loc(#loc60)
    %0 = tt.splat %out_ptr0 : !tt.ptr<bf16> -> tensor<1x4096x!tt.ptr<bf16>> loc(#loc18)
    %1 = tt.addptr %0, %tmp0_7 : tensor<1x4096x!tt.ptr<bf16>>, tensor<1x4096xi32> loc(#loc18)
    %2 = arith.truncf %tmp2 : tensor<1x4096xf32> to tensor<1x4096xbf16> loc(#loc19)
    tt.store %1, %2, %r0_mask : tensor<1x4096x!tt.ptr<bf16>> loc(#loc19)
    %tmp6 = "tt.reduce"(%_tmp6) <{axis = 1 : i32}> ({
    ^bb0(%tmp6_21: f32 loc(callsite(#loc1 at #loc61)), %tmp6_22: f32 loc(callsite(#loc1 at #loc61))):
      %tmp6_23 = arith.addf %tmp6_21, %tmp6_22 : f32 loc(#loc77)
      tt.reduce.return %tmp6_23 : f32 loc(#loc75)
    }) : (tensor<1x4096xf32>) -> tensor<1xf32> loc(#loc75)
    %tmp6_15 = tt.expand_dims %tmp6 {axis = 1 : i32} : tensor<1xf32> -> tensor<1x1xf32> loc(#loc62)
    %tmp8 = tt.load %1, %r0_mask, %cst evictionPolicy = evict_first : tensor<1x4096x!tt.ptr<bf16>> loc(#loc63)
    %tmp8_16 = arith.extf %tmp8 : tensor<1x4096xbf16> to tensor<1x4096xf32> loc(#loc64)
    %tmp16 = tt.splat %in_ptr2 : !tt.ptr<bf16> -> tensor<1x4096x!tt.ptr<bf16>> loc(#loc65)
    %tmp16_17 = tt.addptr %tmp16, %r0_base_5 : tensor<1x4096x!tt.ptr<bf16>>, tensor<1x4096xi32> loc(#loc65)
    %tmp16_18 = tt.load %tmp16_17, %r0_mask, %cst evictionPolicy = evict_last : tensor<1x4096x!tt.ptr<bf16>> loc(#loc66)
    %tmp16_19 = arith.extf %tmp16_18 : tensor<1x4096xbf16> to tensor<1x4096xf32> loc(#loc67)
    %tmp11 = arith.divf %tmp6_15, %cst_2 : tensor<1x1xf32> loc(#loc68)
    %tmp13 = arith.addf %tmp11, %cst_1 : tensor<1x1xf32> loc(#loc69)
    %tmp14 = tt.extern_elementwise %tmp13 {libname = "", libpath = "", pure = true, symbol = "__nv_rsqrtf"} : (tensor<1x1xf32>) -> tensor<1x1xf32> loc(#loc70)
    %tmp15 = tt.broadcast %tmp14 : tensor<1x1xf32> -> tensor<1x4096xf32> loc(#loc71)
    %tmp15_20 = arith.mulf %tmp8_16, %tmp15 : tensor<1x4096xf32> loc(#loc71)
    %tmp19 = arith.addf %tmp16_19, %cst_0 : tensor<1x4096xf32> loc(#loc72)
    %tmp20 = arith.mulf %tmp15_20, %tmp19 : tensor<1x4096xf32> loc(#loc73)
    %3 = tt.splat %out_ptr2 : !tt.ptr<bf16> -> tensor<1x4096x!tt.ptr<bf16>> loc(#loc35)
    %4 = tt.addptr %3, %tmp0_7 : tensor<1x4096x!tt.ptr<bf16>>, tensor<1x4096xi32> loc(#loc35)
    %5 = arith.truncf %tmp20 : tensor<1x4096xf32> to tensor<1x4096xbf16> loc(#loc36)
    tt.store %4, %5, %r0_mask : tensor<1x4096x!tt.ptr<bf16>> loc(#loc36)
    tt.return loc(#loc37)
  } loc(#loc)
} loc(#loc)
#loc2 = loc("/data/jcy/zzs/zijinhua/.vllm_cache_simplevqa/torch_compile/yf/cyfs56zb2suw3tsmosn5l676nggdzxkxtp5fzg2rehjtqrhlho3f.py":23:28)
#loc3 = loc("/data/jcy/zzs/zijinhua/.vllm_cache_simplevqa/torch_compile/yf/cyfs56zb2suw3tsmosn5l676nggdzxkxtp5fzg2rehjtqrhlho3f.py":26:27)
#loc4 = loc("/data/jcy/zzs/zijinhua/.vllm_cache_simplevqa/torch_compile/yf/cyfs56zb2suw3tsmosn5l676nggdzxkxtp5fzg2rehjtqrhlho3f.py":26:37)
#loc5 = loc("/data/jcy/zzs/zijinhua/.vllm_cache_simplevqa/torch_compile/yf/cyfs56zb2suw3tsmosn5l676nggdzxkxtp5fzg2rehjtqrhlho3f.py":32:29)
#loc6 = loc("/data/jcy/zzs/zijinhua/.vllm_cache_simplevqa/torch_compile/yf/cyfs56zb2suw3tsmosn5l676nggdzxkxtp5fzg2rehjtqrhlho3f.py":36:46)
#loc7 = loc("/data/jcy/zzs/zijinhua/.vllm_cache_simplevqa/torch_compile/yf/cyfs56zb2suw3tsmosn5l676nggdzxkxtp5fzg2rehjtqrhlho3f.py":36:41)
#loc8 = loc("/data/jcy/zzs/zijinhua/.vllm_cache_simplevqa/torch_compile/yf/cyfs56zb2suw3tsmosn5l676nggdzxkxtp5fzg2rehjtqrhlho3f.py":36:34)
#loc9 = loc("/data/jcy/zzs/zijinhua/.vllm_cache_simplevqa/torch_compile/yf/cyfs56zb2suw3tsmosn5l676nggdzxkxtp5fzg2rehjtqrhlho3f.py":36:51)
#loc10 = loc("/data/jcy/zzs/zijinhua/.vllm_cache_simplevqa/torch_compile/yf/cyfs56zb2suw3tsmosn5l676nggdzxkxtp5fzg2rehjtqrhlho3f.py":36:105)
#loc11 = loc("/data/jcy/zzs/zijinhua/.vllm_cache_simplevqa/torch_compile/yf/cyfs56zb2suw3tsmosn5l676nggdzxkxtp5fzg2rehjtqrhlho3f.py":37:34)
#loc12 = loc("/data/jcy/zzs/zijinhua/.vllm_cache_simplevqa/torch_compile/yf/cyfs56zb2suw3tsmosn5l676nggdzxkxtp5fzg2rehjtqrhlho3f.py":37:51)
#loc13 = loc("/data/jcy/zzs/zijinhua/.vllm_cache_simplevqa/torch_compile/yf/cyfs56zb2suw3tsmosn5l676nggdzxkxtp5fzg2rehjtqrhlho3f.py":37:105)
#loc14 = loc("/data/jcy/zzs/zijinhua/.vllm_cache_simplevqa/torch_compile/yf/cyfs56zb2suw3tsmosn5l676nggdzxkxtp5fzg2rehjtqrhlho3f.py":38:22)
#loc15 = loc("/data/jcy/zzs/zijinhua/.vllm_cache_simplevqa/torch_compile/yf/cyfs56zb2suw3tsmosn5l676nggdzxkxtp5fzg2rehjtqrhlho3f.py":40:22)
#loc16 = loc("/data/jcy/zzs/zijinhua/.vllm_cache_simplevqa/torch_compile/yf/cyfs56zb2suw3tsmosn5l676nggdzxkxtp5fzg2rehjtqrhlho3f.py":42:23)
#loc17 = loc("/data/jcy/zzs/zijinhua/.vllm_cache_simplevqa/torch_compile/yf/cyfs56zb2suw3tsmosn5l676nggdzxkxtp5fzg2rehjtqrhlho3f.py":43:40)
#loc18 = loc("/data/jcy/zzs/zijinhua/.vllm_cache_simplevqa/torch_compile/yf/cyfs56zb2suw3tsmosn5l676nggdzxkxtp5fzg2rehjtqrhlho3f.py":44:29)
#loc19 = loc("/data/jcy/zzs/zijinhua/.vllm_cache_simplevqa/torch_compile/yf/cyfs56zb2suw3tsmosn5l676nggdzxkxtp5fzg2rehjtqrhlho3f.py":44:52)
#loc20 = loc("/data/conda/envs/or_llm/lib/python3.12/site-packages/triton/language/standard.py":293:36)
#loc22 = loc("/data/conda/envs/or_llm/lib/python3.12/site-packages/triton/language/standard.py":263:15)
#loc23 = loc("/data/jcy/zzs/zijinhua/.vllm_cache_simplevqa/torch_compile/yf/cyfs56zb2suw3tsmosn5l676nggdzxkxtp5fzg2rehjtqrhlho3f.py":45:28)
#loc24 = loc("/data/jcy/zzs/zijinhua/.vllm_cache_simplevqa/torch_compile/yf/cyfs56zb2suw3tsmosn5l676nggdzxkxtp5fzg2rehjtqrhlho3f.py":52:52)
#loc25 = loc("/data/jcy/zzs/zijinhua/.vllm_cache_simplevqa/torch_compile/yf/cyfs56zb2suw3tsmosn5l676nggdzxkxtp5fzg2rehjtqrhlho3f.py":52:106)
#loc26 = loc("/data/jcy/zzs/zijinhua/.vllm_cache_simplevqa/torch_compile/yf/cyfs56zb2suw3tsmosn5l676nggdzxkxtp5fzg2rehjtqrhlho3f.py":53:35)
#loc27 = loc("/data/jcy/zzs/zijinhua/.vllm_cache_simplevqa/torch_compile/yf/cyfs56zb2suw3tsmosn5l676nggdzxkxtp5fzg2rehjtqrhlho3f.py":53:42)
#loc28 = loc("/data/jcy/zzs/zijinhua/.vllm_cache_simplevqa/torch_compile/yf/cyfs56zb2suw3tsmosn5l676nggdzxkxtp5fzg2rehjtqrhlho3f.py":53:95)
#loc29 = loc("/data/jcy/zzs/zijinhua/.vllm_cache_simplevqa/torch_compile/yf/cyfs56zb2suw3tsmosn5l676nggdzxkxtp5fzg2rehjtqrhlho3f.py":56:24)
#loc30 = loc("/data/jcy/zzs/zijinhua/.vllm_cache_simplevqa/torch_compile/yf/cyfs56zb2suw3tsmosn5l676nggdzxkxtp5fzg2rehjtqrhlho3f.py":58:24)
#loc31 = loc("/data/jcy/zzs/zijinhua/.vllm_cache_simplevqa/torch_compile/yf/cyfs56zb2suw3tsmosn5l676nggdzxkxtp5fzg2rehjtqrhlho3f.py":59:32)
#loc32 = loc("/data/jcy/zzs/zijinhua/.vllm_cache_simplevqa/torch_compile/yf/cyfs56zb2suw3tsmosn5l676nggdzxkxtp5fzg2rehjtqrhlho3f.py":60:23)
#loc33 = loc("/data/jcy/zzs/zijinhua/.vllm_cache_simplevqa/torch_compile/yf/cyfs56zb2suw3tsmosn5l676nggdzxkxtp5fzg2rehjtqrhlho3f.py":63:24)
#loc34 = loc("/data/jcy/zzs/zijinhua/.vllm_cache_simplevqa/torch_compile/yf/cyfs56zb2suw3tsmosn5l676nggdzxkxtp5fzg2rehjtqrhlho3f.py":64:24)
#loc35 = loc("/data/jcy/zzs/zijinhua/.vllm_cache_simplevqa/torch_compile/yf/cyfs56zb2suw3tsmosn5l676nggdzxkxtp5fzg2rehjtqrhlho3f.py":66:29)
#loc36 = loc("/data/jcy/zzs/zijinhua/.vllm_cache_simplevqa/torch_compile/yf/cyfs56zb2suw3tsmosn5l676nggdzxkxtp5fzg2rehjtqrhlho3f.py":66:53)
#loc37 = loc("/data/jcy/zzs/zijinhua/.vllm_cache_simplevqa/torch_compile/yf/cyfs56zb2suw3tsmosn5l676nggdzxkxtp5fzg2rehjtqrhlho3f.py":46:4)
#loc45 = loc("xoffset"(#loc2))
#loc46 = loc("r0_base"(#loc3))
#loc47 = loc("r0_base"(#loc4))
#loc48 = loc("r0_mask"(#loc5))
#loc49 = loc("tmp0"(#loc6))
#loc50 = loc("tmp0"(#loc7))
#loc51 = loc("tmp0"(#loc8))
#loc52 = loc("tmp0"(#loc9))
#loc53 = loc("tmp0"(#loc10))
#loc54 = loc("tmp1"(#loc11))
#loc55 = loc("tmp1"(#loc12))
#loc56 = loc("tmp1"(#loc13))
#loc57 = loc("tmp2"(#loc14))
#loc58 = loc("tmp4"(#loc15))
#loc59 = loc("tmp7"(#loc16))
#loc60 = loc("_tmp6"(#loc17))
#loc62 = loc("tmp6"(#loc23))
#loc63 = loc("tmp8"(#loc24))
#loc64 = loc("tmp8"(#loc25))
#loc65 = loc("tmp16"(#loc26))
#loc66 = loc("tmp16"(#loc27))
#loc67 = loc("tmp16"(#loc28))
#loc68 = loc("tmp11"(#loc29))
#loc69 = loc("tmp13"(#loc30))
#loc70 = loc("tmp14"(#loc31))
#loc71 = loc("tmp15"(#loc32))
#loc72 = loc("tmp19"(#loc33))
#loc73 = loc("tmp20"(#loc34))
#loc74 = loc(fused[#loc50, #loc49])
#loc75 = loc(callsite(#loc20 at #loc61))
#loc77 = loc(callsite(#loc22 at #loc75))
