#loc = loc("/data/conda/envs/or_llm/lib/python3.12/site-packages/vllm/model_executor/layers/mamba/ops/causal_conv1d.py":16:0)
#loc278 = loc("x_ptr"(#loc))
#loc279 = loc("w_ptr"(#loc))
#loc280 = loc("initial_states_ptr"(#loc))
#loc281 = loc("cache_indices_ptr"(#loc))
#loc282 = loc("has_initial_states_ptr"(#loc))
#loc283 = loc("query_start_loc_ptr"(#loc))
#loc284 = loc("batch_ptr"(#loc))
#loc285 = loc("token_chunk_offset_ptr"(#loc))
#loc286 = loc("o_ptr"(#loc))
#loc287 = loc("seqlen"(#loc))
module {
  tt.func public @_causal_conv1d_fwd_kernel(%x_ptr: !tt.ptr<bf16> {tt.divisibility = 16 : i32} loc("x_ptr"(#loc)), %w_ptr: !tt.ptr<bf16> {tt.divisibility = 16 : i32} loc("w_ptr"(#loc)), %initial_states_ptr: !tt.ptr<bf16> {tt.divisibility = 16 : i32} loc("initial_states_ptr"(#loc)), %cache_indices_ptr: !tt.ptr<i32> {tt.divisibility = 16 : i32} loc("cache_indices_ptr"(#loc)), %has_initial_states_ptr: !tt.ptr<i1> {tt.divisibility = 16 : i32} loc("has_initial_states_ptr"(#loc)), %query_start_loc_ptr: !tt.ptr<i32> {tt.divisibility = 16 : i32} loc("query_start_loc_ptr"(#loc)), %batch_ptr: !tt.ptr<i32> {tt.divisibility = 16 : i32} loc("batch_ptr"(#loc)), %token_chunk_offset_ptr: !tt.ptr<i32> {tt.divisibility = 16 : i32} loc("token_chunk_offset_ptr"(#loc)), %o_ptr: !tt.ptr<bf16> {tt.divisibility = 16 : i32} loc("o_ptr"(#loc)), %seqlen: i32 {tt.divisibility = 16 : i32} loc("seqlen"(#loc))) attributes {noinline = false} {
    %stride_conv_state_seq = arith.constant 1081344 : i32 loc(#loc288)
    %stride_conv_state_dim = arith.constant 1 : i32 loc(#loc289)
    %stride_conv_state_tok = arith.constant 8192 : i32 loc(#loc290)
    %state_len = arith.constant 3 : i32 loc(#loc291)
    %idx_seq = tt.get_program_id x : i32 loc(#loc292)
    %idx_seq_0 = tt.addptr %batch_ptr, %idx_seq : !tt.ptr<i32>, i32 loc(#loc293)
    %idx_seq_1 = tt.load %idx_seq_0 : !tt.ptr<i32> loc(#loc294)
    %idx_seq_2 = arith.extsi %idx_seq_1 : i32 to i64 loc(#loc295)
    %chunk_offset = tt.get_program_id x : i32 loc(#loc296)
    %chunk_offset_3 = tt.addptr %token_chunk_offset_ptr, %chunk_offset : !tt.ptr<i32>, i32 loc(#loc297)
    %chunk_offset_4 = tt.load %chunk_offset_3 : !tt.ptr<i32> loc(#loc298)
    %idx_feats = tt.get_program_id y : i32 loc(#loc299)
    %idx_feats_5 = arith.constant 256 : i32 loc(#loc300)
    %idx_feats_6 = arith.constant 256 : i32 loc(#loc300)
    %idx_feats_7 = arith.extsi %idx_feats : i32 to i64 loc(#loc300)
    %idx_feats_8 = arith.extsi %idx_feats_6 : i32 to i64 loc(#loc300)
    %idx_feats_9 = arith.muli %idx_feats_7, %idx_feats_8 : i64 loc(#loc300)
    %idx_feats_10 = arith.constant 2147483647 : i64 loc(#loc300)
    %idx_feats_11 = arith.constant -2147483648 : i64 loc(#loc300)
    %idx_feats_12 = arith.cmpi sle, %idx_feats_9, %idx_feats_10 : i64 loc(#loc300)
    %idx_feats_13 = arith.cmpi sge, %idx_feats_9, %idx_feats_11 : i64 loc(#loc300)
    %idx_feats_14 = arith.andi %idx_feats_12, %idx_feats_13 : i1 loc(#loc300)
    %idx_feats_15 = arith.muli %idx_feats, %idx_feats_6 : i32 loc(#loc300)
    %idx_feats_16 = tt.make_range {end = 256 : i32, start = 0 : i32} : tensor<256xi32> loc(#loc301)
    %idx_feats_17 = tt.splat %idx_feats_15 : i32 -> tensor<256xi32> loc(#loc302)
    %idx_feats_18 = arith.extsi %idx_feats_17 : tensor<256xi32> to tensor<256xi64> loc(#loc302)
    %idx_feats_19 = arith.extsi %idx_feats_16 : tensor<256xi32> to tensor<256xi64> loc(#loc302)
    %idx_feats_20 = arith.addi %idx_feats_18, %idx_feats_19 : tensor<256xi64> loc(#loc302)
    %idx_feats_21 = arith.constant 2147483647 : i64 loc(#loc302)
    %idx_feats_22 = arith.constant -2147483648 : i64 loc(#loc302)
    %idx_feats_23 = arith.constant dense<2147483647> : tensor<256xi64> loc(#loc302)
    %idx_feats_24 = arith.cmpi sle, %idx_feats_20, %idx_feats_23 : tensor<256xi64> loc(#loc302)
    %idx_feats_25 = arith.constant dense<-2147483648> : tensor<256xi64> loc(#loc302)
    %idx_feats_26 = arith.cmpi sge, %idx_feats_20, %idx_feats_25 : tensor<256xi64> loc(#loc302)
    %idx_feats_27 = arith.andi %idx_feats_24, %idx_feats_26 : tensor<256xi1> loc(#loc302)
    %idx_feats_28 = arith.addi %idx_feats_17, %idx_feats_16 : tensor<256xi32> loc(#loc302)
    %c-1_i32 = arith.constant -1 : i32 loc(#loc16)
    %0 = arith.extsi %c-1_i32 : i32 to i64 loc(#loc16)
    %1 = arith.cmpi eq, %idx_seq_2, %0 : i64 loc(#loc16)
    cf.cond_br %1, ^bb1, ^bb2 loc(#loc16)
  ^bb1:  // pred: ^bb0
    tt.return loc(#loc17)
  ^bb2:  // pred: ^bb0
    cf.br ^bb4 loc(#loc)
  ^bb3:  // no predecessors
    cf.br ^bb4 loc(#loc)
  ^bb4:  // 2 preds: ^bb2, ^bb3
    %sequence_start_index = tt.addptr %query_start_loc_ptr, %idx_seq_2 : !tt.ptr<i32>, i64 loc(#loc303)
    %sequence_start_index_29 = tt.load %sequence_start_index : !tt.ptr<i32> loc(#loc304)
    %sequence_end_index = tt.addptr %query_start_loc_ptr, %idx_seq_2 : !tt.ptr<i32>, i64 loc(#loc305)
    %sequence_end_index_30 = arith.constant 1 : i32 loc(#loc306)
    %sequence_end_index_31 = tt.addptr %sequence_end_index, %sequence_end_index_30 : !tt.ptr<i32>, i32 loc(#loc306)
    %sequence_end_index_32 = tt.load %sequence_end_index_31 : !tt.ptr<i32> loc(#loc307)
    %seqlen_33 = arith.extsi %sequence_end_index_32 : i32 to i64 loc(#loc308)
    %seqlen_34 = arith.extsi %sequence_start_index_29 : i32 to i64 loc(#loc308)
    %seqlen_35 = arith.subi %seqlen_33, %seqlen_34 : i64 loc(#loc308)
    %seqlen_36 = arith.constant 2147483647 : i64 loc(#loc308)
    %seqlen_37 = arith.constant -2147483648 : i64 loc(#loc308)
    %seqlen_38 = arith.cmpi sle, %seqlen_35, %seqlen_36 : i64 loc(#loc308)
    %seqlen_39 = arith.cmpi sge, %seqlen_35, %seqlen_37 : i64 loc(#loc308)
    %seqlen_40 = arith.andi %seqlen_38, %seqlen_39 : i1 loc(#loc308)
    %seqlen_41 = arith.subi %sequence_end_index_32, %sequence_start_index_29 : i32 loc(#loc308)
    %n_block_to_fill = arith.constant 0 : i32 loc(#loc309)
    %current_last_index = arith.constant 0 : i32 loc(#loc310)
    %conv_state_init_index = arith.constant 0 : i32 loc(#loc311)
    %current_first_index = arith.constant 0 : i32 loc(#loc312)
    %last_full_block_token_index = arith.constant 0 : i32 loc(#loc313)
    %token_offset = arith.constant 8 : i32 loc(#loc314)
    %token_offset_42 = arith.constant 8 : i32 loc(#loc314)
    %token_offset_43 = arith.extsi %token_offset_42 : i32 to i64 loc(#loc314)
    %token_offset_44 = arith.extsi %chunk_offset_4 : i32 to i64 loc(#loc314)
    %token_offset_45 = arith.muli %token_offset_43, %token_offset_44 : i64 loc(#loc314)
    %token_offset_46 = arith.constant 2147483647 : i64 loc(#loc314)
    %token_offset_47 = arith.constant -2147483648 : i64 loc(#loc314)
    %token_offset_48 = arith.cmpi sle, %token_offset_45, %token_offset_46 : i64 loc(#loc314)
    %token_offset_49 = arith.cmpi sge, %token_offset_45, %token_offset_47 : i64 loc(#loc314)
    %token_offset_50 = arith.andi %token_offset_48, %token_offset_49 : i1 loc(#loc314)
    %token_offset_51 = arith.muli %token_offset_42, %chunk_offset_4 : i32 loc(#loc314)
    %segment_len = arith.extsi %seqlen_41 : i32 to i64 loc(#loc315)
    %segment_len_52 = arith.extsi %token_offset_51 : i32 to i64 loc(#loc315)
    %segment_len_53 = arith.subi %segment_len, %segment_len_52 : i64 loc(#loc315)
    %segment_len_54 = arith.constant 2147483647 : i64 loc(#loc315)
    %segment_len_55 = arith.constant -2147483648 : i64 loc(#loc315)
    %segment_len_56 = arith.cmpi sle, %segment_len_53, %segment_len_54 : i64 loc(#loc315)
    %segment_len_57 = arith.cmpi sge, %segment_len_53, %segment_len_55 : i64 loc(#loc315)
    %segment_len_58 = arith.andi %segment_len_56, %segment_len_57 : i1 loc(#loc315)
    %segment_len_59 = arith.subi %seqlen_41, %token_offset_51 : i32 loc(#loc315)
    %segment_len_60 = arith.constant 8 : i32 loc(#loc316)
    %segment_len_61 = arith.minsi %segment_len_60, %segment_len_59 : i32 loc(#loc316)
    %x_base = arith.constant 12288 : i32 loc(#loc317)
    %x_base_62 = arith.constant 12288 : i32 loc(#loc317)
    %x_base_63 = arith.extsi %sequence_start_index_29 : i32 to i64 loc(#loc317)
    %x_base_64 = arith.extsi %x_base_62 : i32 to i64 loc(#loc317)
    %x_base_65 = arith.muli %x_base_63, %x_base_64 : i64 loc(#loc317)
    %x_base_66 = arith.constant 2147483647 : i64 loc(#loc317)
    %x_base_67 = arith.constant -2147483648 : i64 loc(#loc317)
    %x_base_68 = arith.cmpi sle, %x_base_65, %x_base_66 : i64 loc(#loc317)
    %x_base_69 = arith.cmpi sge, %x_base_65, %x_base_67 : i64 loc(#loc317)
    %x_base_70 = arith.andi %x_base_68, %x_base_69 : i1 loc(#loc317)
    %x_base_71 = arith.muli %sequence_start_index_29, %x_base_62 : i32 loc(#loc317)
    %x_base_72 = tt.addptr %x_ptr, %x_base_71 : !tt.ptr<bf16>, i32 loc(#loc318)
    %x_base_73 = arith.constant 1 : i32 loc(#loc319)
    %x_base_74 = arith.constant 1 : i32 loc(#loc319)
    %x_base_75 = arith.constant dense<1> : tensor<256xi32> loc(#loc319)
    %x_base_76 = arith.extsi %idx_feats_28 : tensor<256xi32> to tensor<256xi64> loc(#loc319)
    %x_base_77 = arith.extsi %x_base_75 : tensor<256xi32> to tensor<256xi64> loc(#loc319)
    %x_base_78 = arith.muli %x_base_76, %x_base_77 : tensor<256xi64> loc(#loc319)
    %x_base_79 = arith.constant 2147483647 : i64 loc(#loc319)
    %x_base_80 = arith.constant -2147483648 : i64 loc(#loc319)
    %x_base_81 = arith.constant dense<2147483647> : tensor<256xi64> loc(#loc319)
    %x_base_82 = arith.cmpi sle, %x_base_78, %x_base_81 : tensor<256xi64> loc(#loc319)
    %x_base_83 = arith.constant dense<-2147483648> : tensor<256xi64> loc(#loc319)
    %x_base_84 = arith.cmpi sge, %x_base_78, %x_base_83 : tensor<256xi64> loc(#loc319)
    %x_base_85 = arith.andi %x_base_82, %x_base_84 : tensor<256xi1> loc(#loc319)
    %x_base_86 = arith.muli %idx_feats_28, %x_base_75 : tensor<256xi32> loc(#loc319)
    %x_base_87 = tt.splat %x_base_72 : !tt.ptr<bf16> -> tensor<256x!tt.ptr<bf16>> loc(#loc320)
    %x_base_88 = tt.addptr %x_base_87, %x_base_86 : tensor<256x!tt.ptr<bf16>>, tensor<256xi32> loc(#loc320)
    %conv_states_input_coord = arith.constant 1 : i32 loc(#loc321)
    %conv_states_input_coord_89 = arith.constant 1 : i64 loc(#loc321)
    %conv_states_input_coord_90 = arith.muli %idx_seq_2, %conv_states_input_coord_89 : i64 loc(#loc321)
    %conv_states_input_coord_91 = tt.addptr %cache_indices_ptr, %conv_states_input_coord_90 : !tt.ptr<i32>, i64 loc(#loc322)
    %conv_states_input_coord_92 = tt.addptr %conv_states_input_coord_91, %conv_state_init_index : !tt.ptr<i32>, i32 loc(#loc323)
    %conv_states_input_coord_93 = tt.load %conv_states_input_coord_92 : !tt.ptr<i32> loc(#loc324)
    %conv_states_input_coord_94 = arith.extsi %conv_states_input_coord_93 : i32 to i64 loc(#loc325)
    %c-1_i32_95 = arith.constant -1 : i32 loc(#loc41)
    %2 = arith.extsi %c-1_i32_95 : i32 to i64 loc(#loc41)
    %3 = arith.cmpi eq, %conv_states_input_coord_94, %2 : i64 loc(#loc41)
    cf.cond_br %3, ^bb5, ^bb6 loc(#loc41)
  ^bb5:  // pred: ^bb4
    tt.return loc(#loc42)
  ^bb6:  // pred: ^bb4
    cf.br ^bb8 loc(#loc)
  ^bb7:  // no predecessors
    cf.br ^bb8 loc(#loc)
  ^bb8:  // 2 preds: ^bb6, ^bb7
    %conv_states_base = arith.extsi %stride_conv_state_seq : i32 to i64 loc(#loc326)
    %conv_states_base_96 = arith.muli %conv_states_input_coord_94, %conv_states_base : i64 loc(#loc326)
    %conv_states_base_97 = tt.addptr %initial_states_ptr, %conv_states_base_96 : !tt.ptr<bf16>, i64 loc(#loc327)
    %conv_states_base_98 = arith.constant dense<1> : tensor<256xi32> loc(#loc328)
    %conv_states_base_99 = arith.extsi %idx_feats_28 : tensor<256xi32> to tensor<256xi64> loc(#loc328)
    %conv_states_base_100 = arith.extsi %conv_states_base_98 : tensor<256xi32> to tensor<256xi64> loc(#loc328)
    %conv_states_base_101 = arith.muli %conv_states_base_99, %conv_states_base_100 : tensor<256xi64> loc(#loc328)
    %conv_states_base_102 = arith.constant 2147483647 : i64 loc(#loc328)
    %conv_states_base_103 = arith.constant -2147483648 : i64 loc(#loc328)
    %conv_states_base_104 = arith.constant dense<2147483647> : tensor<256xi64> loc(#loc328)
    %conv_states_base_105 = arith.cmpi sle, %conv_states_base_101, %conv_states_base_104 : tensor<256xi64> loc(#loc328)
    %conv_states_base_106 = arith.constant dense<-2147483648> : tensor<256xi64> loc(#loc328)
    %conv_states_base_107 = arith.cmpi sge, %conv_states_base_101, %conv_states_base_106 : tensor<256xi64> loc(#loc328)
    %conv_states_base_108 = arith.andi %conv_states_base_105, %conv_states_base_107 : tensor<256xi1> loc(#loc328)
    %conv_states_base_109 = arith.muli %idx_feats_28, %conv_states_base_98 : tensor<256xi32> loc(#loc328)
    %conv_states_base_110 = tt.splat %conv_states_base_97 : !tt.ptr<bf16> -> tensor<256x!tt.ptr<bf16>> loc(#loc329)
    %conv_states_base_111 = tt.addptr %conv_states_base_110, %conv_states_base_109 : tensor<256x!tt.ptr<bf16>>, tensor<256xi32> loc(#loc329)
    %w_base = arith.constant 4 : i32 loc(#loc330)
    %w_base_112 = arith.constant 4 : i32 loc(#loc330)
    %w_base_113 = arith.constant dense<4> : tensor<256xi32> loc(#loc330)
    %w_base_114 = arith.extsi %idx_feats_28 : tensor<256xi32> to tensor<256xi64> loc(#loc330)
    %w_base_115 = arith.extsi %w_base_113 : tensor<256xi32> to tensor<256xi64> loc(#loc330)
    %w_base_116 = arith.muli %w_base_114, %w_base_115 : tensor<256xi64> loc(#loc330)
    %w_base_117 = arith.constant 2147483647 : i64 loc(#loc330)
    %w_base_118 = arith.constant -2147483648 : i64 loc(#loc330)
    %w_base_119 = arith.constant dense<2147483647> : tensor<256xi64> loc(#loc330)
    %w_base_120 = arith.cmpi sle, %w_base_116, %w_base_119 : tensor<256xi64> loc(#loc330)
    %w_base_121 = arith.constant dense<-2147483648> : tensor<256xi64> loc(#loc330)
    %w_base_122 = arith.cmpi sge, %w_base_116, %w_base_121 : tensor<256xi64> loc(#loc330)
    %w_base_123 = arith.andi %w_base_120, %w_base_122 : tensor<256xi1> loc(#loc330)
    %w_base_124 = arith.muli %idx_feats_28, %w_base_113 : tensor<256xi32> loc(#loc330)
    %w_base_125 = tt.splat %w_ptr : !tt.ptr<bf16> -> tensor<256x!tt.ptr<bf16>> loc(#loc331)
    %w_base_126 = tt.addptr %w_base_125, %w_base_124 : tensor<256x!tt.ptr<bf16>>, tensor<256xi32> loc(#loc331)
    %c0_i32 = arith.constant 0 : i32 loc(#loc49)
    %4 = arith.cmpi eq, %chunk_offset_4, %c0_i32 : i32 loc(#loc49)
    %5:4 = scf.if %4 -> (tensor<256xbf16>, tensor<256xbf16>, tensor<256xbf16>, i1) {
      %load_init_state = tt.addptr %has_initial_states_ptr, %idx_seq_2 : !tt.ptr<i1>, i64 loc(#loc332)
      %load_init_state_167 = tt.bitcast %load_init_state : !tt.ptr<i1> -> !tt.ptr<i8> loc(#loc333)
      %load_init_state_168 = tt.load %load_init_state_167 : !tt.ptr<i8> loc(#loc333)
      %load_init_state_169 = arith.constant 0 : i8 loc(#loc333)
      %load_init_state_170 = arith.cmpi ne, %load_init_state_168, %load_init_state_169 : i8 loc(#loc540)
      %col2_171:3 = scf.if %load_init_state_170 -> (tensor<256xbf16>, tensor<256xbf16>, tensor<256xbf16>) {
        %prior_tokens = arith.constant 1 : i32 loc(#loc335)
        %prior_tokens_172 = arith.constant 1 : i32 loc(#loc335)
        %prior_tokens_173 = arith.extsi %state_len : i32 to i64 loc(#loc335)
        %prior_tokens_174 = arith.extsi %prior_tokens_172 : i32 to i64 loc(#loc335)
        %prior_tokens_175 = arith.subi %prior_tokens_173, %prior_tokens_174 : i64 loc(#loc335)
        %prior_tokens_176 = arith.constant 2147483647 : i64 loc(#loc335)
        %prior_tokens_177 = arith.constant -2147483648 : i64 loc(#loc335)
        %prior_tokens_178 = arith.cmpi sle, %prior_tokens_175, %prior_tokens_176 : i64 loc(#loc335)
        %prior_tokens_179 = arith.cmpi sge, %prior_tokens_175, %prior_tokens_177 : i64 loc(#loc335)
        %prior_tokens_180 = arith.andi %prior_tokens_178, %prior_tokens_179 : i1 loc(#loc335)
        %prior_tokens_181 = arith.subi %state_len, %prior_tokens_172 : i32 loc(#loc335)
        %prior_tokens_182 = arith.extsi %prior_tokens_181 : i32 to i64 loc(#loc336)
        %prior_tokens_183 = arith.extsi %stride_conv_state_tok : i32 to i64 loc(#loc336)
        %prior_tokens_184 = arith.muli %prior_tokens_182, %prior_tokens_183 : i64 loc(#loc336)
        %prior_tokens_185 = arith.constant 2147483647 : i64 loc(#loc336)
        %prior_tokens_186 = arith.constant -2147483648 : i64 loc(#loc336)
        %prior_tokens_187 = arith.cmpi sle, %prior_tokens_184, %prior_tokens_185 : i64 loc(#loc336)
        %prior_tokens_188 = arith.cmpi sge, %prior_tokens_184, %prior_tokens_186 : i64 loc(#loc336)
        %prior_tokens_189 = arith.andi %prior_tokens_187, %prior_tokens_188 : i1 loc(#loc336)
        %prior_tokens_190 = arith.muli %prior_tokens_181, %stride_conv_state_tok : i32 loc(#loc336)
        %prior_tokens_191 = tt.splat %prior_tokens_190 : i32 -> tensor<256xi32> loc(#loc337)
        %prior_tokens_192 = tt.addptr %conv_states_base_111, %prior_tokens_191 : tensor<256x!tt.ptr<bf16>>, tensor<256xi32> loc(#loc337)
        %mask_w_193 = arith.constant 8192 : i32 loc(#loc338)
        %mask_w_194 = arith.constant dense<8192> : tensor<256xi32> loc(#loc338)
        %mask_w_195 = arith.cmpi slt, %idx_feats_28, %mask_w_194 : tensor<256xi32> loc(#loc338)
        %col2_196 = arith.constant 0.000000e+00 : f32 loc(#loc339)
        %col2_197 = arith.constant dense<0.000000e+00> : tensor<256xf32> loc(#loc339)
        %col2_198 = arith.truncf %col2_197 : tensor<256xf32> to tensor<256xbf16> loc(#loc339)
        %col2_199 = tt.load %prior_tokens_192, %mask_w_195, %col2_198 : tensor<256x!tt.ptr<bf16>> loc(#loc542)
        %conv_states_ptrs = arith.constant 1 : i32 loc(#loc340)
        %conv_states_ptrs_200 = arith.constant 1 : i32 loc(#loc340)
        %conv_states_ptrs_201 = arith.extsi %conv_states_ptrs_200 : i32 to i64 loc(#loc340)
        %conv_states_ptrs_202 = arith.extsi %stride_conv_state_tok : i32 to i64 loc(#loc340)
        %conv_states_ptrs_203 = arith.muli %conv_states_ptrs_201, %conv_states_ptrs_202 : i64 loc(#loc340)
        %conv_states_ptrs_204 = arith.constant 2147483647 : i64 loc(#loc340)
        %conv_states_ptrs_205 = arith.constant -2147483648 : i64 loc(#loc340)
        %conv_states_ptrs_206 = arith.cmpi sle, %conv_states_ptrs_203, %conv_states_ptrs_204 : i64 loc(#loc340)
        %conv_states_ptrs_207 = arith.cmpi sge, %conv_states_ptrs_203, %conv_states_ptrs_205 : i64 loc(#loc340)
        %conv_states_ptrs_208 = arith.andi %conv_states_ptrs_206, %conv_states_ptrs_207 : i1 loc(#loc340)
        %conv_states_ptrs_209 = arith.muli %conv_states_ptrs_200, %stride_conv_state_tok : i32 loc(#loc340)
        %conv_states_ptrs_210 = tt.splat %conv_states_ptrs_209 : i32 -> tensor<256xi32> loc(#loc341)
        %conv_states_ptrs_211 = arith.constant 0 : i32 loc(#loc341)
        %conv_states_ptrs_212 = arith.constant dense<0> : tensor<256xi32> loc(#loc341)
        %conv_states_ptrs_213 = arith.extsi %conv_states_ptrs_212 : tensor<256xi32> to tensor<256xi64> loc(#loc341)
        %conv_states_ptrs_214 = arith.extsi %conv_states_ptrs_210 : tensor<256xi32> to tensor<256xi64> loc(#loc341)
        %conv_states_ptrs_215 = arith.subi %conv_states_ptrs_213, %conv_states_ptrs_214 : tensor<256xi64> loc(#loc341)
        %conv_states_ptrs_216 = arith.constant 2147483647 : i64 loc(#loc341)
        %conv_states_ptrs_217 = arith.constant -2147483648 : i64 loc(#loc341)
        %conv_states_ptrs_218 = arith.constant dense<2147483647> : tensor<256xi64> loc(#loc341)
        %conv_states_ptrs_219 = arith.cmpi sle, %conv_states_ptrs_215, %conv_states_ptrs_218 : tensor<256xi64> loc(#loc341)
        %conv_states_ptrs_220 = arith.constant dense<-2147483648> : tensor<256xi64> loc(#loc341)
        %conv_states_ptrs_221 = arith.cmpi sge, %conv_states_ptrs_215, %conv_states_ptrs_220 : tensor<256xi64> loc(#loc341)
        %conv_states_ptrs_222 = arith.andi %conv_states_ptrs_219, %conv_states_ptrs_221 : tensor<256xi1> loc(#loc341)
        %conv_states_ptrs_223 = arith.subi %conv_states_ptrs_212, %conv_states_ptrs_210 : tensor<256xi32> loc(#loc341)
        %conv_states_ptrs_224 = tt.addptr %prior_tokens_192, %conv_states_ptrs_223 : tensor<256x!tt.ptr<bf16>>, tensor<256xi32> loc(#loc341)
        %col1 = arith.constant 0.000000e+00 : f32 loc(#loc342)
        %col1_225 = arith.constant dense<0.000000e+00> : tensor<256xf32> loc(#loc342)
        %col1_226 = arith.truncf %col1_225 : tensor<256xf32> to tensor<256xbf16> loc(#loc342)
        %col1_227 = tt.load %conv_states_ptrs_224, %mask_w_195, %col1_226 : tensor<256x!tt.ptr<bf16>> loc(#loc543)
        %conv_states_ptrs_228 = arith.constant 2 : i32 loc(#loc343)
        %conv_states_ptrs_229 = arith.constant 2 : i32 loc(#loc343)
        %conv_states_ptrs_230 = arith.extsi %conv_states_ptrs_229 : i32 to i64 loc(#loc343)
        %conv_states_ptrs_231 = arith.extsi %stride_conv_state_tok : i32 to i64 loc(#loc343)
        %conv_states_ptrs_232 = arith.muli %conv_states_ptrs_230, %conv_states_ptrs_231 : i64 loc(#loc343)
        %conv_states_ptrs_233 = arith.constant 2147483647 : i64 loc(#loc343)
        %conv_states_ptrs_234 = arith.constant -2147483648 : i64 loc(#loc343)
        %conv_states_ptrs_235 = arith.cmpi sle, %conv_states_ptrs_232, %conv_states_ptrs_233 : i64 loc(#loc343)
        %conv_states_ptrs_236 = arith.cmpi sge, %conv_states_ptrs_232, %conv_states_ptrs_234 : i64 loc(#loc343)
        %conv_states_ptrs_237 = arith.andi %conv_states_ptrs_235, %conv_states_ptrs_236 : i1 loc(#loc343)
        %conv_states_ptrs_238 = arith.muli %conv_states_ptrs_229, %stride_conv_state_tok : i32 loc(#loc343)
        %conv_states_ptrs_239 = tt.splat %conv_states_ptrs_238 : i32 -> tensor<256xi32> loc(#loc344)
        %conv_states_ptrs_240 = arith.constant 0 : i32 loc(#loc344)
        %conv_states_ptrs_241 = arith.constant dense<0> : tensor<256xi32> loc(#loc344)
        %conv_states_ptrs_242 = arith.extsi %conv_states_ptrs_241 : tensor<256xi32> to tensor<256xi64> loc(#loc344)
        %conv_states_ptrs_243 = arith.extsi %conv_states_ptrs_239 : tensor<256xi32> to tensor<256xi64> loc(#loc344)
        %conv_states_ptrs_244 = arith.subi %conv_states_ptrs_242, %conv_states_ptrs_243 : tensor<256xi64> loc(#loc344)
        %conv_states_ptrs_245 = arith.constant 2147483647 : i64 loc(#loc344)
        %conv_states_ptrs_246 = arith.constant -2147483648 : i64 loc(#loc344)
        %conv_states_ptrs_247 = arith.constant dense<2147483647> : tensor<256xi64> loc(#loc344)
        %conv_states_ptrs_248 = arith.cmpi sle, %conv_states_ptrs_244, %conv_states_ptrs_247 : tensor<256xi64> loc(#loc344)
        %conv_states_ptrs_249 = arith.constant dense<-2147483648> : tensor<256xi64> loc(#loc344)
        %conv_states_ptrs_250 = arith.cmpi sge, %conv_states_ptrs_244, %conv_states_ptrs_249 : tensor<256xi64> loc(#loc344)
        %conv_states_ptrs_251 = arith.andi %conv_states_ptrs_248, %conv_states_ptrs_250 : tensor<256xi1> loc(#loc344)
        %conv_states_ptrs_252 = arith.subi %conv_states_ptrs_241, %conv_states_ptrs_239 : tensor<256xi32> loc(#loc344)
        %conv_states_ptrs_253 = tt.addptr %prior_tokens_192, %conv_states_ptrs_252 : tensor<256x!tt.ptr<bf16>>, tensor<256xi32> loc(#loc344)
        %col0 = arith.constant 0.000000e+00 : f32 loc(#loc345)
        %col0_254 = arith.constant dense<0.000000e+00> : tensor<256xf32> loc(#loc345)
        %col0_255 = arith.truncf %col0_254 : tensor<256xf32> to tensor<256xbf16> loc(#loc345)
        %col0_256 = tt.load %conv_states_ptrs_253, %mask_w_195, %col0_255 : tensor<256x!tt.ptr<bf16>> loc(#loc544)
        scf.yield %col0_256, %col1_227, %col2_199 : tensor<256xbf16>, tensor<256xbf16>, tensor<256xbf16> loc(#loc544)
      } else {
        %col0 = tt.call @"triton.language.standard.zeros____(0, 0)cconstexpr_256__(1,)cconstexpr_bf16_"() : () -> tensor<256xbf16> loc(#loc545)
        %col1 = tt.call @"triton.language.standard.zeros____(0, 0)cconstexpr_256__(1,)cconstexpr_bf16_"() : () -> tensor<256xbf16> loc(#loc546)
        %col2_172 = tt.call @"triton.language.standard.zeros____(0, 0)cconstexpr_256__(1,)cconstexpr_bf16_"() : () -> tensor<256xbf16> loc(#loc547)
        scf.yield %col0, %col1, %col2_172 : tensor<256xbf16>, tensor<256xbf16>, tensor<256xbf16> loc(#loc348)
      } loc(#loc573)
      %10 = arith.cmpi sle, %state_len, %seqlen_41 : i32 loc(#loc68)
      %11:5 = scf.if %10 -> (tensor<4x256x!tt.ptr<bf16>>, tensor<4xi32>, tensor<4x256xi1>, tensor<4x256xi1>, tensor<4x256x!tt.ptr<bf16>>) {
        %idx_tokens_last = arith.extsi %seqlen_41 : i32 to i64 loc(#loc349)
        %idx_tokens_last_172 = arith.extsi %state_len : i32 to i64 loc(#loc349)
        %idx_tokens_last_173 = arith.subi %idx_tokens_last, %idx_tokens_last_172 : i64 loc(#loc349)
        %idx_tokens_last_174 = arith.constant 2147483647 : i64 loc(#loc349)
        %idx_tokens_last_175 = arith.constant -2147483648 : i64 loc(#loc349)
        %idx_tokens_last_176 = arith.cmpi sle, %idx_tokens_last_173, %idx_tokens_last_174 : i64 loc(#loc349)
        %idx_tokens_last_177 = arith.cmpi sge, %idx_tokens_last_173, %idx_tokens_last_175 : i64 loc(#loc349)
        %idx_tokens_last_178 = arith.andi %idx_tokens_last_176, %idx_tokens_last_177 : i1 loc(#loc349)
        %idx_tokens_last_179 = arith.subi %seqlen_41, %state_len : i32 loc(#loc349)
        %idx_tokens_last_180 = tt.make_range {end = 4 : i32, start = 0 : i32} : tensor<4xi32> loc(#loc350)
        %idx_tokens_last_181 = tt.splat %idx_tokens_last_179 : i32 -> tensor<4xi32> loc(#loc351)
        %idx_tokens_last_182 = arith.extsi %idx_tokens_last_181 : tensor<4xi32> to tensor<4xi64> loc(#loc351)
        %idx_tokens_last_183 = arith.extsi %idx_tokens_last_180 : tensor<4xi32> to tensor<4xi64> loc(#loc351)
        %idx_tokens_last_184 = arith.addi %idx_tokens_last_182, %idx_tokens_last_183 : tensor<4xi64> loc(#loc351)
        %idx_tokens_last_185 = arith.constant 2147483647 : i64 loc(#loc351)
        %idx_tokens_last_186 = arith.constant -2147483648 : i64 loc(#loc351)
        %idx_tokens_last_187 = arith.constant dense<2147483647> : tensor<4xi64> loc(#loc351)
        %idx_tokens_last_188 = arith.cmpi sle, %idx_tokens_last_184, %idx_tokens_last_187 : tensor<4xi64> loc(#loc351)
        %idx_tokens_last_189 = arith.constant dense<-2147483648> : tensor<4xi64> loc(#loc351)
        %idx_tokens_last_190 = arith.cmpi sge, %idx_tokens_last_184, %idx_tokens_last_189 : tensor<4xi64> loc(#loc351)
        %idx_tokens_last_191 = arith.andi %idx_tokens_last_188, %idx_tokens_last_190 : tensor<4xi1> loc(#loc351)
        %idx_tokens_last_192 = arith.addi %idx_tokens_last_181, %idx_tokens_last_180 : tensor<4xi32> loc(#loc351)
        %x_ptrs = tt.splat %sequence_start_index_29 : i32 -> tensor<4xi32> loc(#loc352)
        %x_ptrs_193 = arith.extsi %x_ptrs : tensor<4xi32> to tensor<4xi64> loc(#loc352)
        %x_ptrs_194 = arith.extsi %idx_tokens_last_192 : tensor<4xi32> to tensor<4xi64> loc(#loc352)
        %x_ptrs_195 = arith.addi %x_ptrs_193, %x_ptrs_194 : tensor<4xi64> loc(#loc352)
        %x_ptrs_196 = arith.constant 2147483647 : i64 loc(#loc352)
        %x_ptrs_197 = arith.constant -2147483648 : i64 loc(#loc352)
        %x_ptrs_198 = arith.constant dense<2147483647> : tensor<4xi64> loc(#loc352)
        %x_ptrs_199 = arith.cmpi sle, %x_ptrs_195, %x_ptrs_198 : tensor<4xi64> loc(#loc352)
        %x_ptrs_200 = arith.constant dense<-2147483648> : tensor<4xi64> loc(#loc352)
        %x_ptrs_201 = arith.cmpi sge, %x_ptrs_195, %x_ptrs_200 : tensor<4xi64> loc(#loc352)
        %x_ptrs_202 = arith.andi %x_ptrs_199, %x_ptrs_201 : tensor<4xi1> loc(#loc352)
        %x_ptrs_203 = arith.addi %x_ptrs, %idx_tokens_last_192 : tensor<4xi32> loc(#loc352)
        %x_ptrs_204 = arith.constant 12288 : i32 loc(#loc353)
        %x_ptrs_205 = arith.constant 12288 : i32 loc(#loc353)
        %x_ptrs_206 = arith.constant dense<12288> : tensor<4xi32> loc(#loc353)
        %x_ptrs_207 = arith.extsi %x_ptrs_203 : tensor<4xi32> to tensor<4xi64> loc(#loc353)
        %x_ptrs_208 = arith.extsi %x_ptrs_206 : tensor<4xi32> to tensor<4xi64> loc(#loc353)
        %x_ptrs_209 = arith.muli %x_ptrs_207, %x_ptrs_208 : tensor<4xi64> loc(#loc353)
        %x_ptrs_210 = arith.constant 2147483647 : i64 loc(#loc353)
        %x_ptrs_211 = arith.constant -2147483648 : i64 loc(#loc353)
        %x_ptrs_212 = arith.constant dense<2147483647> : tensor<4xi64> loc(#loc353)
        %x_ptrs_213 = arith.cmpi sle, %x_ptrs_209, %x_ptrs_212 : tensor<4xi64> loc(#loc353)
        %x_ptrs_214 = arith.constant dense<-2147483648> : tensor<4xi64> loc(#loc353)
        %x_ptrs_215 = arith.cmpi sge, %x_ptrs_209, %x_ptrs_214 : tensor<4xi64> loc(#loc353)
        %x_ptrs_216 = arith.andi %x_ptrs_213, %x_ptrs_215 : tensor<4xi1> loc(#loc353)
        %x_ptrs_217 = arith.muli %x_ptrs_203, %x_ptrs_206 : tensor<4xi32> loc(#loc353)
        %x_ptrs_218 = tt.expand_dims %x_ptrs_217 {axis = 1 : i32} : tensor<4xi32> -> tensor<4x1xi32> loc(#loc354)
        %x_ptrs_219 = tt.splat %x_ptr : !tt.ptr<bf16> -> tensor<4x1x!tt.ptr<bf16>> loc(#loc355)
        %x_ptrs_220 = tt.addptr %x_ptrs_219, %x_ptrs_218 : tensor<4x1x!tt.ptr<bf16>>, tensor<4x1xi32> loc(#loc355)
        %x_ptrs_221 = arith.constant 1 : i32 loc(#loc356)
        %x_ptrs_222 = arith.constant 1 : i32 loc(#loc356)
        %x_ptrs_223 = arith.constant dense<1> : tensor<256xi32> loc(#loc356)
        %x_ptrs_224 = arith.extsi %idx_feats_28 : tensor<256xi32> to tensor<256xi64> loc(#loc356)
        %x_ptrs_225 = arith.extsi %x_ptrs_223 : tensor<256xi32> to tensor<256xi64> loc(#loc356)
        %x_ptrs_226 = arith.muli %x_ptrs_224, %x_ptrs_225 : tensor<256xi64> loc(#loc356)
        %x_ptrs_227 = arith.constant 2147483647 : i64 loc(#loc356)
        %x_ptrs_228 = arith.constant -2147483648 : i64 loc(#loc356)
        %x_ptrs_229 = arith.constant dense<2147483647> : tensor<256xi64> loc(#loc356)
        %x_ptrs_230 = arith.cmpi sle, %x_ptrs_226, %x_ptrs_229 : tensor<256xi64> loc(#loc356)
        %x_ptrs_231 = arith.constant dense<-2147483648> : tensor<256xi64> loc(#loc356)
        %x_ptrs_232 = arith.cmpi sge, %x_ptrs_226, %x_ptrs_231 : tensor<256xi64> loc(#loc356)
        %x_ptrs_233 = arith.andi %x_ptrs_230, %x_ptrs_232 : tensor<256xi1> loc(#loc356)
        %x_ptrs_234 = arith.muli %idx_feats_28, %x_ptrs_223 : tensor<256xi32> loc(#loc356)
        %x_ptrs_235 = tt.expand_dims %x_ptrs_234 {axis = 0 : i32} : tensor<256xi32> -> tensor<1x256xi32> loc(#loc357)
        %x_ptrs_236 = tt.broadcast %x_ptrs_220 : tensor<4x1x!tt.ptr<bf16>> -> tensor<4x256x!tt.ptr<bf16>> loc(#loc358)
        %x_ptrs_237 = tt.broadcast %x_ptrs_235 : tensor<1x256xi32> -> tensor<4x256xi32> loc(#loc358)
        %x_ptrs_238 = tt.addptr %x_ptrs_236, %x_ptrs_237 : tensor<4x256x!tt.ptr<bf16>>, tensor<4x256xi32> loc(#loc548)
        %mask_x = arith.constant 0 : i32 loc(#loc359)
        %mask_x_239 = arith.constant dense<0> : tensor<4xi32> loc(#loc359)
        %mask_x_240 = arith.cmpi sge, %idx_tokens_last_192, %mask_x_239 : tensor<4xi32> loc(#loc359)
        %mask_x_241 = tt.expand_dims %mask_x_240 {axis = 1 : i32} : tensor<4xi1> -> tensor<4x1xi1> loc(#loc360)
        %mask_x_242 = tt.splat %seqlen_41 : i32 -> tensor<4xi32> loc(#loc361)
        %mask_x_243 = arith.cmpi slt, %idx_tokens_last_192, %mask_x_242 : tensor<4xi32> loc(#loc361)
        %mask_x_244 = tt.expand_dims %mask_x_243 {axis = 1 : i32} : tensor<4xi1> -> tensor<4x1xi1> loc(#loc362)
        %mask_x_245 = arith.andi %mask_x_241, %mask_x_244 : tensor<4x1xi1> loc(#loc363)
        %mask_x_246 = arith.constant 8192 : i32 loc(#loc364)
        %mask_x_247 = arith.constant dense<8192> : tensor<256xi32> loc(#loc364)
        %mask_x_248 = arith.cmpi slt, %idx_feats_28, %mask_x_247 : tensor<256xi32> loc(#loc364)
        %mask_x_249 = tt.expand_dims %mask_x_248 {axis = 0 : i32} : tensor<256xi1> -> tensor<1x256xi1> loc(#loc365)
        %mask_x_250 = tt.broadcast %mask_x_245 : tensor<4x1xi1> -> tensor<4x256xi1> loc(#loc366)
        %mask_x_251 = tt.broadcast %mask_x_249 : tensor<1x256xi1> -> tensor<4x256xi1> loc(#loc366)
        %mask_x_252 = arith.andi %mask_x_250, %mask_x_251 : tensor<4x256xi1> loc(#loc549)
        %loaded_x = arith.constant 0.000000e+00 : f32 loc(#loc367)
        %loaded_x_253 = arith.constant dense<0.000000e+00> : tensor<4x256xf32> loc(#loc367)
        %loaded_x_254 = arith.truncf %loaded_x_253 : tensor<4x256xf32> to tensor<4x256xbf16> loc(#loc367)
        %loaded_x_255 = tt.load %x_ptrs_238, %mask_x_252, %loaded_x_254 : tensor<4x256x!tt.ptr<bf16>> loc(#loc367)
        %idx_tokens_conv = tt.make_range {end = 4 : i32, start = 0 : i32} : tensor<4xi32> loc(#loc550)
        %conv_states_output_coord = arith.constant 1 : i32 loc(#loc369)
        %conv_states_output_coord_256 = arith.constant 1 : i64 loc(#loc369)
        %conv_states_output_coord_257 = arith.muli %idx_seq_2, %conv_states_output_coord_256 : i64 loc(#loc369)
        %conv_states_output_coord_258 = tt.addptr %cache_indices_ptr, %conv_states_output_coord_257 : !tt.ptr<i32>, i64 loc(#loc370)
        %conv_states_output_coord_259 = tt.addptr %conv_states_output_coord_258, %current_last_index : !tt.ptr<i32>, i32 loc(#loc371)
        %conv_states_output_coord_260 = tt.load %conv_states_output_coord_259 : !tt.ptr<i32> loc(#loc372)
        %conv_states_output_coord_261 = arith.extsi %conv_states_output_coord_260 : i32 to i64 loc(#loc373)
        %conv_states_ptrs_target = arith.extsi %stride_conv_state_seq : i32 to i64 loc(#loc374)
        %conv_states_ptrs_target_262 = arith.muli %conv_states_output_coord_261, %conv_states_ptrs_target : i64 loc(#loc374)
        %conv_states_ptrs_target_263 = tt.addptr %initial_states_ptr, %conv_states_ptrs_target_262 : !tt.ptr<bf16>, i64 loc(#loc375)
        %conv_states_ptrs_target_264 = arith.constant dense<1> : tensor<256xi32> loc(#loc376)
        %conv_states_ptrs_target_265 = arith.extsi %idx_feats_28 : tensor<256xi32> to tensor<256xi64> loc(#loc376)
        %conv_states_ptrs_target_266 = arith.extsi %conv_states_ptrs_target_264 : tensor<256xi32> to tensor<256xi64> loc(#loc376)
        %conv_states_ptrs_target_267 = arith.muli %conv_states_ptrs_target_265, %conv_states_ptrs_target_266 : tensor<256xi64> loc(#loc376)
        %conv_states_ptrs_target_268 = arith.constant 2147483647 : i64 loc(#loc376)
        %conv_states_ptrs_target_269 = arith.constant -2147483648 : i64 loc(#loc376)
        %conv_states_ptrs_target_270 = arith.constant dense<2147483647> : tensor<256xi64> loc(#loc376)
        %conv_states_ptrs_target_271 = arith.cmpi sle, %conv_states_ptrs_target_267, %conv_states_ptrs_target_270 : tensor<256xi64> loc(#loc376)
        %conv_states_ptrs_target_272 = arith.constant dense<-2147483648> : tensor<256xi64> loc(#loc376)
        %conv_states_ptrs_target_273 = arith.cmpi sge, %conv_states_ptrs_target_267, %conv_states_ptrs_target_272 : tensor<256xi64> loc(#loc376)
        %conv_states_ptrs_target_274 = arith.andi %conv_states_ptrs_target_271, %conv_states_ptrs_target_273 : tensor<256xi1> loc(#loc376)
        %conv_states_ptrs_target_275 = arith.muli %idx_feats_28, %conv_states_ptrs_target_264 : tensor<256xi32> loc(#loc376)
        %conv_states_ptrs_target_276 = tt.splat %conv_states_ptrs_target_263 : !tt.ptr<bf16> -> tensor<256x!tt.ptr<bf16>> loc(#loc377)
        %conv_states_ptrs_target_277 = tt.addptr %conv_states_ptrs_target_276, %conv_states_ptrs_target_275 : tensor<256x!tt.ptr<bf16>>, tensor<256xi32> loc(#loc377)
        %conv_states_ptrs_target_278 = tt.expand_dims %conv_states_ptrs_target_277 {axis = 0 : i32} : tensor<256x!tt.ptr<bf16>> -> tensor<1x256x!tt.ptr<bf16>> loc(#loc378)
        %conv_states_ptrs_target_279 = arith.constant dense<8192> : tensor<4xi32> loc(#loc379)
        %conv_states_ptrs_target_280 = arith.extsi %idx_tokens_conv : tensor<4xi32> to tensor<4xi64> loc(#loc379)
        %conv_states_ptrs_target_281 = arith.extsi %conv_states_ptrs_target_279 : tensor<4xi32> to tensor<4xi64> loc(#loc379)
        %conv_states_ptrs_target_282 = arith.muli %conv_states_ptrs_target_280, %conv_states_ptrs_target_281 : tensor<4xi64> loc(#loc379)
        %conv_states_ptrs_target_283 = arith.constant 2147483647 : i64 loc(#loc379)
        %conv_states_ptrs_target_284 = arith.constant -2147483648 : i64 loc(#loc379)
        %conv_states_ptrs_target_285 = arith.constant dense<2147483647> : tensor<4xi64> loc(#loc379)
        %conv_states_ptrs_target_286 = arith.cmpi sle, %conv_states_ptrs_target_282, %conv_states_ptrs_target_285 : tensor<4xi64> loc(#loc379)
        %conv_states_ptrs_target_287 = arith.constant dense<-2147483648> : tensor<4xi64> loc(#loc379)
        %conv_states_ptrs_target_288 = arith.cmpi sge, %conv_states_ptrs_target_282, %conv_states_ptrs_target_287 : tensor<4xi64> loc(#loc379)
        %conv_states_ptrs_target_289 = arith.andi %conv_states_ptrs_target_286, %conv_states_ptrs_target_288 : tensor<4xi1> loc(#loc379)
        %conv_states_ptrs_target_290 = arith.muli %idx_tokens_conv, %conv_states_ptrs_target_279 : tensor<4xi32> loc(#loc379)
        %conv_states_ptrs_target_291 = tt.expand_dims %conv_states_ptrs_target_290 {axis = 1 : i32} : tensor<4xi32> -> tensor<4x1xi32> loc(#loc380)
        %conv_states_ptrs_target_292 = tt.broadcast %conv_states_ptrs_target_278 : tensor<1x256x!tt.ptr<bf16>> -> tensor<4x256x!tt.ptr<bf16>> loc(#loc381)
        %conv_states_ptrs_target_293 = tt.broadcast %conv_states_ptrs_target_291 : tensor<4x1xi32> -> tensor<4x256xi32> loc(#loc381)
        %conv_states_ptrs_target_294 = tt.addptr %conv_states_ptrs_target_292, %conv_states_ptrs_target_293 : tensor<4x256x!tt.ptr<bf16>>, tensor<4x256xi32> loc(#loc551)
        %mask = arith.constant dense<3> : tensor<4xi32> loc(#loc382)
        %mask_295 = arith.cmpi slt, %idx_tokens_conv, %mask : tensor<4xi32> loc(#loc382)
        %mask_296 = tt.expand_dims %mask_295 {axis = 1 : i32} : tensor<4xi1> -> tensor<4x1xi1> loc(#loc383)
        %mask_297 = arith.constant 8192 : i32 loc(#loc384)
        %mask_298 = arith.constant dense<8192> : tensor<256xi32> loc(#loc384)
        %mask_299 = arith.cmpi slt, %idx_feats_28, %mask_298 : tensor<256xi32> loc(#loc384)
        %mask_300 = tt.expand_dims %mask_299 {axis = 0 : i32} : tensor<256xi1> -> tensor<1x256xi1> loc(#loc385)
        %mask_301 = tt.broadcast %mask_296 : tensor<4x1xi1> -> tensor<4x256xi1> loc(#loc386)
        %mask_302 = tt.broadcast %mask_300 : tensor<1x256xi1> -> tensor<4x256xi1> loc(#loc386)
        %mask_303 = arith.andi %mask_301, %mask_302 : tensor<4x256xi1> loc(#loc552)
        gpu.barrier loc(#loc108)
        tt.store %conv_states_ptrs_target_294, %loaded_x_255, %mask_303 : tensor<4x256x!tt.ptr<bf16>> loc(#loc109)
        scf.yield %conv_states_ptrs_target_294, %idx_tokens_conv, %mask_303, %mask_x_252, %x_ptrs_238 : tensor<4x256x!tt.ptr<bf16>>, tensor<4xi32>, tensor<4x256xi1>, tensor<4x256xi1>, tensor<4x256x!tt.ptr<bf16>> loc(#loc109)
      } else {
        %x_ptrs:7 = scf.if %load_init_state_170 -> (i32, tensor<4x256x!tt.ptr<bf16>>, tensor<4xi32>, tensor<4x256xi1>, tensor<4x256xi1>, tensor<4x256xbf16>, tensor<4x256x!tt.ptr<bf16>>) {
          %idx_tokens_conv = tt.make_range {end = 4 : i32, start = 0 : i32} : tensor<4xi32> loc(#loc554)
          %conv_states_ptrs_source = arith.extsi %stride_conv_state_seq : i32 to i64 loc(#loc389)
          %conv_states_ptrs_source_172 = arith.muli %conv_states_input_coord_94, %conv_states_ptrs_source : i64 loc(#loc389)
          %conv_states_ptrs_source_173 = tt.addptr %initial_states_ptr, %conv_states_ptrs_source_172 : !tt.ptr<bf16>, i64 loc(#loc390)
          %conv_states_ptrs_source_174 = arith.constant dense<1> : tensor<256xi32> loc(#loc391)
          %conv_states_ptrs_source_175 = arith.extsi %idx_feats_28 : tensor<256xi32> to tensor<256xi64> loc(#loc391)
          %conv_states_ptrs_source_176 = arith.extsi %conv_states_ptrs_source_174 : tensor<256xi32> to tensor<256xi64> loc(#loc391)
          %conv_states_ptrs_source_177 = arith.muli %conv_states_ptrs_source_175, %conv_states_ptrs_source_176 : tensor<256xi64> loc(#loc391)
          %conv_states_ptrs_source_178 = arith.constant 2147483647 : i64 loc(#loc391)
          %conv_states_ptrs_source_179 = arith.constant -2147483648 : i64 loc(#loc391)
          %conv_states_ptrs_source_180 = arith.constant dense<2147483647> : tensor<256xi64> loc(#loc391)
          %conv_states_ptrs_source_181 = arith.cmpi sle, %conv_states_ptrs_source_177, %conv_states_ptrs_source_180 : tensor<256xi64> loc(#loc391)
          %conv_states_ptrs_source_182 = arith.constant dense<-2147483648> : tensor<256xi64> loc(#loc391)
          %conv_states_ptrs_source_183 = arith.cmpi sge, %conv_states_ptrs_source_177, %conv_states_ptrs_source_182 : tensor<256xi64> loc(#loc391)
          %conv_states_ptrs_source_184 = arith.andi %conv_states_ptrs_source_181, %conv_states_ptrs_source_183 : tensor<256xi1> loc(#loc391)
          %conv_states_ptrs_source_185 = arith.muli %idx_feats_28, %conv_states_ptrs_source_174 : tensor<256xi32> loc(#loc391)
          %conv_states_ptrs_source_186 = tt.expand_dims %conv_states_ptrs_source_185 {axis = 0 : i32} : tensor<256xi32> -> tensor<1x256xi32> loc(#loc392)
          %conv_states_ptrs_source_187 = tt.splat %conv_states_ptrs_source_173 : !tt.ptr<bf16> -> tensor<1x256x!tt.ptr<bf16>> loc(#loc393)
          %conv_states_ptrs_source_188 = tt.addptr %conv_states_ptrs_source_187, %conv_states_ptrs_source_186 : tensor<1x256x!tt.ptr<bf16>>, tensor<1x256xi32> loc(#loc393)
          %conv_states_ptrs_source_189 = tt.splat %seqlen_41 : i32 -> tensor<4xi32> loc(#loc394)
          %conv_states_ptrs_source_190 = arith.extsi %idx_tokens_conv : tensor<4xi32> to tensor<4xi64> loc(#loc394)
          %conv_states_ptrs_source_191 = arith.extsi %conv_states_ptrs_source_189 : tensor<4xi32> to tensor<4xi64> loc(#loc394)
          %conv_states_ptrs_source_192 = arith.addi %conv_states_ptrs_source_190, %conv_states_ptrs_source_191 : tensor<4xi64> loc(#loc394)
          %conv_states_ptrs_source_193 = arith.constant 2147483647 : i64 loc(#loc394)
          %conv_states_ptrs_source_194 = arith.constant -2147483648 : i64 loc(#loc394)
          %conv_states_ptrs_source_195 = arith.constant dense<2147483647> : tensor<4xi64> loc(#loc394)
          %conv_states_ptrs_source_196 = arith.cmpi sle, %conv_states_ptrs_source_192, %conv_states_ptrs_source_195 : tensor<4xi64> loc(#loc394)
          %conv_states_ptrs_source_197 = arith.constant dense<-2147483648> : tensor<4xi64> loc(#loc394)
          %conv_states_ptrs_source_198 = arith.cmpi sge, %conv_states_ptrs_source_192, %conv_states_ptrs_source_197 : tensor<4xi64> loc(#loc394)
          %conv_states_ptrs_source_199 = arith.andi %conv_states_ptrs_source_196, %conv_states_ptrs_source_198 : tensor<4xi1> loc(#loc394)
          %conv_states_ptrs_source_200 = arith.addi %idx_tokens_conv, %conv_states_ptrs_source_189 : tensor<4xi32> loc(#loc394)
          %conv_states_ptrs_source_201 = arith.constant dense<8192> : tensor<4xi32> loc(#loc395)
          %conv_states_ptrs_source_202 = arith.extsi %conv_states_ptrs_source_200 : tensor<4xi32> to tensor<4xi64> loc(#loc395)
          %conv_states_ptrs_source_203 = arith.extsi %conv_states_ptrs_source_201 : tensor<4xi32> to tensor<4xi64> loc(#loc395)
          %conv_states_ptrs_source_204 = arith.muli %conv_states_ptrs_source_202, %conv_states_ptrs_source_203 : tensor<4xi64> loc(#loc395)
          %conv_states_ptrs_source_205 = arith.constant 2147483647 : i64 loc(#loc395)
          %conv_states_ptrs_source_206 = arith.constant -2147483648 : i64 loc(#loc395)
          %conv_states_ptrs_source_207 = arith.constant dense<2147483647> : tensor<4xi64> loc(#loc395)
          %conv_states_ptrs_source_208 = arith.cmpi sle, %conv_states_ptrs_source_204, %conv_states_ptrs_source_207 : tensor<4xi64> loc(#loc395)
          %conv_states_ptrs_source_209 = arith.constant dense<-2147483648> : tensor<4xi64> loc(#loc395)
          %conv_states_ptrs_source_210 = arith.cmpi sge, %conv_states_ptrs_source_204, %conv_states_ptrs_source_209 : tensor<4xi64> loc(#loc395)
          %conv_states_ptrs_source_211 = arith.andi %conv_states_ptrs_source_208, %conv_states_ptrs_source_210 : tensor<4xi1> loc(#loc395)
          %conv_states_ptrs_source_212 = arith.muli %conv_states_ptrs_source_200, %conv_states_ptrs_source_201 : tensor<4xi32> loc(#loc395)
          %conv_states_ptrs_source_213 = tt.expand_dims %conv_states_ptrs_source_212 {axis = 1 : i32} : tensor<4xi32> -> tensor<4x1xi32> loc(#loc396)
          %conv_states_ptrs_source_214 = tt.broadcast %conv_states_ptrs_source_188 : tensor<1x256x!tt.ptr<bf16>> -> tensor<4x256x!tt.ptr<bf16>> loc(#loc397)
          %conv_states_ptrs_source_215 = tt.broadcast %conv_states_ptrs_source_213 : tensor<4x1xi32> -> tensor<4x256xi32> loc(#loc397)
          %conv_states_ptrs_source_216 = tt.addptr %conv_states_ptrs_source_214, %conv_states_ptrs_source_215 : tensor<4x256x!tt.ptr<bf16>>, tensor<4x256xi32> loc(#loc397)
          %mask = arith.constant 3223 : i32 loc(#loc398)
          %mask_217 = arith.extsi %mask : i32 to i64 loc(#loc398)
          %mask_218 = arith.cmpi slt, %conv_states_input_coord_94, %mask_217 : i64 loc(#loc398)
          %mask_219 = tt.splat %seqlen_41 : i32 -> tensor<4xi32> loc(#loc399)
          %mask_220 = arith.extsi %idx_tokens_conv : tensor<4xi32> to tensor<4xi64> loc(#loc399)
          %mask_221 = arith.extsi %mask_219 : tensor<4xi32> to tensor<4xi64> loc(#loc399)
          %mask_222 = arith.addi %mask_220, %mask_221 : tensor<4xi64> loc(#loc399)
          %mask_223 = arith.constant 2147483647 : i64 loc(#loc399)
          %mask_224 = arith.constant -2147483648 : i64 loc(#loc399)
          %mask_225 = arith.constant dense<2147483647> : tensor<4xi64> loc(#loc399)
          %mask_226 = arith.cmpi sle, %mask_222, %mask_225 : tensor<4xi64> loc(#loc399)
          %mask_227 = arith.constant dense<-2147483648> : tensor<4xi64> loc(#loc399)
          %mask_228 = arith.cmpi sge, %mask_222, %mask_227 : tensor<4xi64> loc(#loc399)
          %mask_229 = arith.andi %mask_226, %mask_228 : tensor<4xi1> loc(#loc399)
          %mask_230 = arith.addi %idx_tokens_conv, %mask_219 : tensor<4xi32> loc(#loc399)
          %mask_231 = arith.constant dense<3> : tensor<4xi32> loc(#loc400)
          %mask_232 = arith.cmpi slt, %mask_230, %mask_231 : tensor<4xi32> loc(#loc400)
          %mask_233 = tt.expand_dims %mask_232 {axis = 1 : i32} : tensor<4xi1> -> tensor<4x1xi1> loc(#loc401)
          %mask_234 = tt.splat %mask_218 : i1 -> tensor<4x1xi1> loc(#loc402)
          %mask_235 = arith.andi %mask_234, %mask_233 : tensor<4x1xi1> loc(#loc402)
          %mask_236 = arith.constant 8192 : i32 loc(#loc403)
          %mask_237 = arith.constant dense<8192> : tensor<256xi32> loc(#loc403)
          %mask_238 = arith.cmpi slt, %idx_feats_28, %mask_237 : tensor<256xi32> loc(#loc403)
          %mask_239 = tt.expand_dims %mask_238 {axis = 0 : i32} : tensor<256xi1> -> tensor<1x256xi1> loc(#loc404)
          %mask_240 = tt.broadcast %mask_235 : tensor<4x1xi1> -> tensor<4x256xi1> loc(#loc405)
          %mask_241 = tt.broadcast %mask_239 : tensor<1x256xi1> -> tensor<4x256xi1> loc(#loc405)
          %mask_242 = arith.andi %mask_240, %mask_241 : tensor<4x256xi1> loc(#loc405)
          %conv_state = arith.constant 0.000000e+00 : f32 loc(#loc406)
          %conv_state_243 = arith.constant dense<0.000000e+00> : tensor<4x256xf32> loc(#loc406)
          %conv_state_244 = arith.truncf %conv_state_243 : tensor<4x256xf32> to tensor<4x256xbf16> loc(#loc406)
          %conv_state_245 = tt.load %conv_states_ptrs_source_216, %mask_242, %conv_state_244 : tensor<4x256x!tt.ptr<bf16>> loc(#loc406)
          %VAL = arith.extsi %state_len : i32 to i64 loc(#loc407)
          %VAL_246 = arith.extsi %seqlen_41 : i32 to i64 loc(#loc407)
          %VAL_247 = arith.subi %VAL, %VAL_246 : i64 loc(#loc407)
          %VAL_248 = arith.constant 2147483647 : i64 loc(#loc407)
          %VAL_249 = arith.constant -2147483648 : i64 loc(#loc407)
          %VAL_250 = arith.cmpi sle, %VAL_247, %VAL_248 : i64 loc(#loc407)
          %VAL_251 = arith.cmpi sge, %VAL_247, %VAL_249 : i64 loc(#loc407)
          %VAL_252 = arith.andi %VAL_250, %VAL_251 : i1 loc(#loc407)
          %VAL_253 = arith.subi %state_len, %seqlen_41 : i32 loc(#loc555)
          %x_ptrs_254 = tt.expand_dims %x_base_88 {axis = 0 : i32} : tensor<256x!tt.ptr<bf16>> -> tensor<1x256x!tt.ptr<bf16>> loc(#loc408)
          %x_ptrs_255 = tt.splat %VAL_253 : i32 -> tensor<4xi32> loc(#loc409)
          %x_ptrs_256 = arith.extsi %idx_tokens_conv : tensor<4xi32> to tensor<4xi64> loc(#loc409)
          %x_ptrs_257 = arith.extsi %x_ptrs_255 : tensor<4xi32> to tensor<4xi64> loc(#loc409)
          %x_ptrs_258 = arith.subi %x_ptrs_256, %x_ptrs_257 : tensor<4xi64> loc(#loc409)
          %x_ptrs_259 = arith.constant 2147483647 : i64 loc(#loc409)
          %x_ptrs_260 = arith.constant -2147483648 : i64 loc(#loc409)
          %x_ptrs_261 = arith.constant dense<2147483647> : tensor<4xi64> loc(#loc409)
          %x_ptrs_262 = arith.cmpi sle, %x_ptrs_258, %x_ptrs_261 : tensor<4xi64> loc(#loc409)
          %x_ptrs_263 = arith.constant dense<-2147483648> : tensor<4xi64> loc(#loc409)
          %x_ptrs_264 = arith.cmpi sge, %x_ptrs_258, %x_ptrs_263 : tensor<4xi64> loc(#loc409)
          %x_ptrs_265 = arith.andi %x_ptrs_262, %x_ptrs_264 : tensor<4xi1> loc(#loc409)
          %x_ptrs_266 = arith.subi %idx_tokens_conv, %x_ptrs_255 : tensor<4xi32> loc(#loc409)
          %x_ptrs_267 = arith.constant 12288 : i32 loc(#loc410)
          %x_ptrs_268 = arith.constant 12288 : i32 loc(#loc410)
          %x_ptrs_269 = arith.constant dense<12288> : tensor<4xi32> loc(#loc410)
          %x_ptrs_270 = arith.extsi %x_ptrs_266 : tensor<4xi32> to tensor<4xi64> loc(#loc410)
          %x_ptrs_271 = arith.extsi %x_ptrs_269 : tensor<4xi32> to tensor<4xi64> loc(#loc410)
          %x_ptrs_272 = arith.muli %x_ptrs_270, %x_ptrs_271 : tensor<4xi64> loc(#loc410)
          %x_ptrs_273 = arith.constant 2147483647 : i64 loc(#loc410)
          %x_ptrs_274 = arith.constant -2147483648 : i64 loc(#loc410)
          %x_ptrs_275 = arith.constant dense<2147483647> : tensor<4xi64> loc(#loc410)
          %x_ptrs_276 = arith.cmpi sle, %x_ptrs_272, %x_ptrs_275 : tensor<4xi64> loc(#loc410)
          %x_ptrs_277 = arith.constant dense<-2147483648> : tensor<4xi64> loc(#loc410)
          %x_ptrs_278 = arith.cmpi sge, %x_ptrs_272, %x_ptrs_277 : tensor<4xi64> loc(#loc410)
          %x_ptrs_279 = arith.andi %x_ptrs_276, %x_ptrs_278 : tensor<4xi1> loc(#loc410)
          %x_ptrs_280 = arith.muli %x_ptrs_266, %x_ptrs_269 : tensor<4xi32> loc(#loc410)
          %x_ptrs_281 = tt.expand_dims %x_ptrs_280 {axis = 1 : i32} : tensor<4xi32> -> tensor<4x1xi32> loc(#loc411)
          %x_ptrs_282 = tt.broadcast %x_ptrs_254 : tensor<1x256x!tt.ptr<bf16>> -> tensor<4x256x!tt.ptr<bf16>> loc(#loc412)
          %x_ptrs_283 = tt.broadcast %x_ptrs_281 : tensor<4x1xi32> -> tensor<4x256xi32> loc(#loc412)
          %x_ptrs_284 = tt.addptr %x_ptrs_282, %x_ptrs_283 : tensor<4x256x!tt.ptr<bf16>>, tensor<4x256xi32> loc(#loc556)
          %mask_x = tt.splat %VAL_253 : i32 -> tensor<4xi32> loc(#loc413)
          %mask_x_285 = arith.extsi %idx_tokens_conv : tensor<4xi32> to tensor<4xi64> loc(#loc413)
          %mask_x_286 = arith.extsi %mask_x : tensor<4xi32> to tensor<4xi64> loc(#loc413)
          %mask_x_287 = arith.subi %mask_x_285, %mask_x_286 : tensor<4xi64> loc(#loc413)
          %mask_x_288 = arith.constant 2147483647 : i64 loc(#loc413)
          %mask_x_289 = arith.constant -2147483648 : i64 loc(#loc413)
          %mask_x_290 = arith.constant dense<2147483647> : tensor<4xi64> loc(#loc413)
          %mask_x_291 = arith.cmpi sle, %mask_x_287, %mask_x_290 : tensor<4xi64> loc(#loc413)
          %mask_x_292 = arith.constant dense<-2147483648> : tensor<4xi64> loc(#loc413)
          %mask_x_293 = arith.cmpi sge, %mask_x_287, %mask_x_292 : tensor<4xi64> loc(#loc413)
          %mask_x_294 = arith.andi %mask_x_291, %mask_x_293 : tensor<4xi1> loc(#loc413)
          %mask_x_295 = arith.subi %idx_tokens_conv, %mask_x : tensor<4xi32> loc(#loc413)
          %mask_x_296 = arith.constant 0 : i32 loc(#loc414)
          %mask_x_297 = arith.constant dense<0> : tensor<4xi32> loc(#loc414)
          %mask_x_298 = arith.cmpi sge, %mask_x_295, %mask_x_297 : tensor<4xi32> loc(#loc414)
          %mask_x_299 = tt.expand_dims %mask_x_298 {axis = 1 : i32} : tensor<4xi1> -> tensor<4x1xi1> loc(#loc415)
          %mask_x_300 = tt.splat %VAL_253 : i32 -> tensor<4xi32> loc(#loc416)
          %mask_x_301 = arith.extsi %idx_tokens_conv : tensor<4xi32> to tensor<4xi64> loc(#loc416)
          %mask_x_302 = arith.extsi %mask_x_300 : tensor<4xi32> to tensor<4xi64> loc(#loc416)
          %mask_x_303 = arith.subi %mask_x_301, %mask_x_302 : tensor<4xi64> loc(#loc416)
          %mask_x_304 = arith.constant 2147483647 : i64 loc(#loc416)
          %mask_x_305 = arith.constant -2147483648 : i64 loc(#loc416)
          %mask_x_306 = arith.constant dense<2147483647> : tensor<4xi64> loc(#loc416)
          %mask_x_307 = arith.cmpi sle, %mask_x_303, %mask_x_306 : tensor<4xi64> loc(#loc416)
          %mask_x_308 = arith.constant dense<-2147483648> : tensor<4xi64> loc(#loc416)
          %mask_x_309 = arith.cmpi sge, %mask_x_303, %mask_x_308 : tensor<4xi64> loc(#loc416)
          %mask_x_310 = arith.andi %mask_x_307, %mask_x_309 : tensor<4xi1> loc(#loc416)
          %mask_x_311 = arith.subi %idx_tokens_conv, %mask_x_300 : tensor<4xi32> loc(#loc416)
          %mask_x_312 = tt.splat %seqlen_41 : i32 -> tensor<4xi32> loc(#loc417)
          %mask_x_313 = arith.cmpi slt, %mask_x_311, %mask_x_312 : tensor<4xi32> loc(#loc417)
          %mask_x_314 = tt.expand_dims %mask_x_313 {axis = 1 : i32} : tensor<4xi1> -> tensor<4x1xi1> loc(#loc418)
          %mask_x_315 = arith.andi %mask_x_299, %mask_x_314 : tensor<4x1xi1> loc(#loc419)
          %mask_x_316 = arith.constant 8192 : i32 loc(#loc420)
          %mask_x_317 = arith.constant dense<8192> : tensor<256xi32> loc(#loc420)
          %mask_x_318 = arith.cmpi slt, %idx_feats_28, %mask_x_317 : tensor<256xi32> loc(#loc420)
          %mask_x_319 = tt.expand_dims %mask_x_318 {axis = 0 : i32} : tensor<256xi1> -> tensor<1x256xi1> loc(#loc421)
          %mask_x_320 = tt.broadcast %mask_x_315 : tensor<4x1xi1> -> tensor<4x256xi1> loc(#loc422)
          %mask_x_321 = tt.broadcast %mask_x_319 : tensor<1x256xi1> -> tensor<4x256xi1> loc(#loc422)
          %mask_x_322 = arith.andi %mask_x_320, %mask_x_321 : tensor<4x256xi1> loc(#loc557)
          %loaded_x = arith.constant 0.000000e+00 : f32 loc(#loc423)
          %loaded_x_323 = arith.constant dense<0.000000e+00> : tensor<4x256xf32> loc(#loc423)
          %loaded_x_324 = arith.truncf %loaded_x_323 : tensor<4x256xf32> to tensor<4x256xbf16> loc(#loc423)
          %loaded_x_325 = tt.load %x_ptrs_284, %mask_x_322, %loaded_x_324 : tensor<4x256x!tt.ptr<bf16>> loc(#loc423)
          gpu.barrier loc(#loc147)
          %new_conv_state = arith.select %mask_242, %conv_state_245, %loaded_x_325 : tensor<4x256xi1>, tensor<4x256xbf16> loc(#loc558)
          %conv_states_ptrs_target = arith.constant dense<8192> : tensor<4xi32> loc(#loc425)
          %conv_states_ptrs_target_326 = arith.extsi %idx_tokens_conv : tensor<4xi32> to tensor<4xi64> loc(#loc425)
          %conv_states_ptrs_target_327 = arith.extsi %conv_states_ptrs_target : tensor<4xi32> to tensor<4xi64> loc(#loc425)
          %conv_states_ptrs_target_328 = arith.muli %conv_states_ptrs_target_326, %conv_states_ptrs_target_327 : tensor<4xi64> loc(#loc425)
          %conv_states_ptrs_target_329 = arith.constant 2147483647 : i64 loc(#loc425)
          %conv_states_ptrs_target_330 = arith.constant -2147483648 : i64 loc(#loc425)
          %conv_states_ptrs_target_331 = arith.constant dense<2147483647> : tensor<4xi64> loc(#loc425)
          %conv_states_ptrs_target_332 = arith.cmpi sle, %conv_states_ptrs_target_328, %conv_states_ptrs_target_331 : tensor<4xi64> loc(#loc425)
          %conv_states_ptrs_target_333 = arith.constant dense<-2147483648> : tensor<4xi64> loc(#loc425)
          %conv_states_ptrs_target_334 = arith.cmpi sge, %conv_states_ptrs_target_328, %conv_states_ptrs_target_333 : tensor<4xi64> loc(#loc425)
          %conv_states_ptrs_target_335 = arith.andi %conv_states_ptrs_target_332, %conv_states_ptrs_target_334 : tensor<4xi1> loc(#loc425)
          %conv_states_ptrs_target_336 = arith.muli %idx_tokens_conv, %conv_states_ptrs_target : tensor<4xi32> loc(#loc425)
          %conv_states_ptrs_target_337 = tt.expand_dims %conv_states_ptrs_target_336 {axis = 1 : i32} : tensor<4xi32> -> tensor<4x1xi32> loc(#loc426)
          %conv_states_ptrs_target_338 = tt.expand_dims %conv_states_base_111 {axis = 0 : i32} : tensor<256x!tt.ptr<bf16>> -> tensor<1x256x!tt.ptr<bf16>> loc(#loc427)
          %conv_states_ptrs_target_339 = tt.broadcast %conv_states_ptrs_target_338 : tensor<1x256x!tt.ptr<bf16>> -> tensor<4x256x!tt.ptr<bf16>> loc(#loc427)
          %conv_states_ptrs_target_340 = tt.broadcast %conv_states_ptrs_target_337 : tensor<4x1xi32> -> tensor<4x256xi32> loc(#loc427)
          %conv_states_ptrs_target_341 = tt.addptr %conv_states_ptrs_target_339, %conv_states_ptrs_target_340 : tensor<4x256x!tt.ptr<bf16>>, tensor<4x256xi32> loc(#loc559)
          %mask_342 = arith.constant dense<3> : tensor<4xi32> loc(#loc428)
          %mask_343 = arith.cmpi slt, %idx_tokens_conv, %mask_342 : tensor<4xi32> loc(#loc428)
          %mask_344 = tt.expand_dims %mask_343 {axis = 1 : i32} : tensor<4xi1> -> tensor<4x1xi1> loc(#loc429)
          %mask_345 = arith.constant 8192 : i32 loc(#loc430)
          %mask_346 = arith.constant dense<8192> : tensor<256xi32> loc(#loc430)
          %mask_347 = arith.cmpi slt, %idx_feats_28, %mask_346 : tensor<256xi32> loc(#loc430)
          %mask_348 = tt.expand_dims %mask_347 {axis = 0 : i32} : tensor<256xi1> -> tensor<1x256xi1> loc(#loc431)
          %mask_349 = tt.broadcast %mask_344 : tensor<4x1xi1> -> tensor<4x256xi1> loc(#loc432)
          %mask_350 = tt.broadcast %mask_348 : tensor<1x256xi1> -> tensor<4x256xi1> loc(#loc432)
          %mask_351 = arith.andi %mask_349, %mask_350 : tensor<4x256xi1> loc(#loc560)
          tt.store %conv_states_ptrs_target_341, %new_conv_state, %mask_351 : tensor<4x256x!tt.ptr<bf16>> loc(#loc157)
          scf.yield %VAL_253, %conv_states_ptrs_target_341, %idx_tokens_conv, %mask_351, %mask_x_322, %new_conv_state, %x_ptrs_284 : i32, tensor<4x256x!tt.ptr<bf16>>, tensor<4xi32>, tensor<4x256xi1>, tensor<4x256xi1>, tensor<4x256xbf16>, tensor<4x256x!tt.ptr<bf16>> loc(#loc157)
        } else {
          %idx_tokens_conv = tt.make_range {end = 4 : i32, start = 0 : i32} : tensor<4xi32> loc(#loc561)
          %VAL = arith.extsi %state_len : i32 to i64 loc(#loc434)
          %VAL_172 = arith.extsi %seqlen_41 : i32 to i64 loc(#loc434)
          %VAL_173 = arith.subi %VAL, %VAL_172 : i64 loc(#loc434)
          %VAL_174 = arith.constant 2147483647 : i64 loc(#loc434)
          %VAL_175 = arith.constant -2147483648 : i64 loc(#loc434)
          %VAL_176 = arith.cmpi sle, %VAL_173, %VAL_174 : i64 loc(#loc434)
          %VAL_177 = arith.cmpi sge, %VAL_173, %VAL_175 : i64 loc(#loc434)
          %VAL_178 = arith.andi %VAL_176, %VAL_177 : i1 loc(#loc434)
          %VAL_179 = arith.subi %state_len, %seqlen_41 : i32 loc(#loc562)
          %x_ptrs_180 = tt.expand_dims %x_base_88 {axis = 0 : i32} : tensor<256x!tt.ptr<bf16>> -> tensor<1x256x!tt.ptr<bf16>> loc(#loc435)
          %x_ptrs_181 = tt.splat %VAL_179 : i32 -> tensor<4xi32> loc(#loc436)
          %x_ptrs_182 = arith.extsi %idx_tokens_conv : tensor<4xi32> to tensor<4xi64> loc(#loc436)
          %x_ptrs_183 = arith.extsi %x_ptrs_181 : tensor<4xi32> to tensor<4xi64> loc(#loc436)
          %x_ptrs_184 = arith.subi %x_ptrs_182, %x_ptrs_183 : tensor<4xi64> loc(#loc436)
          %x_ptrs_185 = arith.constant 2147483647 : i64 loc(#loc436)
          %x_ptrs_186 = arith.constant -2147483648 : i64 loc(#loc436)
          %x_ptrs_187 = arith.constant dense<2147483647> : tensor<4xi64> loc(#loc436)
          %x_ptrs_188 = arith.cmpi sle, %x_ptrs_184, %x_ptrs_187 : tensor<4xi64> loc(#loc436)
          %x_ptrs_189 = arith.constant dense<-2147483648> : tensor<4xi64> loc(#loc436)
          %x_ptrs_190 = arith.cmpi sge, %x_ptrs_184, %x_ptrs_189 : tensor<4xi64> loc(#loc436)
          %x_ptrs_191 = arith.andi %x_ptrs_188, %x_ptrs_190 : tensor<4xi1> loc(#loc436)
          %x_ptrs_192 = arith.subi %idx_tokens_conv, %x_ptrs_181 : tensor<4xi32> loc(#loc436)
          %x_ptrs_193 = arith.constant 12288 : i32 loc(#loc437)
          %x_ptrs_194 = arith.constant 12288 : i32 loc(#loc437)
          %x_ptrs_195 = arith.constant dense<12288> : tensor<4xi32> loc(#loc437)
          %x_ptrs_196 = arith.extsi %x_ptrs_192 : tensor<4xi32> to tensor<4xi64> loc(#loc437)
          %x_ptrs_197 = arith.extsi %x_ptrs_195 : tensor<4xi32> to tensor<4xi64> loc(#loc437)
          %x_ptrs_198 = arith.muli %x_ptrs_196, %x_ptrs_197 : tensor<4xi64> loc(#loc437)
          %x_ptrs_199 = arith.constant 2147483647 : i64 loc(#loc437)
          %x_ptrs_200 = arith.constant -2147483648 : i64 loc(#loc437)
          %x_ptrs_201 = arith.constant dense<2147483647> : tensor<4xi64> loc(#loc437)
          %x_ptrs_202 = arith.cmpi sle, %x_ptrs_198, %x_ptrs_201 : tensor<4xi64> loc(#loc437)
          %x_ptrs_203 = arith.constant dense<-2147483648> : tensor<4xi64> loc(#loc437)
          %x_ptrs_204 = arith.cmpi sge, %x_ptrs_198, %x_ptrs_203 : tensor<4xi64> loc(#loc437)
          %x_ptrs_205 = arith.andi %x_ptrs_202, %x_ptrs_204 : tensor<4xi1> loc(#loc437)
          %x_ptrs_206 = arith.muli %x_ptrs_192, %x_ptrs_195 : tensor<4xi32> loc(#loc437)
          %x_ptrs_207 = tt.expand_dims %x_ptrs_206 {axis = 1 : i32} : tensor<4xi32> -> tensor<4x1xi32> loc(#loc438)
          %x_ptrs_208 = tt.broadcast %x_ptrs_180 : tensor<1x256x!tt.ptr<bf16>> -> tensor<4x256x!tt.ptr<bf16>> loc(#loc439)
          %x_ptrs_209 = tt.broadcast %x_ptrs_207 : tensor<4x1xi32> -> tensor<4x256xi32> loc(#loc439)
          %x_ptrs_210 = tt.addptr %x_ptrs_208, %x_ptrs_209 : tensor<4x256x!tt.ptr<bf16>>, tensor<4x256xi32> loc(#loc563)
          %mask_x = tt.splat %VAL_179 : i32 -> tensor<4xi32> loc(#loc440)
          %mask_x_211 = arith.extsi %idx_tokens_conv : tensor<4xi32> to tensor<4xi64> loc(#loc440)
          %mask_x_212 = arith.extsi %mask_x : tensor<4xi32> to tensor<4xi64> loc(#loc440)
          %mask_x_213 = arith.subi %mask_x_211, %mask_x_212 : tensor<4xi64> loc(#loc440)
          %mask_x_214 = arith.constant 2147483647 : i64 loc(#loc440)
          %mask_x_215 = arith.constant -2147483648 : i64 loc(#loc440)
          %mask_x_216 = arith.constant dense<2147483647> : tensor<4xi64> loc(#loc440)
          %mask_x_217 = arith.cmpi sle, %mask_x_213, %mask_x_216 : tensor<4xi64> loc(#loc440)
          %mask_x_218 = arith.constant dense<-2147483648> : tensor<4xi64> loc(#loc440)
          %mask_x_219 = arith.cmpi sge, %mask_x_213, %mask_x_218 : tensor<4xi64> loc(#loc440)
          %mask_x_220 = arith.andi %mask_x_217, %mask_x_219 : tensor<4xi1> loc(#loc440)
          %mask_x_221 = arith.subi %idx_tokens_conv, %mask_x : tensor<4xi32> loc(#loc440)
          %mask_x_222 = arith.constant 0 : i32 loc(#loc441)
          %mask_x_223 = arith.constant dense<0> : tensor<4xi32> loc(#loc441)
          %mask_x_224 = arith.cmpi sge, %mask_x_221, %mask_x_223 : tensor<4xi32> loc(#loc441)
          %mask_x_225 = tt.expand_dims %mask_x_224 {axis = 1 : i32} : tensor<4xi1> -> tensor<4x1xi1> loc(#loc442)
          %mask_x_226 = tt.splat %VAL_179 : i32 -> tensor<4xi32> loc(#loc443)
          %mask_x_227 = arith.extsi %idx_tokens_conv : tensor<4xi32> to tensor<4xi64> loc(#loc443)
          %mask_x_228 = arith.extsi %mask_x_226 : tensor<4xi32> to tensor<4xi64> loc(#loc443)
          %mask_x_229 = arith.subi %mask_x_227, %mask_x_228 : tensor<4xi64> loc(#loc443)
          %mask_x_230 = arith.constant 2147483647 : i64 loc(#loc443)
          %mask_x_231 = arith.constant -2147483648 : i64 loc(#loc443)
          %mask_x_232 = arith.constant dense<2147483647> : tensor<4xi64> loc(#loc443)
          %mask_x_233 = arith.cmpi sle, %mask_x_229, %mask_x_232 : tensor<4xi64> loc(#loc443)
          %mask_x_234 = arith.constant dense<-2147483648> : tensor<4xi64> loc(#loc443)
          %mask_x_235 = arith.cmpi sge, %mask_x_229, %mask_x_234 : tensor<4xi64> loc(#loc443)
          %mask_x_236 = arith.andi %mask_x_233, %mask_x_235 : tensor<4xi1> loc(#loc443)
          %mask_x_237 = arith.subi %idx_tokens_conv, %mask_x_226 : tensor<4xi32> loc(#loc443)
          %mask_x_238 = tt.splat %seqlen_41 : i32 -> tensor<4xi32> loc(#loc444)
          %mask_x_239 = arith.cmpi slt, %mask_x_237, %mask_x_238 : tensor<4xi32> loc(#loc444)
          %mask_x_240 = tt.expand_dims %mask_x_239 {axis = 1 : i32} : tensor<4xi1> -> tensor<4x1xi1> loc(#loc445)
          %mask_x_241 = arith.andi %mask_x_225, %mask_x_240 : tensor<4x1xi1> loc(#loc446)
          %mask_x_242 = arith.constant 8192 : i32 loc(#loc447)
          %mask_x_243 = arith.constant dense<8192> : tensor<256xi32> loc(#loc447)
          %mask_x_244 = arith.cmpi slt, %idx_feats_28, %mask_x_243 : tensor<256xi32> loc(#loc447)
          %mask_x_245 = tt.expand_dims %mask_x_244 {axis = 0 : i32} : tensor<256xi1> -> tensor<1x256xi1> loc(#loc448)
          %mask_x_246 = tt.broadcast %mask_x_241 : tensor<4x1xi1> -> tensor<4x256xi1> loc(#loc449)
          %mask_x_247 = tt.broadcast %mask_x_245 : tensor<1x256xi1> -> tensor<4x256xi1> loc(#loc449)
          %mask_x_248 = arith.andi %mask_x_246, %mask_x_247 : tensor<4x256xi1> loc(#loc564)
          %new_conv_state = arith.constant 0.000000e+00 : f32 loc(#loc450)
          %new_conv_state_249 = arith.constant dense<0.000000e+00> : tensor<4x256xf32> loc(#loc450)
          %new_conv_state_250 = arith.truncf %new_conv_state_249 : tensor<4x256xf32> to tensor<4x256xbf16> loc(#loc450)
          %new_conv_state_251 = tt.load %x_ptrs_210, %mask_x_248, %new_conv_state_250 : tensor<4x256x!tt.ptr<bf16>> loc(#loc565)
          %conv_states_ptrs_target = arith.constant dense<8192> : tensor<4xi32> loc(#loc451)
          %conv_states_ptrs_target_252 = arith.extsi %idx_tokens_conv : tensor<4xi32> to tensor<4xi64> loc(#loc451)
          %conv_states_ptrs_target_253 = arith.extsi %conv_states_ptrs_target : tensor<4xi32> to tensor<4xi64> loc(#loc451)
          %conv_states_ptrs_target_254 = arith.muli %conv_states_ptrs_target_252, %conv_states_ptrs_target_253 : tensor<4xi64> loc(#loc451)
          %conv_states_ptrs_target_255 = arith.constant 2147483647 : i64 loc(#loc451)
          %conv_states_ptrs_target_256 = arith.constant -2147483648 : i64 loc(#loc451)
          %conv_states_ptrs_target_257 = arith.constant dense<2147483647> : tensor<4xi64> loc(#loc451)
          %conv_states_ptrs_target_258 = arith.cmpi sle, %conv_states_ptrs_target_254, %conv_states_ptrs_target_257 : tensor<4xi64> loc(#loc451)
          %conv_states_ptrs_target_259 = arith.constant dense<-2147483648> : tensor<4xi64> loc(#loc451)
          %conv_states_ptrs_target_260 = arith.cmpi sge, %conv_states_ptrs_target_254, %conv_states_ptrs_target_259 : tensor<4xi64> loc(#loc451)
          %conv_states_ptrs_target_261 = arith.andi %conv_states_ptrs_target_258, %conv_states_ptrs_target_260 : tensor<4xi1> loc(#loc451)
          %conv_states_ptrs_target_262 = arith.muli %idx_tokens_conv, %conv_states_ptrs_target : tensor<4xi32> loc(#loc451)
          %conv_states_ptrs_target_263 = tt.expand_dims %conv_states_ptrs_target_262 {axis = 1 : i32} : tensor<4xi32> -> tensor<4x1xi32> loc(#loc452)
          %conv_states_ptrs_target_264 = tt.expand_dims %conv_states_base_111 {axis = 0 : i32} : tensor<256x!tt.ptr<bf16>> -> tensor<1x256x!tt.ptr<bf16>> loc(#loc453)
          %conv_states_ptrs_target_265 = tt.broadcast %conv_states_ptrs_target_264 : tensor<1x256x!tt.ptr<bf16>> -> tensor<4x256x!tt.ptr<bf16>> loc(#loc453)
          %conv_states_ptrs_target_266 = tt.broadcast %conv_states_ptrs_target_263 : tensor<4x1xi32> -> tensor<4x256xi32> loc(#loc453)
          %conv_states_ptrs_target_267 = tt.addptr %conv_states_ptrs_target_265, %conv_states_ptrs_target_266 : tensor<4x256x!tt.ptr<bf16>>, tensor<4x256xi32> loc(#loc566)
          %mask = arith.constant dense<3> : tensor<4xi32> loc(#loc454)
          %mask_268 = arith.cmpi slt, %idx_tokens_conv, %mask : tensor<4xi32> loc(#loc454)
          %mask_269 = tt.expand_dims %mask_268 {axis = 1 : i32} : tensor<4xi1> -> tensor<4x1xi1> loc(#loc455)
          %mask_270 = arith.constant 8192 : i32 loc(#loc456)
          %mask_271 = arith.constant dense<8192> : tensor<256xi32> loc(#loc456)
          %mask_272 = arith.cmpi slt, %idx_feats_28, %mask_271 : tensor<256xi32> loc(#loc456)
          %mask_273 = tt.expand_dims %mask_272 {axis = 0 : i32} : tensor<256xi1> -> tensor<1x256xi1> loc(#loc457)
          %mask_274 = tt.broadcast %mask_269 : tensor<4x1xi1> -> tensor<4x256xi1> loc(#loc458)
          %mask_275 = tt.broadcast %mask_273 : tensor<1x256xi1> -> tensor<4x256xi1> loc(#loc458)
          %mask_276 = arith.andi %mask_274, %mask_275 : tensor<4x256xi1> loc(#loc567)
          tt.store %conv_states_ptrs_target_267, %new_conv_state_251, %mask_276 : tensor<4x256x!tt.ptr<bf16>> loc(#loc184)
          scf.yield %VAL_179, %conv_states_ptrs_target_267, %idx_tokens_conv, %mask_276, %mask_x_248, %new_conv_state_251, %x_ptrs_210 : i32, tensor<4x256x!tt.ptr<bf16>>, tensor<4xi32>, tensor<4x256xi1>, tensor<4x256xi1>, tensor<4x256xbf16>, tensor<4x256x!tt.ptr<bf16>> loc(#loc184)
        } loc(#loc577)
        scf.yield %x_ptrs#1, %x_ptrs#2, %x_ptrs#3, %x_ptrs#4, %x_ptrs#6 : tensor<4x256x!tt.ptr<bf16>>, tensor<4xi32>, tensor<4x256xi1>, tensor<4x256xi1>, tensor<4x256x!tt.ptr<bf16>> loc(#loc110)
      } loc(#loc69)
      scf.yield %col2_171#0, %col2_171#1, %col2_171#2, %load_init_state_170 : tensor<256xbf16>, tensor<256xbf16>, tensor<256xbf16>, i1 loc(#loc69)
    } else {
      %load_init_state = arith.constant true loc(#loc568)
      %prior_tokens = arith.constant 1 : i32 loc(#loc460)
      %prior_tokens_167 = arith.constant 1 : i32 loc(#loc460)
      %prior_tokens_168 = arith.extsi %token_offset_51 : i32 to i64 loc(#loc460)
      %prior_tokens_169 = arith.extsi %prior_tokens_167 : i32 to i64 loc(#loc460)
      %prior_tokens_170 = arith.subi %prior_tokens_168, %prior_tokens_169 : i64 loc(#loc460)
      %prior_tokens_171 = arith.constant 2147483647 : i64 loc(#loc460)
      %prior_tokens_172 = arith.constant -2147483648 : i64 loc(#loc460)
      %prior_tokens_173 = arith.cmpi sle, %prior_tokens_170, %prior_tokens_171 : i64 loc(#loc460)
      %prior_tokens_174 = arith.cmpi sge, %prior_tokens_170, %prior_tokens_172 : i64 loc(#loc460)
      %prior_tokens_175 = arith.andi %prior_tokens_173, %prior_tokens_174 : i1 loc(#loc460)
      %prior_tokens_176 = arith.subi %token_offset_51, %prior_tokens_167 : i32 loc(#loc460)
      %prior_tokens_177 = arith.constant 12288 : i32 loc(#loc461)
      %prior_tokens_178 = arith.constant 12288 : i32 loc(#loc461)
      %prior_tokens_179 = arith.extsi %prior_tokens_176 : i32 to i64 loc(#loc461)
      %prior_tokens_180 = arith.extsi %prior_tokens_178 : i32 to i64 loc(#loc461)
      %prior_tokens_181 = arith.muli %prior_tokens_179, %prior_tokens_180 : i64 loc(#loc461)
      %prior_tokens_182 = arith.constant 2147483647 : i64 loc(#loc461)
      %prior_tokens_183 = arith.constant -2147483648 : i64 loc(#loc461)
      %prior_tokens_184 = arith.cmpi sle, %prior_tokens_181, %prior_tokens_182 : i64 loc(#loc461)
      %prior_tokens_185 = arith.cmpi sge, %prior_tokens_181, %prior_tokens_183 : i64 loc(#loc461)
      %prior_tokens_186 = arith.andi %prior_tokens_184, %prior_tokens_185 : i1 loc(#loc461)
      %prior_tokens_187 = arith.muli %prior_tokens_176, %prior_tokens_178 : i32 loc(#loc461)
      %prior_tokens_188 = tt.splat %prior_tokens_187 : i32 -> tensor<256xi32> loc(#loc462)
      %prior_tokens_189 = tt.addptr %x_base_88, %prior_tokens_188 : tensor<256x!tt.ptr<bf16>>, tensor<256xi32> loc(#loc462)
      %mask_w_190 = arith.constant 8192 : i32 loc(#loc463)
      %mask_w_191 = arith.constant dense<8192> : tensor<256xi32> loc(#loc463)
      %mask_w_192 = arith.cmpi slt, %idx_feats_28, %mask_w_191 : tensor<256xi32> loc(#loc463)
      %col2_193 = arith.constant 0.000000e+00 : f32 loc(#loc464)
      %col2_194 = arith.constant dense<0.000000e+00> : tensor<256xf32> loc(#loc464)
      %col2_195 = arith.truncf %col2_194 : tensor<256xf32> to tensor<256xbf16> loc(#loc464)
      %col2_196 = tt.load %prior_tokens_189, %mask_w_192, %col2_195 cacheModifier = ca : tensor<256x!tt.ptr<bf16>> loc(#loc569)
      %conv_states_ptrs = arith.constant 12288 : i32 loc(#loc465)
      %conv_states_ptrs_197 = arith.constant dense<12288> : tensor<256xi32> loc(#loc465)
      %conv_states_ptrs_198 = arith.constant 0 : i32 loc(#loc465)
      %conv_states_ptrs_199 = arith.constant dense<0> : tensor<256xi32> loc(#loc465)
      %conv_states_ptrs_200 = arith.extsi %conv_states_ptrs_199 : tensor<256xi32> to tensor<256xi64> loc(#loc465)
      %conv_states_ptrs_201 = arith.extsi %conv_states_ptrs_197 : tensor<256xi32> to tensor<256xi64> loc(#loc465)
      %conv_states_ptrs_202 = arith.subi %conv_states_ptrs_200, %conv_states_ptrs_201 : tensor<256xi64> loc(#loc465)
      %conv_states_ptrs_203 = arith.constant 2147483647 : i64 loc(#loc465)
      %conv_states_ptrs_204 = arith.constant -2147483648 : i64 loc(#loc465)
      %conv_states_ptrs_205 = arith.constant dense<2147483647> : tensor<256xi64> loc(#loc465)
      %conv_states_ptrs_206 = arith.cmpi sle, %conv_states_ptrs_202, %conv_states_ptrs_205 : tensor<256xi64> loc(#loc465)
      %conv_states_ptrs_207 = arith.constant dense<-2147483648> : tensor<256xi64> loc(#loc465)
      %conv_states_ptrs_208 = arith.cmpi sge, %conv_states_ptrs_202, %conv_states_ptrs_207 : tensor<256xi64> loc(#loc465)
      %conv_states_ptrs_209 = arith.andi %conv_states_ptrs_206, %conv_states_ptrs_208 : tensor<256xi1> loc(#loc465)
      %conv_states_ptrs_210 = arith.subi %conv_states_ptrs_199, %conv_states_ptrs_197 : tensor<256xi32> loc(#loc465)
      %conv_states_ptrs_211 = tt.addptr %prior_tokens_189, %conv_states_ptrs_210 : tensor<256x!tt.ptr<bf16>>, tensor<256xi32> loc(#loc465)
      %col1 = arith.constant 0.000000e+00 : f32 loc(#loc466)
      %col1_212 = arith.constant dense<0.000000e+00> : tensor<256xf32> loc(#loc466)
      %col1_213 = arith.truncf %col1_212 : tensor<256xf32> to tensor<256xbf16> loc(#loc466)
      %col1_214 = tt.load %conv_states_ptrs_211, %mask_w_192, %col1_213 cacheModifier = ca : tensor<256x!tt.ptr<bf16>> loc(#loc570)
      %conv_states_ptrs_215 = arith.constant 24576 : i32 loc(#loc467)
      %conv_states_ptrs_216 = arith.constant dense<24576> : tensor<256xi32> loc(#loc467)
      %conv_states_ptrs_217 = arith.constant 0 : i32 loc(#loc467)
      %conv_states_ptrs_218 = arith.constant dense<0> : tensor<256xi32> loc(#loc467)
      %conv_states_ptrs_219 = arith.extsi %conv_states_ptrs_218 : tensor<256xi32> to tensor<256xi64> loc(#loc467)
      %conv_states_ptrs_220 = arith.extsi %conv_states_ptrs_216 : tensor<256xi32> to tensor<256xi64> loc(#loc467)
      %conv_states_ptrs_221 = arith.subi %conv_states_ptrs_219, %conv_states_ptrs_220 : tensor<256xi64> loc(#loc467)
      %conv_states_ptrs_222 = arith.constant 2147483647 : i64 loc(#loc467)
      %conv_states_ptrs_223 = arith.constant -2147483648 : i64 loc(#loc467)
      %conv_states_ptrs_224 = arith.constant dense<2147483647> : tensor<256xi64> loc(#loc467)
      %conv_states_ptrs_225 = arith.cmpi sle, %conv_states_ptrs_221, %conv_states_ptrs_224 : tensor<256xi64> loc(#loc467)
      %conv_states_ptrs_226 = arith.constant dense<-2147483648> : tensor<256xi64> loc(#loc467)
      %conv_states_ptrs_227 = arith.cmpi sge, %conv_states_ptrs_221, %conv_states_ptrs_226 : tensor<256xi64> loc(#loc467)
      %conv_states_ptrs_228 = arith.andi %conv_states_ptrs_225, %conv_states_ptrs_227 : tensor<256xi1> loc(#loc467)
      %conv_states_ptrs_229 = arith.subi %conv_states_ptrs_218, %conv_states_ptrs_216 : tensor<256xi32> loc(#loc467)
      %conv_states_ptrs_230 = tt.addptr %prior_tokens_189, %conv_states_ptrs_229 : tensor<256x!tt.ptr<bf16>>, tensor<256xi32> loc(#loc467)
      %col0 = arith.constant 0.000000e+00 : f32 loc(#loc468)
      %col0_231 = arith.constant dense<0.000000e+00> : tensor<256xf32> loc(#loc468)
      %col0_232 = arith.truncf %col0_231 : tensor<256xf32> to tensor<256xbf16> loc(#loc468)
      %col0_233 = tt.load %conv_states_ptrs_230, %mask_w_192, %col0_232 cacheModifier = ca : tensor<256x!tt.ptr<bf16>> loc(#loc571)
      %c1_i32_234 = arith.constant 1 : i32 loc(#loc195)
      %c1_i32_235 = arith.constant 1 : i32 loc(#loc195)
      %10 = arith.extsi %chunk_offset_4 : i32 to i64 loc(#loc195)
      %11 = arith.extsi %c1_i32_235 : i32 to i64 loc(#loc195)
      %12 = arith.subi %10, %11 : i64 loc(#loc195)
      %c2147483647_i64 = arith.constant 2147483647 : i64 loc(#loc195)
      %c-2147483648_i64 = arith.constant -2147483648 : i64 loc(#loc195)
      %13 = arith.cmpi sle, %12, %c2147483647_i64 : i64 loc(#loc195)
      %14 = arith.cmpi sge, %12, %c-2147483648_i64 : i64 loc(#loc195)
      %15 = arith.andi %13, %14 : i1 loc(#loc195)
      %16 = arith.subi %chunk_offset_4, %c1_i32_235 : i32 loc(#loc195)
      %17 = arith.cmpi slt, %16, %n_block_to_fill : i32 loc(#loc196)
      scf.if %17 {
        %idx_tokens_last = arith.extsi %n_block_to_fill : i32 to i64 loc(#loc469)
        %idx_tokens_last_236 = arith.extsi %chunk_offset_4 : i32 to i64 loc(#loc469)
        %idx_tokens_last_237 = arith.subi %idx_tokens_last, %idx_tokens_last_236 : i64 loc(#loc469)
        %idx_tokens_last_238 = arith.constant 2147483647 : i64 loc(#loc469)
        %idx_tokens_last_239 = arith.constant -2147483648 : i64 loc(#loc469)
        %idx_tokens_last_240 = arith.cmpi sle, %idx_tokens_last_237, %idx_tokens_last_238 : i64 loc(#loc469)
        %idx_tokens_last_241 = arith.cmpi sge, %idx_tokens_last_237, %idx_tokens_last_239 : i64 loc(#loc469)
        %idx_tokens_last_242 = arith.andi %idx_tokens_last_240, %idx_tokens_last_241 : i1 loc(#loc469)
        %idx_tokens_last_243 = arith.subi %n_block_to_fill, %chunk_offset_4 : i32 loc(#loc469)
        %idx_tokens_last_244 = arith.constant 0 : i32 loc(#loc470)
        %idx_tokens_last_245 = arith.constant 0 : i32 loc(#loc470)
        %idx_tokens_last_246 = arith.extsi %idx_tokens_last_243 : i32 to i64 loc(#loc470)
        %idx_tokens_last_247 = arith.extsi %idx_tokens_last_245 : i32 to i64 loc(#loc470)
        %idx_tokens_last_248 = arith.muli %idx_tokens_last_246, %idx_tokens_last_247 : i64 loc(#loc470)
        %idx_tokens_last_249 = arith.constant 2147483647 : i64 loc(#loc470)
        %idx_tokens_last_250 = arith.constant -2147483648 : i64 loc(#loc470)
        %idx_tokens_last_251 = arith.cmpi sle, %idx_tokens_last_248, %idx_tokens_last_249 : i64 loc(#loc470)
        %idx_tokens_last_252 = arith.cmpi sge, %idx_tokens_last_248, %idx_tokens_last_250 : i64 loc(#loc470)
        %idx_tokens_last_253 = arith.andi %idx_tokens_last_251, %idx_tokens_last_252 : i1 loc(#loc470)
        %idx_tokens_last_254 = arith.muli %idx_tokens_last_243, %idx_tokens_last_245 : i32 loc(#loc470)
        %idx_tokens_last_255 = arith.extsi %last_full_block_token_index : i32 to i64 loc(#loc471)
        %idx_tokens_last_256 = arith.extsi %idx_tokens_last_254 : i32 to i64 loc(#loc471)
        %idx_tokens_last_257 = arith.subi %idx_tokens_last_255, %idx_tokens_last_256 : i64 loc(#loc471)
        %idx_tokens_last_258 = arith.constant 2147483647 : i64 loc(#loc471)
        %idx_tokens_last_259 = arith.constant -2147483648 : i64 loc(#loc471)
        %idx_tokens_last_260 = arith.cmpi sle, %idx_tokens_last_257, %idx_tokens_last_258 : i64 loc(#loc471)
        %idx_tokens_last_261 = arith.cmpi sge, %idx_tokens_last_257, %idx_tokens_last_259 : i64 loc(#loc471)
        %idx_tokens_last_262 = arith.andi %idx_tokens_last_260, %idx_tokens_last_261 : i1 loc(#loc471)
        %idx_tokens_last_263 = arith.subi %last_full_block_token_index, %idx_tokens_last_254 : i32 loc(#loc471)
        %idx_tokens_last_264 = arith.extsi %idx_tokens_last_263 : i32 to i64 loc(#loc472)
        %idx_tokens_last_265 = arith.extsi %state_len : i32 to i64 loc(#loc472)
        %idx_tokens_last_266 = arith.subi %idx_tokens_last_264, %idx_tokens_last_265 : i64 loc(#loc472)
        %idx_tokens_last_267 = arith.constant 2147483647 : i64 loc(#loc472)
        %idx_tokens_last_268 = arith.constant -2147483648 : i64 loc(#loc472)
        %idx_tokens_last_269 = arith.cmpi sle, %idx_tokens_last_266, %idx_tokens_last_267 : i64 loc(#loc472)
        %idx_tokens_last_270 = arith.cmpi sge, %idx_tokens_last_266, %idx_tokens_last_268 : i64 loc(#loc472)
        %idx_tokens_last_271 = arith.andi %idx_tokens_last_269, %idx_tokens_last_270 : i1 loc(#loc472)
        %idx_tokens_last_272 = arith.subi %idx_tokens_last_263, %state_len : i32 loc(#loc472)
        %idx_tokens_last_273 = tt.make_range {end = 4 : i32, start = 0 : i32} : tensor<4xi32> loc(#loc473)
        %idx_tokens_last_274 = tt.splat %idx_tokens_last_272 : i32 -> tensor<4xi32> loc(#loc474)
        %idx_tokens_last_275 = arith.extsi %idx_tokens_last_274 : tensor<4xi32> to tensor<4xi64> loc(#loc474)
        %idx_tokens_last_276 = arith.extsi %idx_tokens_last_273 : tensor<4xi32> to tensor<4xi64> loc(#loc474)
        %idx_tokens_last_277 = arith.addi %idx_tokens_last_275, %idx_tokens_last_276 : tensor<4xi64> loc(#loc474)
        %idx_tokens_last_278 = arith.constant 2147483647 : i64 loc(#loc474)
        %idx_tokens_last_279 = arith.constant -2147483648 : i64 loc(#loc474)
        %idx_tokens_last_280 = arith.constant dense<2147483647> : tensor<4xi64> loc(#loc474)
        %idx_tokens_last_281 = arith.cmpi sle, %idx_tokens_last_277, %idx_tokens_last_280 : tensor<4xi64> loc(#loc474)
        %idx_tokens_last_282 = arith.constant dense<-2147483648> : tensor<4xi64> loc(#loc474)
        %idx_tokens_last_283 = arith.cmpi sge, %idx_tokens_last_277, %idx_tokens_last_282 : tensor<4xi64> loc(#loc474)
        %idx_tokens_last_284 = arith.andi %idx_tokens_last_281, %idx_tokens_last_283 : tensor<4xi1> loc(#loc474)
        %idx_tokens_last_285 = arith.addi %idx_tokens_last_274, %idx_tokens_last_273 : tensor<4xi32> loc(#loc474)
        %x_ptrs = arith.constant 12288 : i32 loc(#loc475)
        %x_ptrs_286 = arith.constant 12288 : i32 loc(#loc475)
        %x_ptrs_287 = arith.constant dense<12288> : tensor<4xi32> loc(#loc475)
        %x_ptrs_288 = arith.extsi %idx_tokens_last_285 : tensor<4xi32> to tensor<4xi64> loc(#loc475)
        %x_ptrs_289 = arith.extsi %x_ptrs_287 : tensor<4xi32> to tensor<4xi64> loc(#loc475)
        %x_ptrs_290 = arith.muli %x_ptrs_288, %x_ptrs_289 : tensor<4xi64> loc(#loc475)
        %x_ptrs_291 = arith.constant 2147483647 : i64 loc(#loc475)
        %x_ptrs_292 = arith.constant -2147483648 : i64 loc(#loc475)
        %x_ptrs_293 = arith.constant dense<2147483647> : tensor<4xi64> loc(#loc475)
        %x_ptrs_294 = arith.cmpi sle, %x_ptrs_290, %x_ptrs_293 : tensor<4xi64> loc(#loc475)
        %x_ptrs_295 = arith.constant dense<-2147483648> : tensor<4xi64> loc(#loc475)
        %x_ptrs_296 = arith.cmpi sge, %x_ptrs_290, %x_ptrs_295 : tensor<4xi64> loc(#loc475)
        %x_ptrs_297 = arith.andi %x_ptrs_294, %x_ptrs_296 : tensor<4xi1> loc(#loc475)
        %x_ptrs_298 = arith.muli %idx_tokens_last_285, %x_ptrs_287 : tensor<4xi32> loc(#loc475)
        %x_ptrs_299 = tt.expand_dims %x_ptrs_298 {axis = 1 : i32} : tensor<4xi32> -> tensor<4x1xi32> loc(#loc476)
        %x_ptrs_300 = tt.splat %x_ptr : !tt.ptr<bf16> -> tensor<4x1x!tt.ptr<bf16>> loc(#loc477)
        %x_ptrs_301 = tt.addptr %x_ptrs_300, %x_ptrs_299 : tensor<4x1x!tt.ptr<bf16>>, tensor<4x1xi32> loc(#loc477)
        %x_ptrs_302 = arith.constant 1 : i32 loc(#loc478)
        %x_ptrs_303 = arith.constant 1 : i32 loc(#loc478)
        %x_ptrs_304 = arith.constant dense<1> : tensor<256xi32> loc(#loc478)
        %x_ptrs_305 = arith.extsi %idx_feats_28 : tensor<256xi32> to tensor<256xi64> loc(#loc478)
        %x_ptrs_306 = arith.extsi %x_ptrs_304 : tensor<256xi32> to tensor<256xi64> loc(#loc478)
        %x_ptrs_307 = arith.muli %x_ptrs_305, %x_ptrs_306 : tensor<256xi64> loc(#loc478)
        %x_ptrs_308 = arith.constant 2147483647 : i64 loc(#loc478)
        %x_ptrs_309 = arith.constant -2147483648 : i64 loc(#loc478)
        %x_ptrs_310 = arith.constant dense<2147483647> : tensor<256xi64> loc(#loc478)
        %x_ptrs_311 = arith.cmpi sle, %x_ptrs_307, %x_ptrs_310 : tensor<256xi64> loc(#loc478)
        %x_ptrs_312 = arith.constant dense<-2147483648> : tensor<256xi64> loc(#loc478)
        %x_ptrs_313 = arith.cmpi sge, %x_ptrs_307, %x_ptrs_312 : tensor<256xi64> loc(#loc478)
        %x_ptrs_314 = arith.andi %x_ptrs_311, %x_ptrs_313 : tensor<256xi1> loc(#loc478)
        %x_ptrs_315 = arith.muli %idx_feats_28, %x_ptrs_304 : tensor<256xi32> loc(#loc478)
        %x_ptrs_316 = tt.expand_dims %x_ptrs_315 {axis = 0 : i32} : tensor<256xi32> -> tensor<1x256xi32> loc(#loc479)
        %x_ptrs_317 = tt.broadcast %x_ptrs_301 : tensor<4x1x!tt.ptr<bf16>> -> tensor<4x256x!tt.ptr<bf16>> loc(#loc480)
        %x_ptrs_318 = tt.broadcast %x_ptrs_316 : tensor<1x256xi32> -> tensor<4x256xi32> loc(#loc480)
        %x_ptrs_319 = tt.addptr %x_ptrs_317, %x_ptrs_318 : tensor<4x256x!tt.ptr<bf16>>, tensor<4x256xi32> loc(#loc480)
        %mask_x = arith.constant 0 : i32 loc(#loc481)
        %mask_x_320 = arith.constant dense<0> : tensor<4xi32> loc(#loc481)
        %mask_x_321 = arith.cmpi sge, %idx_tokens_last_285, %mask_x_320 : tensor<4xi32> loc(#loc481)
        %mask_x_322 = tt.expand_dims %mask_x_321 {axis = 1 : i32} : tensor<4xi1> -> tensor<4x1xi1> loc(#loc482)
        %mask_x_323 = arith.constant 8192 : i32 loc(#loc483)
        %mask_x_324 = arith.constant dense<8192> : tensor<256xi32> loc(#loc483)
        %mask_x_325 = arith.cmpi slt, %idx_feats_28, %mask_x_324 : tensor<256xi32> loc(#loc483)
        %mask_x_326 = tt.expand_dims %mask_x_325 {axis = 0 : i32} : tensor<256xi1> -> tensor<1x256xi1> loc(#loc484)
        %mask_x_327 = tt.broadcast %mask_x_322 : tensor<4x1xi1> -> tensor<4x256xi1> loc(#loc485)
        %mask_x_328 = tt.broadcast %mask_x_326 : tensor<1x256xi1> -> tensor<4x256xi1> loc(#loc485)
        %mask_x_329 = arith.andi %mask_x_327, %mask_x_328 : tensor<4x256xi1> loc(#loc485)
        %loaded_x = arith.constant 0.000000e+00 : f32 loc(#loc486)
        %loaded_x_330 = arith.constant dense<0.000000e+00> : tensor<4x256xf32> loc(#loc486)
        %loaded_x_331 = arith.truncf %loaded_x_330 : tensor<4x256xf32> to tensor<4x256xbf16> loc(#loc486)
        %loaded_x_332 = tt.load %x_ptrs_319, %mask_x_329, %loaded_x_331 : tensor<4x256x!tt.ptr<bf16>> loc(#loc486)
        %idx_tokens_conv = tt.make_range {end = 4 : i32, start = 0 : i32} : tensor<4xi32> loc(#loc487)
        %conv_states_output_coord = arith.constant 1 : i32 loc(#loc488)
        %conv_states_output_coord_333 = arith.constant 1 : i64 loc(#loc488)
        %conv_states_output_coord_334 = arith.muli %idx_seq_2, %conv_states_output_coord_333 : i64 loc(#loc488)
        %conv_states_output_coord_335 = tt.addptr %cache_indices_ptr, %conv_states_output_coord_334 : !tt.ptr<i32>, i64 loc(#loc489)
        %conv_states_output_coord_336 = tt.addptr %conv_states_output_coord_335, %current_first_index : !tt.ptr<i32>, i32 loc(#loc490)
        %conv_states_output_coord_337 = arith.constant 1 : i32 loc(#loc491)
        %conv_states_output_coord_338 = arith.constant 1 : i32 loc(#loc491)
        %conv_states_output_coord_339 = arith.extsi %chunk_offset_4 : i32 to i64 loc(#loc491)
        %conv_states_output_coord_340 = arith.extsi %conv_states_output_coord_338 : i32 to i64 loc(#loc491)
        %conv_states_output_coord_341 = arith.subi %conv_states_output_coord_339, %conv_states_output_coord_340 : i64 loc(#loc491)
        %conv_states_output_coord_342 = arith.constant 2147483647 : i64 loc(#loc491)
        %conv_states_output_coord_343 = arith.constant -2147483648 : i64 loc(#loc491)
        %conv_states_output_coord_344 = arith.cmpi sle, %conv_states_output_coord_341, %conv_states_output_coord_342 : i64 loc(#loc491)
        %conv_states_output_coord_345 = arith.cmpi sge, %conv_states_output_coord_341, %conv_states_output_coord_343 : i64 loc(#loc491)
        %conv_states_output_coord_346 = arith.andi %conv_states_output_coord_344, %conv_states_output_coord_345 : i1 loc(#loc491)
        %conv_states_output_coord_347 = arith.subi %chunk_offset_4, %conv_states_output_coord_338 : i32 loc(#loc491)
        %conv_states_output_coord_348 = tt.addptr %conv_states_output_coord_336, %conv_states_output_coord_347 : !tt.ptr<i32>, i32 loc(#loc492)
        %conv_states_output_coord_349 = tt.load %conv_states_output_coord_348 : !tt.ptr<i32> loc(#loc493)
        %conv_states_output_coord_350 = arith.extsi %conv_states_output_coord_349 : i32 to i64 loc(#loc494)
        %conv_states_ptrs_target = arith.extsi %stride_conv_state_seq : i32 to i64 loc(#loc495)
        %conv_states_ptrs_target_351 = arith.muli %conv_states_output_coord_350, %conv_states_ptrs_target : i64 loc(#loc495)
        %conv_states_ptrs_target_352 = tt.addptr %initial_states_ptr, %conv_states_ptrs_target_351 : !tt.ptr<bf16>, i64 loc(#loc496)
        %conv_states_ptrs_target_353 = arith.constant dense<1> : tensor<256xi32> loc(#loc497)
        %conv_states_ptrs_target_354 = arith.extsi %idx_feats_28 : tensor<256xi32> to tensor<256xi64> loc(#loc497)
        %conv_states_ptrs_target_355 = arith.extsi %conv_states_ptrs_target_353 : tensor<256xi32> to tensor<256xi64> loc(#loc497)
        %conv_states_ptrs_target_356 = arith.muli %conv_states_ptrs_target_354, %conv_states_ptrs_target_355 : tensor<256xi64> loc(#loc497)
        %conv_states_ptrs_target_357 = arith.constant 2147483647 : i64 loc(#loc497)
        %conv_states_ptrs_target_358 = arith.constant -2147483648 : i64 loc(#loc497)
        %conv_states_ptrs_target_359 = arith.constant dense<2147483647> : tensor<256xi64> loc(#loc497)
        %conv_states_ptrs_target_360 = arith.cmpi sle, %conv_states_ptrs_target_356, %conv_states_ptrs_target_359 : tensor<256xi64> loc(#loc497)
        %conv_states_ptrs_target_361 = arith.constant dense<-2147483648> : tensor<256xi64> loc(#loc497)
        %conv_states_ptrs_target_362 = arith.cmpi sge, %conv_states_ptrs_target_356, %conv_states_ptrs_target_361 : tensor<256xi64> loc(#loc497)
        %conv_states_ptrs_target_363 = arith.andi %conv_states_ptrs_target_360, %conv_states_ptrs_target_362 : tensor<256xi1> loc(#loc497)
        %conv_states_ptrs_target_364 = arith.muli %idx_feats_28, %conv_states_ptrs_target_353 : tensor<256xi32> loc(#loc497)
        %conv_states_ptrs_target_365 = tt.splat %conv_states_ptrs_target_352 : !tt.ptr<bf16> -> tensor<256x!tt.ptr<bf16>> loc(#loc498)
        %conv_states_ptrs_target_366 = tt.addptr %conv_states_ptrs_target_365, %conv_states_ptrs_target_364 : tensor<256x!tt.ptr<bf16>>, tensor<256xi32> loc(#loc498)
        %conv_states_ptrs_target_367 = tt.expand_dims %conv_states_ptrs_target_366 {axis = 0 : i32} : tensor<256x!tt.ptr<bf16>> -> tensor<1x256x!tt.ptr<bf16>> loc(#loc499)
        %conv_states_ptrs_target_368 = arith.constant dense<8192> : tensor<4xi32> loc(#loc500)
        %conv_states_ptrs_target_369 = arith.extsi %idx_tokens_conv : tensor<4xi32> to tensor<4xi64> loc(#loc500)
        %conv_states_ptrs_target_370 = arith.extsi %conv_states_ptrs_target_368 : tensor<4xi32> to tensor<4xi64> loc(#loc500)
        %conv_states_ptrs_target_371 = arith.muli %conv_states_ptrs_target_369, %conv_states_ptrs_target_370 : tensor<4xi64> loc(#loc500)
        %conv_states_ptrs_target_372 = arith.constant 2147483647 : i64 loc(#loc500)
        %conv_states_ptrs_target_373 = arith.constant -2147483648 : i64 loc(#loc500)
        %conv_states_ptrs_target_374 = arith.constant dense<2147483647> : tensor<4xi64> loc(#loc500)
        %conv_states_ptrs_target_375 = arith.cmpi sle, %conv_states_ptrs_target_371, %conv_states_ptrs_target_374 : tensor<4xi64> loc(#loc500)
        %conv_states_ptrs_target_376 = arith.constant dense<-2147483648> : tensor<4xi64> loc(#loc500)
        %conv_states_ptrs_target_377 = arith.cmpi sge, %conv_states_ptrs_target_371, %conv_states_ptrs_target_376 : tensor<4xi64> loc(#loc500)
        %conv_states_ptrs_target_378 = arith.andi %conv_states_ptrs_target_375, %conv_states_ptrs_target_377 : tensor<4xi1> loc(#loc500)
        %conv_states_ptrs_target_379 = arith.muli %idx_tokens_conv, %conv_states_ptrs_target_368 : tensor<4xi32> loc(#loc500)
        %conv_states_ptrs_target_380 = tt.expand_dims %conv_states_ptrs_target_379 {axis = 1 : i32} : tensor<4xi32> -> tensor<4x1xi32> loc(#loc501)
        %conv_states_ptrs_target_381 = tt.broadcast %conv_states_ptrs_target_367 : tensor<1x256x!tt.ptr<bf16>> -> tensor<4x256x!tt.ptr<bf16>> loc(#loc502)
        %conv_states_ptrs_target_382 = tt.broadcast %conv_states_ptrs_target_380 : tensor<4x1xi32> -> tensor<4x256xi32> loc(#loc502)
        %conv_states_ptrs_target_383 = tt.addptr %conv_states_ptrs_target_381, %conv_states_ptrs_target_382 : tensor<4x256x!tt.ptr<bf16>>, tensor<4x256xi32> loc(#loc502)
        %mask = arith.constant dense<3> : tensor<4xi32> loc(#loc503)
        %mask_384 = arith.cmpi slt, %idx_tokens_conv, %mask : tensor<4xi32> loc(#loc503)
        %mask_385 = tt.expand_dims %mask_384 {axis = 1 : i32} : tensor<4xi1> -> tensor<4x1xi1> loc(#loc504)
        %mask_386 = arith.constant 8192 : i32 loc(#loc505)
        %mask_387 = arith.constant dense<8192> : tensor<256xi32> loc(#loc505)
        %mask_388 = arith.cmpi slt, %idx_feats_28, %mask_387 : tensor<256xi32> loc(#loc505)
        %mask_389 = tt.expand_dims %mask_388 {axis = 0 : i32} : tensor<256xi1> -> tensor<1x256xi1> loc(#loc506)
        %mask_390 = tt.broadcast %mask_385 : tensor<4x1xi1> -> tensor<4x256xi1> loc(#loc507)
        %mask_391 = tt.broadcast %mask_389 : tensor<1x256xi1> -> tensor<4x256xi1> loc(#loc507)
        %mask_392 = arith.andi %mask_390, %mask_391 : tensor<4x256xi1> loc(#loc507)
        gpu.barrier loc(#loc237)
        tt.store %conv_states_ptrs_target_383, %loaded_x_332, %mask_392 : tensor<4x256x!tt.ptr<bf16>> loc(#loc238)
      } else {
      } loc(#loc197)
      scf.yield %col0_233, %col1_214, %col2_196, %load_init_state : tensor<256xbf16>, tensor<256xbf16>, tensor<256xbf16>, i1 loc(#loc197)
    } loc(#loc50)
    %acc_preload = tt.call @"triton.language.standard.zeros____(0, 0)cconstexpr_256__(1,)cconstexpr_fp32_"() : () -> tensor<256xf32> loc(#loc508)
    %x_base_1d = arith.constant 12288 : i32 loc(#loc509)
    %x_base_1d_127 = arith.constant 12288 : i32 loc(#loc509)
    %x_base_1d_128 = arith.extsi %token_offset_51 : i32 to i64 loc(#loc509)
    %x_base_1d_129 = arith.extsi %x_base_1d_127 : i32 to i64 loc(#loc509)
    %x_base_1d_130 = arith.muli %x_base_1d_128, %x_base_1d_129 : i64 loc(#loc509)
    %x_base_1d_131 = arith.constant 2147483647 : i64 loc(#loc509)
    %x_base_1d_132 = arith.constant -2147483648 : i64 loc(#loc509)
    %x_base_1d_133 = arith.cmpi sle, %x_base_1d_130, %x_base_1d_131 : i64 loc(#loc509)
    %x_base_1d_134 = arith.cmpi sge, %x_base_1d_130, %x_base_1d_132 : i64 loc(#loc509)
    %x_base_1d_135 = arith.andi %x_base_1d_133, %x_base_1d_134 : i1 loc(#loc509)
    %x_base_1d_136 = arith.muli %token_offset_51, %x_base_1d_127 : i32 loc(#loc509)
    %x_base_1d_137 = tt.splat %x_base_1d_136 : i32 -> tensor<256xi32> loc(#loc510)
    %x_base_1d_138 = tt.addptr %x_base_88, %x_base_1d_137 : tensor<256x!tt.ptr<bf16>>, tensor<256xi32> loc(#loc510)
    %mask_w = arith.constant 8192 : i32 loc(#loc511)
    %mask_w_139 = arith.constant dense<8192> : tensor<256xi32> loc(#loc511)
    %mask_w_140 = arith.cmpi slt, %idx_feats_28, %mask_w_139 : tensor<256xi32> loc(#loc511)
    %w_ptrs = arith.constant 0 : i32 loc(#loc512)
    %w_ptrs_141 = arith.constant dense<0> : tensor<256xi32> loc(#loc512)
    %w_ptrs_142 = tt.addptr %w_base_126, %w_ptrs_141 : tensor<256x!tt.ptr<bf16>>, tensor<256xi32> loc(#loc512)
    %w_col0 = arith.constant 0.000000e+00 : f32 loc(#loc513)
    %w_col0_143 = arith.constant dense<0.000000e+00> : tensor<256xf32> loc(#loc513)
    %w_col0_144 = arith.truncf %w_col0_143 : tensor<256xf32> to tensor<256xbf16> loc(#loc513)
    %w_col0_145 = tt.load %w_ptrs_142, %mask_w_140, %w_col0_144 : tensor<256x!tt.ptr<bf16>> loc(#loc513)
    %w_ptrs_146 = arith.constant 1 : i32 loc(#loc514)
    %w_ptrs_147 = arith.constant dense<1> : tensor<256xi32> loc(#loc514)
    %w_ptrs_148 = tt.addptr %w_base_126, %w_ptrs_147 : tensor<256x!tt.ptr<bf16>>, tensor<256xi32> loc(#loc514)
    %w_col1 = arith.constant 0.000000e+00 : f32 loc(#loc515)
    %w_col1_149 = arith.constant dense<0.000000e+00> : tensor<256xf32> loc(#loc515)
    %w_col1_150 = arith.truncf %w_col1_149 : tensor<256xf32> to tensor<256xbf16> loc(#loc515)
    %w_col1_151 = tt.load %w_ptrs_148, %mask_w_140, %w_col1_150 : tensor<256x!tt.ptr<bf16>> loc(#loc515)
    %w_ptrs_152 = arith.constant 2 : i32 loc(#loc516)
    %w_ptrs_153 = arith.constant dense<2> : tensor<256xi32> loc(#loc516)
    %w_ptrs_154 = tt.addptr %w_base_126, %w_ptrs_153 : tensor<256x!tt.ptr<bf16>>, tensor<256xi32> loc(#loc516)
    %w_col2 = arith.constant 0.000000e+00 : f32 loc(#loc517)
    %w_col2_155 = arith.constant dense<0.000000e+00> : tensor<256xf32> loc(#loc517)
    %w_col2_156 = arith.truncf %w_col2_155 : tensor<256xf32> to tensor<256xbf16> loc(#loc517)
    %w_col2_157 = tt.load %w_ptrs_154, %mask_w_140, %w_col2_156 : tensor<256x!tt.ptr<bf16>> loc(#loc517)
    %w_ptrs_158 = arith.constant 3 : i32 loc(#loc518)
    %w_ptrs_159 = arith.constant dense<3> : tensor<256xi32> loc(#loc518)
    %w_ptrs_160 = tt.addptr %w_base_126, %w_ptrs_159 : tensor<256x!tt.ptr<bf16>>, tensor<256xi32> loc(#loc518)
    %w_col3 = arith.constant 0.000000e+00 : f32 loc(#loc519)
    %w_col3_161 = arith.constant dense<0.000000e+00> : tensor<256xf32> loc(#loc519)
    %w_col3_162 = arith.truncf %w_col3_161 : tensor<256xf32> to tensor<256xbf16> loc(#loc519)
    %w_col3_163 = tt.load %w_ptrs_160, %mask_w_140, %w_col3_162 : tensor<256x!tt.ptr<bf16>> loc(#loc519)
    %mask_x_1d = arith.constant 8192 : i32 loc(#loc520)
    %mask_x_1d_164 = arith.constant dense<8192> : tensor<256xi32> loc(#loc520)
    %mask_x_1d_165 = arith.cmpi slt, %idx_feats_28, %mask_x_1d_164 : tensor<256xi32> loc(#loc520)
    %c0_i32_166 = arith.constant 0 : i32 loc(#loc252)
    %c1_i32 = arith.constant 1 : i32 loc(#loc252)
    %6 = arith.bitcast %c0_i32_166 : i32 to i32 loc(#loc252)
    %7 = arith.bitcast %segment_len_61 : i32 to i32 loc(#loc252)
    %8 = arith.bitcast %c1_i32 : i32 to i32 loc(#loc252)
    %9 = ub.poison : i32 loc(#loc252)
    %col2:3 = scf.for %idx_token = %6 to %7 step %8 iter_args(%col0 = %5#0, %col1 = %5#1, %col2_167 = %5#2) -> (tensor<256xbf16>, tensor<256xbf16>, tensor<256xbf16>)  : i32 {
      %acc = arith.mulf %col0, %w_col0_145 : tensor<256xbf16> loc(#loc522)
      %acc_168 = arith.extf %acc : tensor<256xbf16> to tensor<256xf32> loc(#loc523)
      %acc_169 = arith.addf %acc_preload, %acc_168 : tensor<256xf32> loc(#loc523)
      %acc_170 = arith.mulf %col1, %w_col1_151 : tensor<256xbf16> loc(#loc522)
      %acc_171 = arith.extf %acc_170 : tensor<256xbf16> to tensor<256xf32> loc(#loc523)
      %acc_172 = arith.addf %acc_169, %acc_171 : tensor<256xf32> loc(#loc523)
      %acc_173 = arith.mulf %col2_167, %w_col2_157 : tensor<256xbf16> loc(#loc522)
      %acc_174 = arith.extf %acc_173 : tensor<256xbf16> to tensor<256xf32> loc(#loc523)
      %acc_175 = arith.addf %acc_172, %acc_174 : tensor<256xf32> loc(#loc523)
      %x_ptrs_1d = arith.constant 12288 : i32 loc(#loc524)
      %x_ptrs_1d_176 = arith.constant 12288 : i32 loc(#loc524)
      %x_ptrs_1d_177 = arith.extsi %idx_token : i32 to i64 loc(#loc524)
      %x_ptrs_1d_178 = arith.extsi %x_ptrs_1d_176 : i32 to i64 loc(#loc524)
      %x_ptrs_1d_179 = arith.muli %x_ptrs_1d_177, %x_ptrs_1d_178 : i64 loc(#loc524)
      %x_ptrs_1d_180 = arith.constant 2147483647 : i64 loc(#loc524)
      %x_ptrs_1d_181 = arith.constant -2147483648 : i64 loc(#loc524)
      %x_ptrs_1d_182 = arith.cmpi sle, %x_ptrs_1d_179, %x_ptrs_1d_180 : i64 loc(#loc524)
      %x_ptrs_1d_183 = arith.cmpi sge, %x_ptrs_1d_179, %x_ptrs_1d_181 : i64 loc(#loc524)
      %x_ptrs_1d_184 = arith.andi %x_ptrs_1d_182, %x_ptrs_1d_183 : i1 loc(#loc524)
      %x_ptrs_1d_185 = arith.muli %idx_token, %x_ptrs_1d_176 : i32 loc(#loc524)
      %x_ptrs_1d_186 = tt.splat %x_ptrs_1d_185 : i32 -> tensor<256xi32> loc(#loc525)
      %x_ptrs_1d_187 = tt.addptr %x_base_1d_138, %x_ptrs_1d_186 : tensor<256x!tt.ptr<bf16>>, tensor<256xi32> loc(#loc525)
      %matrix_x = tt.load %x_ptrs_1d_187, %mask_x_1d_165 : tensor<256x!tt.ptr<bf16>> loc(#loc526)
      %acc_188 = arith.mulf %matrix_x, %w_col3_163 : tensor<256xbf16> loc(#loc522)
      %acc_189 = arith.extf %acc_188 : tensor<256xbf16> to tensor<256xf32> loc(#loc523)
      %acc_190 = arith.addf %acc_175, %acc_189 : tensor<256xf32> loc(#loc523)
      %acc_191 = arith.constant 0.000000e+00 : f32 loc(#loc527)
      %acc_192 = arith.constant dense<0.000000e+00> : tensor<256xf32> loc(#loc527)
      %acc_193 = arith.subf %acc_192, %acc_190 : tensor<256xf32> loc(#loc527)
      %acc_194 = math.exp %acc_193 : tensor<256xf32> loc(#loc528)
      %acc_195 = arith.constant 1 : i32 loc(#loc529)
      %acc_196 = arith.constant 1.000000e+00 : f32 loc(#loc529)
      %acc_197 = arith.constant dense<1.000000e+00> : tensor<256xf32> loc(#loc529)
      %acc_198 = arith.addf %acc_197, %acc_194 : tensor<256xf32> loc(#loc529)
      %acc_199 = arith.divf %acc_190, %acc_198 : tensor<256xf32> loc(#loc530)
      %mask_1d = arith.cmpi slt, %idx_token, %segment_len_61 : i32 loc(#loc531)
      %mask_1d_200 = arith.constant 8192 : i32 loc(#loc532)
      %mask_1d_201 = arith.constant dense<8192> : tensor<256xi32> loc(#loc532)
      %mask_1d_202 = arith.cmpi slt, %idx_feats_28, %mask_1d_201 : tensor<256xi32> loc(#loc532)
      %mask_1d_203 = tt.splat %mask_1d : i1 -> tensor<256xi1> loc(#loc533)
      %mask_1d_204 = arith.andi %mask_1d_203, %mask_1d_202 : tensor<256xi1> loc(#loc533)
      %o_ptrs = arith.extsi %sequence_start_index_29 : i32 to i64 loc(#loc534)
      %o_ptrs_205 = arith.extsi %token_offset_51 : i32 to i64 loc(#loc534)
      %o_ptrs_206 = arith.addi %o_ptrs, %o_ptrs_205 : i64 loc(#loc534)
      %o_ptrs_207 = arith.constant 2147483647 : i64 loc(#loc534)
      %o_ptrs_208 = arith.constant -2147483648 : i64 loc(#loc534)
      %o_ptrs_209 = arith.cmpi sle, %o_ptrs_206, %o_ptrs_207 : i64 loc(#loc534)
      %o_ptrs_210 = arith.cmpi sge, %o_ptrs_206, %o_ptrs_208 : i64 loc(#loc534)
      %o_ptrs_211 = arith.andi %o_ptrs_209, %o_ptrs_210 : i1 loc(#loc534)
      %o_ptrs_212 = arith.addi %sequence_start_index_29, %token_offset_51 : i32 loc(#loc534)
      %o_ptrs_213 = arith.extsi %o_ptrs_212 : i32 to i64 loc(#loc535)
      %o_ptrs_214 = arith.extsi %idx_token : i32 to i64 loc(#loc535)
      %o_ptrs_215 = arith.addi %o_ptrs_213, %o_ptrs_214 : i64 loc(#loc535)
      %o_ptrs_216 = arith.constant 2147483647 : i64 loc(#loc535)
      %o_ptrs_217 = arith.constant -2147483648 : i64 loc(#loc535)
      %o_ptrs_218 = arith.cmpi sle, %o_ptrs_215, %o_ptrs_216 : i64 loc(#loc535)
      %o_ptrs_219 = arith.cmpi sge, %o_ptrs_215, %o_ptrs_217 : i64 loc(#loc535)
      %o_ptrs_220 = arith.andi %o_ptrs_218, %o_ptrs_219 : i1 loc(#loc535)
      %o_ptrs_221 = arith.addi %o_ptrs_212, %idx_token : i32 loc(#loc535)
      %o_ptrs_222 = arith.constant 8192 : i32 loc(#loc536)
      %o_ptrs_223 = arith.constant 8192 : i32 loc(#loc536)
      %o_ptrs_224 = arith.extsi %o_ptrs_221 : i32 to i64 loc(#loc536)
      %o_ptrs_225 = arith.extsi %o_ptrs_223 : i32 to i64 loc(#loc536)
      %o_ptrs_226 = arith.muli %o_ptrs_224, %o_ptrs_225 : i64 loc(#loc536)
      %o_ptrs_227 = arith.constant 2147483647 : i64 loc(#loc536)
      %o_ptrs_228 = arith.constant -2147483648 : i64 loc(#loc536)
      %o_ptrs_229 = arith.cmpi sle, %o_ptrs_226, %o_ptrs_227 : i64 loc(#loc536)
      %o_ptrs_230 = arith.cmpi sge, %o_ptrs_226, %o_ptrs_228 : i64 loc(#loc536)
      %o_ptrs_231 = arith.andi %o_ptrs_229, %o_ptrs_230 : i1 loc(#loc536)
      %o_ptrs_232 = arith.muli %o_ptrs_221, %o_ptrs_223 : i32 loc(#loc536)
      %o_ptrs_233 = tt.addptr %o_ptr, %o_ptrs_232 : !tt.ptr<bf16>, i32 loc(#loc537)
      %o_ptrs_234 = arith.constant 1 : i32 loc(#loc538)
      %o_ptrs_235 = arith.constant 1 : i32 loc(#loc538)
      %o_ptrs_236 = arith.constant dense<1> : tensor<256xi32> loc(#loc538)
      %o_ptrs_237 = arith.extsi %idx_feats_28 : tensor<256xi32> to tensor<256xi64> loc(#loc538)
      %o_ptrs_238 = arith.extsi %o_ptrs_236 : tensor<256xi32> to tensor<256xi64> loc(#loc538)
      %o_ptrs_239 = arith.muli %o_ptrs_237, %o_ptrs_238 : tensor<256xi64> loc(#loc538)
      %o_ptrs_240 = arith.constant 2147483647 : i64 loc(#loc538)
      %o_ptrs_241 = arith.constant -2147483648 : i64 loc(#loc538)
      %o_ptrs_242 = arith.constant dense<2147483647> : tensor<256xi64> loc(#loc538)
      %o_ptrs_243 = arith.cmpi sle, %o_ptrs_239, %o_ptrs_242 : tensor<256xi64> loc(#loc538)
      %o_ptrs_244 = arith.constant dense<-2147483648> : tensor<256xi64> loc(#loc538)
      %o_ptrs_245 = arith.cmpi sge, %o_ptrs_239, %o_ptrs_244 : tensor<256xi64> loc(#loc538)
      %o_ptrs_246 = arith.andi %o_ptrs_243, %o_ptrs_245 : tensor<256xi1> loc(#loc538)
      %o_ptrs_247 = arith.muli %idx_feats_28, %o_ptrs_236 : tensor<256xi32> loc(#loc538)
      %o_ptrs_248 = tt.splat %o_ptrs_233 : !tt.ptr<bf16> -> tensor<256x!tt.ptr<bf16>> loc(#loc539)
      %o_ptrs_249 = tt.addptr %o_ptrs_248, %o_ptrs_247 : tensor<256x!tt.ptr<bf16>>, tensor<256xi32> loc(#loc539)
      %10 = arith.truncf %acc_199 : tensor<256xf32> to tensor<256xbf16> loc(#loc271)
      tt.store %o_ptrs_249, %10, %mask_1d_204 : tensor<256x!tt.ptr<bf16>> loc(#loc271)
      scf.yield %col1, %col2_167, %matrix_x : tensor<256xbf16>, tensor<256xbf16>, tensor<256xbf16> loc(#loc272)
    } loc(#loc575)
    tt.return loc(#loc273)
  } loc(#loc)
  tt.func private @"triton.language.standard.zeros____(0, 0)cconstexpr_256__(1,)cconstexpr_bf16_"() -> tensor<256xbf16> attributes {noinline = false} {
    %cst = arith.constant 0.000000e+00 : bf16 loc(#loc275)
    %cst_0 = arith.constant dense<0.000000e+00> : tensor<256xbf16> loc(#loc275)
    tt.return %cst_0 : tensor<256xbf16> loc(#loc276)
  ^bb1:  // no predecessors
    %0 = ub.poison : tensor<256xbf16> loc(#loc277)
    tt.return %0 : tensor<256xbf16> loc(#loc277)
  } loc(#loc274)
  tt.func private @"triton.language.standard.zeros____(0, 0)cconstexpr_256__(1,)cconstexpr_fp32_"() -> tensor<256xf32> attributes {noinline = false} {
    %cst = arith.constant 0.000000e+00 : f32 loc(#loc275)
    %cst_0 = arith.constant dense<0.000000e+00> : tensor<256xf32> loc(#loc275)
    tt.return %cst_0 : tensor<256xf32> loc(#loc276)
  ^bb1:  // no predecessors
    %0 = ub.poison : tensor<256xf32> loc(#loc277)
    tt.return %0 : tensor<256xf32> loc(#loc277)
  } loc(#loc274)
} loc(#loc)
#loc1 = loc("/data/conda/envs/or_llm/lib/python3.12/site-packages/vllm/model_executor/layers/mamba/ops/causal_conv1d.py":64:28)
#loc2 = loc("/data/conda/envs/or_llm/lib/python3.12/site-packages/vllm/model_executor/layers/mamba/ops/causal_conv1d.py":65:28)
#loc3 = loc("/data/conda/envs/or_llm/lib/python3.12/site-packages/vllm/model_executor/layers/mamba/ops/causal_conv1d.py":66:28)
#loc4 = loc("/data/conda/envs/or_llm/lib/python3.12/site-packages/vllm/model_executor/layers/mamba/ops/causal_conv1d.py":68:8)
#loc5 = loc("/data/conda/envs/or_llm/lib/python3.12/site-packages/vllm/model_executor/layers/mamba/ops/causal_conv1d.py":75:48)
#loc6 = loc("/data/conda/envs/or_llm/lib/python3.12/site-packages/vllm/model_executor/layers/mamba/ops/causal_conv1d.py":75:34)
#loc7 = loc("/data/conda/envs/or_llm/lib/python3.12/site-packages/vllm/model_executor/layers/mamba/ops/causal_conv1d.py":75:22)
#loc8 = loc("/data/conda/envs/or_llm/lib/python3.12/site-packages/vllm/model_executor/layers/mamba/ops/causal_conv1d.py":75:55)
#loc9 = loc("/data/conda/envs/or_llm/lib/python3.12/site-packages/vllm/model_executor/layers/mamba/ops/causal_conv1d.py":76:66)
#loc10 = loc("/data/conda/envs/or_llm/lib/python3.12/site-packages/vllm/model_executor/layers/mamba/ops/causal_conv1d.py":76:52)
#loc11 = loc("/data/conda/envs/or_llm/lib/python3.12/site-packages/vllm/model_executor/layers/mamba/ops/causal_conv1d.py":76:27)
#loc12 = loc("/data/conda/envs/or_llm/lib/python3.12/site-packages/vllm/model_executor/layers/mamba/ops/causal_conv1d.py":79:30)
#loc13 = loc("/data/conda/envs/or_llm/lib/python3.12/site-packages/vllm/model_executor/layers/mamba/ops/causal_conv1d.py":79:35)
#loc14 = loc("/data/conda/envs/or_llm/lib/python3.12/site-packages/vllm/model_executor/layers/mamba/ops/causal_conv1d.py":79:58)
#loc15 = loc("/data/conda/envs/or_llm/lib/python3.12/site-packages/vllm/model_executor/layers/mamba/ops/causal_conv1d.py":79:45)
#loc16 = loc("/data/conda/envs/or_llm/lib/python3.12/site-packages/vllm/model_executor/layers/mamba/ops/causal_conv1d.py":81:18)
#loc17 = loc("/data/conda/envs/or_llm/lib/python3.12/site-packages/vllm/model_executor/layers/mamba/ops/causal_conv1d.py":82:8)
#loc18 = loc("/data/conda/envs/or_llm/lib/python3.12/site-packages/vllm/model_executor/layers/mamba/ops/causal_conv1d.py":84:57)
#loc19 = loc("/data/conda/envs/or_llm/lib/python3.12/site-packages/vllm/model_executor/layers/mamba/ops/causal_conv1d.py":84:35)
#loc20 = loc("/data/conda/envs/or_llm/lib/python3.12/site-packages/vllm/model_executor/layers/mamba/ops/causal_conv1d.py":85:55)
#loc21 = loc("/data/conda/envs/or_llm/lib/python3.12/site-packages/vllm/model_executor/layers/mamba/ops/causal_conv1d.py":85:65)
#loc22 = loc("/data/conda/envs/or_llm/lib/python3.12/site-packages/vllm/model_executor/layers/mamba/ops/causal_conv1d.py":85:33)
#loc23 = loc("/data/conda/envs/or_llm/lib/python3.12/site-packages/vllm/model_executor/layers/mamba/ops/causal_conv1d.py":87:34)
#loc24 = loc("/data/conda/envs/or_llm/lib/python3.12/site-packages/vllm/model_executor/layers/mamba/ops/causal_conv1d.py":117:26)
#loc25 = loc("/data/conda/envs/or_llm/lib/python3.12/site-packages/vllm/model_executor/layers/mamba/ops/causal_conv1d.py":118:29)
#loc26 = loc("/data/conda/envs/or_llm/lib/python3.12/site-packages/vllm/model_executor/layers/mamba/ops/causal_conv1d.py":119:32)
#loc27 = loc("/data/conda/envs/or_llm/lib/python3.12/site-packages/vllm/model_executor/layers/mamba/ops/causal_conv1d.py":120:30)
#loc28 = loc("/data/conda/envs/or_llm/lib/python3.12/site-packages/vllm/model_executor/layers/mamba/ops/causal_conv1d.py":121:38)
#loc29 = loc("/data/conda/envs/or_llm/lib/python3.12/site-packages/vllm/model_executor/layers/mamba/ops/causal_conv1d.py":123:29)
#loc30 = loc("/data/conda/envs/or_llm/lib/python3.12/site-packages/vllm/model_executor/layers/mamba/ops/causal_conv1d.py":124:40)
#loc31 = loc("/data/conda/envs/or_llm/lib/python3.12/site-packages/vllm/model_executor/layers/mamba/ops/causal_conv1d.py":124:31)
#loc32 = loc("/data/conda/envs/or_llm/lib/python3.12/site-packages/vllm/model_executor/layers/mamba/ops/causal_conv1d.py":128:39)
#loc33 = loc("/data/conda/envs/or_llm/lib/python3.12/site-packages/vllm/model_executor/layers/mamba/ops/causal_conv1d.py":128:16)
#loc34 = loc("/data/conda/envs/or_llm/lib/python3.12/site-packages/vllm/model_executor/layers/mamba/ops/causal_conv1d.py":128:68)
#loc35 = loc("/data/conda/envs/or_llm/lib/python3.12/site-packages/vllm/model_executor/layers/mamba/ops/causal_conv1d.py":128:56)
#loc36 = loc("/data/conda/envs/or_llm/lib/python3.12/site-packages/vllm/model_executor/layers/mamba/ops/causal_conv1d.py":133:43)
#loc37 = loc("/data/conda/envs/or_llm/lib/python3.12/site-packages/vllm/model_executor/layers/mamba/ops/causal_conv1d.py":133:33)
#loc38 = loc("/data/conda/envs/or_llm/lib/python3.12/site-packages/vllm/model_executor/layers/mamba/ops/causal_conv1d.py":133:66)
#loc39 = loc("/data/conda/envs/or_llm/lib/python3.12/site-packages/vllm/model_executor/layers/mamba/ops/causal_conv1d.py":133:8)
#loc40 = loc("/data/conda/envs/or_llm/lib/python3.12/site-packages/vllm/model_executor/layers/mamba/ops/causal_conv1d.py":134:9)
#loc41 = loc("/data/conda/envs/or_llm/lib/python3.12/site-packages/vllm/model_executor/layers/mamba/ops/causal_conv1d.py":137:38)
#loc42 = loc("/data/conda/envs/or_llm/lib/python3.12/site-packages/vllm/model_executor/layers/mamba/ops/causal_conv1d.py":139:12)
#loc43 = loc("/data/conda/envs/or_llm/lib/python3.12/site-packages/vllm/model_executor/layers/mamba/ops/causal_conv1d.py":142:37)
#loc44 = loc("/data/conda/envs/or_llm/lib/python3.12/site-packages/vllm/model_executor/layers/mamba/ops/causal_conv1d.py":142:11)
#loc45 = loc("/data/conda/envs/or_llm/lib/python3.12/site-packages/vllm/model_executor/layers/mamba/ops/causal_conv1d.py":143:23)
#loc46 = loc("/data/conda/envs/or_llm/lib/python3.12/site-packages/vllm/model_executor/layers/mamba/ops/causal_conv1d.py":143:11)
#loc47 = loc("/data/conda/envs/or_llm/lib/python3.12/site-packages/vllm/model_executor/layers/mamba/ops/causal_conv1d.py":146:34)
#loc48 = loc("/data/conda/envs/or_llm/lib/python3.12/site-packages/vllm/model_executor/layers/mamba/ops/causal_conv1d.py":146:22)
#loc49 = loc("/data/conda/envs/or_llm/lib/python3.12/site-packages/vllm/model_executor/layers/mamba/ops/causal_conv1d.py":151:23)
#loc50 = loc("/data/conda/envs/or_llm/lib/python3.12/site-packages/vllm/model_executor/layers/mamba/ops/causal_conv1d.py":151:7)
#loc51 = loc("/data/conda/envs/or_llm/lib/python3.12/site-packages/vllm/model_executor/layers/mamba/ops/causal_conv1d.py":153:59)
#loc52 = loc("/data/conda/envs/or_llm/lib/python3.12/site-packages/vllm/model_executor/layers/mamba/ops/causal_conv1d.py":153:34)
#loc53 = loc("/data/conda/envs/or_llm/lib/python3.12/site-packages/vllm/model_executor/layers/mamba/ops/causal_conv1d.py":154:11)
#loc54 = loc("/data/conda/envs/or_llm/lib/python3.12/site-packages/vllm/model_executor/layers/mamba/ops/causal_conv1d.py":156:59)
#loc55 = loc("/data/conda/envs/or_llm/lib/python3.12/site-packages/vllm/model_executor/layers/mamba/ops/causal_conv1d.py":156:64)
#loc56 = loc("/data/conda/envs/or_llm/lib/python3.12/site-packages/vllm/model_executor/layers/mamba/ops/causal_conv1d.py":156:46)
#loc57 = loc("/data/conda/envs/or_llm/lib/python3.12/site-packages/vllm/model_executor/layers/mamba/ops/causal_conv1d.py":157:33)
#loc58 = loc("/data/conda/envs/or_llm/lib/python3.12/site-packages/vllm/model_executor/layers/mamba/ops/causal_conv1d.py":168:57)
#loc59 = loc("/data/conda/envs/or_llm/lib/python3.12/site-packages/vllm/model_executor/layers/mamba/ops/causal_conv1d.py":169:54)
#loc60 = loc("/data/conda/envs/or_llm/lib/python3.12/site-packages/vllm/model_executor/layers/mamba/ops/causal_conv1d.py":169:50)
#loc61 = loc("/data/conda/envs/or_llm/lib/python3.12/site-packages/vllm/model_executor/layers/mamba/ops/causal_conv1d.py":170:57)
#loc62 = loc("/data/conda/envs/or_llm/lib/python3.12/site-packages/vllm/model_executor/layers/mamba/ops/causal_conv1d.py":171:54)
#loc63 = loc("/data/conda/envs/or_llm/lib/python3.12/site-packages/vllm/model_executor/layers/mamba/ops/causal_conv1d.py":171:50)
#loc64 = loc("/data/conda/envs/or_llm/lib/python3.12/site-packages/vllm/model_executor/layers/mamba/ops/causal_conv1d.py":172:57)
#loc65 = loc("/data/conda/envs/or_llm/lib/python3.12/site-packages/vllm/model_executor/layers/mamba/ops/causal_conv1d.py":186:32)
#loc66 = loc("/data/conda/envs/or_llm/lib/python3.12/site-packages/vllm/model_executor/layers/mamba/ops/causal_conv1d.py":188:32)
#loc67 = loc("/data/conda/envs/or_llm/lib/python3.12/site-packages/vllm/model_executor/layers/mamba/ops/causal_conv1d.py":190:32)
#loc68 = loc("/data/conda/envs/or_llm/lib/python3.12/site-packages/vllm/model_executor/layers/mamba/ops/causal_conv1d.py":197:25)
#loc69 = loc("/data/conda/envs/or_llm/lib/python3.12/site-packages/vllm/model_executor/layers/mamba/ops/causal_conv1d.py":197:12)
#loc70 = loc("/data/conda/envs/or_llm/lib/python3.12/site-packages/vllm/model_executor/layers/mamba/ops/causal_conv1d.py":202:40)
#loc71 = loc("/data/conda/envs/or_llm/lib/python3.12/site-packages/vllm/model_executor/layers/mamba/ops/causal_conv1d.py":203:19)
#loc72 = loc("/data/conda/envs/or_llm/lib/python3.12/site-packages/vllm/model_executor/layers/mamba/ops/causal_conv1d.py":202:53)
#loc73 = loc("/data/conda/envs/or_llm/lib/python3.12/site-packages/vllm/model_executor/layers/mamba/ops/causal_conv1d.py":207:43)
#loc74 = loc("/data/conda/envs/or_llm/lib/python3.12/site-packages/vllm/model_executor/layers/mamba/ops/causal_conv1d.py":207:62)
#loc75 = loc("/data/conda/envs/or_llm/lib/python3.12/site-packages/vllm/model_executor/layers/mamba/ops/causal_conv1d.py":207:78)
#loc76 = loc("/data/conda/envs/or_llm/lib/python3.12/site-packages/vllm/model_executor/layers/mamba/ops/causal_conv1d.py":207:18)
#loc77 = loc("/data/conda/envs/or_llm/lib/python3.12/site-packages/vllm/model_executor/layers/mamba/ops/causal_conv1d.py":208:31)
#loc78 = loc("/data/conda/envs/or_llm/lib/python3.12/site-packages/vllm/model_executor/layers/mamba/ops/causal_conv1d.py":208:45)
#loc79 = loc("/data/conda/envs/or_llm/lib/python3.12/site-packages/vllm/model_executor/layers/mamba/ops/causal_conv1d.py":208:18)
#loc80 = loc("/data/conda/envs/or_llm/lib/python3.12/site-packages/vllm/model_executor/layers/mamba/ops/causal_conv1d.py":211:36)
#loc81 = loc("/data/conda/envs/or_llm/lib/python3.12/site-packages/vllm/model_executor/layers/mamba/ops/causal_conv1d.py":211:39)
#loc82 = loc("/data/conda/envs/or_llm/lib/python3.12/site-packages/vllm/model_executor/layers/mamba/ops/causal_conv1d.py":212:37)
#loc83 = loc("/data/conda/envs/or_llm/lib/python3.12/site-packages/vllm/model_executor/layers/mamba/ops/causal_conv1d.py":212:45)
#loc84 = loc("/data/conda/envs/or_llm/lib/python3.12/site-packages/vllm/model_executor/layers/mamba/ops/causal_conv1d.py":212:18)
#loc85 = loc("/data/conda/envs/or_llm/lib/python3.12/site-packages/vllm/model_executor/layers/mamba/ops/causal_conv1d.py":213:31)
#loc86 = loc("/data/conda/envs/or_llm/lib/python3.12/site-packages/vllm/model_executor/layers/mamba/ops/causal_conv1d.py":213:36)
#loc87 = loc("/data/conda/envs/or_llm/lib/python3.12/site-packages/vllm/model_executor/layers/mamba/ops/causal_conv1d.py":213:18)
#loc88 = loc("/data/conda/envs/or_llm/lib/python3.12/site-packages/vllm/model_executor/layers/mamba/ops/causal_conv1d.py":215:47)
#loc89 = loc("/data/conda/envs/or_llm/lib/python3.12/site-packages/vllm/model_executor/layers/mamba/ops/causal_conv1d.py":216:43)
#loc90 = loc("/data/conda/envs/or_llm/lib/python3.12/site-packages/vllm/model_executor/layers/mamba/ops/causal_conv1d.py":221:28)
#loc91 = loc("/data/conda/envs/or_llm/lib/python3.12/site-packages/vllm/model_executor/layers/mamba/ops/causal_conv1d.py":221:18)
#loc92 = loc("/data/conda/envs/or_llm/lib/python3.12/site-packages/vllm/model_executor/layers/mamba/ops/causal_conv1d.py":222:18)
#loc93 = loc("/data/conda/envs/or_llm/lib/python3.12/site-packages/vllm/model_executor/layers/mamba/ops/causal_conv1d.py":220:16)
#loc94 = loc("/data/conda/envs/or_llm/lib/python3.12/site-packages/vllm/model_executor/layers/mamba/ops/causal_conv1d.py":223:17)
#loc95 = loc("/data/conda/envs/or_llm/lib/python3.12/site-packages/vllm/model_executor/layers/mamba/ops/causal_conv1d.py":227:46)
#loc96 = loc("/data/conda/envs/or_llm/lib/python3.12/site-packages/vllm/model_executor/layers/mamba/ops/causal_conv1d.py":227:19)
#loc97 = loc("/data/conda/envs/or_llm/lib/python3.12/site-packages/vllm/model_executor/layers/mamba/ops/causal_conv1d.py":228:31)
#loc98 = loc("/data/conda/envs/or_llm/lib/python3.12/site-packages/vllm/model_executor/layers/mamba/ops/causal_conv1d.py":228:19)
#loc99 = loc("/data/conda/envs/or_llm/lib/python3.12/site-packages/vllm/model_executor/layers/mamba/ops/causal_conv1d.py":229:14)
#loc100 = loc("/data/conda/envs/or_llm/lib/python3.12/site-packages/vllm/model_executor/layers/mamba/ops/causal_conv1d.py":230:34)
#loc101 = loc("/data/conda/envs/or_llm/lib/python3.12/site-packages/vllm/model_executor/layers/mamba/ops/causal_conv1d.py":231:14)
#loc102 = loc("/data/conda/envs/or_llm/lib/python3.12/site-packages/vllm/model_executor/layers/mamba/ops/causal_conv1d.py":229:25)
#loc103 = loc("/data/conda/envs/or_llm/lib/python3.12/site-packages/vllm/model_executor/layers/mamba/ops/causal_conv1d.py":233:38)
#loc104 = loc("/data/conda/envs/or_llm/lib/python3.12/site-packages/vllm/model_executor/layers/mamba/ops/causal_conv1d.py":233:49)
#loc105 = loc("/data/conda/envs/or_llm/lib/python3.12/site-packages/vllm/model_executor/layers/mamba/ops/causal_conv1d.py":233:73)
#loc106 = loc("/data/conda/envs/or_llm/lib/python3.12/site-packages/vllm/model_executor/layers/mamba/ops/causal_conv1d.py":233:78)
#loc107 = loc("/data/conda/envs/or_llm/lib/python3.12/site-packages/vllm/model_executor/layers/mamba/ops/causal_conv1d.py":233:60)
#loc108 = loc("/data/conda/envs/or_llm/lib/python3.12/site-packages/vllm/model_executor/layers/mamba/ops/causal_conv1d.py":234:12)
#loc109 = loc("/data/conda/envs/or_llm/lib/python3.12/site-packages/vllm/model_executor/layers/mamba/ops/causal_conv1d.py":235:56)
#loc110 = loc("/data/conda/envs/or_llm/lib/python3.12/site-packages/vllm/model_executor/layers/mamba/ops/causal_conv1d.py":238:15)
#loc111 = loc("/data/conda/envs/or_llm/lib/python3.12/site-packages/vllm/model_executor/layers/mamba/ops/causal_conv1d.py":240:47)
#loc112 = loc("/data/conda/envs/or_llm/lib/python3.12/site-packages/vllm/model_executor/layers/mamba/ops/causal_conv1d.py":244:49)
#loc113 = loc("/data/conda/envs/or_llm/lib/python3.12/site-packages/vllm/model_executor/layers/mamba/ops/causal_conv1d.py":244:23)
#loc114 = loc("/data/conda/envs/or_llm/lib/python3.12/site-packages/vllm/model_executor/layers/mamba/ops/causal_conv1d.py":245:35)
#loc115 = loc("/data/conda/envs/or_llm/lib/python3.12/site-packages/vllm/model_executor/layers/mamba/ops/causal_conv1d.py":245:58)
#loc116 = loc("/data/conda/envs/or_llm/lib/python3.12/site-packages/vllm/model_executor/layers/mamba/ops/causal_conv1d.py":245:22)
#loc117 = loc("/data/conda/envs/or_llm/lib/python3.12/site-packages/vllm/model_executor/layers/mamba/ops/causal_conv1d.py":246:42)
#loc118 = loc("/data/conda/envs/or_llm/lib/python3.12/site-packages/vllm/model_executor/layers/mamba/ops/causal_conv1d.py":246:52)
#loc119 = loc("/data/conda/envs/or_llm/lib/python3.12/site-packages/vllm/model_executor/layers/mamba/ops/causal_conv1d.py":246:75)
#loc120 = loc("/data/conda/envs/or_llm/lib/python3.12/site-packages/vllm/model_executor/layers/mamba/ops/causal_conv1d.py":246:22)
#loc121 = loc("/data/conda/envs/or_llm/lib/python3.12/site-packages/vllm/model_executor/layers/mamba/ops/causal_conv1d.py":249:47)
#loc122 = loc("/data/conda/envs/or_llm/lib/python3.12/site-packages/vllm/model_executor/layers/mamba/ops/causal_conv1d.py":250:42)
#loc123 = loc("/data/conda/envs/or_llm/lib/python3.12/site-packages/vllm/model_executor/layers/mamba/ops/causal_conv1d.py":250:52)
#loc124 = loc("/data/conda/envs/or_llm/lib/python3.12/site-packages/vllm/model_executor/layers/mamba/ops/causal_conv1d.py":250:63)
#loc125 = loc("/data/conda/envs/or_llm/lib/python3.12/site-packages/vllm/model_executor/layers/mamba/ops/causal_conv1d.py":250:22)
#loc126 = loc("/data/conda/envs/or_llm/lib/python3.12/site-packages/vllm/model_executor/layers/mamba/ops/causal_conv1d.py":251:35)
#loc127 = loc("/data/conda/envs/or_llm/lib/python3.12/site-packages/vllm/model_executor/layers/mamba/ops/causal_conv1d.py":251:40)
#loc128 = loc("/data/conda/envs/or_llm/lib/python3.12/site-packages/vllm/model_executor/layers/mamba/ops/causal_conv1d.py":251:22)
#loc129 = loc("/data/conda/envs/or_llm/lib/python3.12/site-packages/vllm/model_executor/layers/mamba/ops/causal_conv1d.py":253:62)
#loc130 = loc("/data/conda/envs/or_llm/lib/python3.12/site-packages/vllm/model_executor/layers/mamba/ops/causal_conv1d.py":255:34)
#loc131 = loc("/data/conda/envs/or_llm/lib/python3.12/site-packages/vllm/model_executor/layers/mamba/ops/causal_conv1d.py":258:27)
#loc132 = loc("/data/conda/envs/or_llm/lib/python3.12/site-packages/vllm/model_executor/layers/mamba/ops/causal_conv1d.py":259:42)
#loc133 = loc("/data/conda/envs/or_llm/lib/python3.12/site-packages/vllm/model_executor/layers/mamba/ops/causal_conv1d.py":259:49)
#loc134 = loc("/data/conda/envs/or_llm/lib/python3.12/site-packages/vllm/model_executor/layers/mamba/ops/causal_conv1d.py":259:65)
#loc135 = loc("/data/conda/envs/or_llm/lib/python3.12/site-packages/vllm/model_executor/layers/mamba/ops/causal_conv1d.py":259:22)
#loc136 = loc("/data/conda/envs/or_llm/lib/python3.12/site-packages/vllm/model_executor/layers/mamba/ops/causal_conv1d.py":263:39)
#loc137 = loc("/data/conda/envs/or_llm/lib/python3.12/site-packages/vllm/model_executor/layers/mamba/ops/causal_conv1d.py":263:46)
#loc138 = loc("/data/conda/envs/or_llm/lib/python3.12/site-packages/vllm/model_executor/layers/mamba/ops/causal_conv1d.py":263:49)
#loc139 = loc("/data/conda/envs/or_llm/lib/python3.12/site-packages/vllm/model_executor/layers/mamba/ops/causal_conv1d.py":264:41)
#loc140 = loc("/data/conda/envs/or_llm/lib/python3.12/site-packages/vllm/model_executor/layers/mamba/ops/causal_conv1d.py":264:47)
#loc141 = loc("/data/conda/envs/or_llm/lib/python3.12/site-packages/vllm/model_executor/layers/mamba/ops/causal_conv1d.py":264:55)
#loc142 = loc("/data/conda/envs/or_llm/lib/python3.12/site-packages/vllm/model_executor/layers/mamba/ops/causal_conv1d.py":264:22)
#loc143 = loc("/data/conda/envs/or_llm/lib/python3.12/site-packages/vllm/model_executor/layers/mamba/ops/causal_conv1d.py":265:35)
#loc144 = loc("/data/conda/envs/or_llm/lib/python3.12/site-packages/vllm/model_executor/layers/mamba/ops/causal_conv1d.py":265:40)
#loc145 = loc("/data/conda/envs/or_llm/lib/python3.12/site-packages/vllm/model_executor/layers/mamba/ops/causal_conv1d.py":265:22)
#loc146 = loc("/data/conda/envs/or_llm/lib/python3.12/site-packages/vllm/model_executor/layers/mamba/ops/causal_conv1d.py":267:51)
#loc147 = loc("/data/conda/envs/or_llm/lib/python3.12/site-packages/vllm/model_executor/layers/mamba/ops/causal_conv1d.py":269:16)
#loc148 = loc("/data/conda/envs/or_llm/lib/python3.12/site-packages/vllm/model_executor/layers/mamba/ops/causal_conv1d.py":271:38)
#loc149 = loc("/data/conda/envs/or_llm/lib/python3.12/site-packages/vllm/model_executor/layers/mamba/ops/causal_conv1d.py":275:41)
#loc150 = loc("/data/conda/envs/or_llm/lib/python3.12/site-packages/vllm/model_executor/layers/mamba/ops/causal_conv1d.py":275:64)
#loc151 = loc("/data/conda/envs/or_llm/lib/python3.12/site-packages/vllm/model_executor/layers/mamba/ops/causal_conv1d.py":275:22)
#loc152 = loc("/data/conda/envs/or_llm/lib/python3.12/site-packages/vllm/model_executor/layers/mamba/ops/causal_conv1d.py":277:42)
#loc153 = loc("/data/conda/envs/or_llm/lib/python3.12/site-packages/vllm/model_executor/layers/mamba/ops/causal_conv1d.py":277:53)
#loc154 = loc("/data/conda/envs/or_llm/lib/python3.12/site-packages/vllm/model_executor/layers/mamba/ops/causal_conv1d.py":277:77)
#loc155 = loc("/data/conda/envs/or_llm/lib/python3.12/site-packages/vllm/model_executor/layers/mamba/ops/causal_conv1d.py":278:20)
#loc156 = loc("/data/conda/envs/or_llm/lib/python3.12/site-packages/vllm/model_executor/layers/mamba/ops/causal_conv1d.py":277:64)
#loc157 = loc("/data/conda/envs/or_llm/lib/python3.12/site-packages/vllm/model_executor/layers/mamba/ops/causal_conv1d.py":280:66)
#loc158 = loc("/data/conda/envs/or_llm/lib/python3.12/site-packages/vllm/model_executor/layers/mamba/ops/causal_conv1d.py":284:47)
#loc159 = loc("/data/conda/envs/or_llm/lib/python3.12/site-packages/vllm/model_executor/layers/mamba/ops/causal_conv1d.py":286:34)
#loc160 = loc("/data/conda/envs/or_llm/lib/python3.12/site-packages/vllm/model_executor/layers/mamba/ops/causal_conv1d.py":289:27)
#loc161 = loc("/data/conda/envs/or_llm/lib/python3.12/site-packages/vllm/model_executor/layers/mamba/ops/causal_conv1d.py":290:42)
#loc162 = loc("/data/conda/envs/or_llm/lib/python3.12/site-packages/vllm/model_executor/layers/mamba/ops/causal_conv1d.py":290:49)
#loc163 = loc("/data/conda/envs/or_llm/lib/python3.12/site-packages/vllm/model_executor/layers/mamba/ops/causal_conv1d.py":290:65)
#loc164 = loc("/data/conda/envs/or_llm/lib/python3.12/site-packages/vllm/model_executor/layers/mamba/ops/causal_conv1d.py":290:22)
#loc165 = loc("/data/conda/envs/or_llm/lib/python3.12/site-packages/vllm/model_executor/layers/mamba/ops/causal_conv1d.py":294:39)
#loc166 = loc("/data/conda/envs/or_llm/lib/python3.12/site-packages/vllm/model_executor/layers/mamba/ops/causal_conv1d.py":294:46)
#loc167 = loc("/data/conda/envs/or_llm/lib/python3.12/site-packages/vllm/model_executor/layers/mamba/ops/causal_conv1d.py":294:49)
#loc168 = loc("/data/conda/envs/or_llm/lib/python3.12/site-packages/vllm/model_executor/layers/mamba/ops/causal_conv1d.py":295:41)
#loc169 = loc("/data/conda/envs/or_llm/lib/python3.12/site-packages/vllm/model_executor/layers/mamba/ops/causal_conv1d.py":295:47)
#loc170 = loc("/data/conda/envs/or_llm/lib/python3.12/site-packages/vllm/model_executor/layers/mamba/ops/causal_conv1d.py":295:55)
#loc171 = loc("/data/conda/envs/or_llm/lib/python3.12/site-packages/vllm/model_executor/layers/mamba/ops/causal_conv1d.py":295:22)
#loc172 = loc("/data/conda/envs/or_llm/lib/python3.12/site-packages/vllm/model_executor/layers/mamba/ops/causal_conv1d.py":296:35)
#loc173 = loc("/data/conda/envs/or_llm/lib/python3.12/site-packages/vllm/model_executor/layers/mamba/ops/causal_conv1d.py":296:40)
#loc174 = loc("/data/conda/envs/or_llm/lib/python3.12/site-packages/vllm/model_executor/layers/mamba/ops/causal_conv1d.py":296:22)
#loc175 = loc("/data/conda/envs/or_llm/lib/python3.12/site-packages/vllm/model_executor/layers/mamba/ops/causal_conv1d.py":298:57)
#loc176 = loc("/data/conda/envs/or_llm/lib/python3.12/site-packages/vllm/model_executor/layers/mamba/ops/causal_conv1d.py":302:41)
#loc177 = loc("/data/conda/envs/or_llm/lib/python3.12/site-packages/vllm/model_executor/layers/mamba/ops/causal_conv1d.py":302:64)
#loc178 = loc("/data/conda/envs/or_llm/lib/python3.12/site-packages/vllm/model_executor/layers/mamba/ops/causal_conv1d.py":302:22)
#loc179 = loc("/data/conda/envs/or_llm/lib/python3.12/site-packages/vllm/model_executor/layers/mamba/ops/causal_conv1d.py":304:42)
#loc180 = loc("/data/conda/envs/or_llm/lib/python3.12/site-packages/vllm/model_executor/layers/mamba/ops/causal_conv1d.py":304:53)
#loc181 = loc("/data/conda/envs/or_llm/lib/python3.12/site-packages/vllm/model_executor/layers/mamba/ops/causal_conv1d.py":304:77)
#loc182 = loc("/data/conda/envs/or_llm/lib/python3.12/site-packages/vllm/model_executor/layers/mamba/ops/causal_conv1d.py":305:20)
#loc183 = loc("/data/conda/envs/or_llm/lib/python3.12/site-packages/vllm/model_executor/layers/mamba/ops/causal_conv1d.py":304:64)
#loc184 = loc("/data/conda/envs/or_llm/lib/python3.12/site-packages/vllm/model_executor/layers/mamba/ops/causal_conv1d.py":307:66)
#loc185 = loc("/data/conda/envs/or_llm/lib/python3.12/site-packages/vllm/model_executor/layers/mamba/ops/causal_conv1d.py":311:26)
#loc186 = loc("/data/conda/envs/or_llm/lib/python3.12/site-packages/vllm/model_executor/layers/mamba/ops/causal_conv1d.py":312:48)
#loc187 = loc("/data/conda/envs/or_llm/lib/python3.12/site-packages/vllm/model_executor/layers/mamba/ops/causal_conv1d.py":312:53)
#loc188 = loc("/data/conda/envs/or_llm/lib/python3.12/site-packages/vllm/model_executor/layers/mamba/ops/causal_conv1d.py":312:32)
#loc189 = loc("/data/conda/envs/or_llm/lib/python3.12/site-packages/vllm/model_executor/layers/mamba/ops/causal_conv1d.py":313:29)
#loc190 = loc("/data/conda/envs/or_llm/lib/python3.12/site-packages/vllm/model_executor/layers/mamba/ops/causal_conv1d.py":324:53)
#loc191 = loc("/data/conda/envs/or_llm/lib/python3.12/site-packages/vllm/model_executor/layers/mamba/ops/causal_conv1d.py":325:46)
#loc192 = loc("/data/conda/envs/or_llm/lib/python3.12/site-packages/vllm/model_executor/layers/mamba/ops/causal_conv1d.py":326:53)
#loc193 = loc("/data/conda/envs/or_llm/lib/python3.12/site-packages/vllm/model_executor/layers/mamba/ops/causal_conv1d.py":327:46)
#loc194 = loc("/data/conda/envs/or_llm/lib/python3.12/site-packages/vllm/model_executor/layers/mamba/ops/causal_conv1d.py":328:53)
#loc195 = loc("/data/conda/envs/or_llm/lib/python3.12/site-packages/vllm/model_executor/layers/mamba/ops/causal_conv1d.py":347:27)
#loc196 = loc("/data/conda/envs/or_llm/lib/python3.12/site-packages/vllm/model_executor/layers/mamba/ops/causal_conv1d.py":347:32)
#loc197 = loc("/data/conda/envs/or_llm/lib/python3.12/site-packages/vllm/model_executor/layers/mamba/ops/causal_conv1d.py":347:11)
#loc198 = loc("/data/conda/envs/or_llm/lib/python3.12/site-packages/vllm/model_executor/layers/mamba/ops/causal_conv1d.py":351:37)
#loc199 = loc("/data/conda/envs/or_llm/lib/python3.12/site-packages/vllm/model_executor/layers/mamba/ops/causal_conv1d.py":351:53)
#loc200 = loc("/data/conda/envs/or_llm/lib/python3.12/site-packages/vllm/model_executor/layers/mamba/ops/causal_conv1d.py":351:18)
#loc201 = loc("/data/conda/envs/or_llm/lib/python3.12/site-packages/vllm/model_executor/layers/mamba/ops/causal_conv1d.py":352:18)
#loc202 = loc("/data/conda/envs/or_llm/lib/python3.12/site-packages/vllm/model_executor/layers/mamba/ops/causal_conv1d.py":353:29)
#loc203 = loc("/data/conda/envs/or_llm/lib/python3.12/site-packages/vllm/model_executor/layers/mamba/ops/causal_conv1d.py":353:16)
#loc204 = loc("/data/conda/envs/or_llm/lib/python3.12/site-packages/vllm/model_executor/layers/mamba/ops/causal_conv1d.py":356:37)
#loc205 = loc("/data/conda/envs/or_llm/lib/python3.12/site-packages/vllm/model_executor/layers/mamba/ops/causal_conv1d.py":356:53)
#loc206 = loc("/data/conda/envs/or_llm/lib/python3.12/site-packages/vllm/model_executor/layers/mamba/ops/causal_conv1d.py":356:18)
#loc207 = loc("/data/conda/envs/or_llm/lib/python3.12/site-packages/vllm/model_executor/layers/mamba/ops/causal_conv1d.py":357:31)
#loc208 = loc("/data/conda/envs/or_llm/lib/python3.12/site-packages/vllm/model_executor/layers/mamba/ops/causal_conv1d.py":357:45)
#loc209 = loc("/data/conda/envs/or_llm/lib/python3.12/site-packages/vllm/model_executor/layers/mamba/ops/causal_conv1d.py":357:18)
#loc210 = loc("/data/conda/envs/or_llm/lib/python3.12/site-packages/vllm/model_executor/layers/mamba/ops/causal_conv1d.py":360:41)
#loc211 = loc("/data/conda/envs/or_llm/lib/python3.12/site-packages/vllm/model_executor/layers/mamba/ops/causal_conv1d.py":360:44)
#loc212 = loc("/data/conda/envs/or_llm/lib/python3.12/site-packages/vllm/model_executor/layers/mamba/ops/causal_conv1d.py":360:68)
#loc213 = loc("/data/conda/envs/or_llm/lib/python3.12/site-packages/vllm/model_executor/layers/mamba/ops/causal_conv1d.py":361:16)
#loc214 = loc("/data/conda/envs/or_llm/lib/python3.12/site-packages/vllm/model_executor/layers/mamba/ops/causal_conv1d.py":360:55)
#loc215 = loc("/data/conda/envs/or_llm/lib/python3.12/site-packages/vllm/model_executor/layers/mamba/ops/causal_conv1d.py":363:47)
#loc216 = loc("/data/conda/envs/or_llm/lib/python3.12/site-packages/vllm/model_executor/layers/mamba/ops/causal_conv1d.py":364:43)
#loc217 = loc("/data/conda/envs/or_llm/lib/python3.12/site-packages/vllm/model_executor/layers/mamba/ops/causal_conv1d.py":369:28)
#loc218 = loc("/data/conda/envs/or_llm/lib/python3.12/site-packages/vllm/model_executor/layers/mamba/ops/causal_conv1d.py":369:18)
#loc219 = loc("/data/conda/envs/or_llm/lib/python3.12/site-packages/vllm/model_executor/layers/mamba/ops/causal_conv1d.py":370:18)
#loc220 = loc("/data/conda/envs/or_llm/lib/python3.12/site-packages/vllm/model_executor/layers/mamba/ops/causal_conv1d.py":371:34)
#loc221 = loc("/data/conda/envs/or_llm/lib/python3.12/site-packages/vllm/model_executor/layers/mamba/ops/causal_conv1d.py":371:19)
#loc222 = loc("/data/conda/envs/or_llm/lib/python3.12/site-packages/vllm/model_executor/layers/mamba/ops/causal_conv1d.py":368:16)
#loc223 = loc("/data/conda/envs/or_llm/lib/python3.12/site-packages/vllm/model_executor/layers/mamba/ops/causal_conv1d.py":372:17)
#loc224 = loc("/data/conda/envs/or_llm/lib/python3.12/site-packages/vllm/model_executor/layers/mamba/ops/causal_conv1d.py":376:46)
#loc225 = loc("/data/conda/envs/or_llm/lib/python3.12/site-packages/vllm/model_executor/layers/mamba/ops/causal_conv1d.py":376:19)
#loc226 = loc("/data/conda/envs/or_llm/lib/python3.12/site-packages/vllm/model_executor/layers/mamba/ops/causal_conv1d.py":377:31)
#loc227 = loc("/data/conda/envs/or_llm/lib/python3.12/site-packages/vllm/model_executor/layers/mamba/ops/causal_conv1d.py":377:19)
#loc228 = loc("/data/conda/envs/or_llm/lib/python3.12/site-packages/vllm/model_executor/layers/mamba/ops/causal_conv1d.py":378:14)
#loc229 = loc("/data/conda/envs/or_llm/lib/python3.12/site-packages/vllm/model_executor/layers/mamba/ops/causal_conv1d.py":379:34)
#loc230 = loc("/data/conda/envs/or_llm/lib/python3.12/site-packages/vllm/model_executor/layers/mamba/ops/causal_conv1d.py":380:14)
#loc231 = loc("/data/conda/envs/or_llm/lib/python3.12/site-packages/vllm/model_executor/layers/mamba/ops/causal_conv1d.py":378:25)
#loc232 = loc("/data/conda/envs/or_llm/lib/python3.12/site-packages/vllm/model_executor/layers/mamba/ops/causal_conv1d.py":382:38)
#loc233 = loc("/data/conda/envs/or_llm/lib/python3.12/site-packages/vllm/model_executor/layers/mamba/ops/causal_conv1d.py":382:49)
#loc234 = loc("/data/conda/envs/or_llm/lib/python3.12/site-packages/vllm/model_executor/layers/mamba/ops/causal_conv1d.py":382:73)
#loc235 = loc("/data/conda/envs/or_llm/lib/python3.12/site-packages/vllm/model_executor/layers/mamba/ops/causal_conv1d.py":382:78)
#loc236 = loc("/data/conda/envs/or_llm/lib/python3.12/site-packages/vllm/model_executor/layers/mamba/ops/causal_conv1d.py":382:60)
#loc237 = loc("/data/conda/envs/or_llm/lib/python3.12/site-packages/vllm/model_executor/layers/mamba/ops/causal_conv1d.py":383:12)
#loc238 = loc("/data/conda/envs/or_llm/lib/python3.12/site-packages/vllm/model_executor/layers/mamba/ops/causal_conv1d.py":384:56)
#loc239 = loc("/data/conda/envs/or_llm/lib/python3.12/site-packages/vllm/model_executor/layers/mamba/ops/causal_conv1d.py":393:31)
#loc240 = loc("/data/conda/envs/or_llm/lib/python3.12/site-packages/vllm/model_executor/layers/mamba/ops/causal_conv1d.py":395:40)
#loc241 = loc("/data/conda/envs/or_llm/lib/python3.12/site-packages/vllm/model_executor/layers/mamba/ops/causal_conv1d.py":395:25)
#loc242 = loc("/data/conda/envs/or_llm/lib/python3.12/site-packages/vllm/model_executor/layers/mamba/ops/causal_conv1d.py":398:25)
#loc243 = loc("/data/conda/envs/or_llm/lib/python3.12/site-packages/vllm/model_executor/layers/mamba/ops/causal_conv1d.py":400:27)
#loc244 = loc("/data/conda/envs/or_llm/lib/python3.12/site-packages/vllm/model_executor/layers/mamba/ops/causal_conv1d.py":401:33)
#loc245 = loc("/data/conda/envs/or_llm/lib/python3.12/site-packages/vllm/model_executor/layers/mamba/ops/causal_conv1d.py":402:27)
#loc246 = loc("/data/conda/envs/or_llm/lib/python3.12/site-packages/vllm/model_executor/layers/mamba/ops/causal_conv1d.py":403:33)
#loc247 = loc("/data/conda/envs/or_llm/lib/python3.12/site-packages/vllm/model_executor/layers/mamba/ops/causal_conv1d.py":405:27)
#loc248 = loc("/data/conda/envs/or_llm/lib/python3.12/site-packages/vllm/model_executor/layers/mamba/ops/causal_conv1d.py":406:33)
#loc249 = loc("/data/conda/envs/or_llm/lib/python3.12/site-packages/vllm/model_executor/layers/mamba/ops/causal_conv1d.py":408:27)
#loc250 = loc("/data/conda/envs/or_llm/lib/python3.12/site-packages/vllm/model_executor/layers/mamba/ops/causal_conv1d.py":409:33)
#loc251 = loc("/data/conda/envs/or_llm/lib/python3.12/site-packages/vllm/model_executor/layers/mamba/ops/causal_conv1d.py":410:28)
#loc252 = loc("/data/conda/envs/or_llm/lib/python3.12/site-packages/vllm/model_executor/layers/mamba/ops/causal_conv1d.py":411:27)
#loc253 = loc("/data/conda/envs/or_llm/lib/python3.12/site-packages/vllm/model_executor/layers/mamba/ops/causal_conv1d.py":442:30)
#loc254 = loc("/data/conda/envs/or_llm/lib/python3.12/site-packages/vllm/model_executor/layers/mamba/ops/causal_conv1d.py":442:19)
#loc255 = loc("/data/conda/envs/or_llm/lib/python3.12/site-packages/vllm/model_executor/layers/mamba/ops/causal_conv1d.py":439:56)
#loc256 = loc("/data/conda/envs/or_llm/lib/python3.12/site-packages/vllm/model_executor/layers/mamba/ops/causal_conv1d.py":439:44)
#loc257 = loc("/data/conda/envs/or_llm/lib/python3.12/site-packages/vllm/model_executor/layers/mamba/ops/causal_conv1d.py":440:39)
#loc258 = loc("/data/conda/envs/or_llm/lib/python3.12/site-packages/vllm/model_executor/layers/mamba/ops/causal_conv1d.py":455:37)
#loc259 = loc("/data/conda/envs/or_llm/lib/python3.12/site-packages/vllm/model_executor/layers/mamba/ops/causal_conv1d.py":455:36)
#loc260 = loc("/data/conda/envs/or_llm/lib/python3.12/site-packages/vllm/model_executor/layers/mamba/ops/causal_conv1d.py":455:29)
#loc261 = loc("/data/conda/envs/or_llm/lib/python3.12/site-packages/vllm/model_executor/layers/mamba/ops/causal_conv1d.py":455:25)
#loc262 = loc("/data/conda/envs/or_llm/lib/python3.12/site-packages/vllm/model_executor/layers/mamba/ops/causal_conv1d.py":456:31)
#loc263 = loc("/data/conda/envs/or_llm/lib/python3.12/site-packages/vllm/model_executor/layers/mamba/ops/causal_conv1d.py":457:24)
#loc264 = loc("/data/conda/envs/or_llm/lib/python3.12/site-packages/vllm/model_executor/layers/mamba/ops/causal_conv1d.py":457:12)
#loc265 = loc("/data/conda/envs/or_llm/lib/python3.12/site-packages/vllm/model_executor/layers/mamba/ops/causal_conv1d.py":461:38)
#loc266 = loc("/data/conda/envs/or_llm/lib/python3.12/site-packages/vllm/model_executor/layers/mamba/ops/causal_conv1d.py":461:53)
#loc267 = loc("/data/conda/envs/or_llm/lib/python3.12/site-packages/vllm/model_executor/layers/mamba/ops/causal_conv1d.py":461:66)
#loc268 = loc("/data/conda/envs/or_llm/lib/python3.12/site-packages/vllm/model_executor/layers/mamba/ops/causal_conv1d.py":461:14)
#loc269 = loc("/data/conda/envs/or_llm/lib/python3.12/site-packages/vllm/model_executor/layers/mamba/ops/causal_conv1d.py":462:27)
#loc270 = loc("/data/conda/envs/or_llm/lib/python3.12/site-packages/vllm/model_executor/layers/mamba/ops/causal_conv1d.py":462:15)
#loc271 = loc("/data/conda/envs/or_llm/lib/python3.12/site-packages/vllm/model_executor/layers/mamba/ops/causal_conv1d.py":465:25)
#loc272 = loc("/data/conda/envs/or_llm/lib/python3.12/site-packages/vllm/model_executor/layers/mamba/ops/causal_conv1d.py":465:8)
#loc273 = loc("/data/conda/envs/or_llm/lib/python3.12/site-packages/vllm/model_executor/layers/mamba/ops/causal_conv1d.py":411:4)
#loc274 = loc("/data/conda/envs/or_llm/lib/python3.12/site-packages/triton/language/standard.py":120:0)
#loc275 = loc("/data/conda/envs/or_llm/lib/python3.12/site-packages/triton/language/standard.py":129:31)
#loc276 = loc("/data/conda/envs/or_llm/lib/python3.12/site-packages/triton/language/standard.py":129:11)
#loc277 = loc("/data/conda/envs/or_llm/lib/python3.12/site-packages/triton/language/standard.py":129:4)
#loc288 = loc("stride_conv_state_seq"(#loc1))
#loc289 = loc("stride_conv_state_dim"(#loc2))
#loc290 = loc("stride_conv_state_tok"(#loc3))
#loc291 = loc("state_len"(#loc4))
#loc292 = loc("idx_seq"(#loc5))
#loc293 = loc("idx_seq"(#loc6))
#loc294 = loc("idx_seq"(#loc7))
#loc295 = loc("idx_seq"(#loc8))
#loc296 = loc("chunk_offset"(#loc9))
#loc297 = loc("chunk_offset"(#loc10))
#loc298 = loc("chunk_offset"(#loc11))
#loc299 = loc("idx_feats"(#loc12))
#loc300 = loc("idx_feats"(#loc13))
#loc301 = loc("idx_feats"(#loc14))
#loc302 = loc("idx_feats"(#loc15))
#loc303 = loc("sequence_start_index"(#loc18))
#loc304 = loc("sequence_start_index"(#loc19))
#loc305 = loc("sequence_end_index"(#loc20))
#loc306 = loc("sequence_end_index"(#loc21))
#loc307 = loc("sequence_end_index"(#loc22))
#loc308 = loc("seqlen"(#loc23))
#loc309 = loc("n_block_to_fill"(#loc24))
#loc310 = loc("current_last_index"(#loc25))
#loc311 = loc("conv_state_init_index"(#loc26))
#loc312 = loc("current_first_index"(#loc27))
#loc313 = loc("last_full_block_token_index"(#loc28))
#loc314 = loc("token_offset"(#loc29))
#loc315 = loc("segment_len"(#loc30))
#loc316 = loc("segment_len"(#loc31))
#loc317 = loc("x_base"(#loc32))
#loc318 = loc("x_base"(#loc33))
#loc319 = loc("x_base"(#loc34))
#loc320 = loc("x_base"(#loc35))
#loc321 = loc("conv_states_input_coord"(#loc36))
#loc322 = loc("conv_states_input_coord"(#loc37))
#loc323 = loc("conv_states_input_coord"(#loc38))
#loc324 = loc("conv_states_input_coord"(#loc39))
#loc325 = loc("conv_states_input_coord"(#loc40))
#loc326 = loc("conv_states_base"(#loc43))
#loc327 = loc("conv_states_base"(#loc44))
#loc328 = loc("conv_states_base"(#loc45))
#loc329 = loc("conv_states_base"(#loc46))
#loc330 = loc("w_base"(#loc47))
#loc331 = loc("w_base"(#loc48))
#loc332 = loc("load_init_state"(#loc51))
#loc333 = loc("load_init_state"(#loc52))
#loc334 = loc("col0"(#loc53))
#loc335 = loc("prior_tokens"(#loc54))
#loc336 = loc("prior_tokens"(#loc55))
#loc337 = loc("prior_tokens"(#loc56))
#loc338 = loc("mask_w"(#loc57))
#loc339 = loc("col2"(#loc58))
#loc340 = loc("conv_states_ptrs"(#loc59))
#loc341 = loc("conv_states_ptrs"(#loc60))
#loc342 = loc("col1"(#loc61))
#loc343 = loc("conv_states_ptrs"(#loc62))
#loc344 = loc("conv_states_ptrs"(#loc63))
#loc345 = loc("col0"(#loc64))
#loc346 = loc("col0"(#loc65))
#loc347 = loc("col1"(#loc66))
#loc348 = loc("col2"(#loc67))
#loc349 = loc("idx_tokens_last"(#loc70))
#loc350 = loc("idx_tokens_last"(#loc71))
#loc351 = loc("idx_tokens_last"(#loc72))
#loc352 = loc("x_ptrs"(#loc73))
#loc353 = loc("x_ptrs"(#loc74))
#loc354 = loc("x_ptrs"(#loc75))
#loc355 = loc("x_ptrs"(#loc76))
#loc356 = loc("x_ptrs"(#loc77))
#loc357 = loc("x_ptrs"(#loc78))
#loc358 = loc("x_ptrs"(#loc79))
#loc359 = loc("mask_x"(#loc80))
#loc360 = loc("mask_x"(#loc81))
#loc361 = loc("mask_x"(#loc82))
#loc362 = loc("mask_x"(#loc83))
#loc363 = loc("mask_x"(#loc84))
#loc364 = loc("mask_x"(#loc85))
#loc365 = loc("mask_x"(#loc86))
#loc366 = loc("mask_x"(#loc87))
#loc367 = loc("loaded_x"(#loc88))
#loc368 = loc("idx_tokens_conv"(#loc89))
#loc369 = loc("conv_states_output_coord"(#loc90))
#loc370 = loc("conv_states_output_coord"(#loc91))
#loc371 = loc("conv_states_output_coord"(#loc92))
#loc372 = loc("conv_states_output_coord"(#loc93))
#loc373 = loc("conv_states_output_coord"(#loc94))
#loc374 = loc("conv_states_ptrs_target"(#loc95))
#loc375 = loc("conv_states_ptrs_target"(#loc96))
#loc376 = loc("conv_states_ptrs_target"(#loc97))
#loc377 = loc("conv_states_ptrs_target"(#loc98))
#loc378 = loc("conv_states_ptrs_target"(#loc99))
#loc379 = loc("conv_states_ptrs_target"(#loc100))
#loc380 = loc("conv_states_ptrs_target"(#loc101))
#loc381 = loc("conv_states_ptrs_target"(#loc102))
#loc382 = loc("mask"(#loc103))
#loc383 = loc("mask"(#loc104))
#loc384 = loc("mask"(#loc105))
#loc385 = loc("mask"(#loc106))
#loc386 = loc("mask"(#loc107))
#loc387 = loc("conv_states_ptrs_target"(#loc110))
#loc388 = loc("idx_tokens_conv"(#loc111))
#loc389 = loc("conv_states_ptrs_source"(#loc112))
#loc390 = loc("conv_states_ptrs_source"(#loc113))
#loc391 = loc("conv_states_ptrs_source"(#loc114))
#loc392 = loc("conv_states_ptrs_source"(#loc115))
#loc393 = loc("conv_states_ptrs_source"(#loc116))
#loc394 = loc("conv_states_ptrs_source"(#loc117))
#loc395 = loc("conv_states_ptrs_source"(#loc118))
#loc396 = loc("conv_states_ptrs_source"(#loc119))
#loc397 = loc("conv_states_ptrs_source"(#loc120))
#loc398 = loc("mask"(#loc121))
#loc399 = loc("mask"(#loc122))
#loc400 = loc("mask"(#loc123))
#loc401 = loc("mask"(#loc124))
#loc402 = loc("mask"(#loc125))
#loc403 = loc("mask"(#loc126))
#loc404 = loc("mask"(#loc127))
#loc405 = loc("mask"(#loc128))
#loc406 = loc("conv_state"(#loc129))
#loc407 = loc("VAL"(#loc130))
#loc408 = loc("x_ptrs"(#loc131))
#loc409 = loc("x_ptrs"(#loc132))
#loc410 = loc("x_ptrs"(#loc133))
#loc411 = loc("x_ptrs"(#loc134))
#loc412 = loc("x_ptrs"(#loc135))
#loc413 = loc("mask_x"(#loc136))
#loc414 = loc("mask_x"(#loc137))
#loc415 = loc("mask_x"(#loc138))
#loc416 = loc("mask_x"(#loc139))
#loc417 = loc("mask_x"(#loc140))
#loc418 = loc("mask_x"(#loc141))
#loc419 = loc("mask_x"(#loc142))
#loc420 = loc("mask_x"(#loc143))
#loc421 = loc("mask_x"(#loc144))
#loc422 = loc("mask_x"(#loc145))
#loc423 = loc("loaded_x"(#loc146))
#loc424 = loc("new_conv_state"(#loc148))
#loc425 = loc("conv_states_ptrs_target"(#loc149))
#loc426 = loc("conv_states_ptrs_target"(#loc150))
#loc427 = loc("conv_states_ptrs_target"(#loc151))
#loc428 = loc("mask"(#loc152))
#loc429 = loc("mask"(#loc153))
#loc430 = loc("mask"(#loc154))
#loc431 = loc("mask"(#loc155))
#loc432 = loc("mask"(#loc156))
#loc433 = loc("idx_tokens_conv"(#loc158))
#loc434 = loc("VAL"(#loc159))
#loc435 = loc("x_ptrs"(#loc160))
#loc436 = loc("x_ptrs"(#loc161))
#loc437 = loc("x_ptrs"(#loc162))
#loc438 = loc("x_ptrs"(#loc163))
#loc439 = loc("x_ptrs"(#loc164))
#loc440 = loc("mask_x"(#loc165))
#loc441 = loc("mask_x"(#loc166))
#loc442 = loc("mask_x"(#loc167))
#loc443 = loc("mask_x"(#loc168))
#loc444 = loc("mask_x"(#loc169))
#loc445 = loc("mask_x"(#loc170))
#loc446 = loc("mask_x"(#loc171))
#loc447 = loc("mask_x"(#loc172))
#loc448 = loc("mask_x"(#loc173))
#loc449 = loc("mask_x"(#loc174))
#loc450 = loc("new_conv_state"(#loc175))
#loc451 = loc("conv_states_ptrs_target"(#loc176))
#loc452 = loc("conv_states_ptrs_target"(#loc177))
#loc453 = loc("conv_states_ptrs_target"(#loc178))
#loc454 = loc("mask"(#loc179))
#loc455 = loc("mask"(#loc180))
#loc456 = loc("mask"(#loc181))
#loc457 = loc("mask"(#loc182))
#loc458 = loc("mask"(#loc183))
#loc459 = loc("load_init_state"(#loc185))
#loc460 = loc("prior_tokens"(#loc186))
#loc461 = loc("prior_tokens"(#loc187))
#loc462 = loc("prior_tokens"(#loc188))
#loc463 = loc("mask_w"(#loc189))
#loc464 = loc("col2"(#loc190))
#loc465 = loc("conv_states_ptrs"(#loc191))
#loc466 = loc("col1"(#loc192))
#loc467 = loc("conv_states_ptrs"(#loc193))
#loc468 = loc("col0"(#loc194))
#loc469 = loc("idx_tokens_last"(#loc198))
#loc470 = loc("idx_tokens_last"(#loc199))
#loc471 = loc("idx_tokens_last"(#loc200))
#loc472 = loc("idx_tokens_last"(#loc201))
#loc473 = loc("idx_tokens_last"(#loc202))
#loc474 = loc("idx_tokens_last"(#loc203))
#loc475 = loc("x_ptrs"(#loc204))
#loc476 = loc("x_ptrs"(#loc205))
#loc477 = loc("x_ptrs"(#loc206))
#loc478 = loc("x_ptrs"(#loc207))
#loc479 = loc("x_ptrs"(#loc208))
#loc480 = loc("x_ptrs"(#loc209))
#loc481 = loc("mask_x"(#loc210))
#loc482 = loc("mask_x"(#loc211))
#loc483 = loc("mask_x"(#loc212))
#loc484 = loc("mask_x"(#loc213))
#loc485 = loc("mask_x"(#loc214))
#loc486 = loc("loaded_x"(#loc215))
#loc487 = loc("idx_tokens_conv"(#loc216))
#loc488 = loc("conv_states_output_coord"(#loc217))
#loc489 = loc("conv_states_output_coord"(#loc218))
#loc490 = loc("conv_states_output_coord"(#loc219))
#loc491 = loc("conv_states_output_coord"(#loc220))
#loc492 = loc("conv_states_output_coord"(#loc221))
#loc493 = loc("conv_states_output_coord"(#loc222))
#loc494 = loc("conv_states_output_coord"(#loc223))
#loc495 = loc("conv_states_ptrs_target"(#loc224))
#loc496 = loc("conv_states_ptrs_target"(#loc225))
#loc497 = loc("conv_states_ptrs_target"(#loc226))
#loc498 = loc("conv_states_ptrs_target"(#loc227))
#loc499 = loc("conv_states_ptrs_target"(#loc228))
#loc500 = loc("conv_states_ptrs_target"(#loc229))
#loc501 = loc("conv_states_ptrs_target"(#loc230))
#loc502 = loc("conv_states_ptrs_target"(#loc231))
#loc503 = loc("mask"(#loc232))
#loc504 = loc("mask"(#loc233))
#loc505 = loc("mask"(#loc234))
#loc506 = loc("mask"(#loc235))
#loc507 = loc("mask"(#loc236))
#loc508 = loc("acc_preload"(#loc239))
#loc509 = loc("x_base_1d"(#loc240))
#loc510 = loc("x_base_1d"(#loc241))
#loc511 = loc("mask_w"(#loc242))
#loc512 = loc("w_ptrs"(#loc243))
#loc513 = loc("w_col0"(#loc244))
#loc514 = loc("w_ptrs"(#loc245))
#loc515 = loc("w_col1"(#loc246))
#loc516 = loc("w_ptrs"(#loc247))
#loc517 = loc("w_col2"(#loc248))
#loc518 = loc("w_ptrs"(#loc249))
#loc519 = loc("w_col3"(#loc250))
#loc520 = loc("mask_x_1d"(#loc251))
#loc521 = loc("col0"(#loc252))
#loc522 = loc("acc"(#loc253))
#loc523 = loc("acc"(#loc254))
#loc524 = loc("x_ptrs_1d"(#loc255))
#loc525 = loc("x_ptrs_1d"(#loc256))
#loc526 = loc("matrix_x"(#loc257))
#loc527 = loc("acc"(#loc258))
#loc528 = loc("acc"(#loc259))
#loc529 = loc("acc"(#loc260))
#loc530 = loc("acc"(#loc261))
#loc531 = loc("mask_1d"(#loc262))
#loc532 = loc("mask_1d"(#loc263))
#loc533 = loc("mask_1d"(#loc264))
#loc534 = loc("o_ptrs"(#loc265))
#loc535 = loc("o_ptrs"(#loc266))
#loc536 = loc("o_ptrs"(#loc267))
#loc537 = loc("o_ptrs"(#loc268))
#loc538 = loc("o_ptrs"(#loc269))
#loc539 = loc("o_ptrs"(#loc270))
#loc540 = loc("load_init_state"(#loc333))
#loc541 = loc("col1"(#loc334))
#loc542 = loc("col2"(#loc339))
#loc543 = loc("col1"(#loc342))
#loc544 = loc("col0"(#loc345))
#loc545 = loc("col0"(#loc346))
#loc546 = loc("col1"(#loc347))
#loc547 = loc("col2"(#loc348))
#loc548 = loc("x_ptrs"(#loc358))
#loc549 = loc("mask_x"(#loc366))
#loc550 = loc("idx_tokens_conv"(#loc368))
#loc551 = loc("conv_states_ptrs_target"(#loc381))
#loc552 = loc("mask"(#loc386))
#loc553 = loc("idx_tokens_conv"(#loc387))
#loc554 = loc("idx_tokens_conv"(#loc388))
#loc555 = loc("VAL"(#loc407))
#loc556 = loc("x_ptrs"(#loc412))
#loc557 = loc("mask_x"(#loc422))
#loc558 = loc("new_conv_state"(#loc424))
#loc559 = loc("conv_states_ptrs_target"(#loc427))
#loc560 = loc("mask"(#loc432))
#loc561 = loc("idx_tokens_conv"(#loc433))
#loc562 = loc("VAL"(#loc434))
#loc563 = loc("x_ptrs"(#loc439))
#loc564 = loc("mask_x"(#loc449))
#loc565 = loc("new_conv_state"(#loc450))
#loc566 = loc("conv_states_ptrs_target"(#loc453))
#loc567 = loc("mask"(#loc458))
#loc568 = loc("load_init_state"(#loc459))
#loc569 = loc("col2"(#loc464))
#loc570 = loc("col1"(#loc466))
#loc571 = loc("col0"(#loc468))
#loc572 = loc("col1"(#loc521))
#loc573 = loc("col2"(#loc541))
#loc574 = loc("mask"(#loc553))
#loc575 = loc("col2"(#loc572))
#loc576 = loc("mask_x"(#loc574))
#loc577 = loc("x_ptrs"(#loc576))
