#loc = loc("/data/jcy/zzs/zijinhua/.vllm_cache_simplevqa/torch_compile/c2/cc2k5s7dcvxe5o7nmm4pdhpbwtx6n6klwgewmbgrftkampouqrjy.py":18:0)
#loc59 = loc("/data/conda/envs/or_llm/lib/python3.12/site-packages/triton/language/standard.py":287:0)
#loc61 = loc(unknown)
#loc64 = loc("/data/conda/envs/or_llm/lib/python3.12/site-packages/triton/language/standard.py":262:0)
#loc68 = loc("in_ptr0"(#loc))
#loc69 = loc("in_ptr1"(#loc))
#loc70 = loc("out_ptr1"(#loc))
#loc71 = loc("ks0"(#loc))
#loc72 = loc("ks1"(#loc))
#loc73 = loc("ks2"(#loc))
#loc74 = loc("xnumel"(#loc))
#loc75 = loc("r0_numel"(#loc))
#loc126 = loc("input"(#loc59))
#loc127 = loc("a"(#loc64))
#loc128 = loc("b"(#loc64))
module {
  tt.func public @triton_red_fused__to_copy_add_mean_mul_pow_rsqrt_0(%in_ptr0: !tt.ptr<bf16> loc("in_ptr0"(#loc)), %in_ptr1: !tt.ptr<bf16> {tt.divisibility = 16 : i32} loc("in_ptr1"(#loc)), %out_ptr1: !tt.ptr<bf16> {tt.divisibility = 16 : i32} loc("out_ptr1"(#loc)), %ks0: i64 loc("ks0"(#loc)), %ks1: i64 loc("ks1"(#loc)), %ks2: i64 loc("ks2"(#loc)), %xnumel: i32 loc("xnumel"(#loc)), %r0_numel: i32 loc("r0_numel"(#loc))) attributes {noinline = false} {
    %xoffset = tt.get_program_id x : i32 loc(#loc76)
    %xoffset_0 = arith.constant 8 : i32 loc(#loc77)
    %xoffset_1 = arith.constant 8 : i32 loc(#loc77)
    %xoffset_2 = arith.muli %xoffset, %xoffset_1 : i32 loc(#loc77)
    %xindex = tt.make_range {end = 8 : i32, start = 0 : i32} : tensor<8xi32> loc(#loc78)
    %xindex_3 = tt.expand_dims %xindex {axis = 1 : i32} : tensor<8xi32> -> tensor<8x1xi32> loc(#loc79)
    %xindex_4 = tt.splat %xoffset_2 : i32 -> tensor<8x1xi32> loc(#loc80)
    %xindex_5 = arith.addi %xindex_4, %xindex_3 : tensor<8x1xi32> loc(#loc80)
    %xmask = tt.splat %xnumel : i32 -> tensor<8x1xi32> loc(#loc81)
    %xmask_6 = arith.cmpi slt, %xindex_5, %xmask : tensor<8x1xi32> loc(#loc81)
    %r0_base = tt.make_range {end = 128 : i32, start = 0 : i32} : tensor<128xi32> loc(#loc82)
    %r0_base_7 = tt.expand_dims %r0_base {axis = 0 : i32} : tensor<128xi32> -> tensor<1x128xi32> loc(#loc83)
    %x0 = arith.extsi %xindex_5 : tensor<8x1xi32> to tensor<8x1xi64> loc(#loc84)
    %x0_8 = tt.splat %ks0 : i64 -> tensor<8x1xi64> loc(#loc84)
    %x0_9 = arith.remsi %x0, %x0_8 : tensor<8x1xi64> loc(#loc84)
    %x1 = arith.extsi %xindex_5 : tensor<8x1xi32> to tensor<8x1xi64> loc(#loc85)
    %x1_10 = tt.splat %ks0 : i64 -> tensor<8x1xi64> loc(#loc85)
    %x1_11 = arith.divsi %x1, %x1_10 : tensor<8x1xi64> loc(#loc85)
    %_tmp4 = arith.constant 0.000000e+00 : f32 loc(#loc86)
    %_tmp4_12 = arith.constant dense<0.000000e+00> : tensor<8x128xf32> loc(#loc86)
    %c0_i32 = arith.constant 0 : i32 loc(#loc12)
    %c128_i32 = arith.constant 128 : i32 loc(#loc12)
    %0 = arith.bitcast %c0_i32 : i32 to i32 loc(#loc12)
    %1 = arith.bitcast %r0_numel : i32 to i32 loc(#loc12)
    %2 = arith.bitcast %c128_i32 : i32 to i32 loc(#loc12)
    %3 = ub.poison : i32 loc(#loc12)
    %_tmp4_13 = scf.for %r0_offset = %0 to %1 step %2 iter_args(%_tmp4_17 = %_tmp4_12) -> (tensor<8x128xf32>)  : i32 {
      %r0_index = tt.splat %r0_offset : i32 -> tensor<1x128xi32> loc(#loc88)
      %r0_index_18 = arith.addi %r0_index, %r0_base_7 : tensor<1x128xi32> loc(#loc88)
      %r0_mask = tt.splat %r0_numel : i32 -> tensor<1x128xi32> loc(#loc89)
      %r0_mask_19 = arith.cmpi slt, %r0_index_18, %r0_mask : tensor<1x128xi32> loc(#loc89)
      %tmp0 = tt.splat %ks1 : i64 -> tensor<8x1xi64> loc(#loc90)
      %tmp0_20 = arith.muli %tmp0, %x0_9 : tensor<8x1xi64> loc(#loc90)
      %tmp0_21 = arith.extsi %r0_index_18 : tensor<1x128xi32> to tensor<1x128xi64> loc(#loc91)
      %tmp0_22 = tt.broadcast %tmp0_21 : tensor<1x128xi64> -> tensor<8x128xi64> loc(#loc91)
      %tmp0_23 = tt.broadcast %tmp0_20 : tensor<8x1xi64> -> tensor<8x128xi64> loc(#loc91)
      %tmp0_24 = arith.addi %tmp0_22, %tmp0_23 : tensor<8x128xi64> loc(#loc91)
      %tmp0_25 = tt.splat %ks2 : i64 -> tensor<8x1xi64> loc(#loc92)
      %tmp0_26 = arith.muli %tmp0_25, %x1_11 : tensor<8x1xi64> loc(#loc92)
      %tmp0_27 = tt.broadcast %tmp0_26 : tensor<8x1xi64> -> tensor<8x128xi64> loc(#loc93)
      %tmp0_28 = arith.addi %tmp0_24, %tmp0_27 : tensor<8x128xi64> loc(#loc93)
      %tmp0_29 = tt.splat %in_ptr0 : !tt.ptr<bf16> -> tensor<8x128x!tt.ptr<bf16>> loc(#loc94)
      %tmp0_30 = tt.addptr %tmp0_29, %tmp0_28 : tensor<8x128x!tt.ptr<bf16>>, tensor<8x128xi64> loc(#loc94)
      %tmp0_31 = tt.broadcast %r0_mask_19 : tensor<1x128xi1> -> tensor<8x128xi1> loc(#loc95)
      %tmp0_32 = tt.broadcast %xmask_6 : tensor<8x1xi1> -> tensor<8x128xi1> loc(#loc95)
      %tmp0_33 = arith.andi %tmp0_31, %tmp0_32 : tensor<8x128xi1> loc(#loc95)
      %tmp0_34 = arith.constant 0.000000e+00 : f32 loc(#loc96)
      %tmp0_35 = arith.constant dense<0.000000e+00> : tensor<8x128xf32> loc(#loc96)
      %tmp0_36 = arith.truncf %tmp0_35 : tensor<8x128xf32> to tensor<8x128xbf16> loc(#loc96)
      %tmp0_37 = tt.load %tmp0_30, %tmp0_33, %tmp0_36 evictionPolicy = evict_last : tensor<8x128x!tt.ptr<bf16>> loc(#loc96)
      %tmp0_38 = arith.extf %tmp0_37 : tensor<8x128xbf16> to tensor<8x128xf32> loc(#loc97)
      %tmp2 = arith.mulf %tmp0_38, %tmp0_38 : tensor<8x128xf32> loc(#loc98)
      %tmp5 = arith.addf %_tmp4_17, %tmp2 : tensor<8x128xf32> loc(#loc99)
      %_tmp4_39 = tt.broadcast %r0_mask_19 : tensor<1x128xi1> -> tensor<8x128xi1> loc(#loc100)
      %_tmp4_40 = tt.broadcast %xmask_6 : tensor<8x1xi1> -> tensor<8x128xi1> loc(#loc100)
      %_tmp4_41 = arith.andi %_tmp4_39, %_tmp4_40 : tensor<8x128xi1> loc(#loc100)
      %_tmp4_42 = arith.select %_tmp4_41, %tmp5, %_tmp4_17 : tensor<8x128xi1>, tensor<8x128xf32> loc(#loc101)
      scf.yield %_tmp4_42 : tensor<8x128xf32> loc(#loc27)
    } loc(#loc87)
    %tmp4 = tt.call @"triton.language.standard.sum__fp32S8_128S__(1,)cconstexpr_1__(2,)cconstexpr_False__(3,)cNone"(%_tmp4_13) : (tensor<8x128xf32>) -> tensor<8xf32> loc(#loc102)
    %tmp4_14 = tt.expand_dims %tmp4 {axis = 1 : i32} : tensor<8xf32> -> tensor<8x1xf32> loc(#loc103)
    %c0_i32_15 = arith.constant 0 : i32 loc(#loc30)
    %c128_i32_16 = arith.constant 128 : i32 loc(#loc30)
    %4 = arith.bitcast %c0_i32_15 : i32 to i32 loc(#loc30)
    %5 = arith.bitcast %r0_numel : i32 to i32 loc(#loc30)
    %6 = arith.bitcast %c128_i32_16 : i32 to i32 loc(#loc30)
    %7 = ub.poison : i32 loc(#loc30)
    scf.for %r0_offset = %4 to %5 step %6  : i32 {
      %r0_index = tt.splat %r0_offset : i32 -> tensor<1x128xi32> loc(#loc104)
      %r0_index_17 = arith.addi %r0_index, %r0_base_7 : tensor<1x128xi32> loc(#loc104)
      %r0_mask = tt.splat %r0_numel : i32 -> tensor<1x128xi32> loc(#loc105)
      %r0_mask_18 = arith.cmpi slt, %r0_index_17, %r0_mask : tensor<1x128xi32> loc(#loc105)
      %tmp6 = tt.splat %ks1 : i64 -> tensor<8x1xi64> loc(#loc106)
      %tmp6_19 = arith.muli %tmp6, %x0_9 : tensor<8x1xi64> loc(#loc106)
      %tmp6_20 = arith.extsi %r0_index_17 : tensor<1x128xi32> to tensor<1x128xi64> loc(#loc107)
      %tmp6_21 = tt.broadcast %tmp6_20 : tensor<1x128xi64> -> tensor<8x128xi64> loc(#loc107)
      %tmp6_22 = tt.broadcast %tmp6_19 : tensor<8x1xi64> -> tensor<8x128xi64> loc(#loc107)
      %tmp6_23 = arith.addi %tmp6_21, %tmp6_22 : tensor<8x128xi64> loc(#loc107)
      %tmp6_24 = tt.splat %ks2 : i64 -> tensor<8x1xi64> loc(#loc108)
      %tmp6_25 = arith.muli %tmp6_24, %x1_11 : tensor<8x1xi64> loc(#loc108)
      %tmp6_26 = tt.broadcast %tmp6_25 : tensor<8x1xi64> -> tensor<8x128xi64> loc(#loc109)
      %tmp6_27 = arith.addi %tmp6_23, %tmp6_26 : tensor<8x128xi64> loc(#loc109)
      %tmp6_28 = tt.splat %in_ptr0 : !tt.ptr<bf16> -> tensor<8x128x!tt.ptr<bf16>> loc(#loc110)
      %tmp6_29 = tt.addptr %tmp6_28, %tmp6_27 : tensor<8x128x!tt.ptr<bf16>>, tensor<8x128xi64> loc(#loc110)
      %tmp6_30 = tt.broadcast %r0_mask_18 : tensor<1x128xi1> -> tensor<8x128xi1> loc(#loc111)
      %tmp6_31 = tt.broadcast %xmask_6 : tensor<8x1xi1> -> tensor<8x128xi1> loc(#loc111)
      %tmp6_32 = arith.andi %tmp6_30, %tmp6_31 : tensor<8x128xi1> loc(#loc111)
      %tmp6_33 = arith.constant 0.000000e+00 : f32 loc(#loc112)
      %tmp6_34 = arith.constant dense<0.000000e+00> : tensor<8x128xf32> loc(#loc112)
      %tmp6_35 = arith.truncf %tmp6_34 : tensor<8x128xf32> to tensor<8x128xbf16> loc(#loc112)
      %tmp6_36 = tt.load %tmp6_29, %tmp6_32, %tmp6_35 evictionPolicy = evict_first : tensor<8x128x!tt.ptr<bf16>> loc(#loc112)
      %tmp6_37 = arith.extf %tmp6_36 : tensor<8x128xbf16> to tensor<8x128xf32> loc(#loc113)
      %tmp15 = tt.splat %in_ptr1 : !tt.ptr<bf16> -> tensor<1x128x!tt.ptr<bf16>> loc(#loc114)
      %tmp15_38 = tt.addptr %tmp15, %r0_index_17 : tensor<1x128x!tt.ptr<bf16>>, tensor<1x128xi32> loc(#loc114)
      %tmp15_39 = arith.constant 0.000000e+00 : f32 loc(#loc115)
      %tmp15_40 = arith.constant dense<0.000000e+00> : tensor<1x128xf32> loc(#loc115)
      %tmp15_41 = arith.truncf %tmp15_40 : tensor<1x128xf32> to tensor<1x128xbf16> loc(#loc115)
      %tmp15_42 = tt.load %tmp15_38, %r0_mask_18, %tmp15_41 evictionPolicy = evict_last : tensor<1x128x!tt.ptr<bf16>> loc(#loc115)
      %tmp15_43 = arith.extf %tmp15_42 : tensor<1x128xbf16> to tensor<1x128xf32> loc(#loc116)
      %tmp9 = arith.sitofp %ks1 : i64 to f32 loc(#loc117)
      %tmp10 = tt.splat %tmp9 : f32 -> tensor<8x1xf32> loc(#loc118)
      %tmp10_44 = arith.divf %tmp4_14, %tmp10 : tensor<8x1xf32> loc(#loc118)
      %tmp11 = arith.constant 9.99999997E-7 : f32 loc(#loc119)
      %tmp12 = arith.constant dense<9.99999997E-7> : tensor<8x1xf32> loc(#loc120)
      %tmp12_45 = arith.addf %tmp10_44, %tmp12 : tensor<8x1xf32> loc(#loc120)
      %tmp13 = tt.extern_elementwise %tmp12_45 {libname = "", libpath = "", pure = true, symbol = "__nv_rsqrtf"} : (tensor<8x1xf32>) -> tensor<8x1xf32> loc(#loc121)
      %tmp14 = tt.broadcast %tmp13 : tensor<8x1xf32> -> tensor<8x128xf32> loc(#loc122)
      %tmp14_46 = arith.mulf %tmp6_37, %tmp14 : tensor<8x128xf32> loc(#loc122)
      %tmp17 = arith.constant 1.000000e+00 : f32 loc(#loc123)
      %tmp18 = arith.constant dense<1.000000e+00> : tensor<1x128xf32> loc(#loc124)
      %tmp18_47 = arith.addf %tmp15_43, %tmp18 : tensor<1x128xf32> loc(#loc124)
      %tmp19 = tt.broadcast %tmp18_47 : tensor<1x128xf32> -> tensor<8x128xf32> loc(#loc125)
      %tmp19_48 = arith.mulf %tmp14_46, %tmp19 : tensor<8x128xf32> loc(#loc125)
      %8 = arith.extsi %xindex_5 : tensor<8x1xi32> to tensor<8x1xi64> loc(#loc53)
      %9 = tt.splat %ks1 : i64 -> tensor<8x1xi64> loc(#loc53)
      %10 = arith.muli %9, %8 : tensor<8x1xi64> loc(#loc53)
      %11 = arith.extsi %r0_index_17 : tensor<1x128xi32> to tensor<1x128xi64> loc(#loc54)
      %12 = tt.broadcast %11 : tensor<1x128xi64> -> tensor<8x128xi64> loc(#loc54)
      %13 = tt.broadcast %10 : tensor<8x1xi64> -> tensor<8x128xi64> loc(#loc54)
      %14 = arith.addi %12, %13 : tensor<8x128xi64> loc(#loc54)
      %15 = tt.splat %out_ptr1 : !tt.ptr<bf16> -> tensor<8x128x!tt.ptr<bf16>> loc(#loc55)
      %16 = tt.addptr %15, %14 : tensor<8x128x!tt.ptr<bf16>>, tensor<8x128xi64> loc(#loc55)
      %17 = tt.broadcast %r0_mask_18 : tensor<1x128xi1> -> tensor<8x128xi1> loc(#loc56)
      %18 = tt.broadcast %xmask_6 : tensor<8x1xi1> -> tensor<8x128xi1> loc(#loc56)
      %19 = arith.andi %17, %18 : tensor<8x128xi1> loc(#loc56)
      %20 = arith.truncf %tmp19_48 : tensor<8x128xf32> to tensor<8x128xbf16> loc(#loc57)
      tt.store %16, %20, %19 : tensor<8x128x!tt.ptr<bf16>> loc(#loc57)
    } loc(#loc30)
    tt.return loc(#loc58)
  } loc(#loc)
  tt.func private @"triton.language.standard.sum__fp32S8_128S__(1,)cconstexpr_1__(2,)cconstexpr_False__(3,)cNone"(%input: tensor<8x128xf32> loc("input"(#loc59))) -> tensor<8xf32> attributes {noinline = false} {
    %0 = "tt.reduce"(%input) <{axis = 1 : i32}> ({
    ^bb0(%arg1: f32 loc(unknown), %arg2: f32 loc(unknown)):
      %2 = tt.call @triton.language.standard._sum_combine__fp32_fp32__(%arg1, %arg2) : (f32, f32) -> f32 loc(#loc60)
      tt.reduce.return %2 : f32 loc(#loc60)
    }) : (tensor<8x128xf32>) -> tensor<8xf32> loc(#loc60)
    tt.return %0 : tensor<8xf32> loc(#loc62)
  ^bb1:  // no predecessors
    %1 = ub.poison : tensor<8xf32> loc(#loc63)
    tt.return %1 : tensor<8xf32> loc(#loc63)
  } loc(#loc59)
  tt.func private @triton.language.standard._sum_combine__fp32_fp32__(%a: f32 loc("a"(#loc64)), %b: f32 loc("b"(#loc64))) -> f32 attributes {noinline = false} {
    %0 = arith.addf %a, %b : f32 loc(#loc65)
    tt.return %0 : f32 loc(#loc66)
  ^bb1:  // no predecessors
    %1 = ub.poison : f32 loc(#loc67)
    tt.return %1 : f32 loc(#loc67)
  } loc(#loc64)
} loc(#loc)
#loc1 = loc("/data/jcy/zzs/zijinhua/.vllm_cache_simplevqa/torch_compile/c2/cc2k5s7dcvxe5o7nmm4pdhpbwtx6n6klwgewmbgrftkampouqrjy.py":21:28)
#loc2 = loc("/data/jcy/zzs/zijinhua/.vllm_cache_simplevqa/torch_compile/c2/cc2k5s7dcvxe5o7nmm4pdhpbwtx6n6klwgewmbgrftkampouqrjy.py":21:33)
#loc3 = loc("/data/jcy/zzs/zijinhua/.vllm_cache_simplevqa/torch_compile/c2/cc2k5s7dcvxe5o7nmm4pdhpbwtx6n6klwgewmbgrftkampouqrjy.py":22:36)
#loc4 = loc("/data/jcy/zzs/zijinhua/.vllm_cache_simplevqa/torch_compile/c2/cc2k5s7dcvxe5o7nmm4pdhpbwtx6n6klwgewmbgrftkampouqrjy.py":22:44)
#loc5 = loc("/data/jcy/zzs/zijinhua/.vllm_cache_simplevqa/torch_compile/c2/cc2k5s7dcvxe5o7nmm4pdhpbwtx6n6klwgewmbgrftkampouqrjy.py":22:23)
#loc6 = loc("/data/jcy/zzs/zijinhua/.vllm_cache_simplevqa/torch_compile/c2/cc2k5s7dcvxe5o7nmm4pdhpbwtx6n6klwgewmbgrftkampouqrjy.py":23:21)
#loc7 = loc("/data/jcy/zzs/zijinhua/.vllm_cache_simplevqa/torch_compile/c2/cc2k5s7dcvxe5o7nmm4pdhpbwtx6n6klwgewmbgrftkampouqrjy.py":24:27)
#loc8 = loc("/data/jcy/zzs/zijinhua/.vllm_cache_simplevqa/torch_compile/c2/cc2k5s7dcvxe5o7nmm4pdhpbwtx6n6klwgewmbgrftkampouqrjy.py":24:37)
#loc9 = loc("/data/jcy/zzs/zijinhua/.vllm_cache_simplevqa/torch_compile/c2/cc2k5s7dcvxe5o7nmm4pdhpbwtx6n6klwgewmbgrftkampouqrjy.py":26:19)
#loc10 = loc("/data/jcy/zzs/zijinhua/.vllm_cache_simplevqa/torch_compile/c2/cc2k5s7dcvxe5o7nmm4pdhpbwtx6n6klwgewmbgrftkampouqrjy.py":27:19)
#loc11 = loc("/data/jcy/zzs/zijinhua/.vllm_cache_simplevqa/torch_compile/c2/cc2k5s7dcvxe5o7nmm4pdhpbwtx6n6klwgewmbgrftkampouqrjy.py":28:43)
#loc12 = loc("/data/jcy/zzs/zijinhua/.vllm_cache_simplevqa/torch_compile/c2/cc2k5s7dcvxe5o7nmm4pdhpbwtx6n6klwgewmbgrftkampouqrjy.py":30:40)
#loc13 = loc("/data/jcy/zzs/zijinhua/.vllm_cache_simplevqa/torch_compile/c2/cc2k5s7dcvxe5o7nmm4pdhpbwtx6n6klwgewmbgrftkampouqrjy.py":31:31)
#loc14 = loc("/data/jcy/zzs/zijinhua/.vllm_cache_simplevqa/torch_compile/c2/cc2k5s7dcvxe5o7nmm4pdhpbwtx6n6klwgewmbgrftkampouqrjy.py":32:29)
#loc15 = loc("/data/jcy/zzs/zijinhua/.vllm_cache_simplevqa/torch_compile/c2/cc2k5s7dcvxe5o7nmm4pdhpbwtx6n6klwgewmbgrftkampouqrjy.py":36:45)
#loc16 = loc("/data/jcy/zzs/zijinhua/.vllm_cache_simplevqa/torch_compile/c2/cc2k5s7dcvxe5o7nmm4pdhpbwtx6n6klwgewmbgrftkampouqrjy.py":36:41)
#loc17 = loc("/data/jcy/zzs/zijinhua/.vllm_cache_simplevqa/torch_compile/c2/cc2k5s7dcvxe5o7nmm4pdhpbwtx6n6klwgewmbgrftkampouqrjy.py":36:54)
#loc18 = loc("/data/jcy/zzs/zijinhua/.vllm_cache_simplevqa/torch_compile/c2/cc2k5s7dcvxe5o7nmm4pdhpbwtx6n6klwgewmbgrftkampouqrjy.py":36:50)
#loc19 = loc("/data/jcy/zzs/zijinhua/.vllm_cache_simplevqa/torch_compile/c2/cc2k5s7dcvxe5o7nmm4pdhpbwtx6n6klwgewmbgrftkampouqrjy.py":36:34)
#loc20 = loc("/data/jcy/zzs/zijinhua/.vllm_cache_simplevqa/torch_compile/c2/cc2k5s7dcvxe5o7nmm4pdhpbwtx6n6klwgewmbgrftkampouqrjy.py":36:69)
#loc21 = loc("/data/jcy/zzs/zijinhua/.vllm_cache_simplevqa/torch_compile/c2/cc2k5s7dcvxe5o7nmm4pdhpbwtx6n6klwgewmbgrftkampouqrjy.py":36:59)
#loc22 = loc("/data/jcy/zzs/zijinhua/.vllm_cache_simplevqa/torch_compile/c2/cc2k5s7dcvxe5o7nmm4pdhpbwtx6n6klwgewmbgrftkampouqrjy.py":36:120)
#loc23 = loc("/data/jcy/zzs/zijinhua/.vllm_cache_simplevqa/torch_compile/c2/cc2k5s7dcvxe5o7nmm4pdhpbwtx6n6klwgewmbgrftkampouqrjy.py":38:22)
#loc24 = loc("/data/jcy/zzs/zijinhua/.vllm_cache_simplevqa/torch_compile/c2/cc2k5s7dcvxe5o7nmm4pdhpbwtx6n6klwgewmbgrftkampouqrjy.py":40:23)
#loc25 = loc("/data/jcy/zzs/zijinhua/.vllm_cache_simplevqa/torch_compile/c2/cc2k5s7dcvxe5o7nmm4pdhpbwtx6n6klwgewmbgrftkampouqrjy.py":41:35)
#loc26 = loc("/data/jcy/zzs/zijinhua/.vllm_cache_simplevqa/torch_compile/c2/cc2k5s7dcvxe5o7nmm4pdhpbwtx6n6klwgewmbgrftkampouqrjy.py":41:48)
#loc27 = loc("/data/jcy/zzs/zijinhua/.vllm_cache_simplevqa/torch_compile/c2/cc2k5s7dcvxe5o7nmm4pdhpbwtx6n6klwgewmbgrftkampouqrjy.py":41:8)
#loc28 = loc("/data/jcy/zzs/zijinhua/.vllm_cache_simplevqa/torch_compile/c2/cc2k5s7dcvxe5o7nmm4pdhpbwtx6n6klwgewmbgrftkampouqrjy.py":42:25)
#loc29 = loc("/data/jcy/zzs/zijinhua/.vllm_cache_simplevqa/torch_compile/c2/cc2k5s7dcvxe5o7nmm4pdhpbwtx6n6klwgewmbgrftkampouqrjy.py":42:28)
#loc30 = loc("/data/jcy/zzs/zijinhua/.vllm_cache_simplevqa/torch_compile/c2/cc2k5s7dcvxe5o7nmm4pdhpbwtx6n6klwgewmbgrftkampouqrjy.py":43:40)
#loc31 = loc("/data/jcy/zzs/zijinhua/.vllm_cache_simplevqa/torch_compile/c2/cc2k5s7dcvxe5o7nmm4pdhpbwtx6n6klwgewmbgrftkampouqrjy.py":44:31)
#loc32 = loc("/data/jcy/zzs/zijinhua/.vllm_cache_simplevqa/torch_compile/c2/cc2k5s7dcvxe5o7nmm4pdhpbwtx6n6klwgewmbgrftkampouqrjy.py":45:29)
#loc33 = loc("/data/jcy/zzs/zijinhua/.vllm_cache_simplevqa/torch_compile/c2/cc2k5s7dcvxe5o7nmm4pdhpbwtx6n6klwgewmbgrftkampouqrjy.py":49:45)
#loc34 = loc("/data/jcy/zzs/zijinhua/.vllm_cache_simplevqa/torch_compile/c2/cc2k5s7dcvxe5o7nmm4pdhpbwtx6n6klwgewmbgrftkampouqrjy.py":49:41)
#loc35 = loc("/data/jcy/zzs/zijinhua/.vllm_cache_simplevqa/torch_compile/c2/cc2k5s7dcvxe5o7nmm4pdhpbwtx6n6klwgewmbgrftkampouqrjy.py":49:54)
#loc36 = loc("/data/jcy/zzs/zijinhua/.vllm_cache_simplevqa/torch_compile/c2/cc2k5s7dcvxe5o7nmm4pdhpbwtx6n6klwgewmbgrftkampouqrjy.py":49:50)
#loc37 = loc("/data/jcy/zzs/zijinhua/.vllm_cache_simplevqa/torch_compile/c2/cc2k5s7dcvxe5o7nmm4pdhpbwtx6n6klwgewmbgrftkampouqrjy.py":49:34)
#loc38 = loc("/data/jcy/zzs/zijinhua/.vllm_cache_simplevqa/torch_compile/c2/cc2k5s7dcvxe5o7nmm4pdhpbwtx6n6klwgewmbgrftkampouqrjy.py":49:69)
#loc39 = loc("/data/jcy/zzs/zijinhua/.vllm_cache_simplevqa/torch_compile/c2/cc2k5s7dcvxe5o7nmm4pdhpbwtx6n6klwgewmbgrftkampouqrjy.py":49:59)
#loc40 = loc("/data/jcy/zzs/zijinhua/.vllm_cache_simplevqa/torch_compile/c2/cc2k5s7dcvxe5o7nmm4pdhpbwtx6n6klwgewmbgrftkampouqrjy.py":49:121)
#loc41 = loc("/data/jcy/zzs/zijinhua/.vllm_cache_simplevqa/torch_compile/c2/cc2k5s7dcvxe5o7nmm4pdhpbwtx6n6klwgewmbgrftkampouqrjy.py":50:35)
#loc42 = loc("/data/jcy/zzs/zijinhua/.vllm_cache_simplevqa/torch_compile/c2/cc2k5s7dcvxe5o7nmm4pdhpbwtx6n6klwgewmbgrftkampouqrjy.py":50:42)
#loc43 = loc("/data/jcy/zzs/zijinhua/.vllm_cache_simplevqa/torch_compile/c2/cc2k5s7dcvxe5o7nmm4pdhpbwtx6n6klwgewmbgrftkampouqrjy.py":50:95)
#loc44 = loc("/data/jcy/zzs/zijinhua/.vllm_cache_simplevqa/torch_compile/c2/cc2k5s7dcvxe5o7nmm4pdhpbwtx6n6klwgewmbgrftkampouqrjy.py":53:23)
#loc45 = loc("/data/jcy/zzs/zijinhua/.vllm_cache_simplevqa/torch_compile/c2/cc2k5s7dcvxe5o7nmm4pdhpbwtx6n6klwgewmbgrftkampouqrjy.py":54:24)
#loc46 = loc("/data/jcy/zzs/zijinhua/.vllm_cache_simplevqa/torch_compile/c2/cc2k5s7dcvxe5o7nmm4pdhpbwtx6n6klwgewmbgrftkampouqrjy.py":55:16)
#loc47 = loc("/data/jcy/zzs/zijinhua/.vllm_cache_simplevqa/torch_compile/c2/cc2k5s7dcvxe5o7nmm4pdhpbwtx6n6klwgewmbgrftkampouqrjy.py":56:24)
#loc48 = loc("/data/jcy/zzs/zijinhua/.vllm_cache_simplevqa/torch_compile/c2/cc2k5s7dcvxe5o7nmm4pdhpbwtx6n6klwgewmbgrftkampouqrjy.py":57:32)
#loc49 = loc("/data/jcy/zzs/zijinhua/.vllm_cache_simplevqa/torch_compile/c2/cc2k5s7dcvxe5o7nmm4pdhpbwtx6n6klwgewmbgrftkampouqrjy.py":58:23)
#loc50 = loc("/data/jcy/zzs/zijinhua/.vllm_cache_simplevqa/torch_compile/c2/cc2k5s7dcvxe5o7nmm4pdhpbwtx6n6klwgewmbgrftkampouqrjy.py":60:16)
#loc51 = loc("/data/jcy/zzs/zijinhua/.vllm_cache_simplevqa/torch_compile/c2/cc2k5s7dcvxe5o7nmm4pdhpbwtx6n6klwgewmbgrftkampouqrjy.py":61:24)
#loc52 = loc("/data/jcy/zzs/zijinhua/.vllm_cache_simplevqa/torch_compile/c2/cc2k5s7dcvxe5o7nmm4pdhpbwtx6n6klwgewmbgrftkampouqrjy.py":62:24)
#loc53 = loc("/data/jcy/zzs/zijinhua/.vllm_cache_simplevqa/torch_compile/c2/cc2k5s7dcvxe5o7nmm4pdhpbwtx6n6klwgewmbgrftkampouqrjy.py":64:40)
#loc54 = loc("/data/jcy/zzs/zijinhua/.vllm_cache_simplevqa/torch_compile/c2/cc2k5s7dcvxe5o7nmm4pdhpbwtx6n6klwgewmbgrftkampouqrjy.py":64:36)
#loc55 = loc("/data/jcy/zzs/zijinhua/.vllm_cache_simplevqa/torch_compile/c2/cc2k5s7dcvxe5o7nmm4pdhpbwtx6n6klwgewmbgrftkampouqrjy.py":64:29)
#loc56 = loc("/data/jcy/zzs/zijinhua/.vllm_cache_simplevqa/torch_compile/c2/cc2k5s7dcvxe5o7nmm4pdhpbwtx6n6klwgewmbgrftkampouqrjy.py":64:62)
#loc57 = loc("/data/jcy/zzs/zijinhua/.vllm_cache_simplevqa/torch_compile/c2/cc2k5s7dcvxe5o7nmm4pdhpbwtx6n6klwgewmbgrftkampouqrjy.py":64:52)
#loc58 = loc("/data/jcy/zzs/zijinhua/.vllm_cache_simplevqa/torch_compile/c2/cc2k5s7dcvxe5o7nmm4pdhpbwtx6n6klwgewmbgrftkampouqrjy.py":43:4)
#loc60 = loc("/data/conda/envs/or_llm/lib/python3.12/site-packages/triton/language/standard.py":293:36)
#loc62 = loc("/data/conda/envs/or_llm/lib/python3.12/site-packages/triton/language/standard.py":293:11)
#loc63 = loc("/data/conda/envs/or_llm/lib/python3.12/site-packages/triton/language/standard.py":293:4)
#loc65 = loc("/data/conda/envs/or_llm/lib/python3.12/site-packages/triton/language/standard.py":263:15)
#loc66 = loc("/data/conda/envs/or_llm/lib/python3.12/site-packages/triton/language/standard.py":263:11)
#loc67 = loc("/data/conda/envs/or_llm/lib/python3.12/site-packages/triton/language/standard.py":263:4)
#loc76 = loc("xoffset"(#loc1))
#loc77 = loc("xoffset"(#loc2))
#loc78 = loc("xindex"(#loc3))
#loc79 = loc("xindex"(#loc4))
#loc80 = loc("xindex"(#loc5))
#loc81 = loc("xmask"(#loc6))
#loc82 = loc("r0_base"(#loc7))
#loc83 = loc("r0_base"(#loc8))
#loc84 = loc("x0"(#loc9))
#loc85 = loc("x1"(#loc10))
#loc86 = loc("_tmp4"(#loc11))
#loc87 = loc("_tmp4"(#loc12))
#loc88 = loc("r0_index"(#loc13))
#loc89 = loc("r0_mask"(#loc14))
#loc90 = loc("tmp0"(#loc15))
#loc91 = loc("tmp0"(#loc16))
#loc92 = loc("tmp0"(#loc17))
#loc93 = loc("tmp0"(#loc18))
#loc94 = loc("tmp0"(#loc19))
#loc95 = loc("tmp0"(#loc20))
#loc96 = loc("tmp0"(#loc21))
#loc97 = loc("tmp0"(#loc22))
#loc98 = loc("tmp2"(#loc23))
#loc99 = loc("tmp5"(#loc24))
#loc100 = loc("_tmp4"(#loc25))
#loc101 = loc("_tmp4"(#loc26))
#loc102 = loc("tmp4"(#loc28))
#loc103 = loc("tmp4"(#loc29))
#loc104 = loc("r0_index"(#loc31))
#loc105 = loc("r0_mask"(#loc32))
#loc106 = loc("tmp6"(#loc33))
#loc107 = loc("tmp6"(#loc34))
#loc108 = loc("tmp6"(#loc35))
#loc109 = loc("tmp6"(#loc36))
#loc110 = loc("tmp6"(#loc37))
#loc111 = loc("tmp6"(#loc38))
#loc112 = loc("tmp6"(#loc39))
#loc113 = loc("tmp6"(#loc40))
#loc114 = loc("tmp15"(#loc41))
#loc115 = loc("tmp15"(#loc42))
#loc116 = loc("tmp15"(#loc43))
#loc117 = loc("tmp9"(#loc44))
#loc118 = loc("tmp10"(#loc45))
#loc119 = loc("tmp11"(#loc46))
#loc120 = loc("tmp12"(#loc47))
#loc121 = loc("tmp13"(#loc48))
#loc122 = loc("tmp14"(#loc49))
#loc123 = loc("tmp17"(#loc50))
#loc124 = loc("tmp18"(#loc51))
#loc125 = loc("tmp19"(#loc52))
