#loc = loc("/data/conda/envs/or_llm/lib/python3.12/site-packages/vllm/model_executor/layers/fla/ops/layernorm_guard.py":67:0)
#loc1 = loc(unknown)
#loc26 = loc("/data/conda/envs/or_llm/lib/python3.12/site-packages/vllm/model_executor/layers/fla/ops/layernorm_guard.py":133:21)
#loc55 = loc("X"(#loc))
#loc56 = loc("Y"(#loc))
#loc57 = loc("W"(#loc))
#loc58 = loc("Z"(#loc))
#loc59 = loc("Rstd"(#loc))
#loc60 = loc("stride_x_row"(#loc))
#loc61 = loc("stride_y_row"(#loc))
#loc62 = loc("stride_z_row"(#loc))
#loc63 = loc("M"(#loc))
#loc64 = loc("eps"(#loc))
#loc88 = loc("var"(#loc26))
#loc113 = loc(callsite(#loc1 at #loc88))
module {
  tt.func public @layer_norm_fwd_kernel(%X: !tt.ptr<bf16> {tt.divisibility = 16 : i32} loc("X"(#loc)), %Y: !tt.ptr<bf16> {tt.divisibility = 16 : i32} loc("Y"(#loc)), %W: !tt.ptr<bf16> {tt.divisibility = 16 : i32} loc("W"(#loc)), %Z: !tt.ptr<bf16> {tt.divisibility = 16 : i32} loc("Z"(#loc)), %Rstd: !tt.ptr<f32> {tt.divisibility = 16 : i32} loc("Rstd"(#loc)), %stride_x_row: i32 {tt.divisibility = 16 : i32} loc("stride_x_row"(#loc)), %stride_y_row: i32 {tt.divisibility = 16 : i32} loc("stride_y_row"(#loc)), %stride_z_row: i32 {tt.divisibility = 16 : i32} loc("stride_z_row"(#loc)), %M: i32 {tt.divisibility = 16 : i32} loc("M"(#loc)), %eps: f32 loc("eps"(#loc))) attributes {noinline = false} {
    %y = arith.constant dense<1.000000e+00> : tensor<1x128xf32> loc(#loc108)
    %w = arith.constant dense<0.000000e+00> : tensor<128xbf16> loc(#loc66)
    %cst = arith.constant dense<0.000000e+00> : tensor<1x128xbf16> loc(#loc1)
    %w_mask = arith.constant dense<128> : tensor<128xi32> loc(#loc67)
    %var = arith.constant dense<1.280000e+02> : tensor<1xf32> loc(#loc68)
    %cst_0 = arith.constant dense<0.000000e+00> : tensor<1x128xf32> loc(#loc1)
    %col_mask = arith.constant dense<128> : tensor<1x128xi32> loc(#loc69)
    %c128_i32 = arith.constant 128 : i32 loc(#loc1)
    %row_start = tt.get_program_id x : i32 loc(#loc70)
    %group = tt.get_program_id y : i32 loc(#loc71)
    %cols = tt.make_range {end = 128 : i32, start = 0 : i32} : tensor<128xi32> loc(#loc72)
    %row_offsets = arith.muli %row_start, %stride_x_row : i32 loc(#loc73)
    %col_offsets = tt.expand_dims %cols {axis = 0 : i32} : tensor<128xi32> -> tensor<1x128xi32> loc(#loc74)
    %col_offsets_1 = arith.muli %group, %c128_i32 : i32 loc(#loc75)
    %col_offsets_2 = tt.splat %col_offsets_1 : i32 -> tensor<1x128xi32> loc(#loc76)
    %col_offsets_3 = arith.addi %col_offsets, %col_offsets_2 : tensor<1x128xi32> loc(#loc76)
    %X_base = tt.addptr %X, %row_offsets : !tt.ptr<bf16>, i32 loc(#loc77)
    %X_base_4 = tt.splat %X_base : !tt.ptr<bf16> -> tensor<1x128x!tt.ptr<bf16>> loc(#loc109)
    %X_base_5 = tt.addptr %X_base_4, %col_offsets_3 : tensor<1x128x!tt.ptr<bf16>>, tensor<1x128xi32> loc(#loc78)
    %Y_base = arith.muli %row_start, %stride_y_row : i32 loc(#loc79)
    %Y_base_6 = tt.addptr %Y, %Y_base : !tt.ptr<bf16>, i32 loc(#loc80)
    %Y_base_7 = tt.splat %Y_base_6 : !tt.ptr<bf16> -> tensor<1x128x!tt.ptr<bf16>> loc(#loc110)
    %Y_base_8 = tt.addptr %Y_base_7, %col_offsets_3 : tensor<1x128x!tt.ptr<bf16>>, tensor<1x128xi32> loc(#loc81)
    %row_mask = arith.cmpi slt, %row_start, %M : i32 loc(#loc82)
    %col_mask_9 = arith.cmpi slt, %col_offsets, %col_mask : tensor<1x128xi32> loc(#loc69)
    %mask = tt.splat %row_mask : i1 -> tensor<1x128xi1> loc(#loc111)
    %mask_10 = arith.andi %mask, %col_mask_9 : tensor<1x128xi1> loc(#loc83)
    %x = tt.load %X_base_5, %mask_10, %cst : tensor<1x128x!tt.ptr<bf16>> loc(#loc84)
    %x_11 = arith.extf %x : tensor<1x128xbf16> to tensor<1x128xf32> loc(#loc85)
    %xbar = arith.select %mask_10, %x_11, %cst_0 : tensor<1x128xi1>, tensor<1x128xf32> loc(#loc86)
    %var_12 = arith.mulf %xbar, %xbar : tensor<1x128xf32> loc(#loc87)
    %var_13 = "tt.reduce"(%var_12) <{axis = 1 : i32}> ({
    ^bb0(%var_38: f32 loc(callsite(#loc1 at #loc88)), %var_39: f32 loc(callsite(#loc1 at #loc88))):
      %var_40 = arith.addf %var_38, %var_39 : f32 loc(#loc119)
      tt.reduce.return %var_40 : f32 loc(#loc112)
    }) : (tensor<1x128xf32>) -> tensor<1xf32> loc(#loc112)
    %var_14 = arith.divf %var_13, %var : tensor<1xf32> loc(#loc68)
    %rstd = tt.splat %eps : f32 -> tensor<1xf32> loc(#loc89)
    %rstd_15 = arith.addf %var_14, %rstd : tensor<1xf32> loc(#loc89)
    %rstd_16 = math.rsqrt %rstd_15 : tensor<1xf32> loc(#loc90)
    %rstd_offsets = arith.muli %group, %M : i32 loc(#loc91)
    %rstd_offsets_17 = arith.addi %rstd_offsets, %row_start : i32 loc(#loc92)
    %rstd_mask = tt.splat %row_mask : i1 -> tensor<1xi1> loc(#loc93)
    %0 = tt.addptr %Rstd, %rstd_offsets_17 : !tt.ptr<f32>, i32 loc(#loc33)
    %1 = tt.splat %0 : !tt.ptr<f32> -> tensor<1x!tt.ptr<f32>> loc(#loc33)
    tt.store %1, %rstd_16, %rstd_mask : tensor<1x!tt.ptr<f32>> loc(#loc34)
    %w_offsets = tt.splat %col_offsets_1 : i32 -> tensor<128xi32> loc(#loc94)
    %w_offsets_18 = arith.addi %cols, %w_offsets : tensor<128xi32> loc(#loc94)
    %w_mask_19 = arith.cmpi slt, %cols, %w_mask : tensor<128xi32> loc(#loc67)
    %w_20 = tt.splat %W : !tt.ptr<bf16> -> tensor<128x!tt.ptr<bf16>> loc(#loc95)
    %w_21 = tt.addptr %w_20, %w_offsets_18 : tensor<128x!tt.ptr<bf16>>, tensor<128xi32> loc(#loc95)
    %w_22 = tt.load %w_21, %w_mask_19, %w : tensor<128x!tt.ptr<bf16>> loc(#loc66)
    %w_23 = arith.extf %w_22 : tensor<128xbf16> to tensor<128xf32> loc(#loc96)
    %x_hat = tt.expand_dims %rstd_16 {axis = 1 : i32} : tensor<1xf32> -> tensor<1x1xf32> loc(#loc97)
    %x_hat_24 = tt.broadcast %x_hat : tensor<1x1xf32> -> tensor<1x128xf32> loc(#loc98)
    %x_hat_25 = arith.mulf %x_11, %x_hat_24 : tensor<1x128xf32> loc(#loc98)
    %y_26 = tt.expand_dims %w_23 {axis = 0 : i32} : tensor<128xf32> -> tensor<1x128xf32> loc(#loc99)
    %y_27 = arith.mulf %x_hat_25, %y_26 : tensor<1x128xf32> loc(#loc100)
    %Z_base = arith.muli %row_start, %stride_z_row : i32 loc(#loc101)
    %Z_base_28 = tt.addptr %Z, %Z_base : !tt.ptr<bf16>, i32 loc(#loc102)
    %Z_base_29 = tt.splat %Z_base_28 : !tt.ptr<bf16> -> tensor<1x128x!tt.ptr<bf16>> loc(#loc114)
    %Z_base_30 = tt.addptr %Z_base_29, %col_offsets_3 : tensor<1x128x!tt.ptr<bf16>>, tensor<1x128xi32> loc(#loc103)
    %z = tt.load %Z_base_30, %mask_10, %cst : tensor<1x128x!tt.ptr<bf16>> loc(#loc104)
    %z_31 = arith.extf %z : tensor<1x128xbf16> to tensor<1x128xf32> loc(#loc105)
    %y_32 = arith.subf %cst_0, %z_31 : tensor<1x128xf32> loc(#loc115)
    %y_33 = math.exp %y_32 : tensor<1x128xf32> loc(#loc116)
    %y_34 = arith.addf %y_33, %y : tensor<1x128xf32> loc(#loc117)
    %y_35 = arith.divf %y, %y_34 : tensor<1x128xf32> loc(#loc118)
    %y_36 = arith.mulf %z_31, %y_35 : tensor<1x128xf32> loc(#loc106)
    %y_37 = arith.mulf %y_27, %y_36 : tensor<1x128xf32> loc(#loc107)
    %2 = arith.truncf %y_37 : tensor<1x128xf32> to tensor<1x128xbf16> loc(#loc53)
    tt.store %Y_base_8, %2, %mask_10 : tensor<1x128x!tt.ptr<bf16>> loc(#loc53)
    tt.return loc(#loc54)
  } loc(#loc)
} loc(#loc)
#loc2 = loc("/data/conda/envs/or_llm/lib/python3.12/site-packages/vllm/model_executor/layers/fla/ops/layernorm_guard.py":163:32)
#loc3 = loc("/data/conda/envs/or_llm/lib/python3.12/site-packages/vllm/model_executor/layers/fla/ops/layernorm_guard.py":146:16)
#loc4 = loc("/data/conda/envs/or_llm/lib/python3.12/site-packages/vllm/model_executor/layers/fla/ops/layernorm_guard.py":145:20)
#loc5 = loc("/data/conda/envs/or_llm/lib/python3.12/site-packages/vllm/model_executor/layers/fla/ops/layernorm_guard.py":133:44)
#loc6 = loc("/data/conda/envs/or_llm/lib/python3.12/site-packages/vllm/model_executor/layers/fla/ops/layernorm_guard.py":107:31)
#loc7 = loc("/data/conda/envs/or_llm/lib/python3.12/site-packages/vllm/model_executor/layers/fla/ops/layernorm_guard.py":90:30)
#loc8 = loc("/data/conda/envs/or_llm/lib/python3.12/site-packages/vllm/model_executor/layers/fla/ops/layernorm_guard.py":91:26)
#loc9 = loc("/data/conda/envs/or_llm/lib/python3.12/site-packages/vllm/model_executor/layers/fla/ops/layernorm_guard.py":95:24)
#loc10 = loc("/data/conda/envs/or_llm/lib/python3.12/site-packages/vllm/model_executor/layers/fla/ops/layernorm_guard.py":98:34)
#loc11 = loc("/data/conda/envs/or_llm/lib/python3.12/site-packages/vllm/model_executor/layers/fla/ops/layernorm_guard.py":99:23)
#loc12 = loc("/data/conda/envs/or_llm/lib/python3.12/site-packages/vllm/model_executor/layers/fla/ops/layernorm_guard.py":99:42)
#loc13 = loc("/data/conda/envs/or_llm/lib/python3.12/site-packages/vllm/model_executor/layers/fla/ops/layernorm_guard.py":99:34)
#loc14 = loc("/data/conda/envs/or_llm/lib/python3.12/site-packages/vllm/model_executor/layers/fla/ops/layernorm_guard.py":102:17)
#loc15 = loc("/data/conda/envs/or_llm/lib/python3.12/site-packages/vllm/model_executor/layers/fla/ops/layernorm_guard.py":102:31)
#loc16 = loc("/data/conda/envs/or_llm/lib/python3.12/site-packages/vllm/model_executor/layers/fla/ops/layernorm_guard.py":103:33)
#loc17 = loc("/data/conda/envs/or_llm/lib/python3.12/site-packages/vllm/model_executor/layers/fla/ops/layernorm_guard.py":103:17)
#loc18 = loc("/data/conda/envs/or_llm/lib/python3.12/site-packages/vllm/model_executor/layers/fla/ops/layernorm_guard.py":103:48)
#loc19 = loc("/data/conda/envs/or_llm/lib/python3.12/site-packages/vllm/model_executor/layers/fla/ops/layernorm_guard.py":106:31)
#loc20 = loc("/data/conda/envs/or_llm/lib/python3.12/site-packages/vllm/model_executor/layers/fla/ops/layernorm_guard.py":108:22)
#loc21 = loc("/data/conda/envs/or_llm/lib/python3.12/site-packages/vllm/model_executor/layers/fla/ops/layernorm_guard.py":111:16)
#loc22 = loc("/data/conda/envs/or_llm/lib/python3.12/site-packages/vllm/model_executor/layers/fla/ops/layernorm_guard.py":111:49)
#loc23 = loc("/data/conda/envs/or_llm/lib/python3.12/site-packages/vllm/model_executor/layers/fla/ops/layernorm_guard.py":132:33)
#loc24 = loc("/data/conda/envs/or_llm/lib/python3.12/site-packages/vllm/model_executor/layers/fla/ops/layernorm_guard.py":133:28)
#loc25 = loc("/data/conda/envs/or_llm/lib/python3.12/site-packages/triton/language/standard.py":293:36)
#loc27 = loc("/data/conda/envs/or_llm/lib/python3.12/site-packages/triton/language/standard.py":263:15)
#loc28 = loc("/data/conda/envs/or_llm/lib/python3.12/site-packages/vllm/model_executor/layers/fla/ops/layernorm_guard.py":136:26)
#loc29 = loc("/data/conda/envs/or_llm/lib/python3.12/site-packages/vllm/model_executor/layers/fla/ops/layernorm_guard.py":136:20)
#loc30 = loc("/data/conda/envs/or_llm/lib/python3.12/site-packages/vllm/model_executor/layers/fla/ops/layernorm_guard.py":139:27)
#loc31 = loc("/data/conda/envs/or_llm/lib/python3.12/site-packages/vllm/model_executor/layers/fla/ops/layernorm_guard.py":139:31)
#loc32 = loc("/data/conda/envs/or_llm/lib/python3.12/site-packages/vllm/model_executor/layers/fla/ops/layernorm_guard.py":140:23)
#loc33 = loc("/data/conda/envs/or_llm/lib/python3.12/site-packages/vllm/model_executor/layers/fla/ops/layernorm_guard.py":141:20)
#loc34 = loc("/data/conda/envs/or_llm/lib/python3.12/site-packages/vllm/model_executor/layers/fla/ops/layernorm_guard.py":141:34)
#loc35 = loc("/data/conda/envs/or_llm/lib/python3.12/site-packages/vllm/model_executor/layers/fla/ops/layernorm_guard.py":144:23)
#loc36 = loc("/data/conda/envs/or_llm/lib/python3.12/site-packages/vllm/model_executor/layers/fla/ops/layernorm_guard.py":146:20)
#loc37 = loc("/data/conda/envs/or_llm/lib/python3.12/site-packages/vllm/model_executor/layers/fla/ops/layernorm_guard.py":146:58)
#loc38 = loc("/data/conda/envs/or_llm/lib/python3.12/site-packages/vllm/model_executor/layers/fla/ops/layernorm_guard.py":155:25)
#loc39 = loc("/data/conda/envs/or_llm/lib/python3.12/site-packages/vllm/model_executor/layers/fla/ops/layernorm_guard.py":155:20)
#loc40 = loc("/data/conda/envs/or_llm/lib/python3.12/site-packages/vllm/model_executor/layers/fla/ops/layernorm_guard.py":157:67)
#loc41 = loc("/data/conda/envs/or_llm/lib/python3.12/site-packages/vllm/model_executor/layers/fla/ops/layernorm_guard.py":157:65)
#loc42 = loc("/data/conda/envs/or_llm/lib/python3.12/site-packages/vllm/model_executor/layers/fla/ops/layernorm_guard.py":160:37)
#loc43 = loc("/data/conda/envs/or_llm/lib/python3.12/site-packages/vllm/model_executor/layers/fla/ops/layernorm_guard.py":160:21)
#loc44 = loc("/data/conda/envs/or_llm/lib/python3.12/site-packages/vllm/model_executor/layers/fla/ops/layernorm_guard.py":160:52)
#loc45 = loc("/data/conda/envs/or_llm/lib/python3.12/site-packages/vllm/model_executor/layers/fla/ops/layernorm_guard.py":161:20)
#loc46 = loc("/data/conda/envs/or_llm/lib/python3.12/site-packages/vllm/model_executor/layers/fla/ops/layernorm_guard.py":161:53)
#loc47 = loc("/data/conda/envs/or_llm/lib/python3.12/site-packages/triton/language/standard.py":50:30)
#loc48 = loc("/data/conda/envs/or_llm/lib/python3.12/site-packages/triton/language/standard.py":50:29)
#loc49 = loc("/data/conda/envs/or_llm/lib/python3.12/site-packages/triton/language/standard.py":50:20)
#loc50 = loc("/data/conda/envs/or_llm/lib/python3.12/site-packages/triton/language/standard.py":50:16)
#loc51 = loc("/data/conda/envs/or_llm/lib/python3.12/site-packages/vllm/model_executor/layers/fla/ops/layernorm_guard.py":163:21)
#loc52 = loc("/data/conda/envs/or_llm/lib/python3.12/site-packages/vllm/model_executor/layers/fla/ops/layernorm_guard.py":163:17)
#loc53 = loc("/data/conda/envs/or_llm/lib/python3.12/site-packages/vllm/model_executor/layers/fla/ops/layernorm_guard.py":168:21)
#loc54 = loc("/data/conda/envs/or_llm/lib/python3.12/site-packages/vllm/model_executor/layers/fla/ops/layernorm_guard.py":168:4)
#loc65 = loc("y"(#loc2))
#loc66 = loc("w"(#loc3))
#loc67 = loc("w_mask"(#loc4))
#loc68 = loc("var"(#loc5))
#loc69 = loc("col_mask"(#loc6))
#loc70 = loc("row_start"(#loc7))
#loc71 = loc("group"(#loc8))
#loc72 = loc("cols"(#loc9))
#loc73 = loc("row_offsets"(#loc10))
#loc74 = loc("col_offsets"(#loc11))
#loc75 = loc("col_offsets"(#loc12))
#loc76 = loc("col_offsets"(#loc13))
#loc77 = loc("X_base"(#loc14))
#loc78 = loc("X_base"(#loc15))
#loc79 = loc("Y_base"(#loc16))
#loc80 = loc("Y_base"(#loc17))
#loc81 = loc("Y_base"(#loc18))
#loc82 = loc("row_mask"(#loc19))
#loc83 = loc("mask"(#loc20))
#loc84 = loc("x"(#loc21))
#loc85 = loc("x"(#loc22))
#loc86 = loc("xbar"(#loc23))
#loc87 = loc("var"(#loc24))
#loc89 = loc("rstd"(#loc28))
#loc90 = loc("rstd"(#loc29))
#loc91 = loc("rstd_offsets"(#loc30))
#loc92 = loc("rstd_offsets"(#loc31))
#loc93 = loc("rstd_mask"(#loc32))
#loc94 = loc("w_offsets"(#loc35))
#loc95 = loc("w"(#loc36))
#loc96 = loc("w"(#loc37))
#loc97 = loc("x_hat"(#loc38))
#loc98 = loc("x_hat"(#loc39))
#loc99 = loc("y"(#loc40))
#loc100 = loc("y"(#loc41))
#loc101 = loc("Z_base"(#loc42))
#loc102 = loc("Z_base"(#loc43))
#loc103 = loc("Z_base"(#loc44))
#loc104 = loc("z"(#loc45))
#loc105 = loc("z"(#loc46))
#loc106 = loc("y"(#loc51))
#loc107 = loc("y"(#loc52))
#loc108 = loc(callsite(#loc1 at #loc65))
#loc109 = loc(fused[#loc78, #loc77])
#loc110 = loc(fused[#loc81, #loc80])
#loc111 = loc(fused[#loc83, #loc82])
#loc112 = loc(callsite(#loc25 at #loc88))
#loc114 = loc(fused[#loc103, #loc102])
#loc115 = loc(callsite(#loc47 at #loc65))
#loc116 = loc(callsite(#loc48 at #loc65))
#loc117 = loc(callsite(#loc49 at #loc65))
#loc118 = loc(callsite(#loc50 at #loc65))
#loc119 = loc(callsite(#loc27 at #loc112))
