#loc = loc("/data/jcy/zzs/zijinhua/.vllm_cache_simplevqa/torch_compile/lu/clu62ce6agx54gqsbnbt35dpgixbqcudonrmforw2mqz26zrrho2.py":18:0)
#loc66 = loc("/data/conda/envs/or_llm/lib/python3.12/site-packages/triton/language/standard.py":287:0)
#loc68 = loc(unknown)
#loc71 = loc("/data/conda/envs/or_llm/lib/python3.12/site-packages/triton/language/standard.py":262:0)
#loc75 = loc("in_ptr0"(#loc))
#loc76 = loc("in_ptr1"(#loc))
#loc77 = loc("in_ptr2"(#loc))
#loc78 = loc("out_ptr0"(#loc))
#loc79 = loc("out_ptr2"(#loc))
#loc80 = loc("xnumel"(#loc))
#loc81 = loc("r0_numel"(#loc))
#loc134 = loc("input"(#loc66))
#loc135 = loc("a"(#loc71))
#loc136 = loc("b"(#loc71))
module {
  tt.func public @triton_red_fused__to_copy_add_mean_mul_pow_rsqrt_0(%in_ptr0: !tt.ptr<bf16> {tt.divisibility = 16 : i32} loc("in_ptr0"(#loc)), %in_ptr1: !tt.ptr<bf16> {tt.divisibility = 16 : i32} loc("in_ptr1"(#loc)), %in_ptr2: !tt.ptr<bf16> {tt.divisibility = 16 : i32} loc("in_ptr2"(#loc)), %out_ptr0: !tt.ptr<bf16> {tt.divisibility = 16 : i32} loc("out_ptr0"(#loc)), %out_ptr2: !tt.ptr<bf16> {tt.divisibility = 16 : i32} loc("out_ptr2"(#loc)), %xnumel: i32 loc("xnumel"(#loc)), %r0_numel: i32 {tt.divisibility = 16 : i32} loc("r0_numel"(#loc))) attributes {noinline = false} {
    %r0_numel_0 = arith.constant 4096 : i32 loc(#loc82)
    %xoffset = tt.get_program_id x : i32 loc(#loc83)
    %xoffset_1 = arith.constant 1 : i32 loc(#loc84)
    %xoffset_2 = arith.constant 1 : i32 loc(#loc84)
    %xoffset_3 = arith.muli %xoffset, %xoffset_2 : i32 loc(#loc84)
    %xindex = tt.make_range {end = 1 : i32, start = 0 : i32} : tensor<1xi32> loc(#loc85)
    %xindex_4 = tt.expand_dims %xindex {axis = 1 : i32} : tensor<1xi32> -> tensor<1x1xi32> loc(#loc86)
    %xindex_5 = tt.splat %xoffset_3 : i32 -> tensor<1x1xi32> loc(#loc87)
    %xindex_6 = arith.addi %xindex_5, %xindex_4 : tensor<1x1xi32> loc(#loc87)
    %xmask = tt.splat %xnumel : i32 -> tensor<1x1xi32> loc(#loc88)
    %xmask_7 = arith.cmpi slt, %xindex_6, %xmask : tensor<1x1xi32> loc(#loc88)
    %r0_base = tt.make_range {end = 4096 : i32, start = 0 : i32} : tensor<4096xi32> loc(#loc89)
    %r0_base_8 = tt.expand_dims %r0_base {axis = 0 : i32} : tensor<4096xi32> -> tensor<1x4096xi32> loc(#loc90)
    %_tmp6 = arith.constant 0.000000e+00 : f32 loc(#loc91)
    %_tmp6_9 = arith.constant dense<0.000000e+00> : tensor<1x4096xf32> loc(#loc91)
    %c0_i32 = arith.constant 0 : i32 loc(#loc11)
    %c4096_i32 = arith.constant 4096 : i32 loc(#loc11)
    %0 = arith.bitcast %c0_i32 : i32 to i32 loc(#loc11)
    %1 = arith.bitcast %r0_numel_0 : i32 to i32 loc(#loc11)
    %2 = arith.bitcast %c4096_i32 : i32 to i32 loc(#loc11)
    %3 = ub.poison : i32 loc(#loc11)
    %_tmp6_10 = scf.for %r0_offset = %0 to %1 step %2 iter_args(%_tmp6_14 = %_tmp6_9) -> (tensor<1x4096xf32>)  : i32 {
      %r0_index = tt.splat %r0_offset : i32 -> tensor<1x4096xi32> loc(#loc93)
      %r0_index_15 = arith.addi %r0_index, %r0_base_8 : tensor<1x4096xi32> loc(#loc93)
      %r0_mask = arith.constant dense<4096> : tensor<1x4096xi32> loc(#loc94)
      %r0_mask_16 = arith.cmpi slt, %r0_index_15, %r0_mask : tensor<1x4096xi32> loc(#loc94)
      %tmp0 = arith.constant 4096 : i32 loc(#loc95)
      %tmp0_17 = arith.constant 4096 : i32 loc(#loc95)
      %tmp0_18 = arith.constant dense<4096> : tensor<1x1xi32> loc(#loc95)
      %tmp0_19 = arith.muli %tmp0_18, %xindex_6 : tensor<1x1xi32> loc(#loc95)
      %tmp0_20 = tt.broadcast %tmp0_19 : tensor<1x1xi32> -> tensor<1x4096xi32> loc(#loc96)
      %tmp0_21 = arith.addi %r0_index_15, %tmp0_20 : tensor<1x4096xi32> loc(#loc96)
      %tmp0_22 = tt.splat %in_ptr0 : !tt.ptr<bf16> -> tensor<1x4096x!tt.ptr<bf16>> loc(#loc97)
      %tmp0_23 = tt.addptr %tmp0_22, %tmp0_21 : tensor<1x4096x!tt.ptr<bf16>>, tensor<1x4096xi32> loc(#loc97)
      %tmp0_24 = tt.broadcast %xmask_7 : tensor<1x1xi1> -> tensor<1x4096xi1> loc(#loc98)
      %tmp0_25 = arith.andi %r0_mask_16, %tmp0_24 : tensor<1x4096xi1> loc(#loc98)
      %tmp0_26 = arith.constant 0.000000e+00 : f32 loc(#loc99)
      %tmp0_27 = arith.constant dense<0.000000e+00> : tensor<1x4096xf32> loc(#loc99)
      %tmp0_28 = arith.truncf %tmp0_27 : tensor<1x4096xf32> to tensor<1x4096xbf16> loc(#loc99)
      %tmp0_29 = tt.load %tmp0_23, %tmp0_25, %tmp0_28 evictionPolicy = evict_first : tensor<1x4096x!tt.ptr<bf16>> loc(#loc99)
      %tmp0_30 = arith.extf %tmp0_29 : tensor<1x4096xbf16> to tensor<1x4096xf32> loc(#loc100)
      %tmp1 = arith.constant 4096 : i32 loc(#loc101)
      %tmp1_31 = arith.constant 4096 : i32 loc(#loc101)
      %tmp1_32 = arith.constant dense<4096> : tensor<1x1xi32> loc(#loc101)
      %tmp1_33 = arith.muli %tmp1_32, %xindex_6 : tensor<1x1xi32> loc(#loc101)
      %tmp1_34 = tt.broadcast %tmp1_33 : tensor<1x1xi32> -> tensor<1x4096xi32> loc(#loc102)
      %tmp1_35 = arith.addi %r0_index_15, %tmp1_34 : tensor<1x4096xi32> loc(#loc102)
      %tmp1_36 = tt.splat %in_ptr1 : !tt.ptr<bf16> -> tensor<1x4096x!tt.ptr<bf16>> loc(#loc103)
      %tmp1_37 = tt.addptr %tmp1_36, %tmp1_35 : tensor<1x4096x!tt.ptr<bf16>>, tensor<1x4096xi32> loc(#loc103)
      %tmp1_38 = tt.broadcast %xmask_7 : tensor<1x1xi1> -> tensor<1x4096xi1> loc(#loc104)
      %tmp1_39 = arith.andi %r0_mask_16, %tmp1_38 : tensor<1x4096xi1> loc(#loc104)
      %tmp1_40 = arith.constant 0.000000e+00 : f32 loc(#loc105)
      %tmp1_41 = arith.constant dense<0.000000e+00> : tensor<1x4096xf32> loc(#loc105)
      %tmp1_42 = arith.truncf %tmp1_41 : tensor<1x4096xf32> to tensor<1x4096xbf16> loc(#loc105)
      %tmp1_43 = tt.load %tmp1_37, %tmp1_39, %tmp1_42 evictionPolicy = evict_first : tensor<1x4096x!tt.ptr<bf16>> loc(#loc105)
      %tmp1_44 = arith.extf %tmp1_43 : tensor<1x4096xbf16> to tensor<1x4096xf32> loc(#loc106)
      %tmp2 = arith.addf %tmp0_30, %tmp1_44 : tensor<1x4096xf32> loc(#loc107)
      %tmp4 = arith.mulf %tmp2, %tmp2 : tensor<1x4096xf32> loc(#loc108)
      %tmp7 = arith.addf %_tmp6_14, %tmp4 : tensor<1x4096xf32> loc(#loc109)
      %_tmp6_45 = tt.broadcast %xmask_7 : tensor<1x1xi1> -> tensor<1x4096xi1> loc(#loc110)
      %_tmp6_46 = arith.andi %r0_mask_16, %_tmp6_45 : tensor<1x4096xi1> loc(#loc110)
      %_tmp6_47 = arith.select %_tmp6_46, %tmp7, %_tmp6_14 : tensor<1x4096xi1>, tensor<1x4096xf32> loc(#loc111)
      %c4096_i32_48 = arith.constant 4096 : i32 loc(#loc31)
      %c4096_i32_49 = arith.constant 4096 : i32 loc(#loc31)
      %cst = arith.constant dense<4096> : tensor<1x1xi32> loc(#loc31)
      %8 = arith.muli %cst, %xindex_6 : tensor<1x1xi32> loc(#loc31)
      %9 = tt.broadcast %8 : tensor<1x1xi32> -> tensor<1x4096xi32> loc(#loc32)
      %10 = arith.addi %r0_index_15, %9 : tensor<1x4096xi32> loc(#loc32)
      %11 = tt.splat %out_ptr0 : !tt.ptr<bf16> -> tensor<1x4096x!tt.ptr<bf16>> loc(#loc33)
      %12 = tt.addptr %11, %10 : tensor<1x4096x!tt.ptr<bf16>>, tensor<1x4096xi32> loc(#loc33)
      %13 = tt.broadcast %xmask_7 : tensor<1x1xi1> -> tensor<1x4096xi1> loc(#loc34)
      %14 = arith.andi %r0_mask_16, %13 : tensor<1x4096xi1> loc(#loc34)
      %15 = arith.truncf %tmp2 : tensor<1x4096xf32> to tensor<1x4096xbf16> loc(#loc35)
      tt.store %12, %15, %14 : tensor<1x4096x!tt.ptr<bf16>> loc(#loc35)
      scf.yield %_tmp6_47 : tensor<1x4096xf32> loc(#loc36)
    } loc(#loc92)
    %tmp6 = tt.call @"triton.language.standard.sum__fp32S1_4096S__(1,)cconstexpr_1__(2,)cconstexpr_False__(3,)cNone"(%_tmp6_10) : (tensor<1x4096xf32>) -> tensor<1xf32> loc(#loc112)
    %tmp6_11 = tt.expand_dims %tmp6 {axis = 1 : i32} : tensor<1xf32> -> tensor<1x1xf32> loc(#loc113)
    %c0_i32_12 = arith.constant 0 : i32 loc(#loc39)
    %c4096_i32_13 = arith.constant 4096 : i32 loc(#loc39)
    %4 = arith.bitcast %c0_i32_12 : i32 to i32 loc(#loc39)
    %5 = arith.bitcast %r0_numel_0 : i32 to i32 loc(#loc39)
    %6 = arith.bitcast %c4096_i32_13 : i32 to i32 loc(#loc39)
    %7 = ub.poison : i32 loc(#loc39)
    scf.for %r0_offset = %4 to %5 step %6  : i32 {
      %r0_index = tt.splat %r0_offset : i32 -> tensor<1x4096xi32> loc(#loc114)
      %r0_index_14 = arith.addi %r0_index, %r0_base_8 : tensor<1x4096xi32> loc(#loc114)
      %r0_mask = arith.constant dense<4096> : tensor<1x4096xi32> loc(#loc115)
      %r0_mask_15 = arith.cmpi slt, %r0_index_14, %r0_mask : tensor<1x4096xi32> loc(#loc115)
      %tmp8 = arith.constant 4096 : i32 loc(#loc116)
      %tmp8_16 = arith.constant 4096 : i32 loc(#loc116)
      %tmp8_17 = arith.constant dense<4096> : tensor<1x1xi32> loc(#loc116)
      %tmp8_18 = arith.muli %tmp8_17, %xindex_6 : tensor<1x1xi32> loc(#loc116)
      %tmp8_19 = tt.broadcast %tmp8_18 : tensor<1x1xi32> -> tensor<1x4096xi32> loc(#loc117)
      %tmp8_20 = arith.addi %r0_index_14, %tmp8_19 : tensor<1x4096xi32> loc(#loc117)
      %tmp8_21 = tt.splat %out_ptr0 : !tt.ptr<bf16> -> tensor<1x4096x!tt.ptr<bf16>> loc(#loc118)
      %tmp8_22 = tt.addptr %tmp8_21, %tmp8_20 : tensor<1x4096x!tt.ptr<bf16>>, tensor<1x4096xi32> loc(#loc118)
      %tmp8_23 = tt.broadcast %xmask_7 : tensor<1x1xi1> -> tensor<1x4096xi1> loc(#loc119)
      %tmp8_24 = arith.andi %r0_mask_15, %tmp8_23 : tensor<1x4096xi1> loc(#loc119)
      %tmp8_25 = arith.constant 0.000000e+00 : f32 loc(#loc120)
      %tmp8_26 = arith.constant dense<0.000000e+00> : tensor<1x4096xf32> loc(#loc120)
      %tmp8_27 = arith.truncf %tmp8_26 : tensor<1x4096xf32> to tensor<1x4096xbf16> loc(#loc120)
      %tmp8_28 = tt.load %tmp8_22, %tmp8_24, %tmp8_27 evictionPolicy = evict_first : tensor<1x4096x!tt.ptr<bf16>> loc(#loc120)
      %tmp8_29 = arith.extf %tmp8_28 : tensor<1x4096xbf16> to tensor<1x4096xf32> loc(#loc121)
      %tmp16 = tt.splat %in_ptr2 : !tt.ptr<bf16> -> tensor<1x4096x!tt.ptr<bf16>> loc(#loc122)
      %tmp16_30 = tt.addptr %tmp16, %r0_index_14 : tensor<1x4096x!tt.ptr<bf16>>, tensor<1x4096xi32> loc(#loc122)
      %tmp16_31 = arith.constant 0.000000e+00 : f32 loc(#loc123)
      %tmp16_32 = arith.constant dense<0.000000e+00> : tensor<1x4096xf32> loc(#loc123)
      %tmp16_33 = arith.truncf %tmp16_32 : tensor<1x4096xf32> to tensor<1x4096xbf16> loc(#loc123)
      %tmp16_34 = tt.load %tmp16_30, %r0_mask_15, %tmp16_33 evictionPolicy = evict_last : tensor<1x4096x!tt.ptr<bf16>> loc(#loc123)
      %tmp16_35 = arith.extf %tmp16_34 : tensor<1x4096xbf16> to tensor<1x4096xf32> loc(#loc124)
      %tmp10 = arith.constant 4.096000e+03 : f32 loc(#loc125)
      %tmp11 = arith.constant dense<4.096000e+03> : tensor<1x1xf32> loc(#loc126)
      %tmp11_36 = arith.divf %tmp6_11, %tmp11 : tensor<1x1xf32> loc(#loc126)
      %tmp12 = arith.constant 9.99999997E-7 : f32 loc(#loc127)
      %tmp13 = arith.constant dense<9.99999997E-7> : tensor<1x1xf32> loc(#loc128)
      %tmp13_37 = arith.addf %tmp11_36, %tmp13 : tensor<1x1xf32> loc(#loc128)
      %tmp14 = tt.extern_elementwise %tmp13_37 {libname = "", libpath = "", pure = true, symbol = "__nv_rsqrtf"} : (tensor<1x1xf32>) -> tensor<1x1xf32> loc(#loc129)
      %tmp15 = tt.broadcast %tmp14 : tensor<1x1xf32> -> tensor<1x4096xf32> loc(#loc130)
      %tmp15_38 = arith.mulf %tmp8_29, %tmp15 : tensor<1x4096xf32> loc(#loc130)
      %tmp18 = arith.constant 1.000000e+00 : f32 loc(#loc131)
      %tmp19 = arith.constant dense<1.000000e+00> : tensor<1x4096xf32> loc(#loc132)
      %tmp19_39 = arith.addf %tmp16_35, %tmp19 : tensor<1x4096xf32> loc(#loc132)
      %tmp20 = arith.mulf %tmp15_38, %tmp19_39 : tensor<1x4096xf32> loc(#loc133)
      %c4096_i32_40 = arith.constant 4096 : i32 loc(#loc60)
      %c4096_i32_41 = arith.constant 4096 : i32 loc(#loc60)
      %cst = arith.constant dense<4096> : tensor<1x1xi32> loc(#loc60)
      %8 = arith.muli %cst, %xindex_6 : tensor<1x1xi32> loc(#loc60)
      %9 = tt.broadcast %8 : tensor<1x1xi32> -> tensor<1x4096xi32> loc(#loc61)
      %10 = arith.addi %r0_index_14, %9 : tensor<1x4096xi32> loc(#loc61)
      %11 = tt.splat %out_ptr2 : !tt.ptr<bf16> -> tensor<1x4096x!tt.ptr<bf16>> loc(#loc62)
      %12 = tt.addptr %11, %10 : tensor<1x4096x!tt.ptr<bf16>>, tensor<1x4096xi32> loc(#loc62)
      %13 = tt.broadcast %xmask_7 : tensor<1x1xi1> -> tensor<1x4096xi1> loc(#loc63)
      %14 = arith.andi %r0_mask_15, %13 : tensor<1x4096xi1> loc(#loc63)
      %15 = arith.truncf %tmp20 : tensor<1x4096xf32> to tensor<1x4096xbf16> loc(#loc64)
      tt.store %12, %15, %14 : tensor<1x4096x!tt.ptr<bf16>> loc(#loc64)
    } loc(#loc39)
    tt.return loc(#loc65)
  } loc(#loc)
  tt.func private @"triton.language.standard.sum__fp32S1_4096S__(1,)cconstexpr_1__(2,)cconstexpr_False__(3,)cNone"(%input: tensor<1x4096xf32> loc("input"(#loc66))) -> tensor<1xf32> attributes {noinline = false} {
    %0 = "tt.reduce"(%input) <{axis = 1 : i32}> ({
    ^bb0(%arg1: f32 loc(unknown), %arg2: f32 loc(unknown)):
      %2 = tt.call @triton.language.standard._sum_combine__fp32_fp32__(%arg1, %arg2) : (f32, f32) -> f32 loc(#loc67)
      tt.reduce.return %2 : f32 loc(#loc67)
    }) : (tensor<1x4096xf32>) -> tensor<1xf32> loc(#loc67)
    tt.return %0 : tensor<1xf32> loc(#loc69)
  ^bb1:  // no predecessors
    %1 = ub.poison : tensor<1xf32> loc(#loc70)
    tt.return %1 : tensor<1xf32> loc(#loc70)
  } loc(#loc66)
  tt.func private @triton.language.standard._sum_combine__fp32_fp32__(%a: f32 loc("a"(#loc71)), %b: f32 loc("b"(#loc71))) -> f32 attributes {noinline = false} {
    %0 = arith.addf %a, %b : f32 loc(#loc72)
    tt.return %0 : f32 loc(#loc73)
  ^bb1:  // no predecessors
    %1 = ub.poison : f32 loc(#loc74)
    tt.return %1 : f32 loc(#loc74)
  } loc(#loc71)
} loc(#loc)
#loc1 = loc("/data/jcy/zzs/zijinhua/.vllm_cache_simplevqa/torch_compile/lu/clu62ce6agx54gqsbnbt35dpgixbqcudonrmforw2mqz26zrrho2.py":19:15)
#loc2 = loc("/data/jcy/zzs/zijinhua/.vllm_cache_simplevqa/torch_compile/lu/clu62ce6agx54gqsbnbt35dpgixbqcudonrmforw2mqz26zrrho2.py":22:28)
#loc3 = loc("/data/jcy/zzs/zijinhua/.vllm_cache_simplevqa/torch_compile/lu/clu62ce6agx54gqsbnbt35dpgixbqcudonrmforw2mqz26zrrho2.py":22:33)
#loc4 = loc("/data/jcy/zzs/zijinhua/.vllm_cache_simplevqa/torch_compile/lu/clu62ce6agx54gqsbnbt35dpgixbqcudonrmforw2mqz26zrrho2.py":23:36)
#loc5 = loc("/data/jcy/zzs/zijinhua/.vllm_cache_simplevqa/torch_compile/lu/clu62ce6agx54gqsbnbt35dpgixbqcudonrmforw2mqz26zrrho2.py":23:44)
#loc6 = loc("/data/jcy/zzs/zijinhua/.vllm_cache_simplevqa/torch_compile/lu/clu62ce6agx54gqsbnbt35dpgixbqcudonrmforw2mqz26zrrho2.py":23:23)
#loc7 = loc("/data/jcy/zzs/zijinhua/.vllm_cache_simplevqa/torch_compile/lu/clu62ce6agx54gqsbnbt35dpgixbqcudonrmforw2mqz26zrrho2.py":24:21)
#loc8 = loc("/data/jcy/zzs/zijinhua/.vllm_cache_simplevqa/torch_compile/lu/clu62ce6agx54gqsbnbt35dpgixbqcudonrmforw2mqz26zrrho2.py":25:27)
#loc9 = loc("/data/jcy/zzs/zijinhua/.vllm_cache_simplevqa/torch_compile/lu/clu62ce6agx54gqsbnbt35dpgixbqcudonrmforw2mqz26zrrho2.py":25:37)
#loc10 = loc("/data/jcy/zzs/zijinhua/.vllm_cache_simplevqa/torch_compile/lu/clu62ce6agx54gqsbnbt35dpgixbqcudonrmforw2mqz26zrrho2.py":28:43)
#loc11 = loc("/data/jcy/zzs/zijinhua/.vllm_cache_simplevqa/torch_compile/lu/clu62ce6agx54gqsbnbt35dpgixbqcudonrmforw2mqz26zrrho2.py":29:40)
#loc12 = loc("/data/jcy/zzs/zijinhua/.vllm_cache_simplevqa/torch_compile/lu/clu62ce6agx54gqsbnbt35dpgixbqcudonrmforw2mqz26zrrho2.py":30:31)
#loc13 = loc("/data/jcy/zzs/zijinhua/.vllm_cache_simplevqa/torch_compile/lu/clu62ce6agx54gqsbnbt35dpgixbqcudonrmforw2mqz26zrrho2.py":31:29)
#loc14 = loc("/data/jcy/zzs/zijinhua/.vllm_cache_simplevqa/torch_compile/lu/clu62ce6agx54gqsbnbt35dpgixbqcudonrmforw2mqz26zrrho2.py":35:46)
#loc15 = loc("/data/jcy/zzs/zijinhua/.vllm_cache_simplevqa/torch_compile/lu/clu62ce6agx54gqsbnbt35dpgixbqcudonrmforw2mqz26zrrho2.py":35:41)
#loc16 = loc("/data/jcy/zzs/zijinhua/.vllm_cache_simplevqa/torch_compile/lu/clu62ce6agx54gqsbnbt35dpgixbqcudonrmforw2mqz26zrrho2.py":35:34)
#loc17 = loc("/data/jcy/zzs/zijinhua/.vllm_cache_simplevqa/torch_compile/lu/clu62ce6agx54gqsbnbt35dpgixbqcudonrmforw2mqz26zrrho2.py":35:61)
#loc18 = loc("/data/jcy/zzs/zijinhua/.vllm_cache_simplevqa/torch_compile/lu/clu62ce6agx54gqsbnbt35dpgixbqcudonrmforw2mqz26zrrho2.py":35:51)
#loc19 = loc("/data/jcy/zzs/zijinhua/.vllm_cache_simplevqa/torch_compile/lu/clu62ce6agx54gqsbnbt35dpgixbqcudonrmforw2mqz26zrrho2.py":35:113)
#loc20 = loc("/data/jcy/zzs/zijinhua/.vllm_cache_simplevqa/torch_compile/lu/clu62ce6agx54gqsbnbt35dpgixbqcudonrmforw2mqz26zrrho2.py":36:46)
#loc21 = loc("/data/jcy/zzs/zijinhua/.vllm_cache_simplevqa/torch_compile/lu/clu62ce6agx54gqsbnbt35dpgixbqcudonrmforw2mqz26zrrho2.py":36:41)
#loc22 = loc("/data/jcy/zzs/zijinhua/.vllm_cache_simplevqa/torch_compile/lu/clu62ce6agx54gqsbnbt35dpgixbqcudonrmforw2mqz26zrrho2.py":36:34)
#loc23 = loc("/data/jcy/zzs/zijinhua/.vllm_cache_simplevqa/torch_compile/lu/clu62ce6agx54gqsbnbt35dpgixbqcudonrmforw2mqz26zrrho2.py":36:61)
#loc24 = loc("/data/jcy/zzs/zijinhua/.vllm_cache_simplevqa/torch_compile/lu/clu62ce6agx54gqsbnbt35dpgixbqcudonrmforw2mqz26zrrho2.py":36:51)
#loc25 = loc("/data/jcy/zzs/zijinhua/.vllm_cache_simplevqa/torch_compile/lu/clu62ce6agx54gqsbnbt35dpgixbqcudonrmforw2mqz26zrrho2.py":36:113)
#loc26 = loc("/data/jcy/zzs/zijinhua/.vllm_cache_simplevqa/torch_compile/lu/clu62ce6agx54gqsbnbt35dpgixbqcudonrmforw2mqz26zrrho2.py":37:22)
#loc27 = loc("/data/jcy/zzs/zijinhua/.vllm_cache_simplevqa/torch_compile/lu/clu62ce6agx54gqsbnbt35dpgixbqcudonrmforw2mqz26zrrho2.py":39:22)
#loc28 = loc("/data/jcy/zzs/zijinhua/.vllm_cache_simplevqa/torch_compile/lu/clu62ce6agx54gqsbnbt35dpgixbqcudonrmforw2mqz26zrrho2.py":41:23)
#loc29 = loc("/data/jcy/zzs/zijinhua/.vllm_cache_simplevqa/torch_compile/lu/clu62ce6agx54gqsbnbt35dpgixbqcudonrmforw2mqz26zrrho2.py":42:35)
#loc30 = loc("/data/jcy/zzs/zijinhua/.vllm_cache_simplevqa/torch_compile/lu/clu62ce6agx54gqsbnbt35dpgixbqcudonrmforw2mqz26zrrho2.py":42:48)
#loc31 = loc("/data/jcy/zzs/zijinhua/.vllm_cache_simplevqa/torch_compile/lu/clu62ce6agx54gqsbnbt35dpgixbqcudonrmforw2mqz26zrrho2.py":43:41)
#loc32 = loc("/data/jcy/zzs/zijinhua/.vllm_cache_simplevqa/torch_compile/lu/clu62ce6agx54gqsbnbt35dpgixbqcudonrmforw2mqz26zrrho2.py":43:36)
#loc33 = loc("/data/jcy/zzs/zijinhua/.vllm_cache_simplevqa/torch_compile/lu/clu62ce6agx54gqsbnbt35dpgixbqcudonrmforw2mqz26zrrho2.py":43:29)
#loc34 = loc("/data/jcy/zzs/zijinhua/.vllm_cache_simplevqa/torch_compile/lu/clu62ce6agx54gqsbnbt35dpgixbqcudonrmforw2mqz26zrrho2.py":43:62)
#loc35 = loc("/data/jcy/zzs/zijinhua/.vllm_cache_simplevqa/torch_compile/lu/clu62ce6agx54gqsbnbt35dpgixbqcudonrmforw2mqz26zrrho2.py":43:52)
#loc36 = loc("/data/jcy/zzs/zijinhua/.vllm_cache_simplevqa/torch_compile/lu/clu62ce6agx54gqsbnbt35dpgixbqcudonrmforw2mqz26zrrho2.py":43:8)
#loc37 = loc("/data/jcy/zzs/zijinhua/.vllm_cache_simplevqa/torch_compile/lu/clu62ce6agx54gqsbnbt35dpgixbqcudonrmforw2mqz26zrrho2.py":44:25)
#loc38 = loc("/data/jcy/zzs/zijinhua/.vllm_cache_simplevqa/torch_compile/lu/clu62ce6agx54gqsbnbt35dpgixbqcudonrmforw2mqz26zrrho2.py":44:28)
#loc39 = loc("/data/jcy/zzs/zijinhua/.vllm_cache_simplevqa/torch_compile/lu/clu62ce6agx54gqsbnbt35dpgixbqcudonrmforw2mqz26zrrho2.py":45:40)
#loc40 = loc("/data/jcy/zzs/zijinhua/.vllm_cache_simplevqa/torch_compile/lu/clu62ce6agx54gqsbnbt35dpgixbqcudonrmforw2mqz26zrrho2.py":46:31)
#loc41 = loc("/data/jcy/zzs/zijinhua/.vllm_cache_simplevqa/torch_compile/lu/clu62ce6agx54gqsbnbt35dpgixbqcudonrmforw2mqz26zrrho2.py":47:29)
#loc42 = loc("/data/jcy/zzs/zijinhua/.vllm_cache_simplevqa/torch_compile/lu/clu62ce6agx54gqsbnbt35dpgixbqcudonrmforw2mqz26zrrho2.py":51:47)
#loc43 = loc("/data/jcy/zzs/zijinhua/.vllm_cache_simplevqa/torch_compile/lu/clu62ce6agx54gqsbnbt35dpgixbqcudonrmforw2mqz26zrrho2.py":51:42)
#loc44 = loc("/data/jcy/zzs/zijinhua/.vllm_cache_simplevqa/torch_compile/lu/clu62ce6agx54gqsbnbt35dpgixbqcudonrmforw2mqz26zrrho2.py":51:35)
#loc45 = loc("/data/jcy/zzs/zijinhua/.vllm_cache_simplevqa/torch_compile/lu/clu62ce6agx54gqsbnbt35dpgixbqcudonrmforw2mqz26zrrho2.py":51:62)
#loc46 = loc("/data/jcy/zzs/zijinhua/.vllm_cache_simplevqa/torch_compile/lu/clu62ce6agx54gqsbnbt35dpgixbqcudonrmforw2mqz26zrrho2.py":51:52)
#loc47 = loc("/data/jcy/zzs/zijinhua/.vllm_cache_simplevqa/torch_compile/lu/clu62ce6agx54gqsbnbt35dpgixbqcudonrmforw2mqz26zrrho2.py":51:114)
#loc48 = loc("/data/jcy/zzs/zijinhua/.vllm_cache_simplevqa/torch_compile/lu/clu62ce6agx54gqsbnbt35dpgixbqcudonrmforw2mqz26zrrho2.py":52:35)
#loc49 = loc("/data/jcy/zzs/zijinhua/.vllm_cache_simplevqa/torch_compile/lu/clu62ce6agx54gqsbnbt35dpgixbqcudonrmforw2mqz26zrrho2.py":52:42)
#loc50 = loc("/data/jcy/zzs/zijinhua/.vllm_cache_simplevqa/torch_compile/lu/clu62ce6agx54gqsbnbt35dpgixbqcudonrmforw2mqz26zrrho2.py":52:95)
#loc51 = loc("/data/jcy/zzs/zijinhua/.vllm_cache_simplevqa/torch_compile/lu/clu62ce6agx54gqsbnbt35dpgixbqcudonrmforw2mqz26zrrho2.py":54:16)
#loc52 = loc("/data/jcy/zzs/zijinhua/.vllm_cache_simplevqa/torch_compile/lu/clu62ce6agx54gqsbnbt35dpgixbqcudonrmforw2mqz26zrrho2.py":55:24)
#loc53 = loc("/data/jcy/zzs/zijinhua/.vllm_cache_simplevqa/torch_compile/lu/clu62ce6agx54gqsbnbt35dpgixbqcudonrmforw2mqz26zrrho2.py":56:16)
#loc54 = loc("/data/jcy/zzs/zijinhua/.vllm_cache_simplevqa/torch_compile/lu/clu62ce6agx54gqsbnbt35dpgixbqcudonrmforw2mqz26zrrho2.py":57:24)
#loc55 = loc("/data/jcy/zzs/zijinhua/.vllm_cache_simplevqa/torch_compile/lu/clu62ce6agx54gqsbnbt35dpgixbqcudonrmforw2mqz26zrrho2.py":58:32)
#loc56 = loc("/data/jcy/zzs/zijinhua/.vllm_cache_simplevqa/torch_compile/lu/clu62ce6agx54gqsbnbt35dpgixbqcudonrmforw2mqz26zrrho2.py":59:23)
#loc57 = loc("/data/jcy/zzs/zijinhua/.vllm_cache_simplevqa/torch_compile/lu/clu62ce6agx54gqsbnbt35dpgixbqcudonrmforw2mqz26zrrho2.py":61:16)
#loc58 = loc("/data/jcy/zzs/zijinhua/.vllm_cache_simplevqa/torch_compile/lu/clu62ce6agx54gqsbnbt35dpgixbqcudonrmforw2mqz26zrrho2.py":62:24)
#loc59 = loc("/data/jcy/zzs/zijinhua/.vllm_cache_simplevqa/torch_compile/lu/clu62ce6agx54gqsbnbt35dpgixbqcudonrmforw2mqz26zrrho2.py":63:24)
#loc60 = loc("/data/jcy/zzs/zijinhua/.vllm_cache_simplevqa/torch_compile/lu/clu62ce6agx54gqsbnbt35dpgixbqcudonrmforw2mqz26zrrho2.py":65:41)
#loc61 = loc("/data/jcy/zzs/zijinhua/.vllm_cache_simplevqa/torch_compile/lu/clu62ce6agx54gqsbnbt35dpgixbqcudonrmforw2mqz26zrrho2.py":65:36)
#loc62 = loc("/data/jcy/zzs/zijinhua/.vllm_cache_simplevqa/torch_compile/lu/clu62ce6agx54gqsbnbt35dpgixbqcudonrmforw2mqz26zrrho2.py":65:29)
#loc63 = loc("/data/jcy/zzs/zijinhua/.vllm_cache_simplevqa/torch_compile/lu/clu62ce6agx54gqsbnbt35dpgixbqcudonrmforw2mqz26zrrho2.py":65:63)
#loc64 = loc("/data/jcy/zzs/zijinhua/.vllm_cache_simplevqa/torch_compile/lu/clu62ce6agx54gqsbnbt35dpgixbqcudonrmforw2mqz26zrrho2.py":65:53)
#loc65 = loc("/data/jcy/zzs/zijinhua/.vllm_cache_simplevqa/torch_compile/lu/clu62ce6agx54gqsbnbt35dpgixbqcudonrmforw2mqz26zrrho2.py":45:4)
#loc67 = loc("/data/conda/envs/or_llm/lib/python3.12/site-packages/triton/language/standard.py":293:36)
#loc69 = loc("/data/conda/envs/or_llm/lib/python3.12/site-packages/triton/language/standard.py":293:11)
#loc70 = loc("/data/conda/envs/or_llm/lib/python3.12/site-packages/triton/language/standard.py":293:4)
#loc72 = loc("/data/conda/envs/or_llm/lib/python3.12/site-packages/triton/language/standard.py":263:15)
#loc73 = loc("/data/conda/envs/or_llm/lib/python3.12/site-packages/triton/language/standard.py":263:11)
#loc74 = loc("/data/conda/envs/or_llm/lib/python3.12/site-packages/triton/language/standard.py":263:4)
#loc82 = loc("r0_numel"(#loc1))
#loc83 = loc("xoffset"(#loc2))
#loc84 = loc("xoffset"(#loc3))
#loc85 = loc("xindex"(#loc4))
#loc86 = loc("xindex"(#loc5))
#loc87 = loc("xindex"(#loc6))
#loc88 = loc("xmask"(#loc7))
#loc89 = loc("r0_base"(#loc8))
#loc90 = loc("r0_base"(#loc9))
#loc91 = loc("_tmp6"(#loc10))
#loc92 = loc("_tmp6"(#loc11))
#loc93 = loc("r0_index"(#loc12))
#loc94 = loc("r0_mask"(#loc13))
#loc95 = loc("tmp0"(#loc14))
#loc96 = loc("tmp0"(#loc15))
#loc97 = loc("tmp0"(#loc16))
#loc98 = loc("tmp0"(#loc17))
#loc99 = loc("tmp0"(#loc18))
#loc100 = loc("tmp0"(#loc19))
#loc101 = loc("tmp1"(#loc20))
#loc102 = loc("tmp1"(#loc21))
#loc103 = loc("tmp1"(#loc22))
#loc104 = loc("tmp1"(#loc23))
#loc105 = loc("tmp1"(#loc24))
#loc106 = loc("tmp1"(#loc25))
#loc107 = loc("tmp2"(#loc26))
#loc108 = loc("tmp4"(#loc27))
#loc109 = loc("tmp7"(#loc28))
#loc110 = loc("_tmp6"(#loc29))
#loc111 = loc("_tmp6"(#loc30))
#loc112 = loc("tmp6"(#loc37))
#loc113 = loc("tmp6"(#loc38))
#loc114 = loc("r0_index"(#loc40))
#loc115 = loc("r0_mask"(#loc41))
#loc116 = loc("tmp8"(#loc42))
#loc117 = loc("tmp8"(#loc43))
#loc118 = loc("tmp8"(#loc44))
#loc119 = loc("tmp8"(#loc45))
#loc120 = loc("tmp8"(#loc46))
#loc121 = loc("tmp8"(#loc47))
#loc122 = loc("tmp16"(#loc48))
#loc123 = loc("tmp16"(#loc49))
#loc124 = loc("tmp16"(#loc50))
#loc125 = loc("tmp10"(#loc51))
#loc126 = loc("tmp11"(#loc52))
#loc127 = loc("tmp12"(#loc53))
#loc128 = loc("tmp13"(#loc54))
#loc129 = loc("tmp14"(#loc55))
#loc130 = loc("tmp15"(#loc56))
#loc131 = loc("tmp18"(#loc57))
#loc132 = loc("tmp19"(#loc58))
#loc133 = loc("tmp20"(#loc59))
