#loc = loc("/data/jcy/zzs/zijinhua/.vllm_cache_simplevqa/torch_compile/lu/clu62ce6agx54gqsbnbt35dpgixbqcudonrmforw2mqz26zrrho2.py":18:0)
#loc1 = loc(unknown)
#loc23 = loc("/data/jcy/zzs/zijinhua/.vllm_cache_simplevqa/torch_compile/lu/clu62ce6agx54gqsbnbt35dpgixbqcudonrmforw2mqz26zrrho2.py":44:25)
#loc40 = loc("in_ptr0"(#loc))
#loc41 = loc("in_ptr1"(#loc))
#loc42 = loc("in_ptr2"(#loc))
#loc43 = loc("out_ptr0"(#loc))
#loc44 = loc("out_ptr2"(#loc))
#loc45 = loc("xnumel"(#loc))
#loc46 = loc("r0_numel"(#loc))
#loc65 = loc("tmp6"(#loc23))
#loc81 = loc(callsite(#loc1 at #loc65))
module {
  tt.func public @triton_red_fused__to_copy_add_mean_mul_pow_rsqrt_0(%in_ptr0: !tt.ptr<bf16> {tt.divisibility = 16 : i32} loc("in_ptr0"(#loc)), %in_ptr1: !tt.ptr<bf16> {tt.divisibility = 16 : i32} loc("in_ptr1"(#loc)), %in_ptr2: !tt.ptr<bf16> {tt.divisibility = 16 : i32} loc("in_ptr2"(#loc)), %out_ptr0: !tt.ptr<bf16> {tt.divisibility = 16 : i32} loc("out_ptr0"(#loc)), %out_ptr2: !tt.ptr<bf16> {tt.divisibility = 16 : i32} loc("out_ptr2"(#loc)), %xnumel: i32 loc("xnumel"(#loc)), %r0_numel: i32 {tt.divisibility = 16 : i32} loc("r0_numel"(#loc))) attributes {noinline = false} {
    %c4096_i32 = arith.constant 4096 : i32 loc(#loc1)
    %cst = arith.constant dense<0.000000e+00> : tensor<1x4096xbf16> loc(#loc1)
    %cst_0 = arith.constant dense<1.000000e+00> : tensor<1x4096xf32> loc(#loc1)
    %cst_1 = arith.constant dense<9.99999997E-7> : tensor<1x1xf32> loc(#loc1)
    %cst_2 = arith.constant dense<4.096000e+03> : tensor<1x1xf32> loc(#loc1)
    %cst_3 = arith.constant dense<4096> : tensor<1x4096xi32> loc(#loc1)
    %cst_4 = arith.constant dense<0.000000e+00> : tensor<1x4096xf32> loc(#loc1)
    %xoffset = tt.get_program_id x : i32 loc(#loc47)
    %xmask = arith.cmpi slt, %xoffset, %xnumel : i32 loc(#loc48)
    %r0_base = tt.make_range {end = 4096 : i32, start = 0 : i32} : tensor<4096xi32> loc(#loc49)
    %r0_base_5 = tt.expand_dims %r0_base {axis = 0 : i32} : tensor<4096xi32> -> tensor<1x4096xi32> loc(#loc50)
    %r0_mask = arith.cmpi slt, %r0_base_5, %cst_3 : tensor<1x4096xi32> loc(#loc51)
    %tmp0 = arith.muli %xoffset, %c4096_i32 : i32 loc(#loc52)
    %tmp0_6 = tt.splat %tmp0 : i32 -> tensor<1x4096xi32> loc(#loc78)
    %tmp0_7 = arith.addi %r0_base_5, %tmp0_6 : tensor<1x4096xi32> loc(#loc53)
    %tmp0_8 = tt.splat %in_ptr0 : !tt.ptr<bf16> -> tensor<1x4096x!tt.ptr<bf16>> loc(#loc54)
    %tmp0_9 = tt.addptr %tmp0_8, %tmp0_7 : tensor<1x4096x!tt.ptr<bf16>>, tensor<1x4096xi32> loc(#loc54)
    %tmp0_10 = tt.splat %xmask : i1 -> tensor<1x4096xi1> loc(#loc79)
    %tmp0_11 = arith.andi %r0_mask, %tmp0_10 : tensor<1x4096xi1> loc(#loc55)
    %tmp0_12 = tt.load %tmp0_9, %tmp0_11, %cst evictionPolicy = evict_first : tensor<1x4096x!tt.ptr<bf16>> loc(#loc56)
    %tmp0_13 = arith.extf %tmp0_12 : tensor<1x4096xbf16> to tensor<1x4096xf32> loc(#loc57)
    %tmp1 = tt.splat %in_ptr1 : !tt.ptr<bf16> -> tensor<1x4096x!tt.ptr<bf16>> loc(#loc58)
    %tmp1_14 = tt.addptr %tmp1, %tmp0_7 : tensor<1x4096x!tt.ptr<bf16>>, tensor<1x4096xi32> loc(#loc58)
    %tmp1_15 = tt.load %tmp1_14, %tmp0_11, %cst evictionPolicy = evict_first : tensor<1x4096x!tt.ptr<bf16>> loc(#loc59)
    %tmp1_16 = arith.extf %tmp1_15 : tensor<1x4096xbf16> to tensor<1x4096xf32> loc(#loc60)
    %tmp2 = arith.addf %tmp0_13, %tmp1_16 : tensor<1x4096xf32> loc(#loc61)
    %tmp4 = arith.mulf %tmp2, %tmp2 : tensor<1x4096xf32> loc(#loc62)
    %tmp7 = arith.addf %tmp4, %cst_4 : tensor<1x4096xf32> loc(#loc63)
    %_tmp6 = arith.select %tmp0_11, %tmp7, %cst_4 : tensor<1x4096xi1>, tensor<1x4096xf32> loc(#loc64)
    %0 = tt.splat %out_ptr0 : !tt.ptr<bf16> -> tensor<1x4096x!tt.ptr<bf16>> loc(#loc20)
    %1 = tt.addptr %0, %tmp0_7 : tensor<1x4096x!tt.ptr<bf16>>, tensor<1x4096xi32> loc(#loc20)
    %2 = arith.truncf %tmp2 : tensor<1x4096xf32> to tensor<1x4096xbf16> loc(#loc21)
    tt.store %1, %2, %tmp0_11 : tensor<1x4096x!tt.ptr<bf16>> loc(#loc21)
    %tmp6 = "tt.reduce"(%_tmp6) <{axis = 1 : i32}> ({
    ^bb0(%tmp6_23: f32 loc(callsite(#loc1 at #loc65)), %tmp6_24: f32 loc(callsite(#loc1 at #loc65))):
      %tmp6_25 = arith.addf %tmp6_23, %tmp6_24 : f32 loc(#loc82)
      tt.reduce.return %tmp6_25 : f32 loc(#loc80)
    }) : (tensor<1x4096xf32>) -> tensor<1xf32> loc(#loc80)
    %tmp6_17 = tt.expand_dims %tmp6 {axis = 1 : i32} : tensor<1xf32> -> tensor<1x1xf32> loc(#loc66)
    %tmp8 = tt.load %1, %tmp0_11, %cst evictionPolicy = evict_first : tensor<1x4096x!tt.ptr<bf16>> loc(#loc67)
    %tmp8_18 = arith.extf %tmp8 : tensor<1x4096xbf16> to tensor<1x4096xf32> loc(#loc68)
    %tmp16 = tt.splat %in_ptr2 : !tt.ptr<bf16> -> tensor<1x4096x!tt.ptr<bf16>> loc(#loc69)
    %tmp16_19 = tt.addptr %tmp16, %r0_base_5 : tensor<1x4096x!tt.ptr<bf16>>, tensor<1x4096xi32> loc(#loc69)
    %tmp16_20 = tt.load %tmp16_19, %r0_mask, %cst evictionPolicy = evict_last : tensor<1x4096x!tt.ptr<bf16>> loc(#loc70)
    %tmp16_21 = arith.extf %tmp16_20 : tensor<1x4096xbf16> to tensor<1x4096xf32> loc(#loc71)
    %tmp11 = arith.divf %tmp6_17, %cst_2 : tensor<1x1xf32> loc(#loc72)
    %tmp13 = arith.addf %tmp11, %cst_1 : tensor<1x1xf32> loc(#loc73)
    %tmp14 = tt.extern_elementwise %tmp13 {libname = "", libpath = "", pure = true, symbol = "__nv_rsqrtf"} : (tensor<1x1xf32>) -> tensor<1x1xf32> loc(#loc74)
    %tmp15 = tt.broadcast %tmp14 : tensor<1x1xf32> -> tensor<1x4096xf32> loc(#loc75)
    %tmp15_22 = arith.mulf %tmp8_18, %tmp15 : tensor<1x4096xf32> loc(#loc75)
    %tmp19 = arith.addf %tmp16_21, %cst_0 : tensor<1x4096xf32> loc(#loc76)
    %tmp20 = arith.mulf %tmp15_22, %tmp19 : tensor<1x4096xf32> loc(#loc77)
    %3 = tt.splat %out_ptr2 : !tt.ptr<bf16> -> tensor<1x4096x!tt.ptr<bf16>> loc(#loc37)
    %4 = tt.addptr %3, %tmp0_7 : tensor<1x4096x!tt.ptr<bf16>>, tensor<1x4096xi32> loc(#loc37)
    %5 = arith.truncf %tmp20 : tensor<1x4096xf32> to tensor<1x4096xbf16> loc(#loc38)
    tt.store %4, %5, %tmp0_11 : tensor<1x4096x!tt.ptr<bf16>> loc(#loc38)
    tt.return loc(#loc39)
  } loc(#loc)
} loc(#loc)
#loc2 = loc("/data/jcy/zzs/zijinhua/.vllm_cache_simplevqa/torch_compile/lu/clu62ce6agx54gqsbnbt35dpgixbqcudonrmforw2mqz26zrrho2.py":22:28)
#loc3 = loc("/data/jcy/zzs/zijinhua/.vllm_cache_simplevqa/torch_compile/lu/clu62ce6agx54gqsbnbt35dpgixbqcudonrmforw2mqz26zrrho2.py":24:21)
#loc4 = loc("/data/jcy/zzs/zijinhua/.vllm_cache_simplevqa/torch_compile/lu/clu62ce6agx54gqsbnbt35dpgixbqcudonrmforw2mqz26zrrho2.py":25:27)
#loc5 = loc("/data/jcy/zzs/zijinhua/.vllm_cache_simplevqa/torch_compile/lu/clu62ce6agx54gqsbnbt35dpgixbqcudonrmforw2mqz26zrrho2.py":25:37)
#loc6 = loc("/data/jcy/zzs/zijinhua/.vllm_cache_simplevqa/torch_compile/lu/clu62ce6agx54gqsbnbt35dpgixbqcudonrmforw2mqz26zrrho2.py":31:29)
#loc7 = loc("/data/jcy/zzs/zijinhua/.vllm_cache_simplevqa/torch_compile/lu/clu62ce6agx54gqsbnbt35dpgixbqcudonrmforw2mqz26zrrho2.py":35:46)
#loc8 = loc("/data/jcy/zzs/zijinhua/.vllm_cache_simplevqa/torch_compile/lu/clu62ce6agx54gqsbnbt35dpgixbqcudonrmforw2mqz26zrrho2.py":35:41)
#loc9 = loc("/data/jcy/zzs/zijinhua/.vllm_cache_simplevqa/torch_compile/lu/clu62ce6agx54gqsbnbt35dpgixbqcudonrmforw2mqz26zrrho2.py":35:34)
#loc10 = loc("/data/jcy/zzs/zijinhua/.vllm_cache_simplevqa/torch_compile/lu/clu62ce6agx54gqsbnbt35dpgixbqcudonrmforw2mqz26zrrho2.py":35:61)
#loc11 = loc("/data/jcy/zzs/zijinhua/.vllm_cache_simplevqa/torch_compile/lu/clu62ce6agx54gqsbnbt35dpgixbqcudonrmforw2mqz26zrrho2.py":35:51)
#loc12 = loc("/data/jcy/zzs/zijinhua/.vllm_cache_simplevqa/torch_compile/lu/clu62ce6agx54gqsbnbt35dpgixbqcudonrmforw2mqz26zrrho2.py":35:113)
#loc13 = loc("/data/jcy/zzs/zijinhua/.vllm_cache_simplevqa/torch_compile/lu/clu62ce6agx54gqsbnbt35dpgixbqcudonrmforw2mqz26zrrho2.py":36:34)
#loc14 = loc("/data/jcy/zzs/zijinhua/.vllm_cache_simplevqa/torch_compile/lu/clu62ce6agx54gqsbnbt35dpgixbqcudonrmforw2mqz26zrrho2.py":36:51)
#loc15 = loc("/data/jcy/zzs/zijinhua/.vllm_cache_simplevqa/torch_compile/lu/clu62ce6agx54gqsbnbt35dpgixbqcudonrmforw2mqz26zrrho2.py":36:113)
#loc16 = loc("/data/jcy/zzs/zijinhua/.vllm_cache_simplevqa/torch_compile/lu/clu62ce6agx54gqsbnbt35dpgixbqcudonrmforw2mqz26zrrho2.py":37:22)
#loc17 = loc("/data/jcy/zzs/zijinhua/.vllm_cache_simplevqa/torch_compile/lu/clu62ce6agx54gqsbnbt35dpgixbqcudonrmforw2mqz26zrrho2.py":39:22)
#loc18 = loc("/data/jcy/zzs/zijinhua/.vllm_cache_simplevqa/torch_compile/lu/clu62ce6agx54gqsbnbt35dpgixbqcudonrmforw2mqz26zrrho2.py":41:23)
#loc19 = loc("/data/jcy/zzs/zijinhua/.vllm_cache_simplevqa/torch_compile/lu/clu62ce6agx54gqsbnbt35dpgixbqcudonrmforw2mqz26zrrho2.py":42:48)
#loc20 = loc("/data/jcy/zzs/zijinhua/.vllm_cache_simplevqa/torch_compile/lu/clu62ce6agx54gqsbnbt35dpgixbqcudonrmforw2mqz26zrrho2.py":43:29)
#loc21 = loc("/data/jcy/zzs/zijinhua/.vllm_cache_simplevqa/torch_compile/lu/clu62ce6agx54gqsbnbt35dpgixbqcudonrmforw2mqz26zrrho2.py":43:52)
#loc22 = loc("/data/conda/envs/or_llm/lib/python3.12/site-packages/triton/language/standard.py":293:36)
#loc24 = loc("/data/conda/envs/or_llm/lib/python3.12/site-packages/triton/language/standard.py":263:15)
#loc25 = loc("/data/jcy/zzs/zijinhua/.vllm_cache_simplevqa/torch_compile/lu/clu62ce6agx54gqsbnbt35dpgixbqcudonrmforw2mqz26zrrho2.py":44:28)
#loc26 = loc("/data/jcy/zzs/zijinhua/.vllm_cache_simplevqa/torch_compile/lu/clu62ce6agx54gqsbnbt35dpgixbqcudonrmforw2mqz26zrrho2.py":51:52)
#loc27 = loc("/data/jcy/zzs/zijinhua/.vllm_cache_simplevqa/torch_compile/lu/clu62ce6agx54gqsbnbt35dpgixbqcudonrmforw2mqz26zrrho2.py":51:114)
#loc28 = loc("/data/jcy/zzs/zijinhua/.vllm_cache_simplevqa/torch_compile/lu/clu62ce6agx54gqsbnbt35dpgixbqcudonrmforw2mqz26zrrho2.py":52:35)
#loc29 = loc("/data/jcy/zzs/zijinhua/.vllm_cache_simplevqa/torch_compile/lu/clu62ce6agx54gqsbnbt35dpgixbqcudonrmforw2mqz26zrrho2.py":52:42)
#loc30 = loc("/data/jcy/zzs/zijinhua/.vllm_cache_simplevqa/torch_compile/lu/clu62ce6agx54gqsbnbt35dpgixbqcudonrmforw2mqz26zrrho2.py":52:95)
#loc31 = loc("/data/jcy/zzs/zijinhua/.vllm_cache_simplevqa/torch_compile/lu/clu62ce6agx54gqsbnbt35dpgixbqcudonrmforw2mqz26zrrho2.py":55:24)
#loc32 = loc("/data/jcy/zzs/zijinhua/.vllm_cache_simplevqa/torch_compile/lu/clu62ce6agx54gqsbnbt35dpgixbqcudonrmforw2mqz26zrrho2.py":57:24)
#loc33 = loc("/data/jcy/zzs/zijinhua/.vllm_cache_simplevqa/torch_compile/lu/clu62ce6agx54gqsbnbt35dpgixbqcudonrmforw2mqz26zrrho2.py":58:32)
#loc34 = loc("/data/jcy/zzs/zijinhua/.vllm_cache_simplevqa/torch_compile/lu/clu62ce6agx54gqsbnbt35dpgixbqcudonrmforw2mqz26zrrho2.py":59:23)
#loc35 = loc("/data/jcy/zzs/zijinhua/.vllm_cache_simplevqa/torch_compile/lu/clu62ce6agx54gqsbnbt35dpgixbqcudonrmforw2mqz26zrrho2.py":62:24)
#loc36 = loc("/data/jcy/zzs/zijinhua/.vllm_cache_simplevqa/torch_compile/lu/clu62ce6agx54gqsbnbt35dpgixbqcudonrmforw2mqz26zrrho2.py":63:24)
#loc37 = loc("/data/jcy/zzs/zijinhua/.vllm_cache_simplevqa/torch_compile/lu/clu62ce6agx54gqsbnbt35dpgixbqcudonrmforw2mqz26zrrho2.py":65:29)
#loc38 = loc("/data/jcy/zzs/zijinhua/.vllm_cache_simplevqa/torch_compile/lu/clu62ce6agx54gqsbnbt35dpgixbqcudonrmforw2mqz26zrrho2.py":65:53)
#loc39 = loc("/data/jcy/zzs/zijinhua/.vllm_cache_simplevqa/torch_compile/lu/clu62ce6agx54gqsbnbt35dpgixbqcudonrmforw2mqz26zrrho2.py":45:4)
#loc47 = loc("xoffset"(#loc2))
#loc48 = loc("xmask"(#loc3))
#loc49 = loc("r0_base"(#loc4))
#loc50 = loc("r0_base"(#loc5))
#loc51 = loc("r0_mask"(#loc6))
#loc52 = loc("tmp0"(#loc7))
#loc53 = loc("tmp0"(#loc8))
#loc54 = loc("tmp0"(#loc9))
#loc55 = loc("tmp0"(#loc10))
#loc56 = loc("tmp0"(#loc11))
#loc57 = loc("tmp0"(#loc12))
#loc58 = loc("tmp1"(#loc13))
#loc59 = loc("tmp1"(#loc14))
#loc60 = loc("tmp1"(#loc15))
#loc61 = loc("tmp2"(#loc16))
#loc62 = loc("tmp4"(#loc17))
#loc63 = loc("tmp7"(#loc18))
#loc64 = loc("_tmp6"(#loc19))
#loc66 = loc("tmp6"(#loc25))
#loc67 = loc("tmp8"(#loc26))
#loc68 = loc("tmp8"(#loc27))
#loc69 = loc("tmp16"(#loc28))
#loc70 = loc("tmp16"(#loc29))
#loc71 = loc("tmp16"(#loc30))
#loc72 = loc("tmp11"(#loc31))
#loc73 = loc("tmp13"(#loc32))
#loc74 = loc("tmp14"(#loc33))
#loc75 = loc("tmp15"(#loc34))
#loc76 = loc("tmp19"(#loc35))
#loc77 = loc("tmp20"(#loc36))
#loc78 = loc(fused[#loc53, #loc52])
#loc79 = loc(fused[#loc55, #loc48])
#loc80 = loc(callsite(#loc22 at #loc65))
#loc82 = loc(callsite(#loc24 at #loc80))
