#loc = loc("/data/jcy/zzs/zijinhua/.vllm_cache_reflection/torch_compile/yf/cyfs56zb2suw3tsmosn5l676nggdzxkxtp5fzg2rehjtqrhlho3f.py":18:0)
#loc62 = loc("/data/conda/envs/or_llm/lib/python3.12/site-packages/triton/language/standard.py":287:0)
#loc64 = loc(unknown)
#loc67 = loc("/data/conda/envs/or_llm/lib/python3.12/site-packages/triton/language/standard.py":262:0)
#loc71 = loc("in_ptr0"(#loc))
#loc72 = loc("in_ptr1"(#loc))
#loc73 = loc("in_ptr2"(#loc))
#loc74 = loc("out_ptr0"(#loc))
#loc75 = loc("out_ptr2"(#loc))
#loc76 = loc("xnumel"(#loc))
#loc77 = loc("r0_numel"(#loc))
#loc128 = loc("input"(#loc62))
#loc129 = loc("a"(#loc67))
#loc130 = loc("b"(#loc67))
module {
  tt.func public @triton_red_fused__to_copy_add_mean_mul_pow_rsqrt_0(%in_ptr0: !tt.ptr<bf16> {tt.divisibility = 16 : i32} loc("in_ptr0"(#loc)), %in_ptr1: !tt.ptr<bf16> {tt.divisibility = 16 : i32} loc("in_ptr1"(#loc)), %in_ptr2: !tt.ptr<bf16> {tt.divisibility = 16 : i32} loc("in_ptr2"(#loc)), %out_ptr0: !tt.ptr<bf16> {tt.divisibility = 16 : i32} loc("out_ptr0"(#loc)), %out_ptr2: !tt.ptr<bf16> {tt.divisibility = 16 : i32} loc("out_ptr2"(#loc)), %xnumel: i32 {tt.divisibility = 16 : i32} loc("xnumel"(#loc)), %r0_numel: i32 {tt.divisibility = 16 : i32} loc("r0_numel"(#loc))) attributes {noinline = false} {
    %xnumel_0 = arith.constant 8192 : i32 loc(#loc78)
    %r0_numel_1 = arith.constant 4096 : i32 loc(#loc79)
    %xoffset = tt.get_program_id x : i32 loc(#loc80)
    %xoffset_2 = arith.constant 1 : i32 loc(#loc81)
    %xoffset_3 = arith.constant 1 : i32 loc(#loc81)
    %xoffset_4 = arith.muli %xoffset, %xoffset_3 : i32 loc(#loc81)
    %xindex = tt.make_range {end = 1 : i32, start = 0 : i32} : tensor<1xi32> loc(#loc82)
    %xindex_5 = tt.expand_dims %xindex {axis = 1 : i32} : tensor<1xi32> -> tensor<1x1xi32> loc(#loc83)
    %xindex_6 = tt.splat %xoffset_4 : i32 -> tensor<1x1xi32> loc(#loc84)
    %xindex_7 = arith.addi %xindex_6, %xindex_5 : tensor<1x1xi32> loc(#loc84)
    %xmask = arith.constant true loc(#loc85)
    %xmask_8 = arith.constant dense<true> : tensor<1xi1> loc(#loc85)
    %xmask_9 = tt.expand_dims %xmask_8 {axis = 1 : i32} : tensor<1xi1> -> tensor<1x1xi1> loc(#loc86)
    %r0_base = tt.make_range {end = 2048 : i32, start = 0 : i32} : tensor<2048xi32> loc(#loc87)
    %r0_base_10 = tt.expand_dims %r0_base {axis = 0 : i32} : tensor<2048xi32> -> tensor<1x2048xi32> loc(#loc88)
    %_tmp6 = arith.constant 0.000000e+00 : f32 loc(#loc89)
    %_tmp6_11 = arith.constant dense<0.000000e+00> : tensor<1x2048xf32> loc(#loc89)
    %c0_i32 = arith.constant 0 : i32 loc(#loc13)
    %c2048_i32 = arith.constant 2048 : i32 loc(#loc13)
    %0 = arith.bitcast %c0_i32 : i32 to i32 loc(#loc13)
    %1 = arith.bitcast %r0_numel_1 : i32 to i32 loc(#loc13)
    %2 = arith.bitcast %c2048_i32 : i32 to i32 loc(#loc13)
    %3 = ub.poison : i32 loc(#loc13)
    %_tmp6_12 = scf.for %r0_offset = %0 to %1 step %2 iter_args(%_tmp6_16 = %_tmp6_11) -> (tensor<1x2048xf32>)  : i32 {
      %r0_index = tt.splat %r0_offset : i32 -> tensor<1x2048xi32> loc(#loc91)
      %r0_index_17 = arith.addi %r0_index, %r0_base_10 : tensor<1x2048xi32> loc(#loc91)
      %r0_mask = arith.constant dense<4096> : tensor<1x2048xi32> loc(#loc92)
      %r0_mask_18 = arith.cmpi slt, %r0_index_17, %r0_mask : tensor<1x2048xi32> loc(#loc92)
      %tmp0 = arith.constant 4096 : i32 loc(#loc93)
      %tmp0_19 = arith.constant 4096 : i32 loc(#loc93)
      %tmp0_20 = arith.constant dense<4096> : tensor<1x1xi32> loc(#loc93)
      %tmp0_21 = arith.muli %tmp0_20, %xindex_7 : tensor<1x1xi32> loc(#loc93)
      %tmp0_22 = tt.broadcast %tmp0_21 : tensor<1x1xi32> -> tensor<1x2048xi32> loc(#loc94)
      %tmp0_23 = arith.addi %r0_index_17, %tmp0_22 : tensor<1x2048xi32> loc(#loc94)
      %tmp0_24 = tt.splat %in_ptr0 : !tt.ptr<bf16> -> tensor<1x2048x!tt.ptr<bf16>> loc(#loc95)
      %tmp0_25 = tt.addptr %tmp0_24, %tmp0_23 : tensor<1x2048x!tt.ptr<bf16>>, tensor<1x2048xi32> loc(#loc95)
      %tmp0_26 = arith.constant 0.000000e+00 : f32 loc(#loc96)
      %tmp0_27 = arith.constant dense<0.000000e+00> : tensor<1x2048xf32> loc(#loc96)
      %tmp0_28 = arith.truncf %tmp0_27 : tensor<1x2048xf32> to tensor<1x2048xbf16> loc(#loc96)
      %tmp0_29 = tt.load %tmp0_25, %r0_mask_18, %tmp0_28 evictionPolicy = evict_first : tensor<1x2048x!tt.ptr<bf16>> loc(#loc96)
      %tmp0_30 = arith.extf %tmp0_29 : tensor<1x2048xbf16> to tensor<1x2048xf32> loc(#loc97)
      %tmp1 = arith.constant 4096 : i32 loc(#loc98)
      %tmp1_31 = arith.constant 4096 : i32 loc(#loc98)
      %tmp1_32 = arith.constant dense<4096> : tensor<1x1xi32> loc(#loc98)
      %tmp1_33 = arith.muli %tmp1_32, %xindex_7 : tensor<1x1xi32> loc(#loc98)
      %tmp1_34 = tt.broadcast %tmp1_33 : tensor<1x1xi32> -> tensor<1x2048xi32> loc(#loc99)
      %tmp1_35 = arith.addi %r0_index_17, %tmp1_34 : tensor<1x2048xi32> loc(#loc99)
      %tmp1_36 = tt.splat %in_ptr1 : !tt.ptr<bf16> -> tensor<1x2048x!tt.ptr<bf16>> loc(#loc100)
      %tmp1_37 = tt.addptr %tmp1_36, %tmp1_35 : tensor<1x2048x!tt.ptr<bf16>>, tensor<1x2048xi32> loc(#loc100)
      %tmp1_38 = arith.constant 0.000000e+00 : f32 loc(#loc101)
      %tmp1_39 = arith.constant dense<0.000000e+00> : tensor<1x2048xf32> loc(#loc101)
      %tmp1_40 = arith.truncf %tmp1_39 : tensor<1x2048xf32> to tensor<1x2048xbf16> loc(#loc101)
      %tmp1_41 = tt.load %tmp1_37, %r0_mask_18, %tmp1_40 evictionPolicy = evict_first : tensor<1x2048x!tt.ptr<bf16>> loc(#loc101)
      %tmp1_42 = arith.extf %tmp1_41 : tensor<1x2048xbf16> to tensor<1x2048xf32> loc(#loc102)
      %tmp2 = arith.addf %tmp0_30, %tmp1_42 : tensor<1x2048xf32> loc(#loc103)
      %tmp4 = arith.mulf %tmp2, %tmp2 : tensor<1x2048xf32> loc(#loc104)
      %tmp7 = arith.addf %_tmp6_16, %tmp4 : tensor<1x2048xf32> loc(#loc105)
      %_tmp6_43 = arith.select %r0_mask_18, %tmp7, %_tmp6_16 : tensor<1x2048xi1>, tensor<1x2048xf32> loc(#loc106)
      %c4096_i32 = arith.constant 4096 : i32 loc(#loc30)
      %c4096_i32_44 = arith.constant 4096 : i32 loc(#loc30)
      %cst = arith.constant dense<4096> : tensor<1x1xi32> loc(#loc30)
      %8 = arith.muli %cst, %xindex_7 : tensor<1x1xi32> loc(#loc30)
      %9 = tt.broadcast %8 : tensor<1x1xi32> -> tensor<1x2048xi32> loc(#loc31)
      %10 = arith.addi %r0_index_17, %9 : tensor<1x2048xi32> loc(#loc31)
      %11 = tt.splat %out_ptr0 : !tt.ptr<bf16> -> tensor<1x2048x!tt.ptr<bf16>> loc(#loc32)
      %12 = tt.addptr %11, %10 : tensor<1x2048x!tt.ptr<bf16>>, tensor<1x2048xi32> loc(#loc32)
      %13 = arith.truncf %tmp2 : tensor<1x2048xf32> to tensor<1x2048xbf16> loc(#loc33)
      tt.store %12, %13, %r0_mask_18 : tensor<1x2048x!tt.ptr<bf16>> loc(#loc33)
      scf.yield %_tmp6_43 : tensor<1x2048xf32> loc(#loc34)
    } loc(#loc90)
    %tmp6 = tt.call @"triton.language.standard.sum__fp32S1_2048S__(1,)cconstexpr_1__(2,)cconstexpr_False__(3,)cNone"(%_tmp6_12) : (tensor<1x2048xf32>) -> tensor<1xf32> loc(#loc107)
    %tmp6_13 = tt.expand_dims %tmp6 {axis = 1 : i32} : tensor<1xf32> -> tensor<1x1xf32> loc(#loc108)
    %c0_i32_14 = arith.constant 0 : i32 loc(#loc37)
    %c2048_i32_15 = arith.constant 2048 : i32 loc(#loc37)
    %4 = arith.bitcast %c0_i32_14 : i32 to i32 loc(#loc37)
    %5 = arith.bitcast %r0_numel_1 : i32 to i32 loc(#loc37)
    %6 = arith.bitcast %c2048_i32_15 : i32 to i32 loc(#loc37)
    %7 = ub.poison : i32 loc(#loc37)
    scf.for %r0_offset = %4 to %5 step %6  : i32 {
      %r0_index = tt.splat %r0_offset : i32 -> tensor<1x2048xi32> loc(#loc109)
      %r0_index_16 = arith.addi %r0_index, %r0_base_10 : tensor<1x2048xi32> loc(#loc109)
      %r0_mask = arith.constant dense<4096> : tensor<1x2048xi32> loc(#loc110)
      %r0_mask_17 = arith.cmpi slt, %r0_index_16, %r0_mask : tensor<1x2048xi32> loc(#loc110)
      %tmp8 = arith.constant 4096 : i32 loc(#loc111)
      %tmp8_18 = arith.constant 4096 : i32 loc(#loc111)
      %tmp8_19 = arith.constant dense<4096> : tensor<1x1xi32> loc(#loc111)
      %tmp8_20 = arith.muli %tmp8_19, %xindex_7 : tensor<1x1xi32> loc(#loc111)
      %tmp8_21 = tt.broadcast %tmp8_20 : tensor<1x1xi32> -> tensor<1x2048xi32> loc(#loc112)
      %tmp8_22 = arith.addi %r0_index_16, %tmp8_21 : tensor<1x2048xi32> loc(#loc112)
      %tmp8_23 = tt.splat %out_ptr0 : !tt.ptr<bf16> -> tensor<1x2048x!tt.ptr<bf16>> loc(#loc113)
      %tmp8_24 = tt.addptr %tmp8_23, %tmp8_22 : tensor<1x2048x!tt.ptr<bf16>>, tensor<1x2048xi32> loc(#loc113)
      %tmp8_25 = arith.constant 0.000000e+00 : f32 loc(#loc114)
      %tmp8_26 = arith.constant dense<0.000000e+00> : tensor<1x2048xf32> loc(#loc114)
      %tmp8_27 = arith.truncf %tmp8_26 : tensor<1x2048xf32> to tensor<1x2048xbf16> loc(#loc114)
      %tmp8_28 = tt.load %tmp8_24, %r0_mask_17, %tmp8_27 evictionPolicy = evict_first : tensor<1x2048x!tt.ptr<bf16>> loc(#loc114)
      %tmp8_29 = arith.extf %tmp8_28 : tensor<1x2048xbf16> to tensor<1x2048xf32> loc(#loc115)
      %tmp16 = tt.splat %in_ptr2 : !tt.ptr<bf16> -> tensor<1x2048x!tt.ptr<bf16>> loc(#loc116)
      %tmp16_30 = tt.addptr %tmp16, %r0_index_16 : tensor<1x2048x!tt.ptr<bf16>>, tensor<1x2048xi32> loc(#loc116)
      %tmp16_31 = arith.constant 0.000000e+00 : f32 loc(#loc117)
      %tmp16_32 = arith.constant dense<0.000000e+00> : tensor<1x2048xf32> loc(#loc117)
      %tmp16_33 = arith.truncf %tmp16_32 : tensor<1x2048xf32> to tensor<1x2048xbf16> loc(#loc117)
      %tmp16_34 = tt.load %tmp16_30, %r0_mask_17, %tmp16_33 evictionPolicy = evict_last : tensor<1x2048x!tt.ptr<bf16>> loc(#loc117)
      %tmp16_35 = arith.extf %tmp16_34 : tensor<1x2048xbf16> to tensor<1x2048xf32> loc(#loc118)
      %tmp10 = arith.constant 4.096000e+03 : f32 loc(#loc119)
      %tmp11 = arith.constant dense<4.096000e+03> : tensor<1x1xf32> loc(#loc120)
      %tmp11_36 = arith.divf %tmp6_13, %tmp11 : tensor<1x1xf32> loc(#loc120)
      %tmp12 = arith.constant 9.99999997E-7 : f32 loc(#loc121)
      %tmp13 = arith.constant dense<9.99999997E-7> : tensor<1x1xf32> loc(#loc122)
      %tmp13_37 = arith.addf %tmp11_36, %tmp13 : tensor<1x1xf32> loc(#loc122)
      %tmp14 = tt.extern_elementwise %tmp13_37 {libname = "", libpath = "", pure = true, symbol = "__nv_rsqrtf"} : (tensor<1x1xf32>) -> tensor<1x1xf32> loc(#loc123)
      %tmp15 = tt.broadcast %tmp14 : tensor<1x1xf32> -> tensor<1x2048xf32> loc(#loc124)
      %tmp15_38 = arith.mulf %tmp8_29, %tmp15 : tensor<1x2048xf32> loc(#loc124)
      %tmp18 = arith.constant 1.000000e+00 : f32 loc(#loc125)
      %tmp19 = arith.constant dense<1.000000e+00> : tensor<1x2048xf32> loc(#loc126)
      %tmp19_39 = arith.addf %tmp16_35, %tmp19 : tensor<1x2048xf32> loc(#loc126)
      %tmp20 = arith.mulf %tmp15_38, %tmp19_39 : tensor<1x2048xf32> loc(#loc127)
      %c4096_i32 = arith.constant 4096 : i32 loc(#loc57)
      %c4096_i32_40 = arith.constant 4096 : i32 loc(#loc57)
      %cst = arith.constant dense<4096> : tensor<1x1xi32> loc(#loc57)
      %8 = arith.muli %cst, %xindex_7 : tensor<1x1xi32> loc(#loc57)
      %9 = tt.broadcast %8 : tensor<1x1xi32> -> tensor<1x2048xi32> loc(#loc58)
      %10 = arith.addi %r0_index_16, %9 : tensor<1x2048xi32> loc(#loc58)
      %11 = tt.splat %out_ptr2 : !tt.ptr<bf16> -> tensor<1x2048x!tt.ptr<bf16>> loc(#loc59)
      %12 = tt.addptr %11, %10 : tensor<1x2048x!tt.ptr<bf16>>, tensor<1x2048xi32> loc(#loc59)
      %13 = arith.truncf %tmp20 : tensor<1x2048xf32> to tensor<1x2048xbf16> loc(#loc60)
      tt.store %12, %13, %r0_mask_17 : tensor<1x2048x!tt.ptr<bf16>> loc(#loc60)
    } loc(#loc37)
    tt.return loc(#loc61)
  } loc(#loc)
  tt.func private @"triton.language.standard.sum__fp32S1_2048S__(1,)cconstexpr_1__(2,)cconstexpr_False__(3,)cNone"(%input: tensor<1x2048xf32> loc("input"(#loc62))) -> tensor<1xf32> attributes {noinline = false} {
    %0 = "tt.reduce"(%input) <{axis = 1 : i32}> ({
    ^bb0(%arg1: f32 loc(unknown), %arg2: f32 loc(unknown)):
      %2 = tt.call @triton.language.standard._sum_combine__fp32_fp32__(%arg1, %arg2) : (f32, f32) -> f32 loc(#loc63)
      tt.reduce.return %2 : f32 loc(#loc63)
    }) : (tensor<1x2048xf32>) -> tensor<1xf32> loc(#loc63)
    tt.return %0 : tensor<1xf32> loc(#loc65)
  ^bb1:  // no predecessors
    %1 = ub.poison : tensor<1xf32> loc(#loc66)
    tt.return %1 : tensor<1xf32> loc(#loc66)
  } loc(#loc62)
  tt.func private @triton.language.standard._sum_combine__fp32_fp32__(%a: f32 loc("a"(#loc67)), %b: f32 loc("b"(#loc67))) -> f32 attributes {noinline = false} {
    %0 = arith.addf %a, %b : f32 loc(#loc68)
    tt.return %0 : f32 loc(#loc69)
  ^bb1:  // no predecessors
    %1 = ub.poison : f32 loc(#loc70)
    tt.return %1 : f32 loc(#loc70)
  } loc(#loc67)
} loc(#loc)
#loc1 = loc("/data/jcy/zzs/zijinhua/.vllm_cache_reflection/torch_compile/yf/cyfs56zb2suw3tsmosn5l676nggdzxkxtp5fzg2rehjtqrhlho3f.py":19:13)
#loc2 = loc("/data/jcy/zzs/zijinhua/.vllm_cache_reflection/torch_compile/yf/cyfs56zb2suw3tsmosn5l676nggdzxkxtp5fzg2rehjtqrhlho3f.py":20:15)
#loc3 = loc("/data/jcy/zzs/zijinhua/.vllm_cache_reflection/torch_compile/yf/cyfs56zb2suw3tsmosn5l676nggdzxkxtp5fzg2rehjtqrhlho3f.py":23:28)
#loc4 = loc("/data/jcy/zzs/zijinhua/.vllm_cache_reflection/torch_compile/yf/cyfs56zb2suw3tsmosn5l676nggdzxkxtp5fzg2rehjtqrhlho3f.py":23:33)
#loc5 = loc("/data/jcy/zzs/zijinhua/.vllm_cache_reflection/torch_compile/yf/cyfs56zb2suw3tsmosn5l676nggdzxkxtp5fzg2rehjtqrhlho3f.py":24:36)
#loc6 = loc("/data/jcy/zzs/zijinhua/.vllm_cache_reflection/torch_compile/yf/cyfs56zb2suw3tsmosn5l676nggdzxkxtp5fzg2rehjtqrhlho3f.py":24:44)
#loc7 = loc("/data/jcy/zzs/zijinhua/.vllm_cache_reflection/torch_compile/yf/cyfs56zb2suw3tsmosn5l676nggdzxkxtp5fzg2rehjtqrhlho3f.py":24:23)
#loc8 = loc("/data/jcy/zzs/zijinhua/.vllm_cache_reflection/torch_compile/yf/cyfs56zb2suw3tsmosn5l676nggdzxkxtp5fzg2rehjtqrhlho3f.py":25:36)
#loc9 = loc("/data/jcy/zzs/zijinhua/.vllm_cache_reflection/torch_compile/yf/cyfs56zb2suw3tsmosn5l676nggdzxkxtp5fzg2rehjtqrhlho3f.py":25:45)
#loc10 = loc("/data/jcy/zzs/zijinhua/.vllm_cache_reflection/torch_compile/yf/cyfs56zb2suw3tsmosn5l676nggdzxkxtp5fzg2rehjtqrhlho3f.py":26:27)
#loc11 = loc("/data/jcy/zzs/zijinhua/.vllm_cache_reflection/torch_compile/yf/cyfs56zb2suw3tsmosn5l676nggdzxkxtp5fzg2rehjtqrhlho3f.py":26:37)
#loc12 = loc("/data/jcy/zzs/zijinhua/.vllm_cache_reflection/torch_compile/yf/cyfs56zb2suw3tsmosn5l676nggdzxkxtp5fzg2rehjtqrhlho3f.py":29:43)
#loc13 = loc("/data/jcy/zzs/zijinhua/.vllm_cache_reflection/torch_compile/yf/cyfs56zb2suw3tsmosn5l676nggdzxkxtp5fzg2rehjtqrhlho3f.py":30:40)
#loc14 = loc("/data/jcy/zzs/zijinhua/.vllm_cache_reflection/torch_compile/yf/cyfs56zb2suw3tsmosn5l676nggdzxkxtp5fzg2rehjtqrhlho3f.py":31:31)
#loc15 = loc("/data/jcy/zzs/zijinhua/.vllm_cache_reflection/torch_compile/yf/cyfs56zb2suw3tsmosn5l676nggdzxkxtp5fzg2rehjtqrhlho3f.py":32:29)
#loc16 = loc("/data/jcy/zzs/zijinhua/.vllm_cache_reflection/torch_compile/yf/cyfs56zb2suw3tsmosn5l676nggdzxkxtp5fzg2rehjtqrhlho3f.py":36:46)
#loc17 = loc("/data/jcy/zzs/zijinhua/.vllm_cache_reflection/torch_compile/yf/cyfs56zb2suw3tsmosn5l676nggdzxkxtp5fzg2rehjtqrhlho3f.py":36:41)
#loc18 = loc("/data/jcy/zzs/zijinhua/.vllm_cache_reflection/torch_compile/yf/cyfs56zb2suw3tsmosn5l676nggdzxkxtp5fzg2rehjtqrhlho3f.py":36:34)
#loc19 = loc("/data/jcy/zzs/zijinhua/.vllm_cache_reflection/torch_compile/yf/cyfs56zb2suw3tsmosn5l676nggdzxkxtp5fzg2rehjtqrhlho3f.py":36:51)
#loc20 = loc("/data/jcy/zzs/zijinhua/.vllm_cache_reflection/torch_compile/yf/cyfs56zb2suw3tsmosn5l676nggdzxkxtp5fzg2rehjtqrhlho3f.py":36:105)
#loc21 = loc("/data/jcy/zzs/zijinhua/.vllm_cache_reflection/torch_compile/yf/cyfs56zb2suw3tsmosn5l676nggdzxkxtp5fzg2rehjtqrhlho3f.py":37:46)
#loc22 = loc("/data/jcy/zzs/zijinhua/.vllm_cache_reflection/torch_compile/yf/cyfs56zb2suw3tsmosn5l676nggdzxkxtp5fzg2rehjtqrhlho3f.py":37:41)
#loc23 = loc("/data/jcy/zzs/zijinhua/.vllm_cache_reflection/torch_compile/yf/cyfs56zb2suw3tsmosn5l676nggdzxkxtp5fzg2rehjtqrhlho3f.py":37:34)
#loc24 = loc("/data/jcy/zzs/zijinhua/.vllm_cache_reflection/torch_compile/yf/cyfs56zb2suw3tsmosn5l676nggdzxkxtp5fzg2rehjtqrhlho3f.py":37:51)
#loc25 = loc("/data/jcy/zzs/zijinhua/.vllm_cache_reflection/torch_compile/yf/cyfs56zb2suw3tsmosn5l676nggdzxkxtp5fzg2rehjtqrhlho3f.py":37:105)
#loc26 = loc("/data/jcy/zzs/zijinhua/.vllm_cache_reflection/torch_compile/yf/cyfs56zb2suw3tsmosn5l676nggdzxkxtp5fzg2rehjtqrhlho3f.py":38:22)
#loc27 = loc("/data/jcy/zzs/zijinhua/.vllm_cache_reflection/torch_compile/yf/cyfs56zb2suw3tsmosn5l676nggdzxkxtp5fzg2rehjtqrhlho3f.py":40:22)
#loc28 = loc("/data/jcy/zzs/zijinhua/.vllm_cache_reflection/torch_compile/yf/cyfs56zb2suw3tsmosn5l676nggdzxkxtp5fzg2rehjtqrhlho3f.py":42:23)
#loc29 = loc("/data/jcy/zzs/zijinhua/.vllm_cache_reflection/torch_compile/yf/cyfs56zb2suw3tsmosn5l676nggdzxkxtp5fzg2rehjtqrhlho3f.py":43:40)
#loc30 = loc("/data/jcy/zzs/zijinhua/.vllm_cache_reflection/torch_compile/yf/cyfs56zb2suw3tsmosn5l676nggdzxkxtp5fzg2rehjtqrhlho3f.py":44:41)
#loc31 = loc("/data/jcy/zzs/zijinhua/.vllm_cache_reflection/torch_compile/yf/cyfs56zb2suw3tsmosn5l676nggdzxkxtp5fzg2rehjtqrhlho3f.py":44:36)
#loc32 = loc("/data/jcy/zzs/zijinhua/.vllm_cache_reflection/torch_compile/yf/cyfs56zb2suw3tsmosn5l676nggdzxkxtp5fzg2rehjtqrhlho3f.py":44:29)
#loc33 = loc("/data/jcy/zzs/zijinhua/.vllm_cache_reflection/torch_compile/yf/cyfs56zb2suw3tsmosn5l676nggdzxkxtp5fzg2rehjtqrhlho3f.py":44:52)
#loc34 = loc("/data/jcy/zzs/zijinhua/.vllm_cache_reflection/torch_compile/yf/cyfs56zb2suw3tsmosn5l676nggdzxkxtp5fzg2rehjtqrhlho3f.py":44:8)
#loc35 = loc("/data/jcy/zzs/zijinhua/.vllm_cache_reflection/torch_compile/yf/cyfs56zb2suw3tsmosn5l676nggdzxkxtp5fzg2rehjtqrhlho3f.py":45:25)
#loc36 = loc("/data/jcy/zzs/zijinhua/.vllm_cache_reflection/torch_compile/yf/cyfs56zb2suw3tsmosn5l676nggdzxkxtp5fzg2rehjtqrhlho3f.py":45:28)
#loc37 = loc("/data/jcy/zzs/zijinhua/.vllm_cache_reflection/torch_compile/yf/cyfs56zb2suw3tsmosn5l676nggdzxkxtp5fzg2rehjtqrhlho3f.py":46:40)
#loc38 = loc("/data/jcy/zzs/zijinhua/.vllm_cache_reflection/torch_compile/yf/cyfs56zb2suw3tsmosn5l676nggdzxkxtp5fzg2rehjtqrhlho3f.py":47:31)
#loc39 = loc("/data/jcy/zzs/zijinhua/.vllm_cache_reflection/torch_compile/yf/cyfs56zb2suw3tsmosn5l676nggdzxkxtp5fzg2rehjtqrhlho3f.py":48:29)
#loc40 = loc("/data/jcy/zzs/zijinhua/.vllm_cache_reflection/torch_compile/yf/cyfs56zb2suw3tsmosn5l676nggdzxkxtp5fzg2rehjtqrhlho3f.py":52:47)
#loc41 = loc("/data/jcy/zzs/zijinhua/.vllm_cache_reflection/torch_compile/yf/cyfs56zb2suw3tsmosn5l676nggdzxkxtp5fzg2rehjtqrhlho3f.py":52:42)
#loc42 = loc("/data/jcy/zzs/zijinhua/.vllm_cache_reflection/torch_compile/yf/cyfs56zb2suw3tsmosn5l676nggdzxkxtp5fzg2rehjtqrhlho3f.py":52:35)
#loc43 = loc("/data/jcy/zzs/zijinhua/.vllm_cache_reflection/torch_compile/yf/cyfs56zb2suw3tsmosn5l676nggdzxkxtp5fzg2rehjtqrhlho3f.py":52:52)
#loc44 = loc("/data/jcy/zzs/zijinhua/.vllm_cache_reflection/torch_compile/yf/cyfs56zb2suw3tsmosn5l676nggdzxkxtp5fzg2rehjtqrhlho3f.py":52:106)
#loc45 = loc("/data/jcy/zzs/zijinhua/.vllm_cache_reflection/torch_compile/yf/cyfs56zb2suw3tsmosn5l676nggdzxkxtp5fzg2rehjtqrhlho3f.py":53:35)
#loc46 = loc("/data/jcy/zzs/zijinhua/.vllm_cache_reflection/torch_compile/yf/cyfs56zb2suw3tsmosn5l676nggdzxkxtp5fzg2rehjtqrhlho3f.py":53:42)
#loc47 = loc("/data/jcy/zzs/zijinhua/.vllm_cache_reflection/torch_compile/yf/cyfs56zb2suw3tsmosn5l676nggdzxkxtp5fzg2rehjtqrhlho3f.py":53:95)
#loc48 = loc("/data/jcy/zzs/zijinhua/.vllm_cache_reflection/torch_compile/yf/cyfs56zb2suw3tsmosn5l676nggdzxkxtp5fzg2rehjtqrhlho3f.py":55:16)
#loc49 = loc("/data/jcy/zzs/zijinhua/.vllm_cache_reflection/torch_compile/yf/cyfs56zb2suw3tsmosn5l676nggdzxkxtp5fzg2rehjtqrhlho3f.py":56:24)
#loc50 = loc("/data/jcy/zzs/zijinhua/.vllm_cache_reflection/torch_compile/yf/cyfs56zb2suw3tsmosn5l676nggdzxkxtp5fzg2rehjtqrhlho3f.py":57:16)
#loc51 = loc("/data/jcy/zzs/zijinhua/.vllm_cache_reflection/torch_compile/yf/cyfs56zb2suw3tsmosn5l676nggdzxkxtp5fzg2rehjtqrhlho3f.py":58:24)
#loc52 = loc("/data/jcy/zzs/zijinhua/.vllm_cache_reflection/torch_compile/yf/cyfs56zb2suw3tsmosn5l676nggdzxkxtp5fzg2rehjtqrhlho3f.py":59:32)
#loc53 = loc("/data/jcy/zzs/zijinhua/.vllm_cache_reflection/torch_compile/yf/cyfs56zb2suw3tsmosn5l676nggdzxkxtp5fzg2rehjtqrhlho3f.py":60:23)
#loc54 = loc("/data/jcy/zzs/zijinhua/.vllm_cache_reflection/torch_compile/yf/cyfs56zb2suw3tsmosn5l676nggdzxkxtp5fzg2rehjtqrhlho3f.py":62:16)
#loc55 = loc("/data/jcy/zzs/zijinhua/.vllm_cache_reflection/torch_compile/yf/cyfs56zb2suw3tsmosn5l676nggdzxkxtp5fzg2rehjtqrhlho3f.py":63:24)
#loc56 = loc("/data/jcy/zzs/zijinhua/.vllm_cache_reflection/torch_compile/yf/cyfs56zb2suw3tsmosn5l676nggdzxkxtp5fzg2rehjtqrhlho3f.py":64:24)
#loc57 = loc("/data/jcy/zzs/zijinhua/.vllm_cache_reflection/torch_compile/yf/cyfs56zb2suw3tsmosn5l676nggdzxkxtp5fzg2rehjtqrhlho3f.py":66:41)
#loc58 = loc("/data/jcy/zzs/zijinhua/.vllm_cache_reflection/torch_compile/yf/cyfs56zb2suw3tsmosn5l676nggdzxkxtp5fzg2rehjtqrhlho3f.py":66:36)
#loc59 = loc("/data/jcy/zzs/zijinhua/.vllm_cache_reflection/torch_compile/yf/cyfs56zb2suw3tsmosn5l676nggdzxkxtp5fzg2rehjtqrhlho3f.py":66:29)
#loc60 = loc("/data/jcy/zzs/zijinhua/.vllm_cache_reflection/torch_compile/yf/cyfs56zb2suw3tsmosn5l676nggdzxkxtp5fzg2rehjtqrhlho3f.py":66:53)
#loc61 = loc("/data/jcy/zzs/zijinhua/.vllm_cache_reflection/torch_compile/yf/cyfs56zb2suw3tsmosn5l676nggdzxkxtp5fzg2rehjtqrhlho3f.py":46:4)
#loc63 = loc("/data/conda/envs/or_llm/lib/python3.12/site-packages/triton/language/standard.py":293:36)
#loc65 = loc("/data/conda/envs/or_llm/lib/python3.12/site-packages/triton/language/standard.py":293:11)
#loc66 = loc("/data/conda/envs/or_llm/lib/python3.12/site-packages/triton/language/standard.py":293:4)
#loc68 = loc("/data/conda/envs/or_llm/lib/python3.12/site-packages/triton/language/standard.py":263:15)
#loc69 = loc("/data/conda/envs/or_llm/lib/python3.12/site-packages/triton/language/standard.py":263:11)
#loc70 = loc("/data/conda/envs/or_llm/lib/python3.12/site-packages/triton/language/standard.py":263:4)
#loc78 = loc("xnumel"(#loc1))
#loc79 = loc("r0_numel"(#loc2))
#loc80 = loc("xoffset"(#loc3))
#loc81 = loc("xoffset"(#loc4))
#loc82 = loc("xindex"(#loc5))
#loc83 = loc("xindex"(#loc6))
#loc84 = loc("xindex"(#loc7))
#loc85 = loc("xmask"(#loc8))
#loc86 = loc("xmask"(#loc9))
#loc87 = loc("r0_base"(#loc10))
#loc88 = loc("r0_base"(#loc11))
#loc89 = loc("_tmp6"(#loc12))
#loc90 = loc("_tmp6"(#loc13))
#loc91 = loc("r0_index"(#loc14))
#loc92 = loc("r0_mask"(#loc15))
#loc93 = loc("tmp0"(#loc16))
#loc94 = loc("tmp0"(#loc17))
#loc95 = loc("tmp0"(#loc18))
#loc96 = loc("tmp0"(#loc19))
#loc97 = loc("tmp0"(#loc20))
#loc98 = loc("tmp1"(#loc21))
#loc99 = loc("tmp1"(#loc22))
#loc100 = loc("tmp1"(#loc23))
#loc101 = loc("tmp1"(#loc24))
#loc102 = loc("tmp1"(#loc25))
#loc103 = loc("tmp2"(#loc26))
#loc104 = loc("tmp4"(#loc27))
#loc105 = loc("tmp7"(#loc28))
#loc106 = loc("_tmp6"(#loc29))
#loc107 = loc("tmp6"(#loc35))
#loc108 = loc("tmp6"(#loc36))
#loc109 = loc("r0_index"(#loc38))
#loc110 = loc("r0_mask"(#loc39))
#loc111 = loc("tmp8"(#loc40))
#loc112 = loc("tmp8"(#loc41))
#loc113 = loc("tmp8"(#loc42))
#loc114 = loc("tmp8"(#loc43))
#loc115 = loc("tmp8"(#loc44))
#loc116 = loc("tmp16"(#loc45))
#loc117 = loc("tmp16"(#loc46))
#loc118 = loc("tmp16"(#loc47))
#loc119 = loc("tmp10"(#loc48))
#loc120 = loc("tmp11"(#loc49))
#loc121 = loc("tmp12"(#loc50))
#loc122 = loc("tmp13"(#loc51))
#loc123 = loc("tmp14"(#loc52))
#loc124 = loc("tmp15"(#loc53))
#loc125 = loc("tmp18"(#loc54))
#loc126 = loc("tmp19"(#loc55))
#loc127 = loc("tmp20"(#loc56))
